networks/onnx/ACASXU_run2a_2_3_batch_2000.onnx (onnx, 55914 bytes, 15 tensors)

input_AvgImg f4 [1, 1, 5]
00000000: 0000 0000 0000 0000 0000 0000 0000 0000
00000010: 0000 0000
0.0 0.0 0.0 0.0 0.0

Operation_1_MatMul_W f4 [5, 50]
00000000: 0660 a8bc 16f9 353f fbd4 e7bc ac23 b23d
00000010: 5f6a 9abd b6ca 7d3d 06ef 703d eab2 b9bb
00000020: ed83 ecbe df9b 503d 11a6 c9bb 5e4a 3dbe
00000030: a01a cbbf 68e6 493d 6c79 653d 1a3b 7abb
00000040: 7f61 debc 8f5c 4d3d 994a 7dba c631 523e
00000050: 8a80 b7ba d639 9abf eaf0 0b3d 658d 00c0
00000060: 55fe 90bc b24c 0f3e 6eda ec3d dcd2 d1bb
00000070: 0264 a8bc b648 46bf fa62 0c3b a306 97bf
00000080: 03d4 afbc 048f efbc 9a0c a23c 9fab 01bf
00000090: adae 593d 9b16 81bd 95d2 3bbf e657 bbbf
000000a0: b1f9 18be 5803 9cbe f12e dbbf 6b93 d43c
000000b0: 71c6 b0bc dc46 fbbf 5090 b3bc 4670 4dbd
000000c0: 31ec 983e 828b b1bf f67c 7d3e cffe 363d
000000d0: f5ec a03b 24e6 c43a 8159 313e f9a0 c3bf
000000e0: c328 08be 759a cbbd eb52 c8bd 25e9 9e3f
000000f0: d3ee 9d3b 508d 9f3f 7528 1e3d 71ae 393f
00000100: a3ac dfbd af7b 7bbe 9565 8c3f 0205 283c
00000110: d432 6dbd 863d cd3d 1096 f1bd eaaa a33b
00000120: cd01 42bf 5551 3cbe 99bb d2bf dc11 eebf
00000130: 8e6f d43c c789 0a3d 2a2f c33c a5af 51bd
00000140: c7a3 2fbc 7bd2 533c 693f 0c3b 1422 c8bf
00000150: d236 4e3e cafd 1ebf 0459 3fbe 022a 9cbd
00000160: 2d12 293d 1014 89bd 9014 853f a061 1bbd
00000170: 303f 813c faed 97bf 98de ae3e 05bf 1d3e
00000180: a75c 1fbb 187d 8d3e 5986 0840 1525 f8bb
00000190: 5af0 62be 556d 573e dc2e d83f 0536 823c
000001a0: af99 c4be fd7b db3b 6407 253e a741 11bd
000001b0: 6500 e83d bc57 9dbf bf2b 963f 111e d53f
000001c0: c45d 3dbd 4a9b 0a3e f6e1 0bbc e012 c03e
000001d0: ff25 313f 56e1 c7bb 41f4 e43d c5e4 edbd
000001e0: 2014 ca3d 1846 133b aed3 94bf fd52 dabc
000001f0: 5d8a ef3f f44e cd3e 4fe6 7fbe 8d63 a43c
00000200: 77cf e8bb bd14 c3bd 7d8c 9ebc 1f08 983b
00000210: 0ecc 9bbc a9de a63f 8c0f 1b3f 4161 203f
00000220: 2a37 01be 4431 a93e 7497 e4be adfc 3e3f
00000230: faf2 aabf 3a02 28be 43b6 a23c 6f73 f4bc
00000240: afb5 e73e 3698 613c b292 033c cf83 c3be
00000250: 1748 20bf 4e09 08be 7e1d bcbf b592 813d
00000260: c284 863d d6a9 22bf 4968 a3be b0f5 363d
00000270: 6940 83bd adc0 8cbf 7428 dbbe fb69 8dbd
00000280: e6ef 793d 9813 2c3f f04f 79be 3b34 58bf
00000290: 34d5 0fbf 8e22 5bbe ceeb a13b cd58 a0bf
000002a0: d4d4 223f 5a0e 08bf 40f6 b6bf 9c67 a1bd
000002b0: 6728 0e3e c218 d13d 4609 3abd 1f84 20be
000002c0: c18d a43e 6c22 3fbf d3c5 223c e8f4 dcbd
000002d0: f3ab 85bf babc d9be b0f2 3abd 355a f33c
000002e0: e4a1 efbe 10e8 8c3e a2b7 a0be f8af 97bd
000002f0: d512 1fbc 460b 103e 09df 8b3e f08a 98bf
00000300: b000 163e 658a 293e 01c1 6cbe f878 a73d
00000310: 0f8a 9c3b 4180 00bf e3e1 3d3e 1284 ebbd
00000320: 6799 05bf 8598 0bbe 1efb 39bd c078 b6bf
00000330: d08b c93c 5270 b7bd 3a1e a3bf 1c27 1d3f
00000340: 63b8 5a3e 41ef fd3e 4a55 44bd aed4 9bbe
00000350: feba 333e a413 2ebd 1f11 bbbf 5b99 d0bf
00000360: 1b87 15bd 0c02 37bf 5f99 77bf 691d 95bf
00000370: 7db0 18bf f9f5 07bf 3cf4 ddbd 8ac9 1b3e
00000380: 158f ab3e c26d 3dbf 3620 76bf 056e 81bf
00000390: 585a 00bb b626 92bd aed3 98bf e90c 94be
000003a0: 3411 8e3f 2ee2 a3be 8ecd fe3e 48df dcbe
000003b0: 0d39 d6bd daac cabf 72c1 a93e d7b4 1c3d
000003c0: 8620 ffbe 1808 a23d 211e 89be fd69 23be
000003d0: 3e6f 343d 0f42 00be 8027 d23b 05a3 babf
000003e0: 0281 7ebe 50f0 b3bd
-0.0205536 0.710832 -0.0282998 0.0869821 -0.0753982 0.0619609 0.0588217 -0.00566708
-0.461944 0.0509299 -0.00615383 -0.184854 -1.58675 0.049292 0.056024 -0.00381822
-0.0271461 0.0501371 -0.00096623 0.205268 -0.00140001 -1.20489 0.0341653 -2.00863
-0.0176994 0.139941 0.115651 -0.00640331 -0.0205555 -0.774547 0.00214213 -1.17989
-0.0214634 -0.029243 0.0197814 -0.506525 0.0531451 -0.0630314 -0.733682 -1.46362
-0.14939 -0.304713 -1.71237 0.0259492 -0.021579 -1.9631 -0.0219194 -0.0501559
0.298677 -1.38707 0.247547 0.0446766 0.00491106 0.00150222 0.173193 -1.52835
-0.132968 -0.0994157 -0.0978144 1.24149 0.00481973 1.2465 0.0386128 0.725318
-0.109216 -0.245589 1.09685 0.0102551 -0.0579098 0.100215 -0.117962 0.00499474
-0.75784 -0.183904 -1.64635 -1.85992 0.0259321 0.0338228 0.0238262 -0.0511929
-0.0107202 0.0129286 0.00214001 -1.56354 0.201381 -0.62106 -0.186863 -0.076252
0.0412771 -0.0669328 1.03969 -0.0379349 0.0157772 -1.18695 0.341542 0.154049
-0.00243167 0.276345 2.1332 -0.00757278 -0.22162 0.210378 1.68893 0.0158949
-0.383985 0.00669813 0.161161 -0.035463 0.113282 -1.22924 1.17321 1.66498
-0.046232 0.135358 -0.00853776 0.375144 0.691986 -0.00609986 0.111794 -0.116159
0.0986712 0.00224722 -1.16271 -0.0266509 1.87141 0.400993 -0.249902 0.020067
-0.00710481 -0.0952544 -0.0193541 0.00463964 -0.0190182 1.30367 0.605706 0.626484
-0.126187 0.330454 -0.446468 0.746043 -1.33554 -0.164071 0.0198623 -0.0298402
0.452558 0.0137692 0.00803058 -0.381865 -0.6261 -0.132848 -1.46965 0.0632681
0.0656829 -0.635404 -0.319155 0.0446679 -0.0640877 -1.09963 -0.428043 -0.0690498
0.0610198 0.672174 -0.243469 -0.844547 -0.561847 -0.213999 0.00494144 -1.25271
0.63606 -0.531469 -1.42939 -0.0788109 0.138826 0.102098 -0.045419 -0.156754
0.321394 -0.746619 0.00993486 -0.107889 -1.04431 -0.425268 -0.0456416 0.0297061
-0.468032 0.275208 -0.313901 -0.0740661 -0.00970908 0.140668 0.273186 -1.19174
0.146487 0.165567 -0.231205 0.0817737 0.0047772 -0.501957 0.185432 -0.114998
-0.521872 -0.136324 -0.0454055 -1.42556 0.0246028 -0.0895697 -1.27436 0.613878
0.213594 0.495966 -0.0479329 -0.304357 0.175518 -0.0424992 -1.46146 -1.62968
-0.0365058 -0.714875 -0.967184 -1.16496 -0.596443 -0.531097 -0.108376 0.152136
0.335076 -0.739956 -0.961429 -1.01117 -0.00195851 -0.0713629 -1.19396 -0.289161
1.1099 -0.320085 0.497662 -0.431391 -0.104601 -1.5834 0.331554 0.0382584
-0.498295 0.079117 -0.267808 -0.159584 0.0440514 -0.125252 0.0064134 -1.4581
-0.248539 -0.0878607

Operation_1_Add_B f4 [50]
00000000: 58ae d7be 94fb 7d3e 031f 883d bcaf 3ebf
00000010: 20a2 27bd 524a 633c 4c53 84be 906e afbd
00000020: 1a4e d9bd 1f83 8dbe f356 4d3e ca1a 05be
00000030: 4486 ddbe f392 b7be 8d46 2abf 9cf8 2abe
00000040: 629e 95be e8a2 39bf da73 293e 3c16 1fbf
00000050: 5ef4 1dbf 4e28 10bf 78d4 383d b873 b9be
00000060: 7a56 02be c904 94be 340f 103e 8e03 efbd
00000070: f563 f8bc c3a3 053b 58c6 7abf 5324 0fbf
00000080: ab3d 3c3e 604a 133d 2ac1 073d e2c2 66bd
00000090: fad0 e53d 492d 1cbf d1e6 08be 5588 c7be
000000a0: fe7c 6b3e e599 03bf 0344 f9be a8d9 8d3d
000000b0: 97de 433d bf44 bcbe b5db 93bc 7c48 10bf
000000c0: 206c e73c cdaf 56be
-0.421252 0.24803 0.0664654 -0.744869 -0.0409261 0.0138727 -0.258448 -0.0856601
-0.106106 -0.276391 0.200527 -0.129985 -0.432665 -0.358543 -0.665139 -0.166964
-0.292224 -0.725142 0.165481 -0.621433 -0.61701 -0.563115 0.0451245 -0.362211
-0.127283 -0.289099 0.140683 -0.116706 -0.0303211 0.00203918 -0.979589 -0.559148
0.183829 0.0359596 0.0331432 -0.0563382 0.112215 -0.610066 -0.133693 -0.389712
0.229969 -0.514067 -0.486847 0.0692628 0.0478197 -0.367712 -0.0180491 -0.563606
0.0282498 -0.209655

Operation_2_MatMul_W f4 [50, 50]
00000000: 9961 43be 2386 613f 302e 653e 4295 92bf
00000010: 041c 163f 5d33 e9be f19c 0d3e aef1 013f
00000020: f86d 883e 9206 2b3f 2cf5 2cbf d54c 4d3d
00000030: 45a1 55be 3947 11bf 79ad 543e 8516 06bc
00000040: fa0e 3ebe 89ef 50c0 8bfb 87be c34a 453e
00000050: 999d 25be 79b1 40be 09d6 92bd 4e16 0c3b
00000060: 3fa9 f63c b280 093e fd37 ca3d 5af6 e4bd
00000070: 3830 b9be e9b7 03bf da7f 533d 9467 063f
00000080: c6dc 35bd 3c4d 56bf e3c7 7c3f e413 623e
00000090: 719a b43c 4695 2dbf cc0c 9bbe 99f3 b43e
000000a0: 93e3 d6be 86ac 1a3f 718f 213f 95bb f73e
000000b0: 3c83 263e e564 62bc 749a 6d3f 3752 22bf
000000c0: 48e2 65be 94de 27be 4f86 f8bb 3142 d0bf
000000d0: 8bc3 dd3f ed91 a73d 6e2c 4dbc 32c5 623b
000000e0: d522 92bd 8ff1 52bd 780d fabd 1d3d 26bf
000000f0: db7a bcbc 0b42 793d 6d51 8b3d 889f cfbe
00000100: 34fd 2d3d 0599 0ebd 1bcf f1bc 0974 913d
00000110: 3f19 13be f793 f13d d2c3 503e cfa3 d2be
00000120: 46a8 03bd 1e43 91bc 9500 26bd 4d2c 80be
00000130: 7348 9abe aab9 c4be ee97 1fbe 85b0 3a3f
00000140: fbac 8a3e 43d5 5ebd 6d03 efbe 473e e7be
00000150: 3333 f3bd 8acd f3bf 1ab7 623d 3ee8 913f
00000160: 088f 1ebf 9912 893d 4145 9d3e 853e 80be
00000170: 4835 0cbe 4567 31bf 9a2f a53d 3eae 35c0
00000180: 1831 c3bb f10f d3be dba5 6dbe 4bbb 67bd
00000190: b478 bcbd 1cef 26bf 73d7 aabe 9885 66be
000001a0: b01b ae3e 4963 18bf fb91 96bf 3160 0d3f
000001b0: 86ef b33c 7a35 d03e 5d6e 64bf 0c3c 23bf
000001c0: 4074 f73c 8aab e6bf b136 febe 3c72 1f3d
000001d0: 39f0 2a3f 3062 6f3e 7a8d 19bf 4c83 873c
000001e0: ef03 243f c288 65bf 5ce8 7e3f f570 18bd
000001f0: 5c05 313c b6bb 1f3f 37e0 9fbf e13f 82bc
00000200: 2a03 b73e 2afd 103f e8be ac3e 8e23 82bf
00000210: c2f6 a3be 4da0 68be 7e90 e53d 68cd efbd
00000220: 5aa7 60bd 713d 6abe b761 743e 9335 4a3d
00000230: 2f18 8cbd 6bf2 343e d787 453e f88a c63e
00000240: 522a e13d 7a6f ec3d 5839 ac3e 48c4 76c0
00000250: c8cd 64bf 1a35 97be 4aef 8b3f 4c38 b4be
00000260: 7a36 cb3d 2bfb 963f ec86 e13f 459f 033f
00000270: 29ce a1be ce8d b5bf 8104 89bf 5fd3 63bf
00000280: 4513 483e 31d2 8b3c 2b33 653f df6d 9ebe
00000290: 1b4a 75bf 1c8f a3bc 4f5d a53f 0f9c d3c0
000002a0: 4390 ebbe 7958 c43f 13f2 d93f 5e2c 34bf
000002b0: f966 d33f 3e59 113d 794e 243d f0dd 3abf
000002c0: b3f9 acbb eecc fc3e bdce 5c3d 20f1 8bbd
000002d0: 2b31 9fbe aa7e 15bf 89d2 2e3f 091b f2bf
000002e0: 759d 7c3c ce88 cebf 7fde 2240 213c 0e3f
000002f0: 857d 4fbf 5fb5 8e3f c7f3 91be a67c f8be
00000300: c79d ea3f a6d0 f5bf 8c4a 0ac0 c68a be3f
00000310: 7c47 2dbe 1328 623f 9352 983f e2cc 833f
00000320: ec6a a23e beda c13e 795c 043e de8e 68bf
00000330: 53e7 f9be 1fa0 d3be de56 1a3e acd4 623d
00000340: 8d25 0cbe b459 a9bf d21b 0ebf 343b a13d
00000350: 213c 2a3f b7ed 673f a65f e23d 00ee e8bc
00000360: 2ad8 ce3b 139a a43d 0725 943f c571 a83e
00000370: 274a 423d 6c7c 763e e6ae e53e 6a8a 1bbd
00000380: cdd7 9b3c ac1c b23e c078 8e3f 21cc f53e
00000390: e4dc b63e 1edd 083f 54c7 aabe b402 87bf
000003a0: 28ba eebd 098b 323f 4964 bfbe 1fba 8cbf
000003b0: cae0 10bf d159 12bf 4699 adbe 3255 f0bd
000003c0: 438f 403f 7fbf 043f e140 a8bf d53e a53f
000003d0: a27a c73f 234c a13e 1151 7cbf ac38 753d
000003e0: 3ed6 673c 9b92 ac3e 81ec 17c0 47a5 9dbd
000003f0: c559 013f 1cf1 8fbd d104 12bf a264 cd3b
-0.190802 0.880953 0.223809 -1.14518 0.586365 -0.45547 0.138294 0.507594
0.266464 0.668069 -0.675616 0.0501221 -0.208623 -0.567493 0.207693 -0.00818408
-0.185604 -3.26462 -0.265591 0.192668 -0.161734 -0.188177 -0.0716973 0.00213756
0.03011 0.13428 0.0987396 -0.111798 -0.361696 -0.514525 0.0516356 0.525018
-0.0444 -0.837116 0.987425 0.220779 0.0220463 -0.678059 -0.302832 0.353421
-0.419705 0.604195 0.631095 0.483853 0.16261 -0.013818 0.928138 -0.634067
-0.224496 -0.163935 -0.00758437 -1.62702 1.73253 0.0818213 -0.0125228 0.00346024
-0.0713555 -0.0514999 -0.122096 -0.64937 -0.0230078 0.060854 0.0680264 -0.405514
0.0424778 -0.0348139 -0.0295177 0.0710221 -0.143651 0.117958 0.203872 -0.411406
-0.0321429 -0.0177322 -0.0405279 -0.250338 -0.301334 -0.384229 -0.155853 0.729256
0.270851 -0.0544026 -0.466823 -0.451647 -0.11875 -1.90471 0.0553504 1.1399
-0.61937 0.06693 0.307169 -0.250477 -0.136922 -0.692982 0.0806572 -2.83876
-0.00595678 -0.412231 -0.232078 -0.0565751 -0.0920271 -0.652086 -0.333675 -0.225119
0.340055 -0.595265 -1.17633 0.552249 0.0219648 0.406658 -0.892309 -0.637635
0.0302068 -1.80211 -0.496511 0.0389273 0.667728 0.233773 -0.599815 0.0165421
0.640685 -0.896618 0.995733 -0.0372171 0.0108045 0.623958 -1.24903 -0.0158996
0.357446 0.566363 0.337394 -1.01671 -0.320242 -0.227174 0.112092 -0.117091
-0.0548471 -0.22875 0.238654 0.0493675 -0.0684055 0.176706 0.192901 0.387779
0.109944 0.115447 0.336375 -3.85573 -0.893765 -0.295327 1.09324 -0.351992
0.099225 1.17954 1.76193 0.514149 -0.316026 -1.41839 -1.07045 -0.889944
0.195386 0.017068 0.895312 -0.309432 -0.958162 -0.0199657 1.29191 -6.6128
-0.460085 1.53395 1.7027 -0.703802 1.65158 0.0354855 0.0401139 -0.729949
-0.00527879 0.493751 0.0539081 -0.068331 -0.310922 -0.583964 0.6829 -1.89145
0.0154184 -1.61355 2.54483 0.555605 -0.810509 1.11491 -0.285063 -0.485326
1.83294 -1.92043 -2.1608 1.48861 -0.169218 0.883424 1.19002 1.02969
0.317222 0.378622 0.129259 -0.90843 -0.488093 -0.413331 0.150722 0.0553786
-0.136862 -1.32305 -0.555112 0.0787262 0.66498 0.905971 0.110534 -0.0284338
0.00631239 0.080372 1.15738 0.328993 0.047434 0.240709 0.4486 -0.0379738
0.0190238 0.347875 1.11306 0.480073 0.357154 0.534624 -0.333552 -1.05477
-0.116566 0.697434 -0.373812 -1.09943 -0.56593 -0.571683 -0.33906 -0.11735
0.752186 0.518547 -1.31448 1.29098 1.55843 0.315034 -0.985612 0.0598685
0.0141502 0.337056 -2.37381 -0.0769754 0.505276 -0.0702841 -0.570386 0.0062681

Operation_2_Add_B f4 [50]
00000000: 0abd 56bf 5b5c e3be 54a7 3f3f c763 86be
00000010: 0116 413f 16a7 363f 740d fb3e efca 4a3f
00000020: 5185 633f e02e eb3e 2252 33be 6230 733f
00000030: c1c6 6dbf cb85 f2be 74ec e03e 4b98 23bc
00000040: 5aba b2be 0950 073f e203 d33e ba2e 303f
00000050: c559 753f 6683 acbe 5280 c8be 9755 16bc
00000060: 4a22 a0bc 747e b2be 5c1d e8be 3b01 45bf
00000070: 9aec 17bf 6458 a5be a2b8 6bbf e9d6 933e
00000080: cbba 73bf 1fbc d6bd f20c 96bf f050 8cbf
00000090: 76e0 b4bf 46b6 533e 4982 98be a1f3 8ebf
000000a0: a208 65bf bcea 213e 4b3a 1ebf 302c cfbe
000000b0: 4b02 9cbf 7dca 19bf fb96 89bf ddce 2abf
000000c0: 1440 09bf c9ca e7be
-0.838822 -0.444064 0.748647 -0.26248 0.754242 0.713487 0.490337 0.792159
0.888753 0.459342 -0.175118 0.949957 -0.928814 -0.473677 0.439304 -0.00998504
-0.349078 0.528565 0.412139 0.688213 0.958401 -0.33694 -0.391604 -0.00917568
-0.0195476 -0.348621 -0.453349 -0.76955 -0.593454 -0.32294 -0.920786 0.288749
-0.952069 -0.104851 -1.17227 -1.09622 -1.4131 0.20675 -0.297869 -1.11681
-0.894663 0.158122 -0.618077 -0.404634 -1.21882 -0.600746 -1.07492 -0.667219
-0.536134 -0.452719

Operation_3_MatMul_W f4 [50, 50]
00000000: 1b2a 963e 4aef 9f3f bb45 043f 40fb 05bf
00000010: 7d79 94c0 59bf 393f 4e09 1cbf 4e8c 863d
00000020: 79ba 293d cbc6 393c 97c5 bcbe c2a5 a33e
00000030: 6119 fbbd 0805 803c 21ea a63f bf9a 83c0
00000040: 28b8 6c3f 2fe1 5c3f 39c6 c23a 0586 e43f
00000050: 9aa6 99bc 0c01 74bf 3411 88c0 b91a 15bf
00000060: 6b2d 0c3e b210 15bf 0135 493f e140 d4bf
00000070: 7d03 ab3e 12a3 b7be 12f5 723f 321f 04bf
00000080: a111 6cbe 1c08 2340 605a 64be 9db7 563c
00000090: 61c3 cb3f 55f6 fd3f 2aac 58bf b840 8e3f
000000a0: 3411 82bf 7e5b 8b3c 273e 4d3d dae1 cf3d
000000b0: 6d58 f3bd 4464 bdbc 584c 13bc c2d9 d53e
000000c0: a8a6 b4be 0a14 113d d6e6 5fbe a852 8b3f
000000d0: 4819 413e 62a1 96bf 4147 1b3e fe9c e2bd
000000e0: 7a1c 36be 069e db3e 738b 713b 17d5 1a3f
000000f0: d1b2 863e 4581 c63f 0dff c93e c90c 8a3c
00000100: c157 203f d594 44be e5ed d8bf a585 2bbf
00000110: d8f8 69bb 8693 74bd 9a7b 08bd 0dfd dbbf
00000120: b402 0540 7e37 553f 9ac0 933d 91d4 e2bd
00000130: da20 8bbe 5dc5 46bf 8c2e cf3e 658e 55be
00000140: 6d1f 323f 4911 0d3f 3b43 06bc 5260 013e
00000150: 3928 913f c50f 5fbc 1de7 c6be 8f1c 693f
00000160: 8362 553d ab6d d43c 7ac2 81c0 69bd e93c
00000170: 1add 193f 6b9f aabf 3c32 36bf a892 9cbc
00000180: 7a71 22bc b9a8 363e dbd4 ba3d 5ddd 413f
00000190: 4297 0cbf 022a bc3e f697 1d3e 4625 753e
000001a0: 8334 233e ead1 0e3c 2c47 08bd aed4 b33c
000001b0: 3bda 9dbc 071e 253b 3c4b 103e 8dd1 6a3e
000001c0: 6bd3 a0be 7f1b bdbc 0a75 623d 0338 47bd
000001d0: b868 d2bc 959f b0bf 46b1 7cbd 72fe 48ba
000001e0: bd46 1cbd 8d7f ebbf 81e1 06bd 14d0 20bf
000001f0: 44c1 84be f5da 5c3e 508d cfbe e0ad 62bc
00000200: a565 ecbe 5777 84be f914 04bf 1efb 6d3f
00000210: f163 8cbd 7710 ab3e 7f30 ccbf cfd2 db3b
00000220: ebe1 2bbe 4cdd 75bd a4fd 37bf 2d22 c23e
00000230: 179b 86be 2101 28bd e6ca f8be fe26 f4be
00000240: 0bb8 f7be 6dda 563c 3dfa 85bd 26fc 22be
00000250: dd09 96be 8659 183e dc63 693e f3ab 81be
00000260: f90a 8c3d d592 963e 81e9 44be ba15 62bd
00000270: 6b45 2bbe d312 3b3e f76d 0dbd 0327 8bbe
00000280: f6d3 a7be 29ae 9abf fe15 cbbb db46 6dbd
00000290: bb63 89be 0322 d4be b4c8 cebf 4a09 e1bd
000002a0: c668 82bd 4fe6 6b3f 7ac7 843c 379b 98bc
000002b0: c495 a3be 3200 d4bd 6290 aabc 6ca4 cbbd
000002c0: e0bd 233e 234d 3cbe ea33 b13c 66f4 e33d
000002d0: 293d 43be 9d0e d4be 6f89 373d 9acd 373f
000002e0: 5b5f 94be 1e47 3d3b fe10 86bd 30d5 b43e
000002f0: efad 863b 3144 5e3e a75b 12bf c9e4 54bc
00000300: 7cf3 cb3e 1a8a 1bbf 0f0e 36bf 05a5 683c
00000310: 41c9 cfbb 3ae2 f73b 51a4 e33e dee2 063d
00000320: 280f ebbd 5378 203e 0e30 b3bc b0a8 edbc
00000330: 9e40 b83e 2dec 853f 4303 113e 6bd2 25bf
00000340: c32e 65bc c7f1 43be 9dc4 16bd 79fc a83c
00000350: 1e16 363f 7698 65bd 7d5c 1b3e 923f 8cbf
00000360: f513 0ebe 9607 993d 68e9 ca3c 7aa8 35bf
00000370: 0e76 14bd e754 32bc 4948 cc3e 8324 01b9
00000380: d445 1abe 094e 953e 31b3 57bf ff41 103f
00000390: 7625 b83c ad35 743d dd97 3b3f 7bc1 e73e
000003a0: b459 65be a9e9 b43d f50e a7be 5d05 67bd
000003b0: 3c67 3b3e 9352 98bf d6fe 6ebe ac1c e2be
000003c0: b2ba 353e 5c29 dbba 6adb 38bf 39b4 943f
000003d0: 3d9b 653e 2eae ccbc 290f 013d d6ff b93e
000003e0: 9df7 2bbf f818 ecbe 23f3 e83d cc7b bc3e
000003f0: 4339 c13e 3ca3 953e 8f70 c2be 6762 dabd
0.29329 1.24949 0.516689 -0.523365 -4.63983 0.725576 -0.609517 0.0656973
0.0414376 0.0113389 -0.368695 0.319624 -0.122607 0.0156274 1.30402 -4.11264
0.924685 0.862811 0.00148601 1.78534 -0.0187562 -0.953141 -4.2521 -0.582439
0.136892 -0.582286 0.785965 -1.65823 0.334011 -0.358666 0.949052 -0.516101
-0.230536 2.54737 -0.223001 0.0131053 1.5919 1.98408 -0.846377 1.11135
-1.01615 0.0170114 0.0501081 0.101505 -0.118821 -0.0231191 -0.00899037 0.417677
-0.352834 0.0354195 -0.218654 1.08846 0.188573 -1.1768 0.151639 -0.110651
-0.177843 0.42894 0.00368568 0.604814 0.263083 1.55082 0.394524 0.0168518
0.626339 -0.191974 -1.69476 -0.670008 -0.00357013 -0.059711 -0.033321 -1.71866
2.07829 0.832878 0.0721447 -0.110757 -0.271735 -0.776449 0.404652 -0.208551
0.695792 0.551045 -0.00819474 0.126344 1.13404 -0.0136146 -0.388482 0.910592
0.0520959 0.0259312 -4.05499 0.0285327 0.60103 -1.33299 -0.711704 -0.0191129
-0.00991475 0.178378 0.0912263 0.757284 -0.549183 0.367508 0.1539 0.2394
0.15938 0.00871704 -0.033271 0.021952 -0.0192691 0.00251949 0.140912 0.229315
-0.314113 -0.0230844 0.0552874 -0.0486374 -0.0256847 -1.37987 -0.0616925 -0.000766731
-0.0381534 -1.83983 -0.0329299 -0.628175 -0.259287 0.215679 -0.405375 -0.0138354
-0.461713 -0.258723 -0.515945 0.929613 -0.06855 0.33411 -1.59523 0.00670848
-0.167854 -0.0600255 -0.718714 0.379167 -0.262902 -0.0410167 -0.485923 -0.47686
-0.483826 0.0131136 -0.0654187 -0.159165 -0.293044 0.148779 0.22792 -0.253265
0.0683803 0.294089 -0.192297 -0.0551965 -0.167257 0.182689 -0.0345287 -0.271782
-0.327789 -1.20844 -0.00619769 -0.0579289 -0.268339 -0.414322 -1.6155 -0.109881
-0.0636764 0.921483 0.0162084 -0.0186287 -0.319502 -0.103516 -0.0208208 -0.0994347
0.159904 -0.183888 0.0216312 0.111306 -0.190663 -0.414174 0.0448088 0.717981
-0.28979 0.00288815 -0.0654621 0.353189 0.00411009 0.217057 -0.571711 -0.012994
0.398342 -0.607576 -0.711152 0.0141995 -0.00634113 0.00756481 0.444613 0.0329312
-0.114775 0.156709 -0.0218735 -0.0290111 0.359868 1.04627 0.141614 -0.647742
-0.0139882 -0.191352 -0.0368086 0.0206282 0.711275 -0.0560536 0.15172 -1.09569
-0.138748 0.0747215 0.0247695 -0.709602 -0.0362454 -0.0108845 0.398989 -0.00012316
-0.150657 0.291611 -0.842578 0.563507 0.0224788 0.0596215 0.732786 0.452648
-0.223975 0.0883363 -0.326286 -0.0564016 0.183011 -1.19002 -0.233394 -0.441625
0.17747 -0.00167207 -0.722098 1.16175 0.224225 -0.0249854 0.0315086 0.36328
-0.671747 -0.461128 0.113745 0.368132 0.37739 0.292261 -0.379765 -0.106633

Operation_3_Add_B f4 [50]
00000000: 897e 693f 43ad 8dbf df19 0d3e 8480 2cbe
00000010: 834c b6bf e081 493f 4720 febd 20d2 af3f
00000020: 9fd7 0cbc 09e0 26bf 0ce5 143e adb2 853d
00000030: 8754 acbd c4ac 3cbc 3ba9 7fbf b0ad 5f3e
00000040: 8178 013f dd95 11bf a526 cbbc 6c24 09be
00000050: a94e 87bc af3f 71bf b519 87be 91f2 433f
00000060: 6f0c e1bd 8880 53bf 5ce5 c93e 7100 e5be
00000070: c9e8 983e e3e0 72be db6a 0a3f 8140 37bf
00000080: 2dce 283f 0dc4 92be c096 7fbf 5c30 c2bc
00000090: 9c8c 5abe 2bd9 a93e a890 5bbf ac39 b0bf
000000a0: 813f 74bf 5de6 cfbc a7b1 fd3c 39d4 3fbf
000000b0: 6486 873d 3771 12bd 57f3 b7bc 520c 04bf
000000c0: de75 22bf 3ab1 87be
0.912087 -1.10685 0.137794 -0.168459 -1.42421 0.787138 -0.124085 1.3736
-0.00859633 -0.651856 0.145405 0.0652822 -0.0841456 -0.0115158 -0.998676 0.218436
0.505745 -0.568693 -0.0247987 -0.133928 -0.016517 -0.942378 -0.263868 0.76542
-0.109887 -0.82618 0.394328 -0.447269 0.298651 -0.237186 0.540693 -0.715828
0.659396 -0.286652 -0.998394 -0.0237047 -0.213427 0.331735 -0.857676 -1.37676
-0.954094 -0.0253784 0.0309685 -0.749332 0.0661743 -0.0357525 -0.0224549 -0.515813
-0.634611 -0.265024

Operation_4_MatMul_W f4 [50, 50]
00000000: e63c 8b3e 051a 7c3e 7235 b23e 813f 14bf
00000010: 1711 a5be 3cbc b7be 5f24 983f 9c6f 8cbe
00000020: adf8 a63e 096f 3f3e dd7b 383e 6aaf b43d
00000030: 2fee a0bd 425d acbe eb8c 3fbe 3aeb 03be
00000040: 5839 8c3f 9817 94bf 999c 7abe 9dec 4bbd
00000050: 30d4 b1be 467d d23d b60f 293e 7186 2c3d
00000060: 4c38 74bc dac8 f53d 4984 e63d 017a 2b3c
00000070: 527c 1cbe 8412 2a3f b249 be3e ae9d c83d
00000080: e7e3 4a3f 72c0 7ebf 8638 72bf 7a6d e63e
00000090: 4aeb 9f3e 6f82 0ebc 58c6 3a3f 4853 7dbe
000000a0: 7825 39be 404d bdbf 5913 a33e 1d77 c2be
000000b0: e8db 42bd 304c a63e c4cc 6e3e 172a 1f3e
000000c0: 1767 ecbe 8029 c33e ad13 033f 2286 c2bc
000000d0: 5c01 8d3e 9609 c33f 6824 92bd fdf6 893f
000000e0: f8a8 df3d 8e8f f6bd 87dc b03f 95d3 ee3e
000000f0: 34a2 e0bf ecfa a9bf 8b1a 283f 302a 153f
00000100: 5474 bc3e e7ff 093f 48dc 873f faed a33f
00000110: 713a 49be dc44 323d 433b 3bbf c28a 13be
00000120: 28d2 e5be f533 503d 650f be3c 0cb2 75be
00000130: 5b9b a13c 7025 13bf c575 ac3e 3f02 6b3f
00000140: 7a50 953d ce8c debd dcf4 07bf 23bc f5be
00000150: adc3 293f 05fb 0f3e 6269 c8be 3c47 893c
00000160: 3db9 e63d 37fc 4a3f 8c14 12bf b1bf a43f
00000170: 4c6f cf3e 8a75 b2be 0473 34bf 08e4 62be
00000180: 8c11 193f 8ba6 43be c383 063e 6824 a2bd
00000190: 105d d83e d388 293e 56b8 8dbe 0740 dcbc
000001a0: 5001 1c3f 6363 3e3f ea06 da3e 29ce a9be
000001b0: 82c4 263e e622 46bf 76de 0ebf ad87 efbd
000001c0: 344d 33bd fc17 0cbf 7231 ce3e 586d 433d
000001d0: 506f 463f 35d3 5d3e a472 cb3e a937 1ebd
000001e0: 2f85 6b3f f13a d1bc cfc2 f93c a0a3 ba3c
000001f0: e6ce 2cbd 26e5 f63e 465d 333f 23f9 b2be
00000200: a4c3 133e 25b3 ba3e b268 1abe 93a6 313e
00000210: af08 b6be fdf5 1abf 6cea fc3d 567d 8ebe
00000220: 6a18 863e 66b6 90bd a707 2d3f 05a2 07be
00000230: c79c df3e 965d 70bf 1976 b0be d2c4 33bf
00000240: eca1 6d3e 41f5 cfbe bc03 743f aab8 993e
00000250: 0365 2ebd 59ca 48bd 8a7e 03bd 3dc0 aebd
00000260: 2d79 dc3e 4d15 e0bf 42b2 14bf 65e4 083f
00000270: 4180 ecbd 027f 10bf 7b6b 80bf 1d1c 0c3e
00000280: b24b dc3e 47b0 b1be e547 c4be 80bb 1c3f
00000290: 442a 313d 69ad a83e e9e6 4c3d d8f5 0dc0
000002a0: 6dcc 46bd a54f ab3c 5ce3 0bbf e721 8ebd
000002b0: 81e9 843e 4069 783e 7943 163b 151e 383f
000002c0: 499e 3b3e 8ca2 27be fa0a 1abf ed2a 883f
000002d0: 2995 b03d 58e1 d63c e013 fb3e 3ef5 aebd
000002e0: eb49 2abb 4511 9abe ab7d d3bb 6a3f 88bd
000002f0: 9279 acbe 0325 253e ba11 62bf ba6a 863e
00000300: 7442 b03e 7b4c 74be a88d 0a3f 9d68 d73d
00000310: 0a58 81bd 5a2b 32bf 3fe2 bf3e c347 88bf
00000320: f5f7 52be 1486 c73d 90d9 293e 861b e4bf
00000330: 9417 793e 923f a43f 9b3d 703e 7ec8 33bf
00000340: ff09 24c0 8ecb 78be fe0b 043e 382c 2d3e
00000350: 3739 7cbe 4302 4ebf 9f58 173f 3df0 31be
00000360: 1ceb 823e 9ab6 b3bf 8412 aabf 8469 b33c
00000370: c4ee 3bbe 30f0 183f caa9 583d 1754 cabd
00000380: 5aa0 9d3c 08c8 97be 4566 2abf decb c5be
00000390: 2a3a 0ac0 c7a0 e33e bd8a 84be b5fd 2bbf
000003a0: 0952 193e b37c 6dbf 0f46 3c3e ad16 14bf
000003b0: 2387 78be 3c61 933c b96e 82be 74ef 913f
000003c0: 51bf a3be d39f cd3f 9d9e 33bf 48a7 5ebe
000003d0: 4cc1 ea3e 427c 00be f698 183e 4215 2dbd
000003e0: 2c49 6abf 78b7 f2bd 8a57 c93e 3d39 943c
000003f0: e135 1c3c cea5 38bf 77da 4a3e bcb1 1c3f
0.271949 0.246193 0.348064 -0.579094 -0.322396 -0.358858 1.18861 -0.274289
0.326116 0.186947 0.18016 0.0882252 -0.0785793 -0.336649 -0.187061 -0.128827
1.0955 -1.15697 -0.244738 -0.0497862 -0.347322 0.102778 0.165099 0.0421204
-0.014906 0.120012 0.112557 0.0104661 -0.152818 0.664345 0.371656 0.097957
0.79254 -0.995124 -0.946175 0.450054 0.312342 -0.00869809 0.729589 -0.247388
-0.180807 -1.47892 0.318507 -0.379815 -0.047573 0.3248 0.233203 0.155434
-0.461724 0.381176 0.512019 -0.0237456 0.275401 1.52373 -0.0713585 1.07785
0.109209 -0.120391 1.38173 0.466458 -1.75495 -1.32797 0.656655 0.582675
0.368075 0.539061 1.06141 1.2807 -0.196512 0.0435227 -0.731373 -0.144084
-0.448869 0.0508308 0.0232007 -0.239937 0.0197274 -0.57479 0.336836 0.918003
0.0729074 -0.108667 -0.53108 -0.479951 0.663142 0.140606 -0.391429 0.0167576
0.112658 0.792911 -0.570626 1.2871 0.405146 -0.348553 -0.70488 -0.221573
0.597924 -0.191065 0.131362 -0.079171 0.422585 0.165561 -0.276797 -0.026886
0.609395 0.743704 0.425834 -0.331651 0.162859 -0.77397 -0.558082 -0.116958
-0.0437748 -0.547241 0.402721 0.0477117 0.775136 0.216626 0.397359 -0.0386273
0.920001 -0.0255408 0.0304884 0.0227831 -0.0421895 0.482217 0.700642 -0.349557
0.144301 0.364648 -0.15079 0.173487 -0.355535 -0.605316 0.123494 -0.2783
0.261905 -0.0706604 0.675898 -0.132454 0.436743 -0.938928 -0.344651 -0.702222
0.232063 -0.406168 0.953182 0.300237 -0.0425768 -0.0490211 -0.0321031 -0.0853276
0.430612 -1.75065 -0.580845 0.534735 -0.115479 -0.564438 -1.00328 0.136826
0.430265 -0.347048 -0.383361 0.612236 0.0432532 0.329448 0.0500249 -2.21813
-0.0485348 0.020912 -0.546438 -0.0694006 0.259594 0.242589 0.00229284 0.719209
0.183221 -0.163706 -0.60173 1.06381 0.086222 0.0262305 0.490386 -0.0854287
-0.0025984 -0.300913 -0.00645419 -0.0665272 -0.336865 0.161274 -0.883083 0.262533
0.344257 -0.238573 0.541224 0.10518 -0.0631562 -0.695974 0.374773 -1.06469
-0.206024 0.0974237 0.165869 -1.78209 0.243254 1.28319 0.23461 -0.702278
-2.56311 -0.242964 0.128952 0.169114 -0.246312 -0.804722 0.591196 -0.173768
0.2557 -1.40401 -1.32869 0.0219009 -0.183528 0.597415 0.0528963 -0.0987932
0.0192415 -0.296448 -0.665623 -0.386321 -2.1598 0.444586 -0.258871 -0.67184
0.149727 -0.927684 0.183861 -0.578471 -0.242703 0.0179907 -0.254751 1.14012
-0.319819 1.60644 -0.701639 -0.217435 0.458506 -0.125474 0.149021 -0.0422566
-0.915179 -0.118514 0.393246 0.0180937 0.00953433 -0.72128 0.198099 0.612087

Operation_4_Add_B f4 [50]
00000000: 4eb9 aa3e 2fa3 a83e ae2e cf3e 45d9 6bbf
00000010: 0bf1 a8be f0f9 e9bf 1cab 79bd 78b4 27c0
00000020: 4547 a63f baa2 dc3e d179 91bf 55d7 c63c
00000030: 7c65 0e3e e8a4 09c0 da8d ee3e 179a 83bf
00000040: 0d1b c53e db6d c7bf d2bc 2dbd a670 8ebc
00000050: 3f52 303f 3f6f ea3e 5665 0bbf 9e95 d43d
00000060: a577 1ebc e696 26be 2c48 bbbe 8ab0 85bf
00000070: 7992 0640 938c 74c0 4c6c 81c0 8cd7 f4be
00000080: fc35 a5bf 8f36 223f 0647 a1bf 942e 7d3f
00000090: bed9 2cc0 e292 03bd fdbf 4a3e a6f1 2b3f
000000a0: 0fcc 76bd 105d ccbf b263 b3bf 666b 4bc0
000000b0: a3e9 a0bf 71af f43e 6c95 e8bf 66bd 8c3f
000000c0: 562b 8fbf f67a 9bbf
0.333445 0.32937 0.404653 -0.921284 -0.329964 -1.82794 -0.0609542 -2.62039
1.29905 0.430929 -1.13653 0.0242726 0.139059 -2.15069 0.465926 -1.02814
0.384972 -1.55804 -0.0424164 -0.0173877 0.688755 0.45788 -0.544515 0.103801
-0.00967208 -0.162685 -0.365785 -1.04445 2.10269 -3.82108 -4.04447 -0.478207
-1.29071 0.633645 -1.25998 0.988992 -2.70079 -0.0321225 0.197998 0.671656
-0.0602532 -1.59659 -1.40148 -3.17843 -1.25713 0.477901 -1.81706 1.09953
-1.11851 -1.21469

Operation_5_MatMul_W f4 [50, 50]
00000000: 9eb5 2b3e ea78 80bf 1d93 b53e 20f7 c83d
00000010: 80b7 58bf 41c5 a73c ec68 7c3e b0c6 493e
00000020: 245e 013c 0f15 8ebd 0b98 9cbf 29ae 86c0
00000030: 81ea 7f3e 4c26 ddbb ba15 bd3d ff5d 033f
00000040: 417d 5bbe ca15 7ebd c765 5cbe 14ce 5e3e
00000050: 4e36 143d a8ff e43e b17d 72bd 8dbe 9d3d
00000060: be40 babd 501a 82be 6765 ebbe 4d68 923e
00000070: 4836 b73e 625e 313d 064c 1a40 9a7a ddbd
00000080: b534 573e fd2f 77bd 5021 913b c24c 41c0
00000090: 6a12 6c3e abe1 8c3d c93a d4be 8b33 a63e
000000a0: b6d6 82c0 e34f c43e c1a7 f13e 1ba0 94be
000000b0: 1634 95be 6092 ea3d 5d6a 9c3e c2ae 9c3c
000000c0: bb5e babd f002 c0bc 5beb 8b3f e42c d83f
000000d0: 7099 abbf e275 80c0 8ab0 853f 7c29 04bf
000000e0: 2bae 3aba d333 1dbe 5da9 3bbf c6df b6be
000000f0: 950e 2cc0 2926 2fbf 6614 8bbf 6955 6bbe
00000100: c974 d0be 0439 f03f fca7 c3be 59fd 01be
00000110: 1215 aabe 868d aa3e 5cc8 a3bd 1d03 1640
00000120: 2dea 033f a9a1 a53e b77c e43e 6089 d13c
00000130: eb35 053f 4320 5fbf a7b3 3f3f e124 d5be
00000140: f701 d0bf 1618 9abe 5d18 c13e ed72 c03c
00000150: 9b00 573f b072 c83f 11fc 473f 5708 2fbf
00000160: 0188 0b3e 2ea9 6a3f 1973 e7bf c0b4 e8bc
00000170: 6e4d 563f b88f 9c3e 4a5f 783f 0b0c d93d
00000180: 931d afbf dd3f d6be d55b 833e f0bf 393f
00000190: 8fc5 863e 6076 8bbf a7b0 4ebf fe7d 80c0
000001a0: 95b9 a93e cc96 143f ad43 ff3c d419 4ebc
000001b0: a382 b9bc 834f a3bd 7dea 04bf e547 6cbe
000001c0: 3202 c23e 1c0c 90bc 4fc9 493e d8f1 33bf
000001d0: a3af c03e bf5a 5a3c 35ef 143f 87c1 fc3e
000001e0: 76f1 48bc 9c1a 38bf 40d9 743e 88be fbbd
000001f0: b2d7 fbbd 5f0c 813f c16e f8bd a263 633f
00000200: bcaf 02bf 8881 ce3d a8a7 53bf 1613 4b3e
00000210: 61c4 cebe 50a6 893e 7e8d 24bc 2c65 49c0
00000220: c590 9cbe ef90 923e 4f1e 76bd ad17 1f3f
00000230: 84bb eb3f c972 b23d ad6a a9be 9b3c 5d3f
00000240: 118a a53e 8eeb 1fbe 4fae 65bf c096 e73e
00000250: 99d9 1bbf f015 c5be e42f 95be 0c57 47bf
00000260: 3ab0 7cbe d235 83bf c6c3 fb3d 6dc5 debd
00000270: 338c c3be 6cb8 43bd 774c 6d3e f67b 22be
00000280: e57e 33c0 f359 06c0 1806 10bf 3d29 f3bd
00000290: 90bd 5ebc 4fca 043e e388 6bc0 c47c 1d3f
000002a0: f987 593f 2306 2b3d 23a4 7ebe 8f35 f3be
000002b0: f9f7 81be feef 90be 1635 a83e 86af 2fbf
000002c0: f9bb 47bf c24b 15bd 6248 5ebe b324 10be
000002d0: 083e 063e c685 93bf 5af3 73be 024a 133f
000002e0: 9484 a43e 5743 c0c0 cc46 67be 2444 2dbf
000002f0: c2d9 ad3e b519 b73e 452a 90bf 7db5 be3d
00000300: e1d1 d6bf a8aa 68bf 6728 22bf 35ee 113f
00000310: 6328 273e b130 74be 6475 3b3e 4ed2 9cbe
00000320: c68b 953e 821f 21bf 2a1f 123e 8c4a 2ec0
00000330: 13bb b63e 4537 f1bc 98a5 4dbe 3141 8d3d
00000340: c6a7 10be ef72 113e 2a36 7ebf bb80 ffbe
00000350: 1dc7 9fbe a9dd 6fbe d6ac 07bf b58d 233f
00000360: 4759 b7be 1424 02bf f374 6e3e bb97 6bbe
00000370: c119 fc3d 58a8 85bf 6c9a 82bd b267 4f3c
00000380: 0af0 42bd c004 cebe 3cda 383e ea24 03bf
00000390: a6ef 59bf 6231 a5bd 3c4a 553f 3f64 1b3c
000003a0: 2e5d 9c3c 21c8 3dbf e04c 9cbe 8c2d d83f
000003b0: 4eb4 0fbf f626 e63d e1ac 523d 8955 0d3d
000003c0: 41bb 073f 14cc 283e ed11 7abe 9328 e63a
000003d0: f04d 433e b3f3 a13d f635 5cbd 33c3 e6bd
000003e0: 23ef 413d b020 bd3e 9c15 c9be 80b7 f83f
000003f0: 2409 663f ceaa 5bc0 1f80 8cbf 4f90 80be
0.167685 -1.00369 0.354638 0.0981276 -0.84655 0.0204798 0.246494 0.197047
0.00789598 -0.0693761 -1.22339 -4.20876 0.249918 -0.00674895 0.0923266 0.513153
-0.214345 -0.0620325 -0.215232 0.217583 0.0361846 0.447263 -0.0592019 0.0770236
-0.0909438 -0.254107 -0.459758 0.285952 0.357836 0.0433029 2.41089 -0.108144
0.210162 -0.0603485 0.00442902 -3.02031 0.230539 0.0687898 -0.414511 0.324612
-4.08871 0.383422 0.471983 -0.290284 -0.291413 0.114537 0.305499 0.0191263
-0.091001 -0.0234389 1.09312 1.68887 -1.34062 -4.01439 1.04445 -0.516258
-0.000712129 -0.153518 -0.733053 -0.357176 -2.68839 -0.684176 -1.08656 -0.229818
-0.407141 1.87674 -0.382141 -0.126943 -0.332192 0.333111 -0.079972 2.34394
0.515292 0.323499 0.446264 0.0255782 0.520354 -0.871586 0.748835 -0.416297
-1.62506 -0.300965 0.377139 0.0234923 0.839853 1.566 0.78119 -0.683721
0.136261 0.916644 -1.8082 -0.0284065 0.837119 0.305784 0.970204 0.10598
-1.36809 -0.418456 0.25656 0.725585 0.263226 -1.08955 -0.807383 -4.01538
0.331494 0.580426 0.0311602 -0.0125794 -0.0226453 -0.0797415 -0.519203 -0.230743
0.378923 -0.0175839 0.197057 -0.702909 0.37634 0.0133273 0.581775 0.493664
-0.0122646 -0.719156 0.23911 -0.122922 -0.12297 1.00819 -0.121305 0.888239
-0.510494 0.100833 -0.826777 0.198315 -0.403842 0.268847 -0.0100435 -3.1468
-0.305792 0.286262 -0.0600875 0.621455 1.84166 0.087133 -0.330892 0.864206
0.323319 -0.156172 -0.897191 0.452322 -0.608789 -0.384933 -0.291381 -0.778672
-0.246766 -1.02508 0.122932 -0.108775 -0.381929 -0.0477833 0.231737 -0.158676
-2.80462 -2.09924 -0.562593 -0.118731 -0.013595 0.129678 -3.68023 0.615185
0.849731 0.0417539 -0.248673 -0.475018 -0.253845 -0.283081 0.32853 -0.686272
-0.780212 -0.0364492 -0.217073 -0.140765 0.131096 -1.15252 -0.238233 0.575348
0.321324 -6.00822 -0.225856 -0.676821 0.339552 0.357618 -1.12629 0.0931196
-1.67828 -0.908854 -0.633429 0.570041 0.16324 -0.238467 0.183065 -0.306292
0.292082 -0.629387 0.142697 -2.7233 0.356896 -0.0294453 -0.200827 0.068972
-0.141265 0.14204 -0.993014 -0.499029 -0.312066 -0.234244 -0.529981 0.638881
-0.358103 -0.508363 0.232868 -0.230071 0.123096 -1.0442 -0.0637711 0.012659
-0.0475922 -0.40238 0.18052 -0.512282 -0.851313 -0.0806606 0.833164 0.00948435
0.0190874 -0.741335 -0.305274 1.68889 -0.561345 0.112379 0.0514344 0.0345054
0.530201 0.164841 -0.244209 0.00175597 0.190727 0.0790781 -0.0537624 -0.112677
0.0473472 0.36939 -0.392743 1.9431 0.898577 -3.4323 -1.09766 -0.251101

Operation_5_Add_B f4 [50]
00000000: 3351 50bf bd35 dc3f 26c6 9a3e 6631 9d3f
00000010: de59 0fc0 f706 8fbf 139e 483f 9c4f 293f
00000020: 7cd3 083f 2a1d 84bf ab5b 0140 1a17 ae3f
00000030: ae7e b43e e7c3 1b3f e78c 943f 596c 13be
00000040: 5325 1a3f e1d5 9dbd 82ff 853e 75ab 073e
00000050: 69e5 be3e 207b fd3f c288 4dbf b42c 6ebd
00000060: 6a67 34bf 8d97 22bf 3999 18be 5c5a cd3e
00000070: fab3 a33f baf7 9c3f 4c8e 8bbf d3f6 3f3f
00000080: 0d1d 733f b091 cc3e 8f52 553f 6423 24bf
00000090: bceb 3cbf e126 673f c8ee 7e3f 3d63 7fbf
000000a0: a301 2ac0 df8b df3e 6842 433e da38 9abf
000000b0: 66da 6ebf 6939 58bf efa8 09bf 2c48 bb3f
000000c0: 5ab7 c13e bcb1 443f
-0.813739 1.72039 0.302293 1.22807 -2.23986 -1.1174 0.783662 0.661371
0.534477 -1.03214 2.02122 1.36008 0.352529 0.608458 1.16055 -0.143968
0.602132 -0.0770681 0.261715 0.13249 0.372844 1.98032 -0.802868 -0.0581481
-0.704703 -0.635125 -0.149022 0.40108 1.27893 1.22631 -1.09028 0.74986
0.949662 0.399549 0.833291 -0.641165 -0.737972 0.902937 0.995831 -0.997608
-2.65635 0.436614 0.190683 -1.20486 -0.93302 -0.844626 -0.537734 1.46314
0.378352 0.768337

Operation_6_MatMul_W f4 [50, 50]
00000000: e15d d3bc 3d7e ef3c 1ccc 2bbd ddbe 8dbd
00000010: b01e 1fbf 1956 b1bc 079b 2abe fa0e 3ebe
00000020: b47e e9bc a433 98be 5ac7 97bd 2fa4 83be
00000030: 679b dbbf 28ba 7abf 05d8 acbc f393 babe
00000040: 87f9 cabe f157 32bd ca7b 06bd 6ff4 61bf
00000050: 4ad0 dfbd 9a0b 8c3d aa2a d4be 5a83 d7bd
00000060: 1ea8 57bf b476 83bf 8ca2 073e 8462 93be
00000070: 49bb 11be 1729 d4bd 9b39 00bf 56ba 4fbf
00000080: 587c b93c 1578 e13b f178 04bd bfd3 e4bd
00000090: 897c 0fbf 1a93 343d 10ce 483b dff9 e5bd
000000a0: 86ae e4be 176b 0fbc f44c 14bd 6f7e abbe
000000b0: a8c1 c9bd bebc c0bd 9ea9 a1bc 3815 49be
000000c0: dd27 27bd b5e2 dbbd 7906 6dbe 1c68 84bd
000000d0: 286d 403d 8f43 73bd e355 be3e 6c3d 43be
000000e0: 86f0 15ba e56c a0bd ee6d a4bd 349c f2bd
000000f0: db68 95bd 823c dbbd 588c 2abe 9739 fdbd
00000100: fef2 29be 272e 07be a6dc 583c 4642 5bbc
00000110: b515 00bd b8cb 9e3e 06b8 20be 75f4 2e3c
00000120: bf05 febc 6abd 1fbc 8a8f 2bbf 9850 e93e
00000130: 1843 d63b 639c 3fbd 3b6e 50bf 9a89 93bd
00000140: 6af6 003e 3c22 a03d 1770 25bd 8fc0 a43d
00000150: 0ce8 26bb 0d00 a0bd 9b76 f1bd cfda 2dbd
00000160: 9aa4 c3bb 6341 863c bd71 c23e 31d3 51bc
00000170: 114c bdbb 6f65 e9bd f6fc 8fbd 9bd1 95bd
00000180: 5e11 fcbf 2605 71bd 1a20 87bc 8985 1e3a
00000190: c21e 6a3b f87f 9fbc 85b6 84be 7447 dabc
000001a0: 0f45 1bc0 4b59 92bf 74d2 dbbd 78f5 253d
000001b0: c872 9cbc f4fc 593e e8cc c73c d178 033c
000001c0: 52b9 59be 1dc9 853e 1d3f b3bb afad a43d
000001d0: 263a 2bbe 6fd9 fcbc dd22 d5bb 651d 9e3d
000001e0: 1975 ebbb 86b7 7f3b 3605 a23e 3071 dc3a
000001f0: d234 803e 6266 0bbf 9b3b 3abe cf69 06be
00000200: 2efe cebe 5072 b73d 2670 97bf f3e3 0f3e
00000210: 982f bfbe b684 acbe 661a e83c d7bf 5bbe
00000220: 72f9 2f3e 9238 0ebc 51fd 9c3b 5425 20bd
00000230: ec34 82bf 13b1 2d3c e6d4 29bc b6db 8ebe
00000240: 63b4 6ebe 87a5 91bd bebc 16c0 8249 5b3d
00000250: 75b8 bcbd 8e68 ccbd 7afb 23be 3fe9 dfbc
00000260: cb12 1d3e 32de 1bbd 7f67 fbbd 4fca 10bf
00000270: 3f00 a9bb a164 c7bd 3f1f 00bd 889c 863e
00000280: 0d87 8a3c 9444 60bd 4431 09be 3e79 3ec0
00000290: f99f dcbd 4f9a c1bd 1989 15bd a284 74bc
000002a0: fcb0 193d bf2a 07be 1aeb 51bd f183 133e
000002b0: 61fd 4f3e 1484 a13c e101 2fbd 0d37 84bf
000002c0: b0e7 3bbe e700 01be 2b84 bdbe 559a 5ebd
000002d0: 27c6 4d3d a774 b8be d626 84bc 7df5 07bd
000002e0: 843c 0cbc 7dd6 abbc 27f5 2abd bfdc 22bd
000002f0: 0e93 babc 3c83 863c f178 c4bd bc48 57bc
00000300: 31cf cabc 1f48 c6be 8943 56bd 0182 9cbb
00000310: 861b 00c0 f4c4 a3bd 566b 1cbd 350d 953d
00000320: 276a e93e 315c fdbd 0821 50bf 9738 c2be
00000330: 4b93 d3c0 5e9d 9bbf 7172 1f3d c807 1d3e
00000340: 63b8 1a3e 6297 b23c 2993 0a3e 6e19 203e
00000350: 861d 8e3e 6554 c13e fd2f 973e 1590 46bf
00000360: dbbf 123e 5455 083e 4897 6d3c d5e7 1a3e
00000370: 124b 9a3e 26c7 85c0 f6b4 e7bf 87bf cebe
00000380: fcfd 32be 6188 403f bca0 f0bb 3449 b43e
00000390: 3275 e7be 5723 bb3d 254e 883d ca33 df3e
000003a0: c39b f5bd dbc1 183e 99c7 70bd c7d8 b93e
000003b0: b58d 53bf ddef f03d 9a50 523c 6fc2 d83c
000003c0: 3e20 08bf c23c 7a3d 774e 63be a628 cf3e
000003d0: a0a9 2b3f 2096 9dbd 58fe 7c3c 8541 693e
000003e0: 0f7b 413e d9cf 42bd 27ec 0d3c 78d5 de3c
000003f0: 7c0b 0b3e 5310 52bd c137 31bf 7103 2ebe
-0.0258016 0.029235 -0.0419427 -0.0692117 -0.621562 -0.0216475 -0.166607 -0.185604
-0.0285028 -0.297269 -0.0741107 -0.257112 -1.71568 -0.979403 -0.0210991 -0.36441
-0.396435 -0.0435409 -0.0328329 -0.882636 -0.109284 0.0683815 -0.414388 -0.105231
-0.842409 -1.02706 0.132456 -0.287861 -0.142316 -0.103594 -0.500879 -0.811437
0.0226423 0.00688077 -0.0323419 -0.111732 -0.560494 0.0440856 0.00306404 -0.112293
-0.446644 -0.00875356 -0.0362062 -0.334949 -0.0985139 -0.09411 -0.0197342 -0.19637
-0.0408095 -0.107366 -0.23147 -0.0646517 0.0469791 -0.0593906 0.371749 -0.190664
-0.000571974 -0.0783327 -0.0802878 -0.118462 -0.0729539 -0.107049 -0.166551 -0.123645
-0.165966 -0.132012 0.0132362 -0.0133825 -0.0312707 0.310148 -0.156952 0.0106784
-0.0310086 -0.00974975 -0.670159 0.455693 0.00653876 -0.04678 -0.814182 -0.0720398
0.12594 0.0781903 -0.0403901 0.0804454 -0.00254679 -0.0781251 -0.117902 -0.042445
-0.00597055 0.0163886 0.379774 -0.0128067 -0.00577689 -0.113963 -0.0703067 -0.0731537
-1.96928 -0.0588428 -0.0164948 0.000604712 0.00357239 -0.0194702 -0.259205 -0.0266454
-2.42609 -1.14335 -0.107335 0.0405173 -0.0190977 0.212879 0.0243897 0.00802441
-0.212621 0.2613 -0.00547017 0.0804094 -0.167214 -0.0308654 -0.0065044 0.0772045
-0.00718559 0.00390193 0.316446 0.00168184 0.250403 -0.544531 -0.181868 -0.131263
-0.404283 0.0895735 -1.18311 0.140518 -0.37341 -0.33695 0.0283329 -0.214599
0.17185 -0.00868048 0.00479094 -0.0390981 -1.01724 0.0106013 -0.0103657 -0.27902
-0.23311 -0.0711165 -2.35527 0.0535369 -0.0921487 -0.0998088 -0.160139 -0.0273329
0.153392 -0.0380537 -0.122756 -0.565587 -0.0051575 -0.0973599 -0.0312798 0.262913
0.0169101 -0.0547529 -0.133977 -2.97615 -0.107727 -0.0945326 -0.0365077 -0.0149242
0.0375223 -0.131999 -0.0512496 0.144058 0.203115 0.0197163 -0.0427264 -1.03293
-0.183501 -0.12598 -0.370149 -0.0543464 0.0502378 -0.360265 -0.0161318 -0.0331931
-0.00855935 -0.0209763 -0.0417377 -0.0397613 -0.0227752 0.01642 -0.0959338 -0.0131399
-0.024757 -0.387269 -0.0523105 -0.00477624 -2.00168 -0.0799655 -0.0381883 0.0727791
0.455888 -0.123711 -0.813004 -0.379338 -6.61173 -1.21574 0.0389275 0.15335
0.151094 0.0218007 0.135327 0.156347 0.277569 0.377597 0.295288 -0.775636
0.14331 0.133138 0.0145014 0.151275 0.301354 -4.18056 -1.81021 -0.403805
-0.174797 0.752081 -0.00734338 0.352121 -0.452066 0.091376 0.0665553 0.435942
-0.119926 0.149177 -0.0587841 0.362982 -0.826381 0.117645 0.0128366 0.0264599
-0.531742 0.0610931 -0.221979 0.404607 0.670557 -0.0769465 0.0154415 0.227789
0.188946 -0.0475615 0.00866226 0.0272014 0.135786 -0.0512851 -0.692257 -0.169935

Operation_6_Add_B f4 [50]
00000000: b3ef 4a3f df36 dbbe 732e 11bf faf0 ec3e
00000010: 2b15 dc3e 9371 383f 21c8 313f 4a7f d73e
00000020: 74b5 8d3e 4a6d 38bd c2a2 72be 87a8 523e
00000030: d768 493e 1db0 7bbf 4773 ac3e 4e0d a4be
00000040: b823 0c3f 3943 d93e c77f 06bd 9b55 a3bf
00000050: b265 093e d3f8 fdbe 793e 4bbf 6754 8abd
00000060: f54a c5bf cf66 853f 357a c53e 0649 033f
00000070: 01df 053f f355 e23e d5b4 1bbe bfff 05bd
00000080: 7bd7 d03e d3dc 82be df32 bf3e 4b01 093e
00000090: 488c 72bf 01fa e53e c8b6 dc3e f5b9 0a3e
000000a0: 9e26 93be d657 a73e d750 023f b537 f8be
000000b0: 05a8 39be 672d a03d 649b ef3c 1fbd d13e
000000c0: 5b08 a23e 2a1d f4be
0.79272 -0.428153 -0.567115 0.462776 0.429849 0.720483 0.69446 0.420893
0.276775 -0.0450261 -0.236949 0.205721 0.196689 -0.983156 0.336817 -0.320414
0.54742 0.424341 -0.0328367 -1.27605 0.134177 -0.496039 -0.793922 -0.0675438
-1.54135 1.0422 0.385698 0.512833 0.522934 0.442062 -0.152057 -0.0327146
0.407894 -0.255591 0.373435 0.133794 -0.947453 0.449173 0.431082 0.135475
-0.287404 0.326842 0.509046 -0.4848 -0.181305 0.0782116 0.0292489 0.409646
0.31647 -0.476785

linear_7_MatMul_W f4 [50, 5]
00000000: fadf c03d cb1f 21bc 9158 cc39 c396 bcb8
00000010: 4ff6 d1b9 53ec a83c d6a6 963c 5d12 8c3c
00000020: cd06 b43c ad05 ec3c 4f51 3a3d 661a 483d
00000030: 38e8 213d d95a 3f3d 1697 143d 52f3 55bc
00000040: 28e0 cdbc c3fc 4bbc 64ef 9c3a eaee b6bb
00000050: 9295 9f3c 9146 64bb 16df eb3c 793e 83bc
00000060: 0783 263d b1d8 8bbc 34b7 67bc ee54 cabc
00000070: a9cc 83bb 2993 9abc 4fb1 6abc 840e 3a3c
00000080: 8fe8 79bc 58c4 95bc 0f71 bdbc a488 cc3c
00000090: 9c5a ec3b 46fa e33c 0893 ff3b fc62 403d
000000a0: 8ced 9a3d f70f 983c 1708 a73c 2c63 853b
000000b0: a76f 3e3c e516 8cbb b6c9 d73c 77d6 6e3c
000000c0: b40e 1d3d 4877 4c36 917e b93b 2db6 043d
000000d0: 13fb 1a3d 2155 da3b 931c f03c fae3 c73c
000000e0: 0f6b 60bc 51fb 883c 9d32 f13b 3665 d439
000000f0: 2b29 c13b 1076 0a3d f7e0 5abc 8afa 093d
00000100: 9f71 06bd 696e e8bb 0552 a23c 4b71 fa3b
00000110: d6a7 9c3c a27a eb3b 6362 23be 1909 883c
00000120: 121d 38bb 3bbf 2cbb 8f84 7cba 907f 0dbc
00000130: 9aa5 ae3c 8518 58ba 7585 c83c abc8 cdbc
00000140: a8eb bf3c 440d f03c 1067 b43c 35e2 72bb
00000150: b7d3 563c 641e 533a 169a 35bc 78be 153d
00000160: bba5 cbbc 75f9 603d cebd cdbb 4099 d0bc
00000170: 98b5 5e3c ef3b 063d e9a6 03bd 4af2 bbbb
00000180: 3336 153b 7b0e 51bc 4f12 c13c e06f aabc
00000190: e826 983b 9029 c43c 39a2 35bb ad5f 7a3d
000001a0: 28f5 40bc 4c78 f83c 7ee7 723c fc55 c03c
000001b0: 4c9c a63c ec1c 9e3c 9902 e33c d8b1 f63c
000001c0: 29d0 c2bc 53b4 2d3d 13be 12bd 99c6 a53c
000001d0: ca5c 8f3c 516d 0b3d eb06 063c 3f03 053d
000001e0: cb52 063d b1ba 3cbb d7ec f13b c2ca d73c
000001f0: 976c 023c f8a9 2a3c cd63 83bb 2d83 83bb
00000200: 55d3 dabc 1016 a13a 2f25 1e3c 890c ebbc
00000210: 1be2 4cbb fb49 ab3c 2723 783c 1443 4dbc
00000220: 5175 bebc 0a52 23bc 2153 a13b 93ab 98bc
00000230: 1178 1b3d c8b4 74bb 2a68 453b 8d6c be39
00000240: 5ee9 843b 3521 523c 1d77 e53c 760f bbbb
00000250: 48b2 7dbc 5a75 67bc 6f51 4bba 6b6c 0a3d
00000260: e5c8 143d be44 e13c 751a 0e3d 1be1 023b
00000270: 0428 9d3b b176 f039 76cf f03c c4af 58bc
00000280: d604 ac3c da0f e73c 131b a23c 2362 b13b
00000290: a885 373c e54f 8a3c 2876 be3c 2cd8 863c
000002a0: ae18 853b 9bd2 113c d0d2 d53c 177e f03c
000002b0: 9405 823c 5457 be3c 62c8 a03c 7173 2a3c
000002c0: a28e 62ba bd51 2b3d ed7c 85bb 8a99 783d
000002d0: ec8d 35bc e218 eebc 3e09 47bb 6533 4cbd
000002e0: bb37 503c 28fa 323c 4a6a f8bb 6e18 c33a
000002f0: 3fb4 493b 4a41 373b f524 fa3b 9a3c ca3c
00000300: f162 c63c 2b26 003d 3fe2 d73c 6e47 5dbb
00000310: b7a6 ef3c f696 13bc 0d40 d93c 0f74 bc3b
00000320: 0985 ed3c 94a7 8bba f267 b23a b55f eb3a
00000330: d217 c63a b593 da3b e7df aebc e2c1 603c
00000340: 2739 18bc 8f5b 823c 6143 263c 901f 603c
00000350: 995b 0b3d 8d83 063d 791f c73c 84e2 fd3c
00000360: e757 903b 6528 dd3c 7e20 943c b6eb 4f3d
00000370: d743 85bc 1326 4ebb 0404 0ebd e868 933b
00000380: 73b7 30bd 2c4c 7a3d 3c82 603d d8d3 0e3d
00000390: 1522 fb3c ba0c e43c 634a 7f3c f35c f83a
000003a0: 3fa4 843c ec07 2b3c 5570 533c 2271 0f3d
000003b0: 03f0 0a3d 10f4 063d b2a0 303c 6a7d 9b3c
000003c0: 36bb 443d 3cf4 3d3d 83da 2f3d bd4b 733c
000003d0: 91fb 0c3d 6060 313d ab22 3c3d 00e0 3d3d
000003e0: a980 603d eccc 333d
0.0941772 -0.00983424 0.000389759 -8.99262e-05 -0.000400471 0.0206205 0.0183901 0.0170986
0.0219759 0.0288113 0.0454877 0.0488533 0.0395281 0.0467175 0.0362769 -0.0130585
-0.0251313 -0.0124504 0.00119732 -0.00558268 0.0194805 -0.00348321 0.0287929 -0.016021
0.0406523 -0.0170711 -0.0141428 -0.0246987 -0.0040222 -0.018869 -0.0143245 0.011356
-0.0152532 -0.0182821 -0.0231252 0.0249675 0.00721295 0.0278293 0.00779951 0.0469694
0.0756484 0.0185623 0.0203896 0.00407066 0.0116233 -0.00427519 0.0263413 0.0145775
0.0383441 3.04678e-06 0.00566084 0.0324003 0.0378371 0.00666298 0.0293105 0.0244007
-0.0136974 0.0167214 0.00736077 0.000405112 0.0058948 0.033804 -0.0133593 0.0336862
-0.0328232 -0.00709324 0.0198145 0.0076429 0.019123 0.00718625 -0.159555 0.0166059
-0.00280935 -0.00263591 -0.000963279 -0.00863637 0.0213192 -0.00082434 0.0244777 -0.0251201
0.0234278 0.0293032 0.0220218 -0.00370611 0.013112 0.000805354 -0.0110841 0.0365586
-0.0248593 0.0549254 -0.00627873 -0.0254637 0.0135931 0.032772 -0.0321416 -0.00573567
0.00227679 -0.0127598 0.0235683 -0.0208053 0.00464331 0.0239456 -0.00277151 0.0611264
-0.0117772 0.0303308 0.0148257 0.0234785 0.0203382 0.0193009 0.0277112 0.0301141
-0.0237809 0.0424083 -0.0358258 0.0202363 0.0175003 0.0340398 0.00818036 0.0324738
0.0327938 -0.00287978 0.00738297 0.0263418 0.00796046 0.0104165 -0.0040097 -0.00401344
-0.0267121 0.00122899 0.00965242 -0.0286925 -0.00312627 0.0209093 0.0151451 -0.0125282
-0.0232493 -0.00996829 0.00492324 -0.0186365 0.0379563 -0.00373392 0.00301219 0.000363205
0.00405614 0.0128253 0.0280109 -0.00570863 -0.0154844 -0.0141271 -0.000775597 0.0337948
0.0363244 0.0274986 0.0346932 0.00199706 0.00479603 0.000458648 0.0293958 -0.0132255
0.0209984 0.0282058 0.0197883 0.00541331 0.0112013 0.0168838 0.0232497 0.0164605
0.00406178 0.00890031 0.0261015 0.029357 0.0158718 0.023235 0.0196268 0.0104035
-0.000864247 0.041826 -0.00407373 0.0606933 -0.0110812 -0.0290646 -0.00303705 -0.0498537
0.0127086 0.0109239 -0.00758103 0.00148846 0.00307776 0.00279625 0.0076338 0.0246871
0.0242171 0.0312864 0.026353 -0.00337645 0.0292543 -0.00900816 0.0265198 0.00575114
0.0289941 -0.00106548 0.00136113 0.00179576 0.00151133 0.00667044 -0.021347 0.0137181
-0.00929097 0.0159128 0.0101479 0.0136794 0.0340229 0.0328403 0.024307 0.0309918
0.00440501 0.0269968 0.0180819 0.0507619 -0.0162677 -0.00314558 -0.0346718 0.00449859
-0.0431437 0.0611078 0.0548117 0.03487 0.0306559 0.0278381 0.0155817 0.00189486
0.0161916 0.0104389 0.0129052 0.03502 0.0339203 0.0329476 0.0107805 0.0189807
0.0480301 0.0463755 0.042933 0.0148496 0.0344196 0.0433048 0.0459315 0.0463562
0.0548102 0.0438966

linear_7_Add_B f4 [5]
00000000: caf3 aabc 94d9 a0bc ec02 943c 5096 90bc
00000010: 4a4a 953c
-0.0208682 -0.019635 0.0180678 -0.0176498 0.0182239
