networks/onnx/ACASXU_run2a_4_5_batch_2000.onnx (onnx, 55914 bytes, 15 tensors)

input_AvgImg f4 [1, 1, 5]
00000000: 0000 0000 0000 0000 0000 0000 0000 0000
00000010: 0000 0000
0.0 0.0 0.0 0.0 0.0

Operation_1_MatMul_W f4 [5, 50]
00000000: 3ed6 623d 80b8 2bbc a112 f73e b960 9fbd
00000010: 3bd5 6b3c 657c 0ebc 3387 243c 1fa8 8ebd
00000020: 5be4 28bd 79cb c53e 2a55 3abf 494c ed3a
00000030: 374e af3c 020e b5bf dd40 01be 7461 a03b
00000040: 69ad c33c ec07 0bbd 88bb 5a3d dc9f 9b3d
00000050: dfc3 e53c 894e a63a cfbb c13e 1ec5 193e
00000060: 2cf8 98bd b8ea 17bc 765b 58bc 37d2 433d
00000070: bdb9 a93d 0b1a 04bc c231 ebbd 9cf9 e1bf
00000080: d93d 59bd 8847 a23c d7f2 af3c 9563 26bf
00000090: c703 df3b 05c2 eebd d46d 22bb b543 12bd
000000a0: ce54 b03e b037 813d 5839 e8bf 27f8 07bc
000000b0: 03d2 9ebd a2cd d4ba dc12 49be 0fca 853c
000000c0: be8b 52bd b6da 6fbf 44c3 423e 5ad5 f2bd
000000d0: da6e 673d 6bb5 6cbd 8256 80be 001a e5be
000000e0: 39e0 a9ba 919c 5c3e 8179 583f 3c40 01bd
000000f0: 6632 0cbe 5ef7 06be 0a65 013e 045a 3abb
00000100: f296 eb3d 8e6d 7ebd 38d9 96be 16da 593e
00000110: 8786 013f 59a3 823f bcfd 5ebd d476 59bb
00000120: 8885 0e40 e5ed 0ec0 0267 75bf 8121 cbbf
00000130: 976f 59bf ed66 2ebf 6a85 e13e 808a 593d
00000140: 554e 6b3f fbf9 80bc 3485 e6be 5c73 e7bd
00000150: f4e0 debf f0aa 22bd d90f 8c3c aa60 f43f
00000160: 2dc4 f2b9 0ce7 2abe b680 70bf c763 963f
00000170: ac3a ccbb 85aa 3dbc 9f71 91be dd08 1fbf
00000180: 37df 68bf 36a4 9b3c 87bf 96bf 8f72 50be
00000190: 176f 1abd 05a4 1d3e 317e 353d c442 1dbe
000001a0: c8ed 07be 7dd0 53bd 8f7e a8bb 3e47 9ebb
000001b0: 8f1d 743e d3d4 173c 470c 713c 0b2a c53d
000001c0: 68be f93c c88d 6cbc c1c4 ffbd c097 e2be
000001d0: 3cfa df3e 7730 0e3f c4ec 31bf 4a5f 44bf
000001e0: 6a12 fc3e f994 6f3b f5b8 ef3d db79 913c
000001f0: 0fb6 783f c3bc 873c dc83 0c3f c573 5ebf
00000200: d175 213f 1b67 63be 62c0 423e 0a3c 01bd
00000210: 7077 e23f c977 0dbf e7fb dd3f 2b62 bfbb
00000220: 40ea a5bc 6a6a 1bc0 ed29 b93b 53f3 eaba
00000230: 2b09 bb3a 0edb a2bf ebbd 82bc df80 1ebb
00000240: 516c c33b 1092 193f 0262 223e 5db9 a83b
00000250: 8657 9abe 410d 8f3e b6f8 a8bf f871 3cbf
00000260: 040b 763d 9bff 773d 0b7d 083f 17dc cabd
00000270: 976f 92bd 48f8 1e3e ac01 2a3e 7e37 bdbe
00000280: ae2a 43bf 9c87 333e 3b01 91bf 8145 59bc
00000290: c53a 41bf df6d a6be 7d41 2b3e 4853 cd3e
000002a0: 3909 19bf 9b75 4a3f 26e5 c6be 3d02 49bc
000002b0: fb3c 66be 7ec6 153e 191d 1c3f 59cb 363b
000002c0: 5ad9 9e3e 3b52 153f 94aa 08bd 81ac 8c3d
000002d0: 0752 333d 62d7 193c 2bf6 173f dc9e 04bf
000002e0: 1f03 68bd ccfd 21bc 4cc3 d0bf 34f8 dbbd
000002f0: 5838 10b9 4146 14bf 27a5 40be bbb4 213e
00000300: fa9b f13b 5043 273b d672 d7be 89d2 2ebe
00000310: bb27 1bbf 92fc 82bd 79e8 c33e 5131 4ebe
00000320: 5b7a 34bf b41f 81bf 1ed0 083b 2481 e63e
00000330: 64fa 9fbd 753d 513e 20f5 32bd 14cd 5bbf
00000340: 9c58 a6bd 6b2a 3bbf f06a 39be d508 5dbf
00000350: c6c4 963f 2eb4 2d3b 52f0 f4be ff5b 993e
00000360: e887 c9bf 96ce e7bd 9702 423f 1806 48bf
00000370: e926 413e 4798 7d3c d4f2 ab3e f470 aabe
00000380: 1728 51bf 4c21 6b3d 037d bebf a2b3 9cbe
00000390: 812f fd3b 7233 c0bf 8bb5 aa3b e89b 33ba
000003a0: 9565 28bf d6ff 913e 1d57 eb3e 45a8 883c
000003b0: 9acf 71bf bf65 7e3e 2e02 253b 601f 85bf
000003c0: 9dd5 423e 4c36 9ebb 0078 bcbb 38d0 8dbc
000003d0: 30f2 023f 1fd7 2e3f b684 4cbe 9df3 33bd
000003e0: 4e28 00bf 361e a43e
0.0553801 -0.010481 0.482564 -0.0778212 0.0143941 -0.00869665 0.010042 -0.0696566
-0.0412334 0.386318 -0.727862 0.00181044 0.0213996 -1.41449 -0.126224 0.00489443
0.0238864 -0.0339431 0.0534015 0.0759885 0.0280475 0.00126882 0.378386 0.150166
-0.0746921 -0.00927227 -0.0132054 0.0478079 0.0828738 -0.00806285 -0.114841 -1.76543
-0.0530375 0.0198095 0.0214781 -0.649957 0.00680587 -0.116581 -0.00247847 -0.0357091
0.344397 0.0630945 -1.81425 -0.00829891 -0.077549 -0.00162356 -0.196361 0.0163317
-0.0514028 -0.936931 0.190198 -0.118571 0.0565022 -0.0577902 -0.25066 -0.447464
-0.00129605 0.215441 0.845604 -0.0315554 -0.136911 -0.131803 0.126362 -0.0028435
0.115034 -0.0621162 -0.294626 0.212746 0.505959 1.02061 -0.0544412 -0.00331824
2.2269 -2.23327 -0.958603 -1.58696 -0.849359 -0.681258 0.440471 0.0531106
0.919164 -0.0157442 -0.450235 -0.113013 -1.74124 -0.0397138 0.0170974 1.9092
-0.00046304 -0.166897 -0.939464 1.17492 -0.00623258 -0.0115763 -0.28407 -0.621229
-0.909656 0.0189992 -1.17772 -0.203562 -0.0377036 0.153946 0.0443098 -0.153575
-0.132743 -0.0517125 -0.00514204 -0.00483027 0.238394 0.00926705 0.0147124 0.0962716
0.0304863 -0.0144381 -0.124887 -0.442564 0.437456 0.555427 -0.695019 -0.767079
0.492328 0.00365573 0.117052 0.0177583 0.971528 0.0165695 0.548887 -0.868954
0.630704 -0.222073 0.190187 -0.0315514 1.76927 -0.552609 1.73425 -0.00584056
-0.0202533 -2.42837 0.00565075 -0.00179253 0.00142697 -1.27231 -0.0159597 -0.00241857
0.00596384 0.599885 0.158577 0.00514905 -0.301449 0.279398 -1.32009 -0.736114
0.0600691 0.0605465 0.533158 -0.0990526 -0.0715019 0.155244 0.166022 -0.369564
-0.76237 0.175322 -1.13285 -0.0132612 -0.754803 -0.325057 0.167242 0.401026
-0.597797 0.790857 -0.388467 -0.0122686 -0.224842 0.146265 0.609819 0.00278922
0.310252 0.583286 -0.0333658 0.0686884 0.0437794 0.00938973 0.5936 -0.518049
-0.0566436 -0.00988717 -1.63096 -0.107407 -0.000137539 -0.579197 -0.18813 0.157916
0.00737333 0.00255223 -0.420798 -0.170725 -0.606075 -0.0639583 0.382633 -0.20136
-0.704992 -1.00878 0.0020876 0.450204 -0.0781143 0.204336 -0.0436908 -0.858598
-0.0812237 -0.731116 -0.181072 -0.863416 1.17788 0.00265051 -0.478396 0.29953
-1.57446 -0.113187 0.757852 -0.781343 0.188625 0.0154782 0.335837 -0.332893
-0.817018 0.0574048 -1.48819 -0.306058 0.00772661 -1.50157 0.00520963 -0.000685154
-0.6578 0.285155 0.459649 0.0166818 -0.944574 0.248435 0.00251783 -1.04002
0.190268 -0.00482825 -0.00575161 -0.0173112 0.511508 0.68297 -0.199725 -0.0439335
-0.500615 0.320543

Operation_1_Add_B f4 [50]
00000000: 5299 0ebf 7653 a2be 236b 0d3e 9889 423e
00000010: 22aa 403e 5b3f 623d 9296 8abd 3c88 85be
00000020: 36cc 88be f470 b2be 3734 1dbf af26 5f3e
00000030: d311 20be 8d96 43be 603f 10bf c87d 4b3e
00000040: 957c 24bf 90d1 6bbd e76d 513d 4e47 40be
00000050: a478 cbbc 7049 a9bc 3ece 843e a8e1 3bbe
00000060: 6a85 19be 0ac9 383d e44d bebe da83 9abc
00000070: 5b3b 163d fc8a 0dbf db89 423e 59c1 b7be
00000080: 2442 833e fd82 0d3e 4df5 f4be 7853 5b3c
00000090: 7e53 08be 9ef0 b2be 610d 61bc a9f9 26bf
000000a0: 618c 383e c826 d1be eeec dbbe 4153 a5bc
000000b0: 1971 913d d473 8c3d 4224 9bbe 835d 9ebd
000000c0: 6fa2 f13c c98e 4dbe
-0.557027 -0.317043 0.138104 0.189978 0.188149 0.0552362 -0.06767 -0.260805
-0.267183 -0.348518 -0.614078 0.217921 -0.156318 -0.191004 -0.563467 0.198722
-0.642526 -0.0575729 0.0511302 -0.187772 -0.0248378 -0.0206649 0.259386 -0.183478
-0.149923 0.0451136 -0.371688 -0.0188617 0.0366777 -0.552902 0.189979 -0.358897
0.256364 0.138195 -0.478434 0.0133866 -0.133131 -0.349492 -0.0137361 -0.652247
0.180223 -0.408499 -0.429542 -0.0201813 0.0710165 0.0685803 -0.303011 -0.0773268
0.0294964 -0.20074

Operation_2_MatMul_W f4 [50, 50]
00000000: b211 683d 31f0 373c f545 a53b f54a c13e
00000010: 9dba b23e 5553 2dbd 21b4 19bd 0d5b 8039
00000020: 1cb2 f93e 1572 153e 3272 823f 1a36 3abe
00000030: a395 4b3f b6e7 683c a9c0 e13e 7423 7c3e
00000040: b3df 843d 7ec1 b3bd 8757 0d3d b919 163f
00000050: bebe d63d d193 42be d909 3f3e cc5e 0e3f
00000060: eb52 b3be c408 91bf 8335 b63e c68a fa3e
00000070: 1217 603f 7730 22bc 2ab9 34bd 7994 d23e
00000080: 5778 8bbf 46b2 c7be cbd1 caba c2ff c13d
00000090: 6fd4 4a3e 134d 5bbd 198a 40bd e257 1cbf
000000a0: 715a 1c3f 3f73 563f bb0a 5dbf 2652 f23e
000000b0: 056c 4fbf 9d4a 863e 850f 60bd 240c 53be
000000c0: 1041 30bd 732a f1be b20e 63bf beff eabc
000000d0: 1918 3ebd 40c1 e53d cc61 f73d dbe0 343f
000000e0: cb25 fabc 6bd4 c3be 6282 16bf d314 b13e
000000f0: 6da8 1040 3387 ecbe e99f 9b3d dc48 793d
00000100: abe7 d0bf f5f5 28bf 9a94 36bf 143d 183f
00000110: 2594 bebc 7ba1 e03e e21e 5b3e efe7 34be
00000120: 7619 2ebe 2f19 973e 18fd f23c 7341 973d
00000130: 05c0 983d f298 27c0 7899 993e a529 273d
00000140: a392 2440 4087 cdbf dc0d 463f 9817 503e
00000150: c590 943e 7af1 cfbc 0caf 083f 31ef 0d3f
00000160: 804d f13c 0778 92be a9de f2bf c896 15bf
00000170: 96e7 c9bf 5eb9 e6be feb9 e83d 1a6f d33e
00000180: cc3c 8ebd 9dd6 4dbd 0cd9 4fbd a25e 20be
00000190: bd1e 6c3e 32f4 fe3c 872b 4cbd 24b9 94bf
000001a0: d0b3 8d3f 1363 193e 2051 d7bc 8dee e83f
000001b0: 4567 493e cced 0e3f f4c5 e6be 8cd7 183f
000001c0: f642 19bf cac2 afbe b9fe dd3d c7d4 ddbd
000001d0: 1287 3c3e d2c8 efbe 0baa 1e3a 0c50 a43c
000001e0: 2639 003f dee3 5c3f 47aa 6f3e 124c 9dbe
000001f0: 1003 3dbf 9346 86bd 2043 0b3f 261c 063f
00000200: 7eff 0ebf 8654 b63c 7f44 5dbd 82ec 803d
00000210: 2d09 30be f73f 90bd 091b d6bf eee2 92bd
00000220: 1c5e 00be a1c7 ae3d e6b8 49bd 8027 f5be
00000230: 6f49 a6be 5f60 76bd d4f0 6d3e f2ea f4be
00000240: 9e40 d8bd 42ce a3be 4dbd de3e 29c9 df3c
00000250: 6b60 0bbd f7df 2fbd 622d ba3f 5bde 2b3d
00000260: 3379 f9bc f5a1 e3be 4991 8b3d c9ff 50bf
00000270: b93f 6dbd 2afd 8c3e 40dd 003e c5cb 0fbf
00000280: 685c a0bf ff95 cd3e 28ba ae3e 07b3 913e
00000290: 3111 ca3c 5859 47bf 3cc1 863e b8cc e13f
000002a0: 6b08 93bd d0d5 963f 3203 cdbf 0ce9 883e
000002b0: 1c7c 99be 19ad 03be 4ddc ea3d eca5 b13e
000002c0: 248d 1b3c dcf4 0bbf f359 82bf 028c 9dbc
000002d0: e1ac 52bd 645b 4ebf c6bf 873f 0f7d 13bf
000002e0: db6d 8f3e 4834 35bf 0589 85be 0b09 d03e
000002f0: 2946 11bd 124e a73f 4c8e cf3f 11df c5bf
00000300: 0647 9d3f b5e0 053e 3e93 5dbe fb5f c93c
00000310: 2dd1 89bd 0f0e 46be d1c5 8b3c a6d4 45bf
00000320: d105 193f e7a6 b2bc 170e 463b 508d dbbf
00000330: fbad 85be 87a4 46be 7c91 da3c 7e74 1a3f
00000340: 789f 8ebd 7382 d6be 815b 97bf 349d 2d3f
00000350: f65e 1c3e 47af 123f 42b2 d4bf ce55 83be
00000360: 21c8 95bf 2c31 aabd ab71 5bbd d92c adbd
00000370: 2941 ffbe 5c90 cdbd eb00 283f 2d41 263e
00000380: 18cf c8be e621 133e 6329 fabe 2041 99bf
00000390: 4417 8cbf 40cb 093d 0b98 a83f 8a57 45bf
000003a0: fab3 0740 1ea8 f3bd 3cde 643e 1762 353e
000003b0: 4b3a cabc ef78 6e3c f638 fc3b dcd7 a53f
000003c0: 3f58 ae3e e4be 093f 6435 a7bc 48fe a83e
000003d0: 53cd ccbd 69c3 21bf 344a 273f e291 78bf
000003e0: 99cd adbc f393 96bf f7e9 683e d2c4 fdbb
000003f0: 27fe 033d bc79 cebf a5dc fd3d c503 babf
0.0566575 0.0112267 0.00504374 0.377525 0.34908 -0.0423158 -0.0375253 0.000244819
0.487687 0.145943 1.01911 -0.181847 0.795252 0.0142154 0.440923 0.246229
0.0648798 -0.0877714 0.0345073 0.58633 0.104856 -0.190017 0.186561 0.556134
-0.350242 -1.13308 0.355877 0.48934 0.875352 -0.00989925 -0.0441219 0.411289
-1.08961 -0.390032 -0.00154739 0.0947261 0.198076 -0.0535403 -0.0470067 -0.610716
0.610755 0.837696 -0.863445 0.473283 -0.810242 0.262288 -0.0547023 -0.206101
-0.0430308 -0.471027 -0.886943 -0.0286864 -0.0464097 0.112185 0.120792 0.706556
-0.0305356 -0.38248 -0.587927 0.345862 2.26028 -0.461969 0.0759886 0.0608605
-1.63207 -0.660003 -0.713205 0.594682 -0.023264 0.438732 0.213985 -0.176666
-0.170019 0.295114 0.0296617 0.0738553 0.074585 -2.61871 0.299999 0.0408112
2.57145 -1.60569 0.773649 0.203215 0.290167 -0.0253837 0.533921 0.554431
0.0294559 -0.286072 -1.89742 -0.584332 -1.57738 -0.450633 0.113636 0.412957
-0.0694519 -0.0502535 -0.0507441 -0.156611 0.230586 0.0311223 -0.0498462 -1.1619
1.10705 0.149792 -0.0262838 1.81978 0.196683 0.558316 -0.450729 0.597039
-0.598678 -0.343283 0.108396 -0.108316 0.184109 -0.468329 0.000605256 0.0200577
0.500872 0.862852 0.234048 -0.307221 -0.738328 -0.0655643 0.543993 0.523867
-0.558586 0.0222571 -0.0540204 0.0629511 -0.17191 -0.0704345 -1.6727 -0.0717219
-0.125359 0.0853417 -0.0492486 -0.478817 -0.324779 -0.0601505 0.232364 -0.478355
-0.105592 -0.319933 0.435038 0.0273176 -0.0340275 -0.0429382 1.45451 0.0419601
-0.0304533 -0.444595 0.0681482 -0.816403 -0.0579221 0.275369 0.125844 -0.561703
-1.25282 0.401535 0.341264 0.284569 0.0246664 -0.778707 0.263193 1.76406
-0.0717934 1.1784 -1.60166 0.267403 -0.299775 -0.12859 0.114678 0.346969
0.0094941 -0.546705 -1.01837 -0.0192318 -0.0514344 -0.806082 1.06054 -0.576127
0.280135 -0.707829 -0.260811 0.406319 -0.0354673 1.30707 1.62153 -1.54587
1.22873 0.13074 -0.216382 0.0245819 -0.0672935 -0.193413 0.0170621 -0.772776
0.597745 -0.0218081 0.00302208 -1.71525 -0.261093 -0.193987 0.0266807 0.60334
-0.0696401 -0.418964 -1.18248 0.67818 0.152706 0.572987 -1.66169 -0.256514
-1.17017 -0.0831016 -0.0535752 -0.0845582 -0.498544 -0.100373 0.656264 0.162358
-0.392205 0.143684 -0.488597 -1.1973 -1.09446 0.0336411 1.31714 -0.770867
2.12036 -0.118973 0.223504 0.177132 -0.024686 0.0145552 0.00769722 1.29565
0.340517 0.538069 -0.0204112 0.330065 -0.100001 -0.631888 0.653476 -0.970976
-0.0212162 -1.17639 0.227455 -0.00774441 0.0322248 -1.61309 0.123956 -1.45324

Operation_2_Add_B f4 [50]
00000000: 23c0 39bf d6a8 49bb efe7 afbc 8ae5 82bf
00000010: e375 583c f052 823e ae93 84bc 3ca0 803f
00000020: 6ec4 bb3e 249b 133f dba7 8fbf aa10 cfbd
00000030: bea1 703e b3eb fe3e 3d9a c23e f1a0 d9bd
00000040: 447f 0fbc 889c 5ebe 53ba 0abd 3c6c 323e
00000050: 43c5 703f 44c1 e4be f949 ddbe 6f11 2cbf
00000060: 12dc 58bf 77f8 a3bf ee27 3ebc e087 8ebd
00000070: 3678 433f c379 1dbc 056a e9be d313 62bf
00000080: 658c 1fbe a340 87be 397f 933f f8ed b9ba
00000090: 4ed1 41be 1914 973b dd70 09bd 56ec d4bc
000000a0: 13d2 1ebf 126a 16bf 2c48 833e d461 a53e
000000b0: 45bc adbe 3821 ae3d 4183 bdbd 66bb e23d
000000c0: 7d8e d5bb 1405 423f
-0.725588 -0.00307708 -0.0214729 -1.02263 0.0132117 0.254539 -0.0161837 1.00489
0.366733 0.576586 -1.12231 -0.101106 0.234992 0.497892 0.380083 -0.106264
-0.00875837 -0.217394 -0.0338691 0.174241 0.94051 -0.446787 -0.432205 -0.672141
-0.847108 -1.28102 -0.0116062 -0.0695951 0.763553 -0.00961155 -0.455887 -0.883115
-0.155809 -0.264165 1.15232 -0.00141853 -0.189275 0.00461055 -0.0335549 -0.0259916
-0.620393 -0.587556 0.25641 0.323012 -0.339327 0.0850243 -0.0925355 0.110709
-0.00651723 0.75789

Operation_3_MatMul_W f4 [50, 50]
00000000: 35b2 4f3f 3ace cdbd 8b36 3bbf 76a4 763f
00000010: 93e1 043f 9fcd f6bf 4adf 75bd e544 873f
00000020: f1f6 d8be cec3 71bf 38f9 f53e 5b4a 91bd
00000030: 5051 d53e 4206 f2be ec4f b23d 2ec5 a9bf
00000040: db6a 6e3f c85d 943e e23b 913f 1975 4dbe
00000050: 04ad 883f ffb2 273f 7a19 813f b3a2 1cbd
00000060: 38a2 db3e a438 d7be ee0a bdbc 3ee8 093e
00000070: d7f9 b7bd 5c76 083f 825b 123d eb53 72bf
00000080: c64e 74bf 2a36 963e bc5c 903f ca89 c6be
00000090: ff91 45bf 9c6a 0dbe 9621 ae3e 9fb0 c03f
000000a0: e9f3 71bd 5514 cf3d 04e4 133f 041f a33e
000000b0: 629d 423f e31b cabe a7b0 523e d89b f03e
000000c0: 999a 843e d921 7e3e 5550 91bc d28b 9a3c
000000d0: e7b6 33bc 245a 973c 62a9 c9bc ce94 8c3a
000000e0: d0a7 44bc 7ec1 133d 4254 063d bfcc 41bc
000000f0: 35d9 1a3b 356a b4bc 709f f03c b525 61bd
00000100: 1d28 e6bc 247c 4ebb dcb7 dabc 6490 e03c
00000110: f56f f23c ea53 58bb d5fa 0c3d 74aa 863c
00000120: 6f18 1e3c ee46 3abd 32e2 e73c 2ae5 353c
00000130: 9218 2e3d b12d e8bc c356 bfbb 29db f63c
00000140: 5c91 383d c2d3 b5bc 258a da3c 95e9 3c3c
00000150: 87aa 16bc 7dd7 94bb 02fe dfbc 0b8e 1a3a
00000160: 2bcb 463c 7d33 bbbc 94b2 b9ba 2343 183d
00000170: 003b 17bd d78a f4ba ee67 27bd 7cf9 383d
00000180: a695 673c 7a6f 8cbb 751f 203d 169f a73c
00000190: 44d6 bfba 44b2 17bc 0b16 7b3b f7ff 563d
000001a0: cd4b 34bc ed8e 16bd 0329 4cbd 828b 95bc
000001b0: dcc9 d6bc c359 1b3d 0120 9d3c 1b3e 333d
000001c0: c964 27bd af57 3dbd e2ab be3b 78bc e4bc
000001d0: 3339 30bd 95e4 2abd 88b6 c83c 7594 5e3c
000001e0: 5ec1 11bb ad03 163d 4768 d5bc f01c e53c
000001f0: 3d9c c03c 1465 25bc e113 c63b e75c 053d
00000200: e14f 43bd 286e ec39 06c9 2c3d e4d9 253d
00000210: b2c0 523d cd6b f6bc 1519 42bc 7c93 4b3d
00000220: 9e4a a13c ff74 e83c 7837 03bc 407c 2a3d
00000230: 9477 443c 2cd3 2f3c 8747 2c3d 67e5 28bc
00000240: 8aa7 c3bc d841 0a3c 3a1f c33c 4fb8 f23c
00000250: c22a 033d 84d3 82bc fd00 5a3c 6666 0ebf
00000260: e275 37c0 a75c 59c0 34f2 d9be b3ea 23bf
00000270: 8620 873f 0d71 00bf cba1 cd3e 46b4 79bf
00000280: f7cc 86c0 b58d 1abd f31b 323f fb74 903f
00000290: deaf 36bf 6901 ba3e f7bb 06c1 d00e 58be
000002a0: 7901 12c0 cf6b b4bf 0e8b 8c3d 323c 363e
000002b0: ad4c fcbf 9b3d f0bf a453 8ac0 a245 32c0
000002c0: a6eb 0d3c 59a4 113f e3fa efbe 08d0 8abc
000002d0: 3bdf 33c1 9dd6 293f f294 693f 1adf d7bc
000002e0: 0070 843e f90f 893f a9c2 13bf e2cb 0c3f
000002f0: 567d b63f 80ba d1be cdcc d8bf e603 02be
00000300: c4ed 70bf df4f 51c0 2250 5dbf ef49 0ac1
00000310: 7d3f 353c af99 803f 6519 9ebf 4703 15c1
00000320: 39b6 c6be 9d2b 1ebf 4968 03bf 11a8 4e3e
00000330: 7767 953f c1a7 f93d 772c 463f dec6 be3e
00000340: 4df3 cebd afed 61bf 4eee 173e 89b3 e2bc
00000350: 81eb 1a3e 2576 fd3e 2dcf fb3e 5b94 39be
00000360: 5af5 d1be 1aa8 acbf 3065 e03d 4ef0 0d3e
00000370: f7b1 c2be 1b67 bb3e 5727 37be b5fb 153f
00000380: 174a 0ebf 4eb4 e33e 40c6 37bc f772 9f3e
00000390: 90f4 493e ea06 ca3e 124d 883e 9d39 ba3d
000003a0: 594c b4bf ae2a af3f b5f9 4bbf 3529 453e
000003b0: 8c65 4a3e 2376 873d 42ee babe c6c4 d2bf
000003c0: 01d7 babd 7b23 b43d 302e 193f 20d5 cbbc
000003d0: 17d4 6b3f b124 4f3d 7de1 9fbd 03eb 30bf
000003e0: 2a19 e0bd 484e c6be 90f7 5a3e 6b27 c23e
000003f0: d149 a53b 2714 16bf a8c6 0740 fa42 90be
0.811313 -0.100491 -0.731301 0.963447 0.519067 -1.92815 -0.0600274 1.05679
-0.423759 -0.944394 0.480417 -0.0709426 0.416636 -0.472704 0.0870665 -1.32633
0.931318 0.289778 1.13464 -0.200642 1.06778 0.655075 1.00859 -0.0382411
0.428972 -0.420354 -0.0230765 0.134675 -0.089832 0.533056 0.0357318 -0.946593
-0.954327 0.293382 1.12783 -0.38777 -0.771759 -0.138102 0.3401 1.50539
-0.0590705 0.101113 0.577698 0.318596 0.760214 -0.394744 0.205752 0.469939
0.258992 0.248176 -0.0177385 0.0188655 -0.0109689 0.0184756 -0.0246169 0.00107255
-0.0120029 0.0360732 0.0327952 -0.0118286 0.0023628 -0.0220233 0.0293729 -0.0549676
-0.0280953 -0.00315071 -0.026699 0.0274126 0.0295944 -0.0033009 0.0344189 0.0164387
0.00964938 -0.0454778 0.0283061 0.011102 0.0425039 -0.0283421 -0.0058392 0.0301338
0.0450605 -0.0221957 0.0266772 0.0115303 -0.00919593 -0.00454229 -0.0273428 0.00058958
0.0121334 -0.0228517 -0.00141676 0.0371734 -0.0369215 -0.00186571 -0.0408706 0.0451598
0.0141348 -0.00428575 0.0390925 0.0204616 -0.0014636 -0.00925881 0.00383127 0.0524902
-0.0110044 -0.0367574 -0.0498438 -0.018255 -0.0262193 0.0379274 0.0191803 0.0437604
-0.0408676 -0.0462262 0.00581883 -0.0279219 -0.0430233 -0.0417219 0.0245011 0.0135852
-0.00222405 0.0366246 -0.0260507 0.0279679 0.023512 -0.0100949 0.00604485 0.0325593
-0.0476836 0.000450955 0.0421839 0.040491 0.0514533 -0.0300807 -0.0118468 0.0497012
0.0196889 0.0283761 -0.00800883 0.0416224 0.0119914 0.0107315 0.0420604 -0.0103086
-0.0238836 0.00843855 0.0238186 0.0296289 0.0320232 -0.01597 0.0133059 -0.55625
-2.86657 -3.39628 -0.425676 -0.6403 1.05568 -0.501725 0.401625 -0.975407
-4.21252 -0.0377328 0.695739 1.12857 -0.713621 0.363292 -8.42089 -0.210994
-2.28134 -1.40954 0.0686246 0.177964 -1.97109 -1.87688 -4.32271 -2.7855
0.00866214 0.568914 -0.468711 -0.0169449 -11.242 0.663431 0.912429 -0.0263515
0.258667 1.0708 -0.577189 0.549986 1.4257 -0.409626 -1.69375 -0.126968
-0.941128 -3.2705 -0.864504 -8.64305 0.0110625 1.00469 -1.23515 -9.3133
-0.388109 -0.617853 -0.51331 0.201813 1.16722 0.121902 0.774116 0.372611
-0.10105 -0.882533 0.14837 -0.0276735 0.151289 0.495042 0.491815 -0.18123
-0.410075 -1.34888 0.109568 0.138612 -0.380264 0.366021 -0.178861 0.585872
-0.555818 0.444735 -0.0112167 0.311424 0.197222 0.394584 0.266213 0.0909302
-1.40858 1.36849 -0.796779 0.19254 0.197653 0.0661433 -0.365099 -1.64663
-0.0912304 0.0879583 0.598361 -0.0248819 0.921205 0.0505721 -0.0780668 -0.691086
-0.109423 -0.387316 0.213835 0.379207 0.0050442 -0.586245 2.1215 -0.281761

Operation_3_Add_B f4 [50]
00000000: 3df2 9b3f ce6f c03e d3c0 ffbe 9338 6b3e
00000010: 2f18 6cbe a9a0 1a3f 0d70 01be 81cf 93bf
00000020: c7d9 6c3f 5455 c83e 1de5 c8be b5c7 46bd
00000030: 5b43 293f a983 84be 9b37 86be 88ba d7be
00000040: 7fde 0ec0 db19 cebe 289b a2bf 5858 203f
00000050: 1939 b3bf f92c 7bbf 4ca6 cabf ba0c 843d
00000060: 2dec 893e 76df b9be 248a ffbb a819 0ebf
00000070: 213f 5b3f c0ed 793e de90 aebe ef03 e83f
00000080: 3ca4 5c3f b5e2 333f 64af 07c0 5e0e f3be
00000090: ad8a 3c3f dc2e 44be c11e 7fbf 672c a6bf
000000a0: 76fc bfbe be2f b63e f0f8 ee3e 3999 483e
000000b0: 54e6 56be a089 b83f fda4 f6bf 637a aabf
000000c0: f7ac 1bbf ac4c 62bd
1.21833 0.375853 -0.499518 0.229708 -0.230561 0.604014 -0.126404 -1.15477
0.925198 0.391276 -0.392373 -0.0485303 0.661184 -0.258817 -0.262143 -0.421345
-2.23233 -0.402541 -1.27036 0.626348 -1.40018 -0.981155 -1.5832 0.0644774
0.26938 -0.363033 -0.00779845 -0.555079 0.856432 0.244071 -0.340949 1.81262
0.861881 0.702678 -2.12008 -0.474719 0.736491 -0.191585 -0.996563 -1.29823
-0.374973 0.355833 0.466743 0.195897 -0.209863 1.4417 -1.92691 -1.33186
-0.608108 -0.0552489

Operation_4_MatMul_W f4 [50, 50]
00000000: 7e8c 91be a94e b7be e817 c0bc fdbe 7fbf
00000010: 668c ca3d 5867 c6bd e388 35be 7ae2 a93e
00000020: a67e 2ebe 1556 c23e 8445 153e f52a 82be
00000030: ea23 a83e d97a 263e 7a71 263f 1635 a83f
00000040: a64b 77bb ad4f 89be fd4b aabe ed3d 66bd
00000050: d15a 51bc 9f1f 063e 46b5 a0be 60e9 3cbe
00000060: 36ac e93d 022d 9dbe 42cf 86bf 9208 a53e
00000070: dffc 32bf 74c9 9dbc 556a cebe 87fb 503f
00000080: 8b1b 87bd 529d 663f c425 273e 1298 58bd
00000090: 7e00 be3f 486f 143f 8080 41bf 78ad cebb
000000a0: f6d4 07bc 07d1 da3d b03f 94bd 7ea9 8f3f
000000b0: 2e4c 703d 9d65 76be e3c2 adbf b262 d8bd
000000c0: 1dfb 5ebd 4c8e 9fbf 2827 a23f 1613 0b3f
000000d0: d0d0 1fc0 ce52 4abf 99d6 223f f78e 4a3e
000000e0: 77d6 223f f94e bcbf 61ff 413f 13f0 3b3f
000000f0: 691d a13f df81 9bbd c87a 4ebf 984c e13f
00000100: 09a7 0340 f2cd fa3f 179a bf3f 36e5 9e3f
00000110: 0404 c33f 3f00 f9be 713c dfbc 5cc9 1ac0
00000120: c11c 2d3e 705c 863e fa9b d83f ebe2 38c0
00000130: 9220 503f 80f1 c4bf c959 0040 aef5 e53f
00000140: 1f2e 6540 e883 79bf 72df fa3e 0fee 2440
00000150: 1db0 233f aaee 71bd 6215 efbe a20b 2e40
00000160: 2a1d 22c0 8df1 21be 9fcb 503f bb7e 6dc0
00000170: fa9b 143f 3528 da3e 4a7c 4ebf bbf2 0dc0
00000180: 0855 78c0 5ddc 9ebf 656b 023d f354 f3bf
00000190: 8c11 693e 7638 22bf 65de ea3d a358 a63f
000001a0: 47c8 e0bd 0403 18bf 878a a1be 19ff 1040
000001b0: 5629 5dbf 490e 30bf 2ff9 2f3e 959a 5dbe
000001c0: 73db 6ebe 9e5c 4fbf cf83 4bbe f376 90bf
000001d0: 8a8e 04c0 7116 00bd dd55 b93d 0709 2d3f
000001e0: f160 10bd 46b6 b7bf ce04 8e3d 2e58 fa3e
000001f0: c685 283d 6824 523f c949 57bd cd20 4a3f
00000200: 8bc6 d2be 8027 0d3f 9a41 8cbd e751 113e
00000210: b2bc b3be e3c2 31bf 0f47 ef3e f7a7 f93c
00000220: 787e 093f 9485 1fbf f4bf 303f 3cb6 aabd
00000230: a0e1 4d3e 1e51 0dbf 4bc8 973e f304 a2be
00000240: 36b4 9cbd 0aa3 813e a2f1 1cbf bda6 c73d
00000250: b91e a2bb 3dbb 043f 0283 dcbe 3a11 13bd
00000260: 7d8a 8dbd 7ba3 7a3f 4eec b9be 6ee0 863e
00000270: b7d3 06bf fb91 0840 6d91 083f 4a99 d4bd
00000280: 164f fdbc 3371 063d a3e6 4b3e 751f 70c0
00000290: 325a 57be a373 8ebe 412b c03f b306 df3e
000002a0: 28f2 883f 5918 3a3f eae4 f1bc 83a3 88bf
000002b0: f294 253f 00c5 a0be 0fed 233f 12a5 95bf
000002c0: bcb1 70be d0ec 06bf b91a 193e da3b 233e
000002d0: 113a a03e ca34 eabe 9223 fd3e e59c 3cbf
000002e0: 03d2 5ebe 4e2a 5a3e 352f 423d b5fb 753e
000002f0: 27de 81be f71f 89bd 4f08 09bf f3ac 1cbf
00000300: f129 603e 1362 debe 2009 3b3e 8d5e cd3d
00000310: e352 71bf d207 96bd 17be 39bd af60 233f
00000320: 4f76 333e 7c54 323c 2a1a 2bbe 22fd be3e
00000330: eaaf cfbe 91d4 523e fb5c 6dbe 1ea7 0c40
00000340: 1b64 eabe c02b bdbd 7594 63be ae28 153e
00000350: 4e4d 383d 16bd 133f 3334 1ebe 18e9 51bf
00000360: 2bf8 6d3e ffcb 353e f4dc 82be 6ccf cc3d
00000370: d877 cfbc c286 933f c03f 153e d6d7 a4bd
00000380: 5c76 e83e 933a 25bf d465 85bf fc8e 81be
00000390: 5705 e2be 35c3 8cbd 5c91 f83d c85e e73e
000003a0: bc77 1cbf 594c 80bf 5743 bdbd a5ea 48bd
000003b0: a94d fc3d bdfb 0fbf 5b99 f03d 384b 19be
000003c0: 03b5 88be 5c55 7e3f a71f 84be 3e04 fdbe
000003d0: 2353 c93d 49d7 6cbe 747e 9a3e 9450 0a3e
000003e0: 7c4f 9f3b c3b8 6f3f 9cdc 39c0 338a a13f
000003f0: 11fe 49bf b877 ad3e 5727 673e 497c 333d
-0.284275 -0.358022 -0.0234489 -0.999008 0.0989006 -0.0968768 -0.17728 0.331806
-0.170405 0.379563 0.145773 -0.254234 0.328399 0.162578 0.650169 1.31412
-0.00377343 -0.268186 -0.332611 -0.0562114 -0.012778 0.13098 -0.313883 -0.184484
0.114098 -0.306984 -1.0532 0.322331 -0.699171 -0.0192611 -0.403155 0.816338
-0.0659705 0.900838 0.16323 -0.0528794 1.48439 0.579823 -0.755867 -0.0063073
-0.00829052 0.106844 -0.0723871 1.12236 0.0586664 -0.240622 -1.35751 -0.105657
-0.0544387 -1.24653 1.26682 0.54326 -2.49712 -0.790326 0.636087 0.197811
0.636085 -1.47116 0.757803 0.734132 1.25871 -0.0759313 -0.806561 1.76015
2.05707 1.95941 1.49689 1.24137 1.52356 -0.48633 -0.0272505 -2.41854
0.169055 0.262424 1.69226 -2.88885 0.812997 -1.53862 2.00548 1.79656
3.58094 -0.974669 0.489986 2.57703 0.639406 -0.0590655 -0.46696 2.71946
-2.53303 -0.158148 0.815607 -3.71086 0.580505 0.426088 -0.806584 -2.21794
-3.88019 -1.2411 0.0318407 -1.90103 0.227606 -0.633674 0.114682 1.29958
-0.109757 -0.593796 -0.31551 2.26557 -0.863912 -0.687718 0.171849 -0.21641
-0.233259 -0.810007 -0.198745 -1.12863 -2.0712 -0.0312714 0.0904958 0.675919
-0.0352487 -1.43525 0.0693451 0.488954 0.0411432 0.820868 -0.0525606 0.789563
-0.411671 0.551384 -0.0684845 0.141914 -0.351049 -0.69438 0.467339 0.0304756
0.537086 -0.623132 0.690429 -0.0833554 0.201056 -0.552019 0.29645 -0.316444
-0.0765156 0.253197 -0.613062 0.097486 -0.00494751 0.518482 -0.430687 -0.0359051
-0.0691118 0.979057 -0.363131 0.263431 -0.526668 2.13391 0.533469 -0.103808
-0.0309215 0.0328228 0.199122 -3.75192 -0.210305 -0.278226 1.50132 0.435598
1.06989 0.726934 -0.0295281 -1.06749 0.646804 -0.314003 0.640336 -1.1691
-0.235053 -0.527051 0.149516 0.159408 0.312943 -0.457434 0.494412 -0.736769
-0.217598 0.213052 0.0474083 0.240218 -0.253648 -0.0669555 -0.535283 -0.612014
0.21891 -0.434342 0.182652 0.100278 -0.942671 -0.0732571 -0.0453473 0.638194
0.175256 0.0108844 -0.167092 0.373025 -0.405639 0.205889 -0.2318 2.1977
-0.457795 -0.0923686 -0.222246 0.145663 0.0449956 0.577104 -0.154496 -0.819963
0.232392 0.177536 -0.255592 0.100005 -0.0253257 1.15255 0.145751 -0.0804898
0.454028 -0.645425 -1.04217 -0.253044 -0.441447 -0.0687317 0.121371 0.451895
-0.611202 -1.00233 -0.0924136 -0.0490519 0.123195 -0.562435 0.11748 -0.149701
-0.267006 0.99349 -0.258054 -0.494173 0.0983031 -0.23129 0.301746 0.135073
0.00486177 0.936413 -2.90409 1.26203 -0.789033 0.338804 0.225736 0.0438197

Operation_4_Add_B f4 [50]
00000000: 4087 91bf 31b6 b8bf dd97 ebbe 96d3 b9bd
00000010: 1e53 773e fe5f 45be b071 21bf 9df4 563f
00000020: 492e b3bf 6877 a83d 09fd 243f f12c b13e
00000030: 5dc4 afbf 8577 f53f b072 b03f 4816 8c3f
00000040: 01f6 f93f 3336 143e 26df 00c0 b4cc aa3e
00000050: 2f63 54bc 6879 963f ab37 943d 9ca2 87bf
00000060: e316 7bbf 4699 73c0 5261 04c0 bd18 5ac0
00000070: a110 fdbf 33c3 0a3f b476 05c0 2384 23c0
00000080: 29e8 a2bf 904e f13f 0c03 d63e c095 80bf
00000090: 24d1 8140 4417 b4bf dff8 a2bf 0108 ab3b
000000a0: 5b7a 84bd 3ecd e9bd a854 49bf b072 a03f
000000b0: 23f3 c0bf 3dd7 77be e8c1 a93f 6407 453e
000000c0: 8626 a4bc 5a9e ebbf
-1.13694 -1.44306 -0.460143 -0.0907356 0.241528 -0.192749 -0.630641 0.83967
-1.39985 0.082259 0.644486 0.346046 -1.37318 1.91771 1.3785 1.09443
1.95282 0.144738 -2.01362 0.333593 -0.0129631 1.17558 0.0723718 -1.05965
-0.980818 -3.80623 -2.06844 -3.40776 -1.97707 0.542041 -2.08537 -2.55494
-1.27271 1.88521 0.417992 -1.00457 4.05678 -1.40696 -1.27322 0.00521946
-0.0646865 -0.114161 -0.786448 1.2535 -1.50742 -0.242032 1.32623 0.192411
-0.0200379 -1.84077

Operation_5_MatMul_W f4 [50, 50]
00000000: 3064 f53f e50a 033f 261e 0a40 9cc4 2bc1
00000010: 2c80 0d3f aebb 2d3f 1021 1e3e 51de d7be
00000020: 399a 033f e527 a13f f718 51bc 6cd1 aa3e
00000030: b725 223f b16e 003f 5188 88bf cf2c 5bc0
00000040: 8a25 003d a4e4 99bf 8621 aa3e ebab 533f
00000050: b37a 07be 9a06 c53c 3e59 71be b588 e03e
00000060: ca37 83bf a0fd 983f d02a cb3e 5305 8b3f
00000070: 9465 ca3b 5e4b 74c0 4948 ac3e 1025 2a3f
00000080: f470 263f d21d dc3f 8369 903f 5a84 0abf
00000090: 2e1a 023f 417d f7bf efab 12be 0855 2440
000000a0: 12c2 27c0 f2cf 3cbf 8253 633f 9ca2 9bbf
000000b0: 1b62 cc3e f06d 863f 8f6c f6be 87c3 4e3f
000000c0: e0a1 0ec0 315d 603f 5d16 db3f 2d1c 9dbd
000000d0: 6189 b73f 7e8c 2dc0 7d22 0f3e 7043 a43e
000000e0: 2250 3dbe 8cf3 13bf 158b a73e a184 8bc0
000000f0: a9de 863f 7650 09be 54c6 973f 6b45 db3e
00000100: 160f b5ba 37e3 143e d68e 42be 9296 1a3e
00000110: 475c 5bbd 5036 3f40 3332 783e fe81 f23d
00000120: a917 cc3d 5340 c23e 9f3b c1ba 4018 a03f
00000130: b0ca 65be 211f a83f c56c cdbb b03d 0dc1
00000140: 64cd f03e 8335 023f 07b3 393e cde8 df3e
00000150: 90a0 93c0 2c34 6bbd 3cbd 923f 3f91 87be
00000160: c51e 4e3f 677d 3e3f f4a6 d6bf e352 bdbe
00000170: 6a30 ad3f ccb7 febe ca4f 2c40 4ca8 14bf
00000180: 4431 093e e738 77bf 5a9e 2bc0 4547 c2bf
00000190: c89a 5dbf a9be fb3e cc62 dabf 86e6 e63f
000001a0: 27fa 84be 1624 07bd ed2d 2d3f a419 25c0
000001b0: c7d1 20bc 39e6 c6bc 3695 65be 1219 513d
000001c0: 713a 09bf 8104 edbf 5a9d 843e 2e58 2abe
000001d0: 4bb1 533e 8d98 c93e aa9e a4be 8195 df3f
000001e0: 46d2 1ebf 3b8e 0fbf b2b8 843d 9f73 b73e
000001f0: 9ece 513f 9161 cdbf d236 66bf 624a 30bf
00000200: 4a21 15bd 2e56 5ec0 d881 8f3f 724e ccbe
00000210: 2f8a de3c 6891 c53f eb37 ab3e 384d ffbe
00000220: 0916 1540 d7dd c0bf b6f3 5bc0 bb63 7d3f
00000230: 2310 37c0 89b7 debe 7c61 02c0 b8af 31c0
00000240: b8af 7940 7e19 443f 5d8b febe 65ab 133f
00000250: 986e 17c1 a9a0 723f dbdc 2cbf 0677 31bc
00000260: 7253 fb3e 423e 343f 4b28 833d 4530 a93c
00000270: 2ec6 04bf 0fb7 233e ee5e eebd 2120 a13a
00000280: b860 b43d 4a42 e2bd 27b4 16bd 20f2 a13d
00000290: aad7 3d3e c64d f5be 0871 8abc b342 21be
000002a0: 483d dfbc aa2a ccbe 58ae f7be 2e12 943d
000002b0: 541d d2bd 7579 9ebd d5ce 40be a8e1 2b3e
000002c0: dee4 47be 211f 64be 384e 0abd ad32 233e
000002d0: c26c e2bd 6b29 88be 3f3b 60bd 1078 703e
000002e0: d1ea 64be b0e4 8abe 6aa3 f2be ab3d 9cbd
000002f0: 5913 83be b1e5 903d b744 f63e 2608 f0bb
00000300: c7d6 b3be 4566 cebd 00c2 9c3d 1d3b 48bf
00000310: 4336 f53c 1fd8 09bf 0877 ff3f 179c 41be
00000320: 7a72 ed3d b7c8 b73d 02a0 1e3f 520a c2bf
00000330: d63a 013e 44fb 4cbf a5a4 67be 6d1c ddbf
00000340: a722 013f be11 7dbf 7043 7cbf 7dae 76be
00000350: de55 533f 751f ccbf a99f d73e 8c10 163f
00000360: ee21 a1be 001f 343f 2b16 9fbe cea6 633f
00000370: 884b da3f ed06 cbbd 454b 8ebe 1079 bbbe
00000380: 03b5 803e 48a7 1e40 365b 4d3f 4581 ae3f
00000390: 6731 2cbd 89ea e93f 47e3 303e 8527 c4be
000003a0: 098a ffbd 1d38 1b3f 919c 08bf 651d 293d
000003b0: af7c 0c40 0fb9 bd3f 1745 2fbf 3239 05bf
000003c0: bd3a 4fc0 f391 643f d4d4 f2bf 8846 9f3f
000003d0: 006f d9bf 8c4a 5640 4562 babe 931e 023f
000003e0: 21ea 26c0 e7df 2ebe 00ae 1440 f166 793f
000003f0: 4be8 42bf f643 d43e 9293 21bf 23db 99be
1.91712 0.511885 2.15809 -10.7355 0.552737 0.678645 0.154423 -0.421618
0.514072 1.25903 -0.0127623 0.333629 0.633388 0.501689 -1.06666 -3.42461
0.0312858 -1.20229 0.332287 0.826842 -0.132304 0.024051 -0.235692 0.438543
-1.02514 1.19524 0.396811 1.0861 0.00617666 -3.8171 0.336489 0.664628
0.650161 1.71966 1.12822 -0.541082 0.508212 -1.93351 -0.143234 2.56769
-2.62122 -0.737548 0.887993 -1.2159 0.399186 1.05023 -0.481297 0.807671
-2.22863 0.876422 1.71162 -0.0767139 1.43388 -2.7117 0.13978 0.320827
-0.184876 -0.577935 0.327233 -4.35994 1.05367 -0.134096 1.18574 0.428264
-0.00138137 0.145398 -0.189998 0.150965 -0.0535548 2.98769 0.242379 0.118412
0.0996545 0.379397 -0.00147425 1.25074 -0.224406 1.31345 -0.00626907 -8.82756
0.470317 0.508629 0.181347 0.437323 -4.61335 -0.0574228 1.1464 -0.26478
0.805157 0.744101 -1.67697 -0.369773 1.35304 -0.497496 2.69237 -0.580693
0.133977 -0.965712 -2.68154 -1.5178 -0.865643 0.491689 -1.70614 1.80391
-0.259721 -0.0329934 0.676482 -2.57969 -0.00981564 -0.0242797 -0.224202 0.0510493
-0.536048 -1.8517 0.259013 -0.166352 0.206731 0.393742 -0.321523 1.74675
-0.620396 -0.560764 0.0648054 0.358304 0.819559 -1.60454 -0.899274 -0.688635
-0.0364087 -3.47401 1.12115 -0.399036 0.0271655 1.5435 0.334411 -0.498636
2.32947 -1.50677 -3.43675 0.989803 -2.86036 -0.434994 -2.0372 -2.77635
3.90135 0.766014 -0.497157 0.576834 -9.4645 0.947764 -0.675245 -0.0108316
0.490871 0.704075 0.0640417 0.0206529 -0.518649 0.159878 -0.116392 0.00122929
0.0880751 -0.110478 -0.0367929 0.0790751 0.185393 -0.479109 -0.0168996 -0.157481
-0.0272509 -0.398763 -0.483752 0.0723003 -0.102595 -0.0773801 -0.188289 0.167853
-0.195209 -0.222775 -0.033766 0.159373 -0.110559 -0.265941 -0.054744 0.234833
-0.223552 -0.271276 -0.473903 -0.0762895 -0.256007 0.0707506 0.480993 -0.00732519
-0.351248 -0.100781 0.0765419 -0.782152 0.0299331 -0.538454 1.99582 -0.189072
0.115941 0.0897383 0.619629 -1.51594 0.126201 -0.800709 -0.226214 -1.72743
0.504435 -0.988552 -0.985404 -0.2409 0.825529 -1.59471 0.42114 0.58619
-0.314712 0.703598 -0.310716 0.889264 1.70543 -0.0991343 -0.277918 -0.366158
0.251381 2.47896 0.802173 1.36332 -0.0420393 1.82747 0.172742 -0.383114
-0.124775 0.606325 -0.533639 0.0412878 2.19511 1.48221 -0.684648 -0.520404
-3.23796 0.892852 -1.89712 1.24434 -1.6987 3.3483 -0.364031 0.508279
-2.60804 -0.170776 2.32312 0.974227 -0.761357 0.414581 -0.631158 -0.3005

Operation_5_Add_B f4 [50]
00000000: 8728 aebb e292 8b3f bd00 0940 761a 813f
00000010: 7c27 0640 77f3 0a40 09a9 1b3f 5f41 eabe
00000020: ac39 0c40 49f4 d2bf 54e1 ffbe d57b 5a3f
00000030: 9c8a 0040 7067 d5bc 34ba 0b40 ef03 883e
00000040: 3cbc 733f c902 0a3f 01fb 5c40 6b66 293f
00000050: f0e0 4fbf 2ba3 29bf 694a 1cbd 533f 4540
00000060: bea5 843e 683c 113f daca eb3d 2619 9340
00000070: 0000 0000 328f 80bf adc0 20c0 d2e3 173f
00000080: 475a 963f 349d fd3e b9fc ebbf ca54 3340
00000090: 7a51 cbbe 0b9c 2cbe a01a db3f 711b 993f
000000a0: 8577 a53f 9d68 1f40 40de abbe b2ba 993f
000000b0: 2bf6 7b3f 8332 6d3f 4434 5840 a5da 8b3f
000000c0: fad0 99bf 7427 f83d
-0.00531489 1.09042 2.14067 1.00862 2.09616 2.17111 0.608048 -0.45753
2.19102 -1.64808 -0.499766 0.853452 2.00846 -0.0260503 2.18324 0.265655
0.952091 0.539105 3.45282 0.661719 -0.812026 -0.662646 -0.0381569 3.08199
0.259077 0.567328 0.115133 4.59682 0.0 -1.00437 -2.51176 0.59332
1.17463 0.49534 -1.84365 2.80205 -0.397106 -0.168564 1.71175 1.19615
1.29271 2.49076 -0.33568 1.20101 0.984225 0.926552 3.37819 1.09261
-1.20169 0.121169

Operation_6_MatMul_W f4 [50, 50]
00000000: 9b6b fd3c 3323 c23d d658 723e 03b0 693f
00000010: 0a85 c83c a632 7bbc 0071 9fbe cff3 27be
00000020: 3887 0b3d 9963 093e a789 08bd 09a7 8bc0
00000030: 957d 7c3c 7027 b23b 0090 2b3f 4031 c23d
00000040: 2e72 6f3d f94b 8b3e 6e35 3b3e 6843 bc3b
00000050: ea09 bb3e dc13 3f3d 9b5a debf f033 cabf
00000060: 7632 d83d 7898 d63d db86 91bc bcad 143e
00000070: 0282 f5bf 8595 4a3e 3a54 c83d be3b 083d
00000080: be6a 53c0 b5da 88bd 9f61 40bd 29bf 56bc
00000090: e36b 2f3e ea5b a63f 1d5f b53b e17a 543e
000000a0: bfec 633d 2060 8d3d 95cc 1b3d b7f0 f4be
000000b0: 265b 183d 17ae 98bc ecea 64bd 32dc cabc
000000c0: 88d2 c3bc 91ed 3ec0 26ff 933c df21 1b3d
000000d0: c608 b23c 179a f7bf 6be3 99bc c3e1 9bbd
000000e0: 95b7 9b3f 3f6e 5fbe 36ad 043e dfe1 06be
000000f0: 1286 11be 1d3d 6e3e 0227 a03d c70d 8fbe
00000100: 24d1 8f3f f417 e2be d410 d53d 5d86 a43b
00000110: 0072 b23e 5af4 8e3c a67c 003f 9ffa a1bd
00000120: 8fe0 96be c233 11be 1878 4ebe 630e 623d
00000130: 9b57 f53d f5f1 883e cb2d 95be fbae 3c3f
00000140: fb3f a73d 3929 5cbe 6d71 153f 32c7 72be
00000150: 05ab 45bd 6734 c8bd 4738 adbd 5391 ce3f
00000160: 4ce5 c8bc 9301 c0be 6e69 05be 8d0e 383e
00000170: 508c 14bf 475a 8e3f 3734 293f dd27 7fbf
00000180: 4a44 48be 7e56 d9bd ec5f 023c 91d3 a7be
00000190: 7e51 82bc 5b38 1a3d ead0 c43d 6364 41bf
000001a0: 3387 87bb 6094 7b3c 27f7 c7bf 0690 903b
000001b0: c767 82be 6d1f 02be 4f5e 5f3d 2f15 6fbf
000001c0: ba7c 35bc 7943 75bc aef1 c1be e8cc 4cbd
000001d0: 570d 8d3d 357b 003e cb71 7dbd fef5 063c
000001e0: ea5a 7bbe c767 533b b876 a2bd 95f2 fa3d
000001f0: 79b2 163d 5200 963c 7553 4f3d e21f 363e
00000200: 204d ebbc b9fc 8bc0 bed0 0c3c 8ef3 4dbd
00000210: 0282 8dbf 6446 133d 3a1d ccbb effb 9abb
00000220: f974 2bbd 4bb0 b3c0 a653 683c 2482 0cbd
00000230: 4322 283d 2600 7fbc 3123 3c3c 9581 633d
00000240: 200c dcbe 3659 833d 3631 aebc dfd7 0dbd
00000250: 226a 093b c845 c5be 74c3 a5bb 10e8 8cbc
00000260: 8850 b0bd 029f 97bf 99cc 80bb 8894 90bd
00000270: 1079 47bf 6a79 0f3d e0af 13bd ce5c 96bc
00000280: 5227 60bd 0f7c acbe 21df 0f3d 748c d83b
00000290: 5375 2fbe f371 ad3c 8d49 dabc a25c 5f3d
000002a0: fa7c 14be a29c a8bc b404 f9bd 94a9 9dbc
000002b0: cf0a f1bc 6a4c 88be 11c3 3ebe 492a 73be
000002c0: 3b3c 803b 7578 88bd fe43 12c0 e1d4 e7be
000002d0: 293f 09be 323c 36bd 3096 f33c c779 b93d
000002e0: c4fa 123c df77 63bb 3537 10bd 91ba 2d3e
000002f0: 226a 87bc 14be ceba 54e3 25bc 98b0 6cbc
00000300: 2c90 6abc 0de0 7dbe b0d7 c5bc 91b8 273d
00000310: 0835 893b c286 afbe 52fd 39bc bc21 013f
00000320: 1de8 e13d 46fc 543c c369 5cbd d046 66bf
00000330: d9d1 38bc 4ac8 c839 d66e a3be fa28 63bd
00000340: ca90 bebc 126a 4ebf 1b4a cdbd 287f 77be
00000350: 43ec 67bd ab96 c4bd 8c69 f63e 40fc 18bf
00000360: 09db 343d 9ed3 ecbd c96b cabc ef6f d0bc
00000370: e620 6cbf 3792 8fbd 1de6 b7bf 7aaa 63c0
00000380: 64ce f3bd 739d 06be e523 bebd dfdd ea3d
00000390: e011 e5be 38c0 083f 1c92 ffbc a147 bc3d
000003a0: 726a 0bbf c102 50bf d597 35be 7b58 9ebd
000003b0: 6cf2 9f3d 767c 6a3d cfcb 373d 7768 183e
000003c0: 1461 8ebd fdda da3d 89ea ed3c a582 a2be
000003d0: 8e94 cdbd abb2 7bbf 8da5 7ebc a8a9 d5be
000003e0: f971 2abd 4dd1 5bbd 5356 ba3a a01c 00bd
000003f0: a1b1 c0bd 69a9 b8bf 4362 513d a0fd 903e
0.0309351 0.0947937 0.236667 0.912842 0.0244775 -0.0153319 -0.311409 -0.164016
0.0340645 0.134169 -0.0333344 -4.36414 0.0154108 0.00543683 0.670166 0.0948205
0.0584585 0.272064 0.182821 0.00574534 0.36531 0.0466498 -1.73714 -1.57971
0.105565 0.104783 -0.0177645 0.145194 -1.91803 0.197836 0.0978169 0.0332601
-3.30339 -0.0668234 -0.0469681 -0.0131071 0.17131 1.29968 0.00553502 0.2075
0.0556457 0.069031 0.0380369 -0.478399 0.0371963 -0.0186377 -0.0558881 -0.0247632
-0.0239041 -2.98325 0.018066 0.0378741 0.0217327 -1.93439 -0.0187852 -0.0761142
1.21654 -0.218194 0.129567 -0.131721 -0.142113 0.232655 0.0781994 -0.279402
1.12357 -0.441589 0.104036 0.0050209 0.348526 0.0174505 0.501902 -0.0790913
-0.294682 -0.141799 -0.20163 0.0551895 0.119796 0.267471 -0.291365 0.737045
0.081665 -0.215001 0.583762 -0.237088 -0.0482588 -0.0977562 -0.08458 1.61381
-0.0245234 -0.375012 -0.130285 0.179743 -0.580266 1.11213 0.660953 -0.996702
-0.195573 -0.106122 0.00795744 -0.327786 -0.015908 0.0376514 0.0961016 -0.755438
-0.00413599 0.0153552 -1.56223 0.0044117 -0.254698 -0.127073 0.0545333 -0.933917
-0.0110771 -0.0149697 -0.378797 -0.0500001 0.0688731 0.12547 -0.0618761 0.00823736
-0.245464 0.00322579 -0.079328 0.122533 0.0367913 0.0183107 0.0506167 0.177856
-0.0287233 -4.3746 0.00859469 -0.0502811 -1.10553 0.0359558 -0.00622907 -0.00472974
-0.0418596 -5.61527 0.0141801 -0.0343038 0.0410483 -0.015564 0.011483 0.0555435
-0.42978 0.064135 -0.0212637 -0.0346297 0.00209678 -0.385298 -0.0050587 -0.0172005
-0.0860911 -1.18454 -0.00393064 -0.0705958 -0.779191 0.0350279 -0.0360564 -0.0183548
-0.054725 -0.336884 0.0351249 0.00660854 -0.171346 0.0211725 -0.0266464 0.0545317
-0.145008 -0.0205825 -0.121591 -0.0192459 -0.0294241 -0.266208 -0.186291 -0.237466
0.00391343 -0.066636 -2.2854 -0.452796 -0.13403 -0.044491 0.0297347 0.0905643
0.00897092 -0.00347089 -0.0352089 0.169657 -0.0165301 -0.00157732 -0.010125 -0.0144464
-0.0143166 -0.247925 -0.0241507 0.0409475 0.00418723 -0.342825 -0.0113519 0.504421
0.110306 0.0129996 -0.0538118 -0.899518 -0.0112805 0.000382962 -0.319205 -0.055459
-0.0232624 -0.806306 -0.100239 -0.241696 -0.0566218 -0.0959905 0.481274 -0.597599
0.0441542 -0.115638 -0.0247096 -0.025444 -0.922377 -0.0701031 -1.43671 -3.55728
-0.119046 -0.13146 -0.0928419 0.114681 -0.447402 0.534183 -0.0311976 0.0919335
-0.544593 -0.812542 -0.177337 -0.0773172 0.0780991 0.0572476 0.0448721 0.148836
-0.0695211 0.106863 0.0290425 -0.317403 -0.100381 -0.983195 -0.0155424 -0.41731
-0.0416126 -0.0536664 0.00142164 -0.0312773 -0.0940888 -1.44267 0.0511191 0.283185

Operation_6_Add_B f4 [50]
00000000: 0a67 673e 8e21 243f ae9e 8fbf 664d 84be
00000010: 0b0e 8f3e cd1e 4ac0 1479 7440 b6bc 56bf
00000020: 2c9c ac3e 809f bd3f a14d c6be 9947 9bc0
00000030: 7b49 bbbf c041 1fbf 33a7 b7c0 001d 0abf
00000040: a52d b63e 465f 4dc0 7d77 2bbf 8833 5abd
00000050: a14a 89bf bfd1 6e3e 2846 0a3f 9225 0e3d
00000060: 467c e7bf b936 80bf bc5c fcbf 3333 ff3f
00000070: e0d5 2a3f 50df 1ac0 5f45 86be 0aa2 14c0
00000080: 4dd6 c3c0 02d9 23c0 4fc9 793e f31e 67be
00000090: 21e7 fdbd 666b ed3f 4b02 fcbe 4694 12bf
000000a0: 97e1 07bf 0fd2 17bf bb7e 413b b1bf 4ac0
000000b0: a88d 4ebf 5ce6 50c0 99f0 5fbf 29b3 0dc0
000000c0: 4eee 973e a04f b5c0
0.225979 0.641137 -1.12203 -0.258403 0.279404 -3.15813 3.81989 -0.838817
0.337129 1.48143 -0.387311 -4.85249 -1.46318 -0.622097 -5.73916 -0.539505
0.355817 -3.20894 -0.669792 -0.0532718 -1.07259 0.233222 0.540133 0.0347038
-1.80848 -1.00167 -1.97158 1.99375 0.667326 -2.41988 -0.262248 -2.32239
-6.11991 -2.56012 0.243932 -0.225704 -0.123976 1.85484 -0.492205 -0.572575
-0.530786 -0.593049 0.0029525 -3.16795 -0.806849 -3.26406 -0.874765 -2.21406
0.29674 -5.66597

linear_7_MatMul_W f4 [50, 5]
00000000: 3624 493c e7e7 613c 5fd5 343c 8a49 e0b9
00000010: 0620 c13b 3145 393c e1b7 1dbb b589 553b
00000020: 2af0 213b 9854 483b a477 033c f7bc 913c
00000030: a067 d83b 0bcc 503b 0b4d 273b 57bd b2bc
00000040: 51c7 cb38 8611 10bb 5b37 74ba ac48 16bb
00000050: 9180 513b 77a4 553c 282d 5c3c e1b0 993c
00000060: 9093 783c db53 4d3c b464 843c cf66 afb9
00000070: e14b d73c 7e20 33bb dc32 3b3c 1e5e 093a
00000080: a86c b639 2a18 81b9 f313 7c3a 1754 27bb
00000090: bf38 823c 0318 603c e8da 503a e04c 4c3c
000000a0: 78b9 48be 114f 7a3b a65a 30bc 3e95 913b
000000b0: a76f 3ebc 5ce1 c03b 34b2 96ba 0d90 df39
000000c0: 0671 ffb9 acb5 243b 7cef 6f3c b967 823c
000000d0: 50ed 823c 7d6a d6b9 197c d03b 16bc 0b3c
000000e0: 5da4 7f3a 478e 953a 7cc5 edb9 303b afb9
000000f0: 351e b63b b3c6 6a3c 6930 323c 213e b03c
00000100: 4c00 d9bb 1170 883c d680 523c dbcb 6c3c
00000110: e252 3a3c 911a 493c d341 093c 6bfc c439
00000120: 4535 f7b9 6d0d 223a 08ac aa39 33f8 bdbb
00000130: 7848 0c3c 08ab b1ba 0159 1f3c c95f 65ba
00000140: 7327 bdbd 9a2b 7f3b cd8d 39b9 2bd2 6bb8
00000150: 47e8 5e3a 64ed 583a 4b1c 7d3b 53fc 67bb
00000160: 1821 613c c4bc 3fbb c8f2 ecbb 2121 0abc
00000170: defb 40bc ccd0 993b e65b febb cf6f 73bc
00000180: 7468 acbc 3ea7 6abc 9e9a a63c 0e84 c7bb
00000190: 00ce 223c f9bb 39ba 7404 743b ff78 d0bb
000001a0: 1797 913b 5270 423b 8768 57bb 6ba7 1c3d
000001b0: 0738 4ebb d387 2e3d a9e2 00bc 010e 833a
000001c0: 79aa 3dba 959e 01ba 14dd a339 564e 14bc
000001d0: bd63 333a 8ec5 b5b9 4fee 8fb8 9938 2dba
000001e0: 74fd d0bb d892 dfbc 555c ea3a 32c6 ecbc
000001f0: 4464 dc3b 2222 4539 bcc5 a83c 82d5 85bb
00000200: 5ea1 0f3c d72d 483b a855 f43c 64e5 d93b
00000210: 78ec cc3c bab6 9c3c 9f23 0d3d 1bb9 0e3d
00000220: 1f25 9fba d8b7 13b9 2730 1dba 67af acb8
00000230: ae1f 2cbc dfee b83b 4280 75b9 45d3 1f3c
00000240: 745e 253b 0b0f f53b 5a9f 9d39 466d b03a
00000250: a13d ceb9 e1ca c03a 12ab f53c f1ed 823c
00000260: 1a84 9e3c ce7b 923c 3da0 073d b05b df3c
00000270: d937 c13c b456 b43c 3f66 b13c 92d0 f13c
00000280: 38e0 ce3b f0ca 5ab9 45b4 263a 0523 02bb
00000290: 68bc 6cb9 3ad8 d1bb 9a3d 75bc b8cd d43b
000002a0: cc1e 8dbc 9302 6a3b 41d1 613b 6c70 6c3c
000002b0: 58b6 a8bb 2381 abbb 766e 1abc e556 523c
000002c0: d55d 593c 3e3f 8c3c 9b2c 243c e570 773c
000002d0: ac66 a53b 7baa 793c 9464 633b 72d9 0dbb
000002e0: 4839 d2b9 4fe5 f63b b60b 3439 94ce e8b9
000002f0: 83e7 0aba f710 14b9 3700 973b 60b0 9b3c
00000300: df95 30bb f9d6 8b3b eb00 4abb b79c 0bbc
00000310: 8362 75bc b3b0 abbb e529 2bbb 39e8 f9ba
00000320: 2fb3 43b9 bf8d a03b 048d 7cbb 812c ba3c
00000330: 9df1 9ebb 6c27 e7bb e6d3 3ebc a2e6 14bc
00000340: e2af 073a 422c 93bb 7864 a8bb 752e fb3b
00000350: 95ea 48bb 3334 e0bb a3ff e9bb 7747 6b3c
00000360: 4e21 2639 8fe2 b93a 91ba 7a38 8c42 1a3b
00000370: a46b aa3b cd1f 323a 5208 a63b cfeb 1eb9
00000380: d0b8 ae3b 52e9 0e3c ce21 e33a ac5a 2d3c
00000390: 5699 4e3c 7357 213c 5189 c63b 2c5f 9b3b
000003a0: 0a57 b43b e368 33bc 49e6 873c b47f 923b
000003b0: 2350 d83b 2201 a839 428c a13c 3ef2 01bc
000003c0: ee25 2e3b 3ac5 b2bb 0e22 633c af2a 56bc
000003d0: ef37 1c3c c728 b23b 1ff4 7ab9 d80e 0839
000003e0: dabb 54ba 599a a53a
0.0122767 0.0137882 0.0110372 -0.000427794 0.00589371 0.011308 -0.00240659 0.00325833
0.00247098 0.0030568 0.00802413 0.0177903 0.00660415 0.00318599 0.00255281 -0.0218188
9.71692e-05 -0.00219831 -0.000931611 -0.00229315 0.00319675 0.0130397 0.0134385 0.0187611
0.0151719 0.0125322 0.0161613 -0.000334552 0.0262813 -0.00273326 0.0114257 0.000524016
0.000347947 -0.000246228 0.000961601 -0.00255323 0.0158962 0.0136776 0.000796719 0.0124695
-0.19602 0.00381941 -0.0107638 0.00444284 -0.0116233 0.00588624 -0.00114972 0.000426412
-0.000487216 0.00251327 0.0146445 0.0159186 0.0159823 -0.000408966 0.00636245 0.00852873
0.000975197 0.00114102 -0.000453513 -0.000334227 0.0055578 0.0143296 0.0108758 0.021514
-0.00662235 0.016655 0.0128481 0.0144529 0.0113723 0.0122744 0.00837751 0.000375721
-0.000471512 0.000618181 0.000325531 -0.00579741 0.0085622 -0.0013555 0.00972581 -0.000874993
-0.0923604 0.00389359 -0.000176958 -5.62241e-05 0.000850324 0.000827512 0.00386216 -0.00353982
0.0137408 -0.00292568 -0.00723109 -0.00843075 -0.0117788 0.00469408 -0.00776242 -0.0148582
-0.0210459 -0.0143221 0.0203374 -0.00608874 0.00993681 -0.00070852 0.00372341 -0.00636208
0.00444306 0.0029669 -0.00328687 0.0382456 -0.00314665 0.04261 -0.00786654 0.000999868
-0.000723518 -0.000494459 0.000312545 -0.00905188 0.000684317 -0.000346702 -6.86316e-05 -0.000660786
-0.00637787 -0.0272917 0.00178803 -0.0289031 0.00672582 0.000188001 0.0206021 -0.00408429
0.0087665 0.00305449 0.029826 0.00664966 0.0250151 0.0191301 0.0344578 0.0348445
-0.00121418 -0.000140875 -0.000599625 -8.23427e-05 -0.0105056 0.00564371 -0.000234128 0.00975496
0.00252333 0.0074786 0.000300641 0.00134603 -0.000393373 0.00147089 0.0299888 0.0159826
0.0193501 0.0178813 0.0331118 0.0272654 0.0235862 0.022014 0.0216552 0.0295184
0.00631335 -0.000208657 0.000635926 -0.00198573 -0.000225769 -0.00640395 -0.0149683 0.00649425
-0.0172266 0.00357071 0.0034457 0.0144311 -0.00514869 -0.0052339 -0.00942575 0.0128381
0.013267 0.01712 0.0100204 0.0151026 0.00504764 0.0152384 0.00346974 -0.00216445
-0.00040097 0.00753466 0.000171705 -0.000444044 -0.000529878 -0.000141207 0.00460818 0.019005
-0.00269448 0.00426757 -0.00308233 -0.00852125 -0.0149771 -0.00523957 -0.00261175 -0.00190664
-0.000186634 0.00489971 -0.00385362 0.0227263 -0.00485058 -0.00705426 -0.0116472 -0.00908819
0.000517605 -0.00449136 -0.00513893 0.00766545 -0.00306574 -0.00684216 -0.00714107 0.0143603
0.000158434 0.00141819 5.97784e-05 0.00235382 0.00520082 0.00067949 0.00506691 -0.000151559
0.00533209 0.00872262 0.00173288 0.0105807 0.0126098 0.00984751 0.00605885 0.00474157
0.00550354 -0.0109503 0.0165893 0.00447079 0.00660135 0.000320443 0.0197202 -0.00793129
0.00265729 -0.00545564 0.0138631 -0.0130717 0.00953482 0.00543699 -0.000239328 0.000129755
-0.000811515 0.00126345

linear_7_Add_B f4 [5]
00000000: 562d a9bc 28e8 9bbc ef95 943c 56ff 96bc
00000010: 1970 963c
-0.0206515 -0.0190316 0.0181379 -0.0184323 0.018364
