networks/onnx/ACASXU_run2a_5_6_batch_2000.onnx (onnx, 55914 bytes, 15 tensors)

input_AvgImg f4 [1, 1, 5]
0.0 0.0 0.0 0.0 0.0
00000000: 0000 0000 0000 0000 0000 0000 0000 0000
00000010: 0000 0000

Operation_1_MatMul_W f4 [5, 50]
0.059164 0.00496864 1.01748 0.238636 -0.508983 0.134881 0.0305872 0.0946407
0.0312737 0.0343047 0.312429 0.0487843 1.65928 0.0412567 0.0682388 0.198258
-0.000132553 0.0443018 0.0137437 -0.374757 0.0736526 0.0118766 -0.0171179 -0.00283709
-0.244492 0.0374497 -0.150919 0.186451 0.0186544 0.000998782 -0.148364 0.00650336
0.359214 0.000478771 0.0409676 -0.0244531 -0.413681 -0.396296 -0.0417368 -0.749128
0.165873 0.00696531 -0.0265549 -0.0790773 0.13296 0.15191 -1.45436 -0.193686
-0.282946 -0.0153829 -1.1757 -0.849156 0.00616562 -0.432768 -0.122045 -1.38862
-0.643581 1.73701 -1.26848 1.13226 -0.493322 1.949 0.00250366 0.187833
-1.91589 -0.876802 -0.00318701 0.961089 1.3348 -1.72101 0.54118 -0.0376572
0.530672 0.0920685 0.015482 -1.3795 -1.27278 1.82523 0.161013 -0.0177105
1.36548 -1.1918 -1.24084 -0.000125124 -0.593913 -2.29928 0.11466 1.5659
-0.0254334 -0.0163725 0.911244 0.0142082 0.927169 -1.19376 -0.265007 1.67352
0.0352326 -0.00718025 -1.44869 1.76436 1.21564 -1.31311 0.0015164 -0.0817615
-0.0110389 1.10934 -0.520648 -0.95343 1.22054 -1.31143 0.212397 -0.0305184
0.00284838 -0.0817485 1.72245 1.16399 0.00151568 0.0788181 -1.43947 1.99099
0.174595 0.0759493 0.789343 -0.14028 0.0108239 -0.00155704 -0.359526 -2.42961
-0.179747 0.000124657 -0.802654 1.13433 0.0124603 -0.00355663 0.617879 -0.00677021
0.00479458 -1.84165 -0.101588 -0.00529582 -0.1629 -0.00391414 0.898432 0.917156
1.36802 -1.66337 -0.00206217 -0.149012 1.62338 0.0251001 -0.0726698 0.0545818
0.00210456 -0.495618 -0.557128 0.147943 -0.391018 0.114372 0.0285429 -0.138004
0.201774 0.0268056 0.00392054 -0.138959 -0.41 0.350686 0.0193423 0.44496
-0.144797 -0.218012 -0.0521366 -0.0156098 0.280142 0.709291 0.232647 0.0658814
0.392511 -0.023838 0.612398 -0.00224546 0.0886384 -0.249628 0.426131 -0.0181285
0.0742988 0.0010641 0.135634 -0.215622 -1.1233 -0.00474022 0.206966 0.000844868
0.460475 0.00588883 -0.133023 0.317483 0.00542346 -1.03063 -0.259563 0.0199051
0.116417 -0.0372641 -0.000976713 -0.15586 0.440801 -0.0223236 0.404277 -0.00909536
0.0319702 0.30217 -0.528876 -0.351128 -0.00222958 -0.640552 0.64961 0.238605
0.00125252 -0.612375 0.147103 0.499421 -0.0388171 -2.04609 -0.262025 -0.944632
0.300051 -0.401481 -0.199041 0.119445 -1.11415 -0.00726662 -0.245283 0.0720713
-0.641387 -0.00133378 -0.251982 -0.00170705 -1.11716 0.555255 0.0106559 -0.306294
-0.300112 0.0121479 -0.0244901 -0.431247 0.280813 -0.233479 -0.0284818 0.89216
0.477329 -0.0439073
00000000: f355 723d f9cf a23b c93c 823f ff5c 743e
00000010: b64c 02bf 3f1e 0a3e 0292 fa3c fcd2 c13d
00000020: da18 003d 1683 0c3d b2f6 9f3e 0cd2 473d
00000030: 4963 d43f c9fc 283d c9c0 8b3d 2504 4b3e
00000040: edfd 0ab9 ce75 353d 422d 613c 26e0 bfbe
00000050: 2dd7 963d 1296 423c d73a 8cbc 79ee 39bb
00000060: 1c5c 7abe db64 193d 838a 1abe 03ed 3e3e
00000070: 1dd1 983c 90e9 823a bbec 17be 231a d53b
00000080: e6ea b73e 8e03 fb39 a4cd 273d de51 c8bc
00000090: ffcd d3be 4fe7 cabe 35f4 2abd dac6 3fbf
000000a0: 9dda 293e 413d e43b a989 d9bc 48f3 a1bd
000000b0: ab26 083e 4c8e 1b3e 7828 babf 9f55 46be
000000c0: 4cde 90be 8f08 7cbc 567d 96bf 4a62 59bf
000000d0: f808 ca3b c493 ddbe bbf2 f9bd 4dbe b1bf
000000e0: b9c1 24bf 5856 de3f 8d5d a2bf e5ed 903f
000000f0: b494 fcbe d578 f93f 7214 243b 4b57 403e
00000100: e23b f5bf 1976 60bf 28dd 50bb ee09 763f
00000110: bada aa3f 0e4a dcbf c68a 0a3f 703e 1abd
00000120: 1fda 073f 698e bc3d 37a8 7d3c 7593 b0bf
00000130: 74ea a2bf 23a1 e93f 98e0 243e 9c15 91bc
00000140: 0cc8 ae3f e78c 98bf d8d3 9ebf b833 03b9
00000150: af0a 18bf 6727 13c0 ddd2 ea3d 696f c83f
00000160: b559 d0bc 9f1f 86bc 4947 693f 83c9 683c
00000170: f35a 6d3f 21cd 98bf ffae 87be e735 d63f
00000180: 0f50 103d 4d48 ebbb ad6e b9bf 8cd6 e13f
00000190: 179a 9b3f fd13 a8bf f1c1 c63a 9372 a7bd
000001a0: 81dc 34bc dafe 8d3f 3049 05bf fd13 74bf
000001b0: a83a 9c3f f0dc a7bf 997e 593e b901 fabc
000001c0: e3ab 3a3b c26b a7bd 3e79 dc3f a0fd 943f
000001d0: c8a9 c63a 626b a13d 8e40 b8bf c3d8 fe3f
000001e0: 08c9 323e 4e8b 9b3d 6212 4a3f 8fa5 0fbe
000001f0: ba56 313c 9815 ccba cb13 b8be bb7e 1bc0
00000200: 990f 38be 5cb6 0239 bc7a 4dbf ba31 913f
00000210: 4926 4c3c 5a16 69bb 512d 1e3f a3d8 ddbb
00000220: da1b 9d3b 30bb ebbf 5f0d d0bd 8f88 adbb
00000230: 42cf 26be 3042 80bb a4ff 653f bcca 6a3f
00000240: 481b af3f 4fe9 d4bf 7925 07bb 9a96 18be
00000250: eaca cf3f ba9e cd3c e7d3 94bd 2a91 5f3d
00000260: a8ec 093b a4c1 fdbe f19f 0ebf 5f7e 173e
00000270: 8333 c8be de3b ea3d cdd2 e93c ec50 0dbe
00000280: d89d 4e3e 6b97 db3c e077 803b 454b 0ebe
00000290: 85eb d1be 1e8d b33e be73 9e3c ccd1 e33e
000002a0: aa45 14be 8a3e 5fbe 308d 55bd 3fc0 7fbc
000002b0: c66e 8f3e 1894 353f 043b 6e3e d4ec 863d
000002c0: 34f7 c83e e947 c3bc 1ec6 1c3f 9128 13bb
000002d0: 0d88 b53d 7c9e 7fbe d82d da3e 3882 94bc
000002e0: f829 983d 4579 8b3a a4e3 0a3e 03cc 5cbe
000002f0: 4bc8 8fbf d953 9bbb e5ee 533e 227a 5d3a
00000300: 61c3 eb3e 16f7 c03b 2e37 08be 228d a23e
00000310: 48b7 b13b afeb 83bf 71e5 84be 0510 a33c
00000320: 096c ee3d 3ea2 18bd 0d05 80ba c499 1fbe
00000330: abb0 e13e fbdf b6bc 65fd ce3e b404 15bc
00000340: 2ff3 023d 07b6 9a3e 6b64 07bf 0dc7 b3be
00000350: 251e 12bb 37fb 23bf d74c 263f de54 743e
00000360: 992b a43a 9cc4 1cbf 2ba2 163e 1cb4 ff3e
00000370: aefe 1ebd 23f3 02c0 2428 86be 67d3 71bf
00000380: 49a0 993e eb8e cdbe 67d1 4bbe 959f f43d
00000390: 789c 8ebf d41c eebb 772b 7bbe 1e9a 933d
000003a0: f031 24bf 3bd2 aeba c903 81be 18bf dfba
000003b0: 19ff 8ebf 3125 0e3f 1696 2e3c 91d2 9cbe
000003c0: 48a8 99be fc07 473c 769f c8bc 68cc dcbe
000003d0: b9c6 8f3e 1e15 6fbe aa52 e9bc 9964 643f
000003e0: 7764 f43e 24d8 33bd

Operation_1_Add_B f4 [50]
-0.566577 -0.0256695 0.279092 -0.245648 -0.220425 -0.364112 0.0912903 -0.407007
-0.477449 -0.480228 -0.400906 -0.204172 0.457563 -0.152718 -0.609537 -0.117096
-0.0143806 -0.147391 -0.681035 -0.214088 0.0618373 -0.770082 -0.00147935 0.117648
0.162707 -0.21428 -0.348189 0.0467261 0.35507 -0.0200982 -0.153916 -0.626693
-0.19466 -0.0228748 0.136338 0.00823214 -0.414639 -0.274687 -0.374552 -0.156186
-0.145722 -0.020857 -0.11877 -0.222 0.0870664 -0.478364 -0.263714 0.120483
-0.367466 0.00540317
00000000: 310b 11bf d848 d2bc 26e5 8e3e 268b 7bbe
00000010: 17b7 61be e36c babe 69f6 ba3d 3963 d0be
00000020: 3274 f4be 72e0 f5be 8d43 cdbe 7712 51be
00000030: b345 ea3e 1b62 1cbe 9e0a 1cbf 07d0 efbd
00000040: 9c9c 6bbc abed 16be 4f58 2ebf e239 5bbe
00000050: 1c49 7d3d 1824 45bf c0e6 c1ba 6ff1 f03d
00000060: aa9c 263e 376c 5bbe d445 b2be de63 3f3d
00000070: bccb b53e fba4 a4bc 289c 1dbe f46e 20bf
00000080: f354 47be ef63 bbbc 309c 0b3e 19e0 063c
00000090: 904b d4be c6a3 8cbe 48c5 bfbe 39ef 1fbe
000000a0: 2638 15be 4ddc aabc b03d f3bd f853 63be
000000b0: de4f b23d 20ec f4be 8505 87be cbbf f63d
000000c0: 8124 bcbe 130d b13b

Operation_2_MatMul_W f4 [50, 50]
0.300449 -0.237458 0.66685 0.0334267 -0.751439 -1.05899 0.027658 -2.43758
-0.0481434 0.00852801 0.350205 1.12624 -0.0144861 -0.0425433 -0.688203 0.650416
-0.073494 -0.301189 -0.631643 0.00355811 0.0322108 -0.259586 0.996563 -0.832216
0.533469 -0.636668 -0.488027 0.00233059 -0.744072 -0.713955 0.668224 0.975637
-1.06232 1.27676 -0.0126157 0.0246122 -0.306162 0.822682 -0.746677 -0.0904942
-0.420498 0.0418992 -1.24312 0.757167 -5.24014 -2.61098 -1.30037 -0.267941
-3.14327 0.00413799 0.19774 0.411645 0.169297 -0.0201032 0.118539 0.0480456
0.0233213 1.42 -0.0261469 -0.961472 -0.00893971 0.282684 -0.186203 -0.0267045
0.339883 -0.697217 -0.362103 -0.31705 0.790689 0.00679757 -0.00952637 0.163821
-0.335875 -0.132584 -0.29976 0.619556 -0.60561 -0.0207259 -0.0319609 -0.0461064
1.02888 -0.827577 2.0183 0.291026 0.114126 0.0289213 0.385826 -0.970077
-0.826797 -0.757566 -0.105222 -0.0527762 -0.975521 0.69837 -0.0824334 -1.36308
1.07981 -1.31738 -0.360713 0.00370179 0.186988 0.589654 0.150014 0.0110738
0.064891 0.187693 -0.036777 0.151141 -0.00192107 0.289392 -0.102424 -0.138393
-0.120345 -0.0804036 0.221215 -0.161745 -0.491218 -0.646499 0.187042 -0.0054836
0.0173627 -0.047631 0.0481466 -0.0139677 0.312461 0.17521 0.0267427 0.0315298
0.11149 0.0660112 -0.0959357 -0.0244716 0.246236 0.304842 -0.173155 -0.00611005
0.371059 0.00378094 -0.00698697 -0.130197 -6.46582 -0.0457655 0.255878 -0.872532
-0.096616 0.0194158 0.23606 -0.0479263 -0.10106 0.00415039 0.612854 1.48244
1.22811 0.0393124 0.891359 -0.616038 -0.00606569 0.199567 -0.00610791 0.852677
0.381041 0.216479 -0.352385 -0.022492 -1.02005 0.365355 -0.261217 0.307692
0.725727 0.0481805 -0.0442879 0.79017 1.77391 0.730523 -0.573097 -0.0261486
-0.0171258 -0.0105781 -0.256403 -0.095354 -0.340852 -2.4483 0.676243 0.8771
0.750089 0.00328814 0.454551 0.240217 0.396662 -0.860945 0.354713 -0.0327734
-0.34972 -0.788007 0.124455 -0.315757 0.212123 -0.272288 -0.169882 -0.0321587
-0.262094 -2.2221 -2.29329 0.0172654 0.0881069 0.305336 0.0323712 -0.172011
0.000685691 0.729626 -1.51611 -3.84072 -1.00584 0.0197059 -1.09089 -1.47541
-0.350093 -0.50167 -0.197917 -0.0397041 0.00718696 -0.0787044 0.399139 0.708703
-9.62013 -0.823115 0.220671 -0.026887 0.353298 -1.98128 2.34982 -0.0112785
0.0618658 -0.633683 -0.910386 -0.0288217 -0.263294 -0.758069 -1.79508 -0.26261
-0.65624 0.00129048 -2.68977 -4.55599 1.85512 0.15937 -4.06166 -2.8096
-0.430866 -0.0332263 0.172538 -0.617386 0.0239213 -0.0376747 -1.04752 1.09522
00000000: 74d4 993e 3128 73be aeb6 2a3f 6fea 083d
00000010: 4e5e 40bf fc8c 87bf 0893 e23c 5001 1cc0
00000020: 0432 45bd 11b9 0b3c 124e b33e a228 903f
00000030: 1b57 6dbc e241 2ebd 122e 30bf aa81 263f
00000040: 0684 96bd 7235 9abe 5bb3 21bf 2e2f 693b
00000050: 79ef 033d 75e8 84be c11e 7f3f 1c0c 55bf
00000060: 6d91 083f adfc 22bf adde f9be d0bc 183b
00000070: 817b 3ebf c1c5 36bf ba10 2b3f 59c3 793f
00000080: 1afa 87bf df6c a33f 15b2 4ebc 869f c93c
00000090: 44c1 9cbe 4a9b 523f 3926 3fbf 0655 b9bd
000000a0: 844b d7be 7f9e 2b3d 8e1e 9fbf b2d5 413f
000000b0: 3aaf a7c0 4c1a 27c0 8672 a6bf 902f 89be
000000c0: 562b 49c0 fa97 873b 5b7c 4a3e 22c3 d23e
000000d0: 315c 2d3e 77af a4bc 93c4 f23d 77cb 443d
000000e0: 500c bf3c 8fc2 b53f 0632 d6bc 0723 76bf
000000f0: dd77 12bc f5bb 903e 00ac 3ebe 65c3 dabc
00000100: 2505 ae3e d07c 32bf 9065 b9be 6154 a2be
00000110: 986a 4a3f 26be de3b 7e14 1cbc b1c0 273e
00000120: cff7 abbe 1ac4 07be 257a 99be 399b 1e3f
00000130: 4209 1bbf 5dc9 a9bc 6fe9 02bd 11da 3cbd
00000140: 57b2 833f 16dc 53bf d42b 0140 5c01 953e
00000150: e4ba e93d 5dec ec3c fc8a c53e f756 78bf
00000160: f8a8 53bf d8ef 41bf a27e d7bd db2b 58bd
00000170: bfbb 79bf 60c8 323f d8d2 a8bd 6879 aebf
00000180: 3737 8a3f e89f a8bf 60af b8be bb99 723b
00000190: c879 3f3e 91f3 163f 459d 193e e26e 353c
000001a0: 93e5 843d 9832 403e 7ba3 16bd b5c4 1a3e
000001b0: 6acc fbba 302b 943e adc3 d1bd e5b6 0dbe
000001c0: 7077 f6bd a5aa a4bd 2f86 623e 7ba0 25be
000001d0: ed80 fbbe f580 25bf f087 3f3e c5af b3bb
000001e0: 393c 8e3c b918 43bd 5f35 453d c8d8 64bc
000001f0: e3fa 9f3e 406a 333e 8213 db3c 6425 013d
00000200: de54 e43d e130 873d f079 c4bd aa78 c8bc
00000210: 4a25 7c3e 4014 9c3e 8b4f 31be d036 c8bb
00000220: 72fb bd3e a6c9 773b f4f2 e4bb 5d52 05be
00000230: ffe7 cec0 9b74 3bbd 7102 833e 425e 5fbf
00000240: 9cde c5bd e20d 9f3c b6b9 713e 5e4e 44bd
00000250: 8cf8 cebd ffff 873b 00e4 1c3f 98c0 bd3f
00000260: b532 9d3f 0a06 213d 1a30 643f abb4 1dbf
00000270: b2c2 c6bb 4b5b 4c3e dd24 c8bb 0a49 5a3f
00000280: ce17 c33e acac 5d3e cf6b b4be 2541 b8bc
00000290: 0091 82bf d00f bb3e 3cbe 85be ce89 9d3e
000002a0: 3fc9 393f ea58 453d 3b67 35bd 9548 4a3f
000002b0: 7c0f e33f 8e03 3b3f 7cb6 12bf 9735 d6bc
000002c0: 684b 8cbc c44f 2dbc 4147 83be f548 c3bd
000002d0: 2784 aebe f2b0 1cc0 431e 2d3f a089 603f
000002e0: d505 403f d67d 573b e9ba e83e 72fb 753e
000002f0: 4817 cb3e e466 5cbf f19c b53e 673d 06bd
00000300: 800e b3be d4ba 49bf 43e2 fe3d e7aa a1be
00000310: c636 593e 5569 8bbe 8cf5 2dbe d7b8 03bd
00000320: 2f31 86be e336 0ec0 43c5 12c0 2b70 8d3c
00000330: 6471 b43d 0055 9c3e aa97 043d a723 30be
00000340: f2bf 333a c5c8 3a3f e40f c2bf 5bce 75c0
00000350: 5dbf 80bf 456e a13c 49a2 8bbf 3cda bcbf
00000360: 643f b3be 726d 00bf c1aa 4abe c4a0 22bd
00000370: 9780 eb3b c62f a1bd f25b cc3e 8f6d 353f
00000380: 0dec 19c1 aab7 52bf 94f7 613e 2042 dcbc
00000390: 7ae3 b43e 959a fdbf 7363 1640 75c9 38bc
000003a0: fe66 7d3d 0d39 22bf 0f0f 69bf 7c1b ecbc
000003b0: 79ce 86be cf10 42bf 2ec5 e5bf d174 86be
000003c0: 58ff 27bf 5325 a93a 3125 2cc0 acca 91c0
000003d0: 9274 ed3f e431 233e 1ef9 81c0 7dd0 33c0
000003e0: 789a dcbe 4d18 08bd cdad 303e 020d 1ebf
000003f0: 9af6 c33c c950 1abd 2315 86bf 2b30 8c3f

Operation_2_Add_B f4 [50]
0.298896 -0.146242 -1.12884 -0.00615206 -0.633044 0.713728 -0.00656932 1.43445
-0.0110094 -1.12639 -0.103578 -0.136659 -0.252035 -0.00527924 -1.08449 -0.0461205
0.258031 -0.0803865 -1.05455 -0.0385272 -0.0302303 0.216255 -0.838462 -1.02716
-0.909715 0.733485 -0.32781 -0.0100184 0.241221 0.838732 -1.06681 1.65083
1.1289 -0.0237482 0.444235 -0.0080773 -0.310158 -0.332134 -0.0940138 0.524061
0.75 -0.0206283 -0.699505 -0.0142587 0.59582 1.30502 0.766387 0.535874
0.490858 -0.0251205
00000000: e608 993e 76c0 15be d47d 90bf 3897 c9bb
00000010: 2c0f 22bf e1b6 363f 7343 d7bb 0f9c b73f
00000020: c560 34bc 8c2d 90bf b420 d4bd 56f0 0bbe
00000030: bb0a 81be 7afd acbb 91d0 8abf d9e8 3cbd
00000040: a41c 843e ada1 a4bd 7ffb 86bf b3ce 1dbd
00000050: 89a5 f7bc f371 5d3e 72a5 56bf fb79 83bf
00000060: 15e3 68bf acc5 3b3f b6d6 a7be 3724 24bc
00000070: a302 773e 24b7 563f 3b8d 88bf 664e d33f
00000080: cc7f 903f 968b c2bc c572 e33e a756 04bc
00000090: 08cd 9ebe 780d aabe 4f8a c0bd dd28 063f
000000a0: 0000 403f aefc a8bc c212 33bf 539d 69bc
000000b0: a987 183f e50a a73f f031 443f 0a2f 093f
000000c0: bd51 fb3e 82c9 cdbc

Operation_3_MatMul_W f4 [50, 50]
0.190287 -0.421223 -0.242296 1.33749 0.235241 0.181322 0.570861 0.197333
0.506146 0.559114 1.48539 0.104795 0.0589776 -0.532455 0.380716 0.228724
0.161866 -0.0390398 -0.185436 -0.121469 0.286758 -0.012694 -1.44327 0.160476
-0.0443282 0.0438479 -0.377521 0.185752 -0.186891 0.00192546 -0.0930718 0.440873
-0.225165 -1.0014 -0.0129618 -0.262658 0.104101 0.515337 0.370065 -0.0149121
0.107948 0.0158888 -1.06858 0.426794 -0.0846893 -0.437346 1.07708 0.276784
0.620779 -0.0494713 0.015978 1.07823 -0.129019 -0.781999 -0.61081 0.11758
-1.19973 0.0184962 0.0692546 0.933257 -2.14829 -0.218699 0.21958 0.325668
0.552179 -0.038276 0.384681 0.00934946 0.207573 0.0538136 -0.997125 -0.0112606
0.0619942 -0.0303439 -0.219522 -0.200966 0.812126 0.367785 0.203038 0.0075469
0.0106929 -0.322068 -0.169243 0.532957 -0.0186095 0.378541 0.564666 -0.0588447
0.239922 -1.15133 -0.183864 -0.267062 0.619648 -0.911514 0.253814 0.00265137
-0.806844 0.544452 -0.314268 -0.00632541 -0.0483123 3.21027 -0.522249 -10.1925
0.515672 1.42184 -1.17021 0.147983 -1.99622 -1.05645 0.922072 -0.452103
-0.626691 1.18071 -2.3733 0.760077 0.304571 -0.0150235 -0.216449 -3.5797
0.559795 -0.0295721 0.923642 0.032733 -4.04789 -0.857826 0.285377 1.08744
1.72109 -0.0117887 -3.18146 -0.0213153 -0.229781 0.464761 0.0717079 -1.98012
0.865739 -0.233815 2.49541 1.03715 0.49776 1.48749 2.75202 0.17628
1.63857 0.190443 -0.506154 -6.69315 1.92459 0.00821601 0.036576 0.0313054
0.0167956 -0.0301651 0.00800198 0.00989335 0.0379839 0.0459097 -0.015831 -0.0266079
0.00621518 -0.0296081 -0.0345961 0.000159736 -0.0328923 0.0291651 0.0160165 0.0101908
-0.0433682 0.0291321 0.00337369 0.033809 -0.0531585 0.00542793 0.0346867 0.00830479
-0.0132396 0.00798506 0.00817416 0.0190509 0.0124893 0.0381298 -0.0125669 -0.0265789
0.0279131 -0.0366334 0.0444032 0.0238995 -0.0463503 -0.0408948 -0.0112919 -0.0246172
-0.0313251 -0.0387341 0.00385692 -0.0338432 -0.0256679 0.0113705 0.025518 0.0361568
-0.129676 -0.196614 -0.216475 -0.96035 -1.0744 -0.395864 -2.82355 0.316473
0.336965 -0.754599 -1.17615 -0.51719 -0.215801 0.720654 -0.675805 -0.182908
-0.516596 -0.0147814 0.422154 0.136139 0.235798 -0.0119381 0.532509 0.160252
-0.0412834 -0.225726 1.03235 -0.601749 0.0714875 0.0404 -0.126661 -0.327454
-0.396354 0.372742 -0.0742527 -0.464063 0.339032 -0.0402556 -0.200782 -0.91778
0.413933 -0.216647 0.42544 -0.477907 0.0120313 -0.170866 -1.33526 0.255455
0.24127 0.0412226 -0.0327826 0.631873 -0.0242854 0.555899 0.364098 -0.690027
00000000: 98da 423e 8baa d7be 711c 78be df32 ab3f
00000010: 04e3 703e 79ac 393e f223 123f a911 4a3e
00000020: c992 013f 1822 0f3f 4221 be3f c39e d63d
00000030: 7f92 713d f94e 08bf 35ed c23e a036 6a3e
00000040: 33c0 253e 33e8 1fbd efe2 3dbe bdc4 f8bd
00000050: f2d1 923e 7ffa 4fbc 12bd b8bf d253 243e
00000060: 7d91 35bd db99 333d 6f4a c1be c635 3e3e
00000070: 5b60 3fbe b75f fc3a 6e9c bebd 1bba e13e
00000080: a791 66be e02d 80bf bb5d 54bc 1c7b 86be
00000090: e832 d53d 20ed 033f 2979 bd3e e151 74bc
000000a0: d713 dd3d 3b29 823c 3bc7 88bf be84 da3e
000000b0: 9571 adbd d1eb dfbe c2dd 893f a2b6 8d3e
000000c0: 5feb 1e3f 6ba2 4abd 4be4 823c 7103 8a3f
000000d0: 8f1d 04be 1631 48bf 0b5e 1cbf c8cd f03d
000000e0: c190 99bf 5885 973c 5bd5 8d3d eee9 6e3f
000000f0: 957d 09c0 a1f2 5fbe 94d9 603e f5bd a63e
00000100: 9a5b 0d3f 4cc7 1cbd e8f4 c43e 7a2e 193c
00000110: 048e 543e a66b 5c3d 9643 7fbf 617e 38bc
00000120: a1ed 7d3d c593 f8bc 60ca 60be 08ca 4dbe
00000130: 7de7 4f3f 514e bc3e 32e9 4f3e fc4b f73b
00000140: 4631 2f3c 19e6 a4be 094e 2dbe df6f 083f
00000150: f372 98bc 20d0 c13e f38d 103f 2407 71bd
00000160: 1dae 753e c85e 93bf d846 3cbe 5abc 88be
00000170: 40a1 1e3f fb58 69bf e9f3 813e 9bc2 2d3b
00000180: 548d 4ebf 3561 0b3f bce7 a0be 6345 cfbb
00000190: 1ee3 45bd 1075 4d40 1cb2 05bf 7b14 23c1
000001a0: 1503 043f dafe b53f 71c9 95bf db88 173e
000001b0: 2384 ffbf c139 87bf e90c 6c3f 0b7a e7be
000001c0: d26e 20bf 8121 973f 26e4 17c0 6894 423f
000001d0: bbf0 9b3e 2025 76bc cfa4 5dbe ce19 65c0
000001e0: ba4e 0f3f 3041 f2bc cd73 6c3f 0a13 063d
000001f0: 5188 81c0 7c9a 5bbf ef1c 923e 3c31 8b3f
00000200: ad4c dc3f 6425 41bc 0a9d 4bc0 6d9d aebc
00000210: b64b 6bbe 27f5 ed3e 97db 923d 9274 fdbf
00000220: 12a1 5d3f 336d 6fbe ccb4 1f40 55c1 843f
00000230: 66da fe3e 1366 be3f 1821 3040 bf82 343e
00000240: a9bc d13f 7d03 433e 4f93 01bf 492e d6c0
00000250: f758 f63f 729c 063c b7d0 153d 173a 003d
00000260: ed96 893c cd1c f7bc bd1a 033c b817 223c
00000270: 0295 1b3d cf0b 3c3d 03b0 81bc d0f8 d9bc
00000280: b5a8 cb3b b08c f2bc a4b4 0dbd ce7e 2739
00000290: 14ba 06bd a6eb ee3c 0935 833c 50f7 263c
000002a0: dba2 31bd 71a6 ee3c 2019 5d3b 4e7b 0a3d
000002b0: babc 59bd c7dc b13b a413 0e3d d010 083c
000002c0: e8ea 58bc c5d3 023c e9ec 053c a210 9c3c
000002d0: ec9f 4c3c fe2d 1c3d 66e5 4dbc febb d9bc
000002e0: 03aa e43c e70c 16bd 21e0 353d e2c8 c33c
000002f0: d0d9 3dbd 4e81 27bd a901 39bc 03aa c9bc
00000300: c04e 00bd a6a7 1ebd 61c4 7c3b 2b9f 0abd
00000310: 7d45 d2bc 554b 3a3c 200b d13c 2719 143d
00000320: c9c9 04be 2e55 49be 9fab 5dbe 7fd9 75bf
00000330: f085 89bf b0ae cabe 0bb5 34c0 c008 a23e
00000340: ad86 ac3e 662d 41bf 158c 96bf 9066 04bf
00000350: f0fa 5cbe c87c 383f 8e01 2dbf 3c4c 3bbe
00000360: a33f 04bf af2d 72bc 9224 d83e 0668 0b3e
00000370: 0875 713e 0598 43bc 8352 083f 1a19 243e
00000380: c818 29bd b724 67be 0b24 843f 390c 1abf
00000390: 0a68 923d 787a 253d 6cb3 01be 0da8 a7be
000003a0: e9ee cabe 0ad8 be3e cd11 98bd aa99 edbe
000003b0: 9a95 ad3e 0ee3 24bd cc99 4dbe a1f3 6abf
000003c0: 07ef d33e b6d8 5dbe 46d3 d93e 3ab0 f4be
000003d0: ee1e 453c 7ff7 2ebe cde9 aabf ffca 823e
000003e0: 7c0f 773e 07d9 283d 0c47 06bd 6ec2 213f
000003f0: 2df2 c6bc 664f 0e3f 0e6b ba3e 9ca5 30bf

Operation_3_Add_B f4 [50]
0.260974 -1.33394 0.604326 -2.22627 -1.54315 -0.314221 -1.76997 1.51006
-0.804541 -0.476927 0.929968 0.682289 0.148312 0.320039 1.34591 0.0772803
-0.433524 -0.0306575 -1.10827 -0.511861 0.0081589 -0.0106614 -0.342808 -0.791232
0.613741 -0.20948 -3.04714 -0.784653 -1.65763 -0.0227861 -2.9568 0.100699
-0.651586 -0.178629 -0.0383278 -0.571735 0.993043 0.923265 -0.162417 -0.365654
0.759617 -0.563549 -1.22039 -0.792571 0.389272 0.154597 -1.42355 0.025641
-0.266193 -0.00986825
00000000: 629e 853e 8cbe aabf 1cb5 1a3f 357b 0ec0
00000010: f085 c5bf 93e1 a0be 618e e2bf a549 c13f
00000020: 66f6 4dbf c72f f4be 6212 6e3f 7eaa 2e3f
00000030: 1adf 173e 27dc a33e c746 ac3f 2245 9e3d
00000040: dcf6 ddbe 7025 fbbc cbdb 8dbf 5309 03bf
00000050: e8ac 053c 27ad 2ebc 8884 afbe 2e8e 4abf
00000060: 211e 1d3f ed81 56be 5704 43c0 05df 48bf
00000070: 382d d4bf eaa9 babc 363c 3dc0 473b ce3d
00000080: 57ce 26bf 85ea 36be 9cfd 1cbd 3a5d 12bf
00000090: 1138 7e3f 185b 6c3f a450 26be 0037 bbbe
000000a0: 4276 423f bf44 10bf bd35 9cbf efe5 4abf
000000b0: a94e c73e ad4e 1e3e e336 b6bf 130d d23c
000000c0: 734a 88be 71ae 21bc

Operation_4_MatMul_W f4 [50, 50]
0.383535 0.669145 0.495639 -0.0469202 -4.08754 0.976868 -1.42682 -1.24847
-1.05807 1.79573 0.286759 1.25199 0.69579 -0.126114 2.84674 -0.0190397
0.686382 -0.234824 1.54168 -1.9354 0.205152 1.46758 0.00602397 -0.359792
-0.0163845 1.0979 0.680524 1.11101 -0.00499976 -0.21483 -1.53938 -4.79652
-1.08748 0.838567 2.22827 2.49292 3.01692 0.90432 0.20158 0.802886
2.30673 -1.35442 2.57642 0.368836 -1.76469 -0.896593 1.44003 1.10783
-1.2588 0.775668 0.276851 0.188225 0.354845 -0.437066 0.392716 0.677923
1.27094 0.14314 -0.527913 -0.532202 0.204476 0.393688 0.799339 -0.107469
-0.109799 0.700703 0.754414 -0.557531 -0.0938429 -0.401287 -0.194771 0.0696318
0.898959 -0.215036 1.39181 0.482529 -0.000918011 -0.291199 -0.0394261 0.282398
0.792165 -7.30595 -0.836182 0.185191 0.968729 1.69535 0.373046 0.178353
0.145107 0.368547 0.616574 0.314652 0.062008 -0.534823 -0.550351 -0.757755
-0.831846 -0.0232247 -0.487071 0.57187 0.716017 0.177165 1.91005 -1.21244
1.25364 -0.097244 0.938639 0.774372 2.049 1.93289 0.0388779 0.579024
0.2416 0.384078 0.544909 0.293467 -1.49699 0.722423 1.01021 -1.02434
0.90618 1.59801 -0.292951 1.31514 0.660686 0.661068 0.0408518 0.0232545
-0.00668611 -0.0377102 0.396795 -0.381402 -1.74818 0.352287 -0.188268 -0.627761
-0.631417 -0.491867 0.111889 -0.0782904 1.58303 -0.196619 -0.33667 -0.439718
-0.36625 0.100206 0.421176 -0.131823 -0.366622 1.15917 -0.149248 1.00891
0.151163 0.66471 -0.494191 -1.044 -0.493218 0.231832 -0.0999305 -0.689903
-0.204079 0.540613 -0.740541 -0.447687 0.210829 0.424765 -0.701884 0.645739
-0.399092 0.123792 -0.0466391 0.132901 -0.527646 -0.975983 1.74427 -0.360845
-0.489601 -0.417283 0.0124423 -0.41934 0.348916 0.928044 0.168345 -0.479166
1.30881 0.383863 0.130652 0.595173 -0.10667 -0.399312 -0.150962 -0.0336354
-0.200728 0.0925267 0.374711 -0.183365 0.50112 -0.455225 1.07012 0.27961
-0.138608 0.316811 -0.435472 0.357528 0.431291 -0.306957 0.0913023 -1.65364
-0.343092 -0.365608 -0.161403 0.204815 -0.884457 0.0250754 -0.277777 -0.220746
-0.30609 0.179888 -0.491804 0.51556 -0.712351 0.192883 -0.734905 -0.0657365
-0.939046 -0.204787 -0.480719 -0.062372 -0.00345362 0.022696 0.214724 0.941596
0.201383 -0.0883779 -0.569931 -0.191613 -0.41166 0.317409 0.050782 -0.193725
-0.321785 -0.120402 -0.930838 -0.153166 0.103369 -0.210556 -0.135103 -0.0957772
-0.208787 -0.184904 0.1634 -1.06065 -0.311043 -0.479045 0.938561 -0.0253426
00000000: b35e c43e 164d 2b3f 65c4 fd3e 652f 40bd
00000010: 21cd 82c0 0514 7a3f 0aa2 b6bf ddcd 9fbf
00000020: d66e 87bf 7bda e53f 13d2 923e 3541 a03f
00000030: 4b1f 323f 0724 01be fd30 3640 25f9 9bbc
00000040: bbb6 2f3f b475 70be c555 c53f 30bb f7bf
00000050: 5e13 523e a9d9 bb3f b964 c53b a836 b8be
00000060: c938 86bc fd87 8c3f d236 2e3f 9335 8e3f
00000070: 07d5 a3bb 65fc 5bbe 670a c5bf 187d 99c0
00000080: 8b32 8bbf 54ac 563f fa9b 0e40 008c 1f40
00000090: 3815 4140 8481 673f fd6a 4e3e f089 4d3f
000000a0: 77a1 1340 a25d adbf 11e4 2440 12d8 bc3e
000000b0: 5de1 e1bf 1e87 65bf e752 b83f 60cd 8d3f
000000c0: 5c20 a1bf 2e92 463f 6abf 8d3e 0ebe 403e
000000d0: 3eae b53e 1dc7 dfbe 1212 c93e 5d8c 2d3f
000000e0: 29ae a23f 4b93 123e 4e25 07bf 643e 08bf
000000f0: 2862 513e 7991 c93e 7ba1 4c3f b518 dcbd
00000100: 4cde e0bd 4661 333f 4721 413f 5aba 0ebf
00000110: b530 c0bd 7d75 cdbe 0d72 47be 1e9b 8e3d
00000120: 2d22 663f 6632 5cbe d526 b23f 0b0e f73e
00000130: ada6 70ba 0918 95be 437d 21bd 7896 903e
00000140: 53cb 4a3f 58ca e9c0 0610 56bf b6a2 3d3e
00000150: a0fe 773f 3b01 d93f e3ff be3e 2ba2 363e
00000160: ee96 143e 31b2 bc3e cbd7 1d3f 111a a13e
00000170: 1afc 7d3d 29ea 08bf cee3 0cbf 3bfc 41bf
00000180: dcf3 54bf ba41 bebc 5f61 f9be 1366 123f
00000190: e44c 373f be6a 353e 857c f43f 3c31 9bbf
000001a0: 4777 a03f dd27 c7bd a54a 703f 3e3d 463f
000001b0: d122 0340 f168 f73f 6f3e 1f3d eb3a 143f
000001c0: fe65 773e dfa5 c43e 287f 0b3f 4e41 963e
000001d0: 5e9d bfbf b7f0 383f 904e 813f 931d 83bf
000001e0: 6afb 673f 978b cc3f acfd 95be 8256 a83f
000001f0: b822 293f c13b 293f 3854 273d 3980 be3c
00000200: 2817 dbbb 0376 1abd b728 cb3e 1f47 c3be
00000210: 5dc4 dfbf f65e b43e 54c9 40be f2b4 20bf
00000220: 8ba4 21bf fed5 fbbe 0f26 e53d b856 a0bd
00000230: baa0 ca3f 7e56 49be 0360 acbe b822 e1be
00000240: 1f85 bbbe ce38 cd3d 61a4 d73e 9cfc 06be
00000250: e1b5 bbbe af5f 943f 78d4 18be f623 813f
00000260: 79ca 1a3e 6f2a 2a3f 9a06 fdbe cba1 85bf
00000270: 1287 fcbe 5e65 6d3e 5da8 ccbd 7c9d 30bf
00000280: 16fa 50be 9d65 0a3f 1894 3dbf 3b37 e5be
00000290: 8fe3 573e cc7a d93e abae 33bf 274f 253f
000002a0: c955 ccbe a986 fd3d a408 3fbd 3317 083e
000002b0: cf13 07bf 06da 79bf 3d44 df3f adc0 b8be
000002c0: fbac fabe 1ea6 d5be cada 4b3c bcb3 d6be
000002d0: 1ea5 b23e 4b94 6d3f a262 2c3e 3f55 f5be
000002e0: 1687 a73f b189 c43e a3c9 053e 425d 183f
000002f0: cd75 dabd 9f72 ccbe c895 1abe 46c5 09bd
00000300: a48b 4dbe a37e bd3d 1fda bf3e 09c4 3bbe
00000310: 6649 003f 4013 e9be b1f9 883f 0b29 8f3e
00000320: 41ef 0dbe 0d35 a23e 30f6 debe e90d b73e
00000330: 2dd2 dc3e 7829 9dbe b3fc ba3d 7aaa d3bf
00000340: c1a9 afbe f930 bbbe d446 25be 06bb 513e
00000350: c66b 62bf ed6a cd3c c938 8ebe 3d0b 62be
00000360: d4b7 9cbe 8f34 383e bccd fbbe bdfb 033f
00000370: a35c 36bf 1f83 453e bc22 3cbf dca0 86bd
00000380: 5265 70bf afb3 51be cd20 f6be c879 7fbd
00000390: 2156 62bb f6ec b93c 9ce0 5b3e 6f0c 713f
000003a0: 5837 4e3e 79ff b4bd ffe6 11bf 3336 44be
000003b0: 19c5 d2be 6f83 a23e c900 503d d95f 46be
000003c0: 01c1 a4be 5395 f6bd 664b 6ebf 8cd7 1cbe
000003d0: 20b3 d33d fe9b 57be 7158 0abe d626 c4bd
000003e0: 42cc 55be 7957 3dbe 5452 273e 61c3 87bf
000003f0: 0741 9fbe 6345 f5be 8945 703f 499b cfbc

Operation_4_Add_B f4 [50]
-0.2018 -1.14949 -1.01272 -2.06736 -3.25189 -0.529341 1.67369 -0.330843
-2.07219 -0.777696 2.18781 0.592062 -0.213271 0.572386 1.51695 -0.424432
-0.920571 -0.632176 2.07032 -1.35799 -1.41001 -1.29821 -1.19021 0.450461
-1.97564 1.51801 0.748397 1.57246 -0.0103109 0.780026 0.437012 -2.18889
-0.928572 -1.50904 -1.68898 -1.49287 1.92622 -1.78662 -1.67112 0.242609
-1.3017 0.496905 0.930281 -0.708298 -0.208313 -0.344294 -1.47203 -0.660023
-1.0652 -0.601619
00000000: a9a4 4ebe 7d22 93bf cfa0 81bf a04f 04c0
00000010: f71e 50c0 e482 07bf 793b d63f 4164 a9be
00000020: c39e 04c0 1617 47bf 1405 0c40 6091 173f
00000030: b763 5abe e487 123f 6b2b c23f 274f d9be
00000040: 8baa 6bbf 49d6 21bf 1f80 0440 9ed2 adbf
00000050: 357b b4bf bf2b a6bf cd58 98bf d3a2 e63e
00000060: c6e1 fcbf 274e c23f f296 3f3f 5f46 c93f
00000070: 0def 28bc c9af 473f 09c0 df3e c616 0cc0
00000080: e5b6 6dbf 3928 c1bf 7f30 d8bf 5d16 bfbf
00000090: 618e f63f f7af e4bf 43e7 d5bf 7e6e 783e
000000a0: 1b9e a6bf 556a fe3e e526 6e3f 0553 35bf
000000b0: 0150 55be 4e47 b0be 7b6b bcbf 44f7 28bf
000000c0: 7958 88bf b403 1abf

Operation_5_MatMul_W f4 [50, 50]
-0.284458 0.642773 -0.0579701 0.392868 0.556111 -0.399721 0.0299279 -1.1134
0.806368 -0.876271 -0.625529 0.373107 -2.00591 0.96779 0.489538 -0.462475
-0.183505 -1.58524 -0.508875 -0.407187 -0.0137665 0.290962 0.019393 -1.10435
0.535295 -0.569769 0.407722 -2.47438 -0.237863 -0.723499 -1.57783 0.508267
1.12017 -0.0308642 -3.32646 0.342257 0.413163 -0.846517 -0.689143 -0.587103
-0.0731303 -0.304844 -5.26791 -0.596874 0.643913 0.763963 -2.3167 -0.972122
2.06402 -0.00577423 -2.90821 -0.0585788 -0.257359 0.375032 -1.87182 0.133614
-0.230099 -0.535154 0.220399 -0.224691 -0.583188 0.0281282 -2.79053 -1.8928
0.125317 -0.443447 0.748056 0.739266 0.137322 -5.42288 -0.133017 0.120588
0.527932 -0.212459 -0.896951 -0.426028 0.34756 0.69692 0.14305 -2.73357
1.27707 -0.340994 -0.708504 -2.10013 -3.58217 0.186795 -0.024395 -0.715695
-0.662799 -2.16727 0.610171 -0.318683 -1.1379 -0.0705981 0.163388 0.517621
-2.99054 0.560648 -0.195054 -2.12614 -1.35901 -0.551405 0.809686 0.213329
0.0799105 0.278566 -0.261266 -0.573086 -0.253585 -0.673349 -0.187175 -0.0198877
-0.368567 1.6261 0.35285 -0.0624704 1.36662 -0.231625 1.25029 -3.21428
0.384771 0.50306 1.34292 -0.307478 -0.501688 -0.124682 -0.332841 -0.262813
0.204986 -2.16509 -0.126114 -0.587437 0.582252 1.1747 -4.02233 0.367824
0.0129397 0.467936 -0.670426 -0.0695859 -0.361855 -1.0276 0.14148 0.051814
0.0998916 0.371545 0.806989 -0.468955 -0.382509 0.708129 -1.06225 -0.0237244
-0.796973 0.849447 0.364298 -0.0599423 0.0405052 0.788469 -0.192616 -1.12444
1.7722 0.0875274 -1.28153 1.66381 0.00593096 0.7627 -2.10097 -6.13359
-0.0571155 -4.96388 -0.51122 0.648813 -0.6412 -0.186716 -0.107467 -7.11861
0.221749 0.0013888 0.431387 0.598666 0.719358 0.397827 0.0391347 -3.73417
-9.64079 -0.289394 0.212815 -2.98593 1.01106 0.138558 -0.718134 -2.86686
0.411001 0.280627 0.451657 -0.274211 -2.01757 -0.783089 0.70983 2.54585
1.36355 0.25075 0.239913 -0.0530061 0.232287 -0.0115159 -0.0366726 -0.0307717
0.157598 0.273632 0.435923 0.0138123 -0.037985 1.18435 -0.218422 -0.376186
0.533877 -1.56976 -0.036987 2.06282 -0.0831963 -0.123741 0.496073 -0.306426
-0.12357 0.578729 -0.215193 0.0608239 -0.321335 1.70297 0.813438 0.33886
-0.245497 0.563047 0.735677 0.0254856 -0.130671 0.148467 0.739915 0.494254
-0.0924811 1.84821 -0.793625 -0.145438 -0.162495 -0.36825 1.75254 0.435844
-0.195368 0.5892 1.39787 0.77033 -2.0474 0.293769 1.56873 -0.0626866
00000000: 7ba4 91be c58c 243f 0e72 6dbd ff25 c93e
00000010: 4a5d 0e3f 3ba8 ccbe 5b2b f53c e483 8ebf
00000020: 226e 4e3f 4c53 60bf ab22 20bf e107 bf3e
00000030: d460 00c0 16c1 773f baa4 fa3e 86c9 ecbe
00000040: bce8 3bbe 25e9 cabf a245 02bf d17a d0be
00000050: e38c 61bc f9f8 943e 12de 9e3c 575b 8dbf
00000060: 1809 093f 62dc 11bf f0c0 d03e 3e5c 1ec0
00000070: 5c92 73be 3b37 39bf 55f6 c9bf c91d 023f
00000080: bb61 8f3f ebd6 fcbc b8e4 54c0 4f3c af3e
00000090: 1a8a d33e 57b5 58bf ad6b 30bf 624c 16bf
000000a0: 57c5 95bd 8314 9cbe b892 a8c0 bccc 18bf
000000b0: 7bd7 243f 1493 433f d044 14c0 fddc 78bf
000000c0: e718 0440 c135 bdbb 1d20 3ac0 53f0 6fbd
000000d0: 8fc4 83be 3204 c03e cc97 efbf 1cd2 083e
000000e0: 129f 6bbe daff 08bf 47b0 613e 6615 66be
000000f0: cf4b 15bf 1c6d e63c 0b98 32c0 4547 f2bf
00000100: 1a53 003e 7c0b e3be 9980 3f3f 8940 3d3f
00000110: 239e 0c3e 3c88 adc0 9c35 08be d7f6 f63d
00000120: 8d26 073f da8e 59be 959e 65bf 5820 dabe
00000130: 62f3 b13e 5969 323f b37b 123e d0f2 2ec0
00000140: 0877 a33f c496 aebe 8560 35bf 8868 06c0
00000150: 4642 65c0 3047 3f3e 06d8 c7bc ca37 37bf
00000160: 32ad 29bf 8db4 0ac0 2b34 1c3f 6b2a a3be
00000170: b5a6 91bf bd95 90bd 2f4f 273e cf82 043f
00000180: 0265 3fc0 a186 0f3f 3cbc 47be ae12 08c0
00000190: 0af4 adbf e128 0dbf 9547 4f3f eb72 5a3e
000001a0: 1ea8 a33d 34a0 8e3e a8c4 85be c4b5 12bf
000001b0: e5d5 81be 9a60 2cbf ceaa 3fbe 88eb a2bc
000001c0: d0b4 bcbe 0b24 d03f c1a8 b43e f6e0 7fbd
000001d0: 67ed ae3f 1b2f 6dbe 8109 a03f c3b6 4dc0
000001e0: b400 c53e 8ac8 003f cde4 ab3f c26d 9dbe
000001f0: a06e 00bf 4759 ffbd 236a aabe 6d8f 86be
00000200: dae7 513e d690 0ac0 0724 01be 4562 16bf
00000210: 780e 153f 925c 963f edb6 80c0 6d53 bc3e
00000220: 0901 543c 4f95 ef3e 0aa1 2bbf 0d83 8ebd
00000230: 0f45 b9be 6688 83bf 22e0 103e eb3a 543d
00000240: f893 cc3d 253b be3e d596 4e3f df1a f0be
00000250: 38d8 c3be f147 353f cff7 87bf ac59 c2bc
00000260: 6c06 4cbf 5c75 593f 4485 ba3e 0f86 75bd
00000270: c8e8 253d 1bd9 493f 213d 45be a6ed 8fbf
00000280: 73d7 e23f 9141 b33d 2d09 a4bf baf7 d43f
00000290: 8058 c23b 4f40 433f 4b76 06c0 5f46 c4c0
000002a0: f1f1 69bd 1bd8 9ec0 50df 02bf 9c18 263f
000002b0: af25 24bf 7b32 3fbe a917 dcbd a7cb e3c0
000002c0: 2b12 633e 6508 b63a c2de dc3e 2d42 193f
000002d0: d927 383f fbaf cb3e b54b 203d a4fc 6ec0
000002e0: ad40 1ac1 732b 94be 2dec 593e 7a19 3fc0
000002f0: 6a6a 813f 26e2 0d3e a1d7 37bf a27a 37c0
00000300: b96e d23e 58ae 8f3e 963f e73e 6265 8cbe
00000310: de1f 01c0 8578 48bf 6bb7 353f 35ef 2240
00000320: ce88 ae3f 4e62 803e c1ab 753e ed1c 59bd
00000330: a5dc 6d3e 2fad 3cbc 0236 16bd ef14 fcbc
00000340: 5f61 213e 7e19 8c3e 4d31 df3e fc4c 623c
00000350: 2996 1bbd c898 973f 04aa 5fbe 749b c0be
00000360: 2aac 083f e5ed c8bf ae7f 17bd 3e05 0440
00000370: d262 aabd ec6b fdbd 48fd fd3e dee3 9cbe
00000380: 4512 fdbd 9527 143f 8e5b 5cbe 7b22 793d
00000390: 0586 a4be ecfa d93f 793d 503f 0f7f ad3e
000003a0: 9163 7bbe d923 103f 5455 3c3f 2dc7 d03c
000003b0: 9ece 05be bc07 183e 126b 3d3f dc0e fd3e
000003c0: bb66 bdbd 2592 ec3f 022b 4bbf b3ed 14be
000003d0: 1765 26be 448b bcbe 3b53 e03f f226 df3e
000003e0: 8d0e 48be d0d5 163f 67ed b23f 5934 453f
000003f0: 9a08 03c0 e468 963e 25cc c83f d561 80bd

Operation_5_Add_B f4 [50]
-1.74876 0.253907 1.67388 -0.161055 1.25397 0.997695 0.342161 0.44887
-1.9311 -0.782462 -1.14799 1.65161 -2.4911 7.28383 -0.878468 -1.27446
-1.93616 3.50729 -0.246447 -3.02899 -2.59509 0.239088 4.81079 -0.245792
-0.725699 3.33554 -0.322372 -0.515534 -2.34354 1.58217 1.03624 0.346889
-1.90104 1.59345 -1.35819 1.93089 -0.867027 1.44552 2.50381 -3.04041
2.20707 3.3454 2.94909 1.1504 -1.72347 1.05791 0.527585 3.556
-0.372418 3.5298
00000000: 5ed7 dfbf 1900 823e b341 d63f 9aeb 24be
00000010: 1782 a03f f168 7f3f ba2f af3e 4ad2 e53e
00000020: 492e f7bf 6e4f 48bf 56f1 92bf f567 d33f
00000030: 2f6e 1fc0 2315 e940 47e3 60bf 8121 a3bf
00000040: 17d4 f7bf 7077 6040 9a5c 7cbe f9da 41c0
00000050: f415 26c0 7cd3 743e fef1 9940 e6b0 7bbe
00000060: 69c7 39bf 7d79 5540 f10d a5be 09fa 03bf
00000070: 8ffc 15c0 8c84 ca3f 83a3 843f 6f9b b13e
00000080: 4755 f3bf 2bf6 cb3f 2bd9 adbf 6727 f73f
00000090: 7bf5 5dbf cd06 b93f 6c3e 2040 1496 42c0
000000a0: a340 0d40 091b 5640 e4bd 3c40 4f40 933f
000000b0: aa9a dcbf 9869 873f d00f 073f 8195 6340
000000c0: 92ad bebe 3ee8 6140

Operation_6_MatMul_W f4 [50, 50]
-1.15247 0.155383 -4.46399 -0.692011 -0.644069 -0.542287 1.61255 -0.0280369
-0.562299 -0.794084 -2.55124 0.128518 -0.558566 -0.722363 0.0980831 -0.0418625
-0.991915 -0.426063 0.107814 -0.226689 0.00249666 0.00116627 -0.855662 -3.9959
-0.686317 -0.0702971 0.201595 -0.101396 -0.404857 -0.275304 -0.804861 0.183592
0.487479 -0.689536 -3.67398 -0.0012901 0.534567 0.761981 -1.17211 0.353145
-0.121987 -0.498935 -1.79206 -0.293782 -0.701081 -0.00134833 -0.0459964 -0.495857
-0.447529 1.05451 -0.891042 0.208374 2.19305 0.370591 -0.593611 -0.0678535
4.00756 0.0817909 1.26812 -1.40734 -0.933417 -0.0138498 -0.150143 -1.43933
-0.0849157 -0.0835394 -0.0186636 -0.32622 -2.0926 -0.337825 0.025108 -0.109549
1.178 1.506 0.177774 -0.120614 -0.144741 -0.00585529 0.0441952 2.16608
0.13252 -2.37096 0.584035 -0.639573 -0.0291785 0.0264944 0.0531621 1.87113
-0.270227 0.777122 -0.263273 -0.0219978 0.0504346 -1.52343 -0.10587 -0.0621055
0.0692352 0.0412427 -4.00074 0.397055 -3.68046 1.42125 3.32791 1.19428
-1.13856 0.0200221 1.11102 -0.0248764 1.19419 -1.34548 -0.212269 0.0463496
-0.172933 -1.60769 0.0351337 -0.0836727 0.0369247 0.926142 -0.643459 -0.477097
-0.00435492 0.0221047 2.44133 -1.2389 0.0105022 -0.316574 0.58678 -0.165441
-0.0338276 -1.13536 -3.0726 -2.61507 1.13516 -1.37592 -0.0235748 0.0191581
0.447911 2.25961 -4.50514 -0.717859 -0.292346 -0.167634 0.0362922 -0.0133713
0.0307389 -0.0630104 0.00939192 0.17562 -2.3326 3.92722 -6.49383 -0.362317
-2.28098 -0.397462 0.634921 -0.163197 -1.43366 0.0900202 0.305296 -1.75533
-0.340629 0.0147658 -0.0246814 0.793975 -0.013736 -0.0548831 -0.00325722 -0.0588776
-2.32878 -0.41539 0.0339071 0.126173 0.179386 -0.700323 0.0976356 0.864388
0.0503554 -0.201568 -0.00521113 0.618412 -0.908957 -1.98019 -0.944603 -6.84684
-0.0262905 -0.0120184 0.215942 -0.278529 0.591458 -1.56763 -0.21341 -0.139968
0.0513773 -1.12027 0.0437185 0.00344293 0.22807 -0.221822 -3.12996 -0.308356
-0.323202 0.584328 -2.3753 -0.100864 -0.108535 -0.00147263 2.30466 -0.0471934
0.870573 -0.412088 0.0354291 0.0802748 -2.06511 -1.41532 -1.4507 -0.0344221
-0.107782 0.61074 0.10569 -0.163067 0.000162167 -0.024783 -2.23465 0.710109
-0.339098 -0.477035 -0.16447 -0.0773723 -0.0157853 0.609809 0.1031 1.29891
0.347157 0.125206 0.00643361 0.0112824 0.583469 0.435832 -0.304292 -0.501954
-0.0865753 -1.14163 0.00659559 1.30931 -0.569323 0.0059664 -0.49502 -1.35344
-0.0934493 0.864424 -5.13692 1.92507 2.95559 0.67485 -4.82327 0.207801
00000000: 2384 93bf b91c 1f3e 02d9 8ec0 a227 31bf
00000010: b5e1 24bf 52d3 0abf 0a68 ce3f a4ad e5bc
00000020: d4f2 0fbf 1749 4bbf 8447 23c0 399a 033e
00000030: 2efe 0ebf c8ec 38bf cbdf c83d 0378 2bbd
00000040: 24ee 7dbf ee24 dabe 96cd dc3d 2921 68be
00000050: 019f 233b 87dd 983a aa0c 5bbf d3bc 7fc0
00000060: 79b2 2fbf edf7 8fbd eb6e 4e3e b5a8 cfbd
00000070: 6b49 cfbe a5f4 8cbe 5f0b 4ebf 8bff 3b3e
00000080: d996 f93e 6e85 30bf 7d22 6bc0 9318 a9ba
00000090: 62d9 083f 3011 433f b307 96bf 6ccf b43e
000000a0: 52d4 f9bd 6974 ffbe 3962 e5bf 986a 96be
000000b0: 0b7a 33bf 73ba b0ba b966 3cbd f8e0 fdbe
000000c0: 8522 e5be 2ffa 863f 541b 64bf fe5f 553e
000000d0: ee5a 0c40 1bbe bd3e e4f6 17bf c7f6 8abd
000000e0: ee3d 8040 fd81 a73d c251 a23f b823 b4bf
000000f0: 6bf4 6ebf 46ea 62bc 16bf 19be f73b b8bf
00000100: 48e8 adbd b416 abbd 68e4 98bc 4f06 a7be
00000110: 29ed 05c0 66f7 acbe 4baf cd3c 3a5b e0bd
00000120: b4c8 963f 9cc4 c03f 630a 363e 7904 f7bd
00000130: fc36 14be bcdd bfbb 0706 353d 0ea1 0a40
00000140: 53b3 073e cfbd 17c0 5183 153f 0ebb 23bf
00000150: c007 efbc c90a d93c 81c0 593d 3081 ef3f
00000160: 315b 8abe 78f1 463f b8cb 86be bb34 b4bc
00000170: 8394 4e3d c1ff c2bf 5fd2 d8bd 5662 7ebd
00000180: 2fcb 8d3d 1bee 283d 1006 80c0 cb4a cb3e
00000190: a88c 6bc0 85eb b53f 7afc 5440 2bde 983f
000001a0: 56bc 91bf 6305 a43c e735 8e3f 98c9 cbbc
000001b0: 38db 983f b038 acbf 0b5d 59be 14d9 3d3d
000001c0: 5915 31be c9c8 cdbf 5be8 0f3d 985c abbd
000001d0: 5b3e 173d a417 6d3f bbb9 24bf 0f46 f4be
000001e0: b7b3 8ebb ea14 b53c c03e 1c40 4694 9ebf
000001f0: 6b11 2c3c fd15 a2be 3737 163f 5e69 29be
00000200: cf8e 0abd 7a53 91bf 7aa5 44c0 4f5d 27c0
00000210: ec4c 913f 261e b0bf f01f c1bc 73f1 9c3c
00000220: 9754 e53e 739d 1040 1b2a 90c0 9cc5 37bf
00000230: 60ae 95be 3fa8 2bbe 21a7 143d 4c13 5bbc
00000240: 25d0 fb3c 990b 81bd 91e0 193c bbd5 333e
00000250: 5249 15c0 9357 7b40 75cd cfc0 9d81 b9be
00000260: 94fb 11c0 2480 cbbe 2f8a 223f 1d1d 27be
00000270: 2c82 b7bf 835c b83d c24f 9c3e a7ae e0bf
00000280: ed66 aebe 41ec 713c a630 cabc f241 4b3f
00000290: f60c 61bc 1acd 60bd 1577 55bb a329 71bd
000002a0: bb0a 15c0 00ae d4be 2ce2 0a3d 7f33 013e
000002b0: f7b0 373e 5e48 33bf 2cf5 c73d 8848 5d3f
000002c0: 7741 4e3d d767 4ebe 20c2 aabb 4050 1e3f
000002d0: 68b1 68bf de76 fdbf 81d1 71bf 5019 dbc0
000002e0: 2d5f d7bc d3e8 44bc e61f 5d3e 5a9b 8ebe
000002f0: cb69 173f 1aa8 c8bf 2788 5abe c553 0fbe
00000300: 0171 523d 0265 8fbf 2b12 333d c8a2 613b
00000310: 2f8b 693e 4e25 63be 4451 48c0 d6e0 9dbe
00000320: bc7a a5be 8596 153f ea04 18c0 c991 cebd
00000330: 9947 debd 4305 c1ba 8d7f 1340 de4d 41bd
00000340: dfdd 5e3f 33fd d2be 1b1e 113d 1d67 a43d
00000350: c32a 04c0 3529 b5bf 8ab0 b9bf 30fe 0cbd
00000360: cfbc dcbd 7559 1c3f 0074 d83d 09fb 26be
00000370: 5f0b 2a39 b805 cbbc 8104 0fc0 b4c9 353f
00000380: 419e adbe ee3d f4be d36a 28be 5e75 9ebd
00000390: 2c50 81bc 711c 1c3f 1826 d33d af42 a63f
000003a0: 90be b13e 0036 003e 08d1 d23b d1d9 383c
000003b0: 395e 153f 5f25 df3e 29cc 9bbe 0f80 00bf
000003c0: 644e b1bd ef20 92bf d21f d83b 7897 a73f
000003d0: 27bf 11bf ca81 c33b 4373 fdbe 863d adbf
000003e0: 5962 bfbd e44a 5d3f a661 a4c0 b268 f63f
000003f0: 6328 3d40 f8c2 2c3f 3a58 9ac0 c9c9 543e

Operation_6_Add_B f4 [50]
2.07916 -1.39926 -5.55948 -2.66989 3.4506 0.203118 -2.20412 1.71758
-2.44484 1.4314 0.922665 -0.0437472 -0.433662 0.610797 0.259271 1.58874
0.223327 -1.00317 -0.393353 2.61031 0.833104 1.62525 -4.60521 4.54029
0.199505 0.966078 -0.50742 1.80939 0.557295 -3.06648 -0.590207 -3.1378
-1.63815 1.35942 0.421225 0.352583 -0.132692 -0.95703 2.59793 -0.634833
1.99298 -0.541451 0.705181 0.399955 -0.0392576 -0.585888 -1.27868 -2.30265
2.28215 -7.01008
00000000: f510 0540 f41a b3bf 43e7 b1c0 7adf 2ac0
00000010: a1d6 5c40 2afe 4f3e 4d10 0dc0 a9d9 db3f
00000020: 4278 1cc0 1d38 b73f c633 6c3f 4430 33bd
00000030: f208 debe 315d 1c3f 2bbf 843e d55b cb3f
00000040: d5af 643e e067 80bf 9065 c9be 520f 2740
00000050: 4e46 553f 3108 d03f e15d 93c0 0e4a 9140
00000060: 0a4b 4c3e e350 773f 47e6 01bf 179a e73f
00000070: e3aa 0e3f 3541 44c0 ce17 17bf b7d1 48c0
00000080: e6ae d1bf 7901 ae3f ceaa d73e c285 b43e
00000090: 69e0 07be ebff 74bf 7c44 2640 6a84 22bf
000000a0: f819 ff3f 889c 0abf be86 343f e7c6 cc3e
000000b0: 94cc 20bd c2fc 15bf c9ab a3bf 9e5e 13c0
000000c0: bf0e 1240 9352 e0c0

linear_7_MatMul_W f4 [50, 5]
-0.00454148 0.000155887 0.0003028 0.000978462 0.000607833 0.00642102 0.000205829 8.40672e-06
0.000540335 0.000253211 0.00402259 -7.60052e-05 -3.93022e-05 8.17847e-05 -0.000615608 0.00885858
0.00120396 -0.000463395 0.00110798 0.000176815 -0.00276544 -0.000943924 -0.00112433 -0.000760034
0.00159009 -0.00355832 -0.00290352 0.00973084 -0.00444831 -0.0067397 0.00492281 0.000780341
-0.00118901 0.000786298 0.00064239 0.0147322 0.0150918 0.0107874 0.0138024 0.00872998
0.00478438 0.000728597 9.23039e-05 0.000648868 0.000696889 -0.0053454 -0.000224143 6.08302e-05
0.000230847 0.000821955 -0.0119291 -0.00190043 0.00293466 -0.00241978 -0.00086092 -0.0746283
3.15749e-05 0.00753901 -0.00636783 -0.00291853 0.00402109 0.014554 -0.0107597 0.0188287
-0.00313023 -0.108898 -0.0521487 0.016787 -0.047526 -0.0405416 0.0146596 0.0162342
0.0162686 0.0116542 0.0124626 0.00735077 -6.36922e-05 -0.000826706 -0.000275586 -0.00173261
-0.000655873 -0.0101279 -0.00200926 -0.00548263 0.0283827 0.00992509 0.000135024 -0.000212909
0.000158817 -6.53922e-05 -0.00986492 0.000335872 0.000768593 0.000238326 -5.40601e-06 -0.0281286
-0.000468468 0.00143195 -0.000560086 -0.000533443 0.00336489 0.0143734 0.00804901 0.0159969
0.0108937 -0.00054012 0.00693918 0.00820748 0.00651283 0.00807823 0.00416392 0.00101787
0.00033891 0.00102447 0.00198961 -0.0042306 0.000174815 0.000353915 6.46647e-05 0.000408148
0.00699794 -0.00922479 -0.000357691 -0.0109912 0.0117489 0.00436575 0.00545883 0.00543417
0.00523072 0.00508618 0.00516212 0.00586124 -0.000349924 0.00661097 -0.000154186 0.0225791
0.00059662 -0.000782082 0.00130776 0.00066309 0.00938926 0.00444013 0.00956411 0.00247503
-0.00111372 0.00347602 0.000279655 0.000679303 0.00104741 -0.000250015 0.00788656 0.000234279
-0.00063038 0.000226865 0.000749889 0.00440694 0.00153682 -0.00144257 0.00140179 0.00031427
0.00533755 0.00100993 4.10698e-05 0.000439766 9.45702e-05 -0.00609062 0.000956391 0.000599935
-0.00027433 0.00012236 0.00256749 0.0225561 -0.00376793 0.0242939 -0.00568119 0.00048943
-0.000498137 0.00778238 -0.000614336 0.0241353 0.012968 0.00106142 -0.00151862 0.00131567
0.0015561 0.00593265 4.03341e-06 -8.37568e-05 0.000220509 -0.000376192 -0.0103799 -0.000261868
0.00050821 0.000751154 0.000277162 0.00388217 0.000913322 -0.000577993 0.0011025 0.00102756
0.0367167 0.00076557 -0.00166799 0.00130578 0.00127156 0.0101179 0.0138687 0.00869065
0.0133361 0.0100671 0.00407925 0.0167135 -0.00301457 0.0162516 -0.00453232 -0.00910023
9.05659e-05 0.00014706 4.95531e-05 0.000304894 0.00750099 -0.00635103 0.0284885 -0.00564636
0.00242363 0.000121376 -0.00119497 0.00731898 -0.00293728 0.0190446 -0.0127676 -0.0232193
-0.0020141 -0.0226644 -0.00135286 0.0148089 0.0166413 0.0121947 0.0121077 0.0212455
-0.0056746 0.0017267 0.00023668 0.000301999 0.00192425 0.00253566 0.000736894 -0.00036509
0.000302309 5.99954e-05
00000000: b2d0 94bb 9975 2339 21c1 9e39 bd3f 803a
00000010: fb56 1f3a 6b67 d23b cdd3 5739 960a 0d37
00000020: 45a5 0d3a 68c1 8439 eecf 833b fb64 9fb8
00000030: 6ad8 24b8 d483 ab38 c160 21ba 9423 113c
00000040: 32ce 9d3a d3f3 f2b9 a439 913a 6a67 3939
00000050: 623c 35bb ab71 77ba 415e 93ba 053d 47ba
00000060: 916a d03a b432 69bb fb48 3ebb 1a6e 1f3c
00000070: 21c3 91bb b4d8 dcbb 864f a13b cc8f 4c3a
00000080: 8ed8 9bba 911f 4e3a 1066 283a 535f 713c
00000090: 9943 773c a3bd 303c 7623 623c 3108 0f3c
000000a0: 4ac6 9c3b 51ff 3e3a 4793 c138 cb18 2a3a
000000b0: 6eaf 363a 7728 afbb ee07 6bb9 ee23 7f38
000000c0: 850f 7239 7778 573a 4672 43bc d917 f9ba
000000d0: 6d53 403b 2c95 1ebb 5daf 61ba b9d6 98bd
000000e0: 4a6f 0438 cd09 f73b 3ba9 d0bb cf44 3fbb
000000f0: 59c3 833b e773 6e3c 7449 30bc a53e 9a3c
00000100: 8b24 4dbb ea05 dfbd e099 55bd e484 893c
00000110: 9faa 42bd f30e 26bd d22e 703c 96fd 843c
00000120: ba45 853c 42f1 3e3c ef2f 4c3c bade f03b
00000130: 7d92 85b8 4db7 58ba 877c 90b9 bf18 e3ba
00000140: e4ee 2bba 7eef 25bc caad 03bb a2a7 b3bb
00000150: d682 e83c d89c 223c 3b95 0d39 5340 5fb9
00000160: 1d88 2639 2c23 89b8 79a0 21bc fa17 b039
00000170: 677b 493a 26e7 7939 4665 b5b6 f36d e6bc
00000180: b69c f5b9 45b0 bb3a bcd2 12ba c1d6 0bba
00000190: 7d85 5c3b 697e 6b3c ffdf 033c ee0b 833c
000001a0: 7d7b 323c d796 0dba 1062 e33b ab78 063c
000001b0: 9469 d53b 8d5a 043c 7e71 883b 0d6a 853a
000001c0: bbaf b139 8247 863a 1e64 023b d8a0 8abb
000001d0: 8b4e 3739 ab8d b939 999c 8738 b2fc d539
000001e0: fa4e e53b 9323 17bc 7988 bbb9 6f14 34bc
000001f0: 757e 403c 910e 8f3b fcdf b23b 1f11 b23b
00000200: 7666 ab3b f8a9 a63b 0027 a93b a50f c03b
00000210: 0176 b7b9 d6a0 d83b fdac 21b9 cef7 b83c
00000220: 7e66 1c3a a204 4dba 2569 ab3a 37d3 2d3a
00000230: 69d5 193c 837e 913b c9b2 1c3c 1d34 223b
00000240: 3efa 91ba f0cd 633b a99e 9239 4113 323a
00000250: 3f49 893a 7214 83b9 a136 013c caa8 7539
00000260: 1640 25ba 9ce2 6d39 3394 443a 1868 903b
00000270: 1f6f c93a 9e14 bdba 44bc b73a 9bc4 a439
00000280: 9de6 ae3b a15f 843a 5d42 2c38 6590 e639
00000290: fd53 c638 d393 c7bb 50b6 7a3a f544 1d3a
000002a0: f3d3 8fb9 c34d 0039 5643 283b 92c7 b83c
000002b0: 60ef 76bb 0004 c73c 4729 babb 174d 003a
000002c0: 6895 02ba 5603 ff3b 640b 21ba 65b7 c53c
000002d0: bc77 543c 581f 8b3a 6e0c c7ba 8f72 ac3a
000002e0: 0df6 cb3a ad66 c23b ba56 8736 97a6 afb8
000002f0: 6f38 6739 a33b c5b9 7510 2abc 544b 89b9
00000300: 6539 053a 17e9 443a 0e50 9139 016c 7e3b
00000310: 006c 6f3a 7484 17ba c381 903a 31af 863a
00000320: 4064 163d 88b0 483a 75a0 daba b526 ab3a
00000330: 79aa a63a 8cc5 253c 8b39 633c 3a63 0e3c
00000340: a87f 5a3c 7af0 243c 3bab 853b c0ea 883c
00000350: 1890 45bb 1322 853c db83 94bb 2219 15bc
00000360: 33ee bd38 1e34 1a39 3cd7 4f38 2eda 9f39
00000370: ddca f53b 4d1c d0bb b760 e93c 1a05 b9bb
00000380: c4d5 1e3b 3e8b fe38 8aa0 9cba 0ed4 ef3b
00000390: 627f 40bb 6c03 9c3c 322f 51bc 6736 bebc
000003a0: fefe 03bb b1aa b9bc 7352 b1ba 07a1 723c
000003b0: 5653 883c 47cc 473c 605f 463c 0b0b ae3c
000003c0: fff1 b9bb 7052 e23a 4e2d 7839 9f55 9e39
000003d0: 1e37 fc3a 512d 263b 1f2c 413a 8d69 bfb9
000003e0: 3a7f 9e39 92a3 7b38

linear_7_Add_B f4 [5]
-0.0204593 0.0182197 -0.018345 0.0186217 -0.0179438
00000000: 439a a7bc 7b41 953c 4148 96bc 898c 983c
00000010: e0fe 92bc
