networks/onnx/ACASXU_run2a_4_4_batch_2000.onnx (onnx, 55914 bytes, 15 tensors)

input_AvgImg f4 [1, 1, 5]
00000000: 0000 0000 0000 0000 0000 0000 0000 0000
00000010: 0000 0000
0.0 0.0 0.0 0.0 0.0

Operation_1_MatMul_W f4 [5, 50]
00000000: feda 75bd df47 bf3c 5d70 463e 18f8 403c
00000010: 0416 053d 706c 2cbc ad6e e1bf f4df 07bf
00000020: f1ff 993c 9c09 3c3c d6fe 6fbb 762b c53d
00000030: 2097 f8bc ed33 82bc 800e 633f dd29 e0b9
00000040: 8a46 57ba d2e3 77bc 7030 0a3d 5741 cc3c
00000050: bff6 0abc 9769 253d 2e76 96bc 6b9f 9ebf
00000060: e6e7 c6bc 6210 84bf 239f 57bc 1679 93bd
00000070: 0c5a 0abc 7713 bcbc 7704 063d 90a0 8cbf
00000080: dd50 67bc 4bcd 023f 8c2c 69bf d176 70bf
00000090: 0ffa 08bd 512e 7dbf cd9d 6f3d f59f 353d
000000a0: 55db 1dbe dbcd 923d 0c9b b7bd 3a22 9fbc
000000b0: 8ffc b1be 086e 0bbb 65aa ccbf 9daf 833d
000000c0: 78bc e43c 0187 cc3f 7098 e8bd b0fe a73f
000000d0: a4df 0a3f b031 54bc 124b 2ebf 6518 d7bd
000000e0: c0b3 fdbd 253c c2bb 8126 1040 111a 513e
000000f0: 76c5 0cbe eeb1 a03f 3810 42be 676c de3c
00000100: bfde f5bb 3d9b a93f c6a2 01bf 74d5 973c
00000110: dd25 313e 1214 0f3f ad6b 843e 00ae ccbf
00000120: 4bb0 203f 3f96 99bc 8d7c 3a3f 9faf 493e
00000130: 27a7 51bd 0d54 12c0 1f67 2abe c0a4 b23d
00000140: 3b0e cdbc a5f4 6cbe ff76 79be 8ed5 8cbd
00000150: 1cea 1cbd fa43 233e 016a ea3e d8ed 98bc
00000160: fb58 893e 3659 b7bf fc38 1abe e283 a83d
00000170: 5856 02bf 5cac 0240 e049 933e 666c f8be
00000180: f086 d43d 7b49 fbbe c902 8ebf ef43 343d
00000190: b3b6 193e 564a cf3d 2715 7d3e 9572 67bb
000001a0: 5743 1ebf 4ac8 a13d f6af 91bd 508e e23d
000001b0: 7522 01bd f5bd 36be 3869 0a3e a091 f1b9
000001c0: 9e43 69bf 855f cabf 16e6 f3ba a30c 103d
000001d0: 8f1d b4be dd4d 853a ea3d 45be c217 06bf
000001e0: 1c5d 95be b3de 9c3b bd6e c93e 8587 3fbd
000001f0: 73a2 21bf 19d4 6dbc 897d a23d 0bb5 1040
00000200: 9144 9f3e 2c24 093b 145b 81bc 9049 9e3e
00000210: 96af 7b3e b13b 07b8 6dab 353f b51b 2dbe
00000220: ecdd 4b3f f0b7 a43b 27a0 053f bce8 ab3f
00000230: b23f bb3b 8412 b63f 11c4 093f 4df8 13c0
00000240: 213c 3a3d 7575 033f 9f71 613c e04d 8f3e
00000250: 71cc 32be 65cb 4dbc bf98 ad3e 295f 103f
00000260: e4f4 15be 27a1 b63b bd35 08bf a241 1e3f
00000270: b5ce ae3c 5125 14bd 03ee 813e ed0b 543f
00000280: f489 403f 0edd 2c3f 1739 babd 13a8 b43d
00000290: fef1 063f 1288 173f 4832 9bbe 0ef8 2c3f
000002a0: c2f8 e93b f711 c93c 581c 4a3f 737f 193f
000002b0: 317c 18bf 8232 a2bd 5a64 f7bf 4e0a 433e
000002c0: 8412 82bf da73 09be 8750 29bf 44bf 163e
000002d0: af7c 123f de1f 0bbf 2ba4 acbf e204 03bc
000002e0: 7f72 af3d 078a 893d e083 d7be b1c0 d7bd
000002f0: f0dd 4a3f 902e 163e fa9b 803e e541 c23e
00000300: dd81 85bd 63a4 0dbd 132a a83e 9cfd 693f
00000310: 93d4 d73b 33bd 69bc 89b1 083f cafd 3ebe
00000320: adc2 a63c da1e 5dbe d1f7 b9bd b7a2 45ba
00000330: a60e 223e d2c6 81bf 2e88 2d3d 1b0f f63e
00000340: a741 093f 2768 57bf da1b a8bf b263 87bf
00000350: 1c5c da3d a8ed d5bc d8ba 8cbe c959 90bf
00000360: a92f 1b3e 2008 583f 336d abbf 3f3a 85bf
00000370: 2879 aabd 4e99 43bf 079b 4a3e 1d3d 0ebe
00000380: fb00 c9bb 9a7d 9e3c f242 72bf 9f93 a63e
00000390: a69b 1c3f f5b9 323f 3be4 c2bf 081e 9f3e
000003a0: 74eb 053f 9580 d83d eac0 033d a681 a7be
000003b0: d715 133e 6f62 48bf b48e b6bf 1c33 ffbc
000003c0: ed9a f03d 4b04 2abe a488 f4bf e317 b63e
000003d0: 18d1 36be 4d84 9dbf b3d3 cfbd 2657 313e
000003e0: 2aa8 88be 7591 923e
-0.0600233 0.0233497 0.193788 0.0117779 0.0324917 -0.0105239 -1.76119 -0.530761
0.0187988 0.0114769 -0.00366204 0.0962743 -0.0303455 -0.0158939 0.88694 -0.000427558
-0.000821211 -0.01513 0.0337376 0.0249335 -0.00848168 0.0403839 -0.0183669 -1.23924
-0.0242805 -1.03175 -0.0131605 -0.0720083 -0.00844432 -0.0229585 0.0327191 -1.09865
-0.0141184 0.510945 -0.910836 -0.939313 -0.0334416 -0.988988 0.0585001 0.044342
-0.154157 0.0716817 -0.0896512 -0.0194255 -0.34763 -0.00212753 -1.59895 0.0642998
0.0279219 1.59787 -0.113572 1.31246 0.542475 -0.0129513 -0.680833 -0.105027
-0.123878 -0.00592758 2.25235 0.204201 -0.137472 1.25543 -0.189515 0.0271513
-0.00750336 1.32505 -0.50639 0.0185344 0.172996 0.5589 0.258634 -1.59906
0.62769 -0.0187484 0.728463 0.196959 -0.0511848 -2.28638 -0.166409 0.0872283
-0.0250312 -0.231402 -0.243618 -0.0687667 -0.0383092 0.159439 0.45784 -0.0186681
0.268257 -1.43241 -0.150608 0.0822828 -0.50913 2.04177 0.287673 -0.485202
0.103773 -0.490795 -1.10946 0.0440101 0.150111 0.101216 0.247151 -0.00353161
-0.618215 0.0789953 -0.0711364 0.110623 -0.031527 -0.178459 0.135167 -0.000460756
-0.911188 -1.58104 -0.0018608 0.0351683 -0.351788 0.00101703 -0.192619 -0.5238
-0.291726 0.00478729 0.393423 -0.0467601 -0.631385 -0.0145159 0.079341 2.26105
0.31107 0.00209261 -0.0157905 0.309155 0.245787 -3.22421e-05 0.709647 -0.169051
0.796355 0.00502681 0.521975 1.34304 0.00571438 1.42244 0.538148 -2.31203
0.0454675 0.513511 0.01376 0.279891 -0.174608 -0.0125607 0.339056 0.563952
-0.146442 0.00557341 -0.53207 0.618189 0.0213388 -0.0361684 0.253769 0.828307
0.752105 0.675248 -0.0909292 0.0882112 0.52713 0.59192 -0.303118 0.67566
0.00714025 0.0245447 0.789495 0.599601 -0.595645 -0.0791979 -1.93275 0.190469
-1.01619 -0.134231 -0.661385 0.147214 0.572215 -0.543455 -1.34876 -0.00799677
0.0856676 0.0671578 -0.420928 -0.105348 0.792449 0.146662 0.25119 0.379409
-0.0651891 -0.0345806 0.328446 0.914026 0.00658662 -0.0142663 0.533959 -0.186515
0.0203565 -0.215938 -0.0908047 -0.00075392 0.158259 -1.01388 0.0423662 0.480584
0.536158 -0.841433 -1.31335 -1.05773 0.106621 -0.0261143 -0.274863 -1.12774
0.151549 0.843874 -1.33927 -1.04084 -0.0832389 -0.764058 0.197857 -0.138905
-0.00613415 0.019347 -0.946334 0.325345 0.61175 0.69815 -1.52259 0.310776
0.523124 0.105714 0.0321664 -0.327161 0.143638 -0.782752 -1.42623 -0.0311523
0.117483 -0.166032 -1.91042 0.355651 -0.178532 -1.2306 -0.101478 0.173184
-0.266908 0.286266

Operation_1_Add_B f4 [50]
00000000: 3ace 3d3e 6078 253e df13 c03d 9b8f abbc
00000010: 9571 3dbd 45bb 023f 1c40 afbe f7bd f6bb
00000020: 32cc 093f 3cf5 383e 3a05 913e ca6f 21be
00000030: 45ba 1f3e 4ea6 903d 93e2 d33e 9067 d73c
00000040: 3db5 8a3d 7bf8 8a3e 0f63 da3e 78d1 f7bd
00000050: b4af a43e 630a 06be 3546 1bbe 7a33 bfbd
00000060: 8542 dcbe ef6c 74bd 1005 d3bd 0e14 90be
00000070: a053 203e 1dad 923e cb64 18be 4430 a6be
00000080: 8ee5 2dbf d482 d7bd 17f3 83be 5bd2 71be
00000090: a99a 85bd 758f 1cbf ab8e 41bd 732b e4be
000000a0: b612 da3d 950f 413e 00c6 9bbe 0039 99be
000000b0: fc98 873b b24b cc3e 641f 94be a01a 0f3e
000000c0: 2998 113e cb85 1a3f
0.185357 0.161592 0.0937879 -0.0209425 -0.0462509 0.51067 -0.342286 -0.00752997
0.538272 0.180623 0.283243 -0.157653 0.155984 0.0706297 0.413838 0.0262945
0.0677285 0.271427 0.426537 -0.121005 0.321653 -0.130899 -0.151635 -0.0933599
-0.430195 -0.0596742 -0.103037 -0.281403 0.156569 0.286477 -0.148822 -0.324587
-0.679284 -0.10523 -0.257714 -0.236154 -0.0652364 -0.611564 -0.0472552 -0.445644
0.106481 0.188536 -0.304245 -0.299263 0.00413811 0.399015 -0.289302 0.13975
0.142182 0.603604

Operation_2_MatMul_W f4 [50, 50]
00000000: 9819 763e ddb2 a3be 5ddf 573f 8b51 d7bb
00000010: 00ac 26bf 23bb 8abe d670 d1bc 37c1 97be
00000020: 8000 48bd 4b59 8abf f9d4 16bd fb03 cdbe
00000030: 2d93 a1bc 7441 d53e 78ee 1dbd d70a e43c
00000040: 0691 563c 39ef 2b3f c2c0 9bbf 4f96 4a3e
00000050: abd1 ebbd 9278 11bf fb76 12bd 787b 883e
00000060: 2dba 30bd 70ec e93e a19d 2bbf fe80 873d
00000070: b728 eb3e 9eda 8fbc 7891 aebc 2440 823d
00000080: c4d6 47bc 2915 03bd 51f9 273e 4da0 30bf
00000090: 19e2 d8bc cdad 80be 9cfd 293f 630d 15bc
000000a0: fed5 9bbe 7384 f43e 2a36 e6be e5ec b53e
000000b0: 76a5 bdbe 48a5 6cbf 6819 f33c 76c4 713e
000000c0: 76fb ccbd b2c7 babc 6b61 d63e ce89 bdbe
000000d0: a393 553e 7e37 bcb9 dedd 0fbd 56d5 db3e
000000e0: c703 1bbd c37e cf3c 2ec8 96bc 098a 0fbe
000000f0: e2f8 6bbc f2b2 563e 7dee 003c b516 e63d
00000100: 40f5 343c 06be 52bf 3aea 58bf 8fdf 2bbe
00000110: b2a0 903e 4b3e 36be 1ff8 88be 84d3 c23e
00000120: 0ea4 073f 5a82 e43e edc0 74bd 21cd b0bf
00000130: c095 4c3e 071d 1d3c 13d7 5dbf 28da 303c
00000140: 485f d23c 1e17 053f 5be2 32bd ef5e 093c
00000150: c45a 943f 3449 ac3d 17bd 2ebd 479f 40bd
00000160: 8314 00bf ea59 f03d d02a 17bf 917f 36be
00000170: c18c a9bc 83a4 433f 04e7 28bf cde9 2ebf
00000180: 73bb 2f3f 4cc7 643f 3f74 01be eb0c 42bc
00000190: b96c 0c3f 8195 a7bf d97c 4cbe fb87 1e3d
000001a0: 5acf 94ba 7192 bebe 1257 063c c170 eebd
000001b0: 93c3 4cbd f016 98be 1c49 dd3c 4698 42be
000001c0: f21d 863c 0491 553e e9b0 07bd ccb6 57bf
000001d0: 2bcc c13d a60c 0c3f 3d0d 043f d9ed 53be
000001e0: 2712 94be 535d 0c3f 9868 603e a1b6 b23d
000001f0: 6cc7 59bd 6ccd 263e 842b b0be 06bd 47be
00000200: 29ad a43d d4e2 3dbd ef67 42bc 0734 b23d
00000210: 3507 283d 6797 54bd 6f80 093f 11c5 d43e
00000220: cfd1 cfbc c37a c8bc af99 b4be 8bc5 7b3f
00000230: 58aa 1bbe b457 dfbd daa8 4ebe dd7d 5e3e
00000240: cd03 783e 41d6 d3bd 261a 84be cc5d 633f
00000250: 9815 5abe a020 8c3c a533 8b3c 243c 86bc
00000260: 3436 4f3c 2a06 653b cbd5 11bc 7b36 06bd
00000270: 80d5 2db9 f090 983c a1b4 dc3c 77ae de3c
00000280: c25e 113c 244f 48bc 4c4e 333b 55df 543c
00000290: 997f 533b abea 233b 450d 263d 3326 2ebd
000002a0: b46d 3d3c cd0a e0bc 9107 68bb 4ae9 1ebd
000002b0: 2b22 b9bc f5f4 d1bc 9cb6 123c f0de 513c
000002c0: 6563 6f3c 5aca c3bc 5bed 01bd ac9f 883c
000002d0: 52fd b9bc 4b9e e13c 4a50 b2bc 1344 5dbc
000002e0: 10be a63c ad01 c03c 8922 c9bc ffc4 92bc
000002f0: 94d0 27bc 2d2e 04bd 2dc1 b3bc 7f34 1c3c
00000300: f9dd 8fbc c855 16bd 203c 7f3c e9ab b53c
00000310: 963a afbb 7bc2 ad3c 2194 f7bc 23bd e63b
00000320: b091 3cbf 2fa6 1dbf a2b8 37bf c058 043c
00000330: c26b 373e c383 523f dd44 8cbb 26fd 8d3e
00000340: 3f06 26bd 9bfe 2cbe 59c5 f6bc 7637 7f3e
00000350: ef41 a3bc 5409 25bd 8cd0 19bd 5a7e 40bf
00000360: 5e10 71be 1f2b 583f bedc 1b3f 4c2c db3b
00000370: f1bb 493e d1eb 873e 57e8 073f 61a9 eebe
00000380: fd35 34bd 7ba2 4bbe 01c1 0c3e 9754 0d3e
00000390: 00e6 da3d 8c94 77bc 9032 3dbc e6cc 863e
000003a0: 762f ffbb 8965 afba 06f7 53bf 4165 143f
000003b0: 7dd2 43bb a721 0a3f b550 2abf c74c 02be
000003c0: d5ae 69bf 4418 a7be 780d 0abe 276a 19be
000003d0: 7547 b5bc 4da3 11bf 3869 4abe 4085 133e
000003e0: 5be9 edbe 273a c1bc 8716 69bf de59 67bf
000003f0: 9832 e03e 47dc adbc e28f eabe ad4f d9be
0.240332 -0.319724 0.843252 -0.006571 -0.651062 -0.270959 -0.0255665 -0.296396
-0.0488286 -1.08085 -0.0368242 -0.400421 -0.0197235 0.416515 -0.0385575 0.0278372
0.0130961 0.671619 -1.21682 0.197839 -0.115146 -0.568246 -0.035758 0.266567
-0.0431463 0.456882 -0.670374 0.066164 0.459295 -0.0175603 -0.0213096 0.0635989
-0.0121972 -0.0320026 0.164037 -0.689946 -0.026475 -0.251326 0.664026 -0.00909743
-0.304367 0.477573 -0.449632 0.355323 -0.370403 -0.924397 0.0296752 0.236101
-0.100089 -0.0228003 0.418712 -0.370192 0.208571 -0.000358995 -0.0351237 0.429362
-0.0378454 0.025329 -0.018406 -0.140175 -0.0144026 0.209667 0.00786936 0.112348
0.0110448 -0.823212 -0.847324 -0.167845 0.282476 -0.177972 -0.267518 0.38052
0.529847 0.446307 -0.0597543 -1.38126 0.19979 0.00958944 -0.866563 0.0107942
0.0256802 0.519884 -0.0436729 0.00838445 1.15902 0.084124 -0.0426608 -0.0470269
-0.500313 0.117359 -0.590497 -0.178221 -0.020697 0.764229 -0.659775 -0.683255
0.686454 0.893666 -0.12642 -0.0118439 0.548534 -1.30925 -0.199695 0.0387039
-0.00113533 -0.372211 0.00819947 -0.116426 -0.0499912 -0.29705 0.0270124 -0.190034
0.0163717 0.208561 -0.0331277 -0.842633 0.0946277 0.547068 0.515827 -0.206962
-0.289201 0.548299 0.219149 0.0872624 -0.0531687 0.162893 -0.344082 -0.195057
0.0804084 -0.0463589 -0.0118656 0.0870133 0.0410225 -0.0519022 0.537116 0.415566
-0.0253686 -0.0244726 -0.352735 0.983483 -0.152017 -0.109054 -0.201816 0.217277
0.242202 -0.103436 -0.258012 0.88815 -0.212973 0.0171054 0.0169924 -0.0163861
0.0126472 0.00349463 -0.00890107 -0.0327668 -0.000165781 0.0186238 0.0269416 0.0271828
0.00887269 -0.0122259 0.00273599 0.0129927 0.00322721 0.00250117 0.04054 -0.0425169
0.0115618 -0.0273489 -0.00354049 -0.0387967 -0.0225993 -0.0256295 0.00895467 0.0128095
0.0146111 -0.0239002 -0.0317205 0.0166777 -0.0227038 0.0275413 -0.0217668 -0.013505
0.0203543 0.0234383 -0.0245526 -0.0179162 -0.0102426 -0.0322706 -0.0219427 0.009534
-0.0175619 -0.0367029 0.0155783 0.0221767 -0.00534756 0.0212109 -0.030222 0.00704159
-0.736598 -0.615817 -0.717661 0.0080778 0.179122 0.822323 -0.00428067 0.277322
-0.0405333 -0.16894 -0.0301234 0.249235 -0.0199289 -0.0402921 -0.0375524 -0.751928
-0.235414 0.844408 0.608837 0.00668863 0.197006 0.265471 0.530889 -0.466136
-0.0439968 -0.198862 0.137455 0.138018 0.106884 -0.0151111 -0.0115477 0.263282
-0.00778764 -0.00133817 -0.827988 0.57967 -0.00298801 0.539576 -0.665294 -0.127246
-0.912824 -0.326357 -0.134817 -0.149819 -0.0221288 -0.568898 -0.197667 0.144063
-0.464671 -0.0235873 -0.9105 -0.903715 0.437886 -0.0212232 -0.458129 -0.424436

Operation_2_Add_B f4 [50]
00000000: 2443 42bf 698f e73e 535c 213f 80cf 34bc
00000010: d09d f8be 89b5 60bf ffb7 6dbc afcc 8b3e
00000020: b587 3dbc 6bf2 f4bd a076 93bc f417 42bf
00000030: ab59 08bc a1e7 c0bd 66bc 2dbc 6f03 a8bd
00000040: f8e0 453f 76c4 99be f696 42bf 5453 d2bd
00000050: f60b 96bf f94e d4be 8e75 453f b665 1cbf
00000060: f7b0 d7bc b076 acbe 5649 683f 7c44 90bf
00000070: 0492 e8be 49a0 41bc 1c28 cfbb 0058 78bc
00000080: 20ad 96bc fa4c 51bc 57ea b93d 425f fabe
00000090: 074e acbc 58c7 71be 6a24 933c f6ee 873f
000000a0: 747b 893f 732d 3abe d3f4 a13e 9a93 77be
000000b0: 6e15 c43e 16a6 0fbe f3ab a1bf 3485 0e3f
000000c0: b0e7 7b3f 02c8 fdbb
-0.758837 0.452266 0.630315 -0.0110358 -0.485579 -0.87777 -0.0145092 0.273046
-0.011568 -0.119603 -0.0180009 -0.758178 -0.00832216 -0.0941918 -0.010604 -0.0820378
0.772964 -0.300327 -0.760116 -0.102698 -1.17224 -0.414665 0.771325 -0.610927
-0.0263295 -0.336843 0.907369 -1.12709 -0.454239 -0.011818 -0.00632192 -0.0151577
-0.0183931 -0.0127747 0.090779 -0.489008 -0.0210333 -0.236112 0.0179617 1.06198
1.07408 -0.181814 0.316321 -0.241774 0.382976 -0.140282 -1.26306 0.55672
0.984004 -0.00774479

Operation_3_MatMul_W f4 [50, 50]
00000000: a2b5 d2be d95b babe 6954 b03e cb85 1a3f
00000010: 99b7 ba3e aad2 163e f7e5 40bf 48c0 183e
00000020: 93b1 b53c f2ed 5d3d f50f 623e 5a2c 853e
00000030: ea5c b9be 573f 563d 5749 3fbd 693b 263c
00000040: f96a 0fbf b537 f83d d49d a7be c4af 38bf
00000050: d21c 093e 3d62 f43d 5249 8dbf 729b 1a3d
00000060: 94a2 b5be 20b4 7e3e 2ae3 973f 7218 8cbe
00000070: 0a6a e0be 999e b0be 2aa7 0dbe bc02 013e
00000080: cedf 64be 6876 dd3e a88c 8fbf 76aa 28bf
00000090: 4216 583c 3fac f73c ffbc 7f3d 63d5 40be
000000a0: 1154 0d3e 6dca 89bf a800 583e 0c05 0cbe
000000b0: f4a3 b13e 1630 a9be 95f4 243f ea5b c6bf
000000c0: c74a 043f e50e 2bbe eecc 343e 6555 c4be
000000d0: 763c 20bb ac58 97bc 80d2 503e 145c 0c3f
000000e0: 91bb a5bb 7349 8dbe 1860 afbe acf4 b4bd
000000f0: a69b 58bf 2c63 733e 3fff 9d3e 3c4a 25be
00000100: b999 c0bc c74a 5c3e 2061 a83e 6ec1 323f
00000110: 49c1 aebd 7cb6 5e3e 2fc1 91be 4b28 13bd
00000120: d7dc f13d 3d0a ef3f d82e fdbe 1825 483e
00000130: baf9 a1bd 266f c0be 676a 4d3d bf09 aabd
00000140: cfb0 62bc c2be cd3e 3baa dabc 4f6b b4bd
00000150: aad2 e6be 1a64 8c3d e2ac c8be 5665 873e
00000160: aa0c 233e e086 68be 7845 e03e 2d7c 883d
00000170: eb1b 803e b684 843e 7040 3bbe 2027 1cbe
00000180: 252a 9abd a8e4 203f b22e 9e3e de55 0fbe
00000190: 4d88 a4bd b2d6 d0bd 5645 c83e d6c6 b8bd
000001a0: 7712 913e a226 c23e a06b e3bb bd40 5f3d
000001b0: 57eb 4cbf b8bd 133d 7c0f 573e 9012 a3be
000001c0: f224 293e f4e0 02bf d467 e2bb 06d4 5bbe
000001d0: 707c 8d3f 77ba 93be b72a 393e 4914 75bd
000001e0: a6a3 b7bd 601d 57be b45e 473d 6d82 a9bd
000001f0: 4767 ca3d 25cb d93e 61aa 99bb 9a46 aebc
00000200: 3c58 f33b a43a 58bd 8bc6 4abe 47ae 0bbe
00000210: 72c2 24bd c8b4 46be 2eca e4be 4754 8d3d
00000220: 10b9 54bd adbf 45be c70d e7be 973a a83e
00000230: b9aa 4cbe 809f f1bd b851 c9bd d469 18bd
00000240: 8b27 713d 0a10 9d3e a910 943d a791 8a3f
00000250: 2bad 163b 2845 2bbf dcc5 4abd 1841 033d
00000260: fe81 723c 2f7b e33c e00d 2e3d cbd7 a53c
00000270: 0c73 27bc 889f bfbc 9939 0ebd 9404 d7bc
00000280: 79ae ef3c 40c3 b6bc 23c5 17bc c7b5 46bd
00000290: 54d8 36bd 1fe1 0abd 302a a93c 8647 11bd
000002a0: e9ae 133c 106d d1bc 99b1 f2bc 505c 09bd
000002b0: 9d46 1c3c fa69 12bd 5a01 743c 5a37 16bc
000002c0: 8f98 8f3c d365 d63c 9e6b ce3c d5f8 363d
000002d0: db66 0f3d 3b26 223c 6a13 a73c 2b6f 03bc
000002e0: 46be 013d d364 abbc b42b 633c 5087 3abd
000002f0: 282c 8c3c 3509 9e3c 6dc8 3f3c 7eaa c8bb
00000300: 1f88 49bb dd16 3bbd 4f12 81bc 8488 ef3c
00000310: 3ede 55bd 1b03 7cbc 382e 633c 42a1 543c
00000320: 4182 623c 111b dc3e d848 e23e 95f1 1b40
00000330: ff25 44bd f67a af3f 8b6c 473f 28b8 8c3f
00000340: 4f1e ea3f 00f3 ba3d 573e 9f3f 16a2 db3e
00000350: e0a2 233e 6d00 9e3e ff42 cf3c 041c 9abe
00000360: 581d b9be a04e 71bf 9e32 0dbd 8d7a 903f
00000370: 03cc 643f 431c f3be c6df 12bf 61a4 033f
00000380: e7a7 58be b70d 3bbf 4122 d23c 6eda 0cbe
00000390: 4fc9 193e 800f b6be 72c5 f5be 89d2 aa3f
000003a0: dcd9 f73d 69c6 523e 71c6 38bf b0e6 a0be
000003b0: d09a bfbe b211 80bf e7e1 44be d6a8 57be
000003c0: 83ad b83d 6957 21bf 707c 4dbe e544 55c0
000003d0: c2a2 2e3f 61a9 aebe 0e10 fcbf ab97 b73e
000003e0: a2b4 b73f 2159 843f 179a 0bbf 73c4 d0bc
000003f0: 83fa c6bd 51f7 a13e 77db ebc0 96cf 36bf
-0.411542 -0.363982 0.344394 0.603604 0.364682 0.147288 -0.753509 0.149171
0.0221794 0.054182 0.220764 0.260104 -0.362037 0.0523065 -0.0467008 0.010146
-0.560226 0.1212 -0.327376 -0.721432 0.133899 0.119328 -1.1038 0.0377459
-0.354756 0.248734 1.18662 -0.273624 -0.438309 -0.34496 -0.138333 0.125987
-0.22351 0.432544 -1.12148 -0.658851 0.0131889 0.0302335 0.0624361 -0.188314
0.138016 -1.07649 0.21094 -0.136738 0.346954 -0.330445 0.644357 -1.54968
0.516766 -0.167049 0.176563 -0.383464 -0.00244501 -0.0184749 0.203928 0.54828
-0.00505776 -0.275951 -0.34253 -0.0883573 -0.846125 0.237683 0.308588 -0.161416
-0.0235108 0.215129 0.328866 0.698264 -0.0853296 0.217493 -0.284677 -0.0359271
0.118097 1.8675 -0.494498 0.195454 -0.0790896 -0.375848 0.0501503 -0.0830264
-0.0138361 0.401846 -0.0266925 -0.0880953 -0.450826 0.0685503 -0.391944 0.264445
0.159228 -0.227077 0.43803 0.0666431 0.250213 0.258825 -0.182863 -0.152493
-0.0752757 0.628489 0.30895 -0.139976 -0.0803381 -0.101972 0.391154 -0.090223
0.283344 0.379201 -0.00694032 0.0545051 -0.800466 0.0360696 0.21002 -0.318501
0.16518 -0.511245 -0.00690935 -0.214676 1.10536 -0.288532 0.180827 -0.0598338
-0.0896676 -0.210073 0.0486743 -0.0827683 0.0988298 0.425378 -0.0046895 -0.0212739
0.00742629 -0.0527903 -0.198023 -0.136407 -0.0402245 -0.194049 -0.446855 0.0690084
-0.0519343 -0.193114 -0.451277 0.328572 -0.19987 -0.11798 -0.0983004 -0.0372103
0.0588756 0.306763 0.0722974 1.08257 0.00229914 -0.669024 -0.0495051 0.0320445
0.0148015 0.0277687 0.0424937 0.0202445 -0.0102203 -0.0233915 -0.0347229 -0.0262473
0.029258 -0.0223099 -0.00926331 -0.0485132 -0.0446399 -0.0339061 0.02065 -0.0354686
0.00901387 -0.0255647 -0.0296257 -0.0335353 0.00953832 -0.0357456 0.0148929 -0.00916847
0.0175288 0.0261716 0.0251978 0.0446709 0.0350102 0.00989681 0.020395 -0.00802211
0.0316756 -0.0209221 0.0138654 -0.0455392 0.0171109 0.0192915 0.0117055 -0.00612384
-0.00307513 -0.0456761 -0.0157558 0.0292399 -0.0522139 -0.0153816 0.013866 0.0129779
0.013825 0.429894 0.441962 2.43662 -0.0478878 1.37094 0.779 1.09937
1.82905 0.0912838 1.24409 0.428971 0.159801 0.308597 0.0253005 -0.300995
-0.361552 -0.942606 -0.0344721 1.12874 0.893738 -0.474825 -0.573727 0.514227
-0.211578 -0.730678 0.0256511 -0.137552 0.150182 -0.355587 -0.480022 1.33455
0.121021 0.205835 -0.721778 -0.31426 -0.374228 -1.00054 -0.192268 -0.210605
0.0901747 -0.63024 -0.20067 -3.33233 0.682171 -0.341136 -1.96924 0.358579
1.4352 1.03397 -0.54532 -0.0254843 -0.0971575 0.31634 -7.37054 -0.714105

Operation_3_Add_B f4 [50]
00000000: 91ff d3bc 8b70 03be 90dd 9dbe 68cb 03c0
00000010: 2a57 c43f d455 9b3d cd23 cfbf af21 043f
00000020: 9851 74c0 af5a c5bf 7afc b6bf c8b6 10bf
00000030: a0dd 41be 6189 93bf 2c73 04bc 5d17 7ebd
00000040: dff8 92bf d998 773e 3f70 45bf 5396 05c0
00000050: 9f59 cebf 9f71 adbf 9011 e83e d82a 91bf
00000060: 4e2b 00bd 0877 0bbf 76c4 2d3f 6b66 b53e
00000070: 957d 97bf 1840 a83d 2e57 3fbd f3aa 36bf
00000080: 3f57 773f 4738 a1bf 404e d83d 2a56 6dbe
00000090: 7f87 323e 2f12 3f3d b587 253f 22c2 afbe
000000a0: 84f5 5abd 0c93 b9be 4a7b b33f cd8e 79bc
000000b0: ce70 bf3f 8c10 a23f 3fad 02bd f696 babe
000000c0: 98c0 d9bf b647 873e
-0.0258787 -0.128359 -0.308331 -2.05929 1.53391 0.0758473 -1.61828 0.516139
-3.81748 -1.54183 -1.42958 -0.565289 -0.189322 -1.15263 -0.0080841 -0.062034
-1.14822 0.241794 -0.771244 -2.0873 -1.61211 -1.35503 0.453259 -1.13412
-0.0312913 -0.544785 0.678779 0.354297 -1.18352 0.0821535 -0.046714 -0.713546
0.966175 -1.25953 0.105618 -0.231774 0.174345 0.0466482 0.646602 -0.343278
-0.0534568 -0.36245 1.4022 -0.0152318 1.49563 1.26613 -0.0319035 -0.364433
-1.70119 0.264219

Operation_4_MatMul_W f4 [50, 50]
00000000: 944f bfbe 978f 4cbf 9a5f c1bf 8237 14be
00000010: 2fdd 54c0 f4fe 17bf 323e 4cbe 8f6c 86be
00000020: 34d7 093d 8d62 e5bf e541 dabe a4df d6bf
00000030: 8463 3e3f 6ae6 de3b c45f 83bf ce2e 84bd
00000040: 91d1 a1be 7ffb 3040 e09c 23c0 4dbe c5bf
00000050: 08c9 923e 9161 fdbe 46d3 f93e e65c eabd
00000060: 4644 013f 3109 0bbf 57b3 86be d448 6bbe
00000070: f3af 75be 8a03 48bf b537 f83d cc42 2b3e
00000080: 3928 81bf cc0b 803f 4626 10bf d80f 613f
00000090: ab7b 2c3f 56d1 c4bc 2db0 07bd 6490 20bd
000000a0: b918 4fbf d044 89c0 bf2b 0440 aeb6 963f
000000b0: f3b7 163c 2e1c f8bf e145 d73f 6a87 ff3e
000000c0: c900 14bf fd6a 2e3f 48c1 533e a1f5 643f
000000d0: 7f17 66bf 508d a73e c841 8dbf 8526 6dbf
000000e0: c53a 0dbf f94e 943f ab86 333c 0bd1 01bf
000000f0: 79cc 903e 0742 9a3f 82ff cdbf b7b7 2bbe
00000100: 793e 733e 05e0 27bf 27c2 e6be e4f7 eebf
00000110: ec4f 72bf 7041 6a3f 207e 7e3e bdc5 7b3f
00000120: 425b 10c0 463f ba3e 1e88 8cbe a567 6a3e
00000130: 5bce 9dbf 7044 323d a356 08be 170d 31bf
00000140: 50e3 c6be bc79 b63f 78f0 433f c922 013f
00000150: f71d fb3e dae6 a6bf b395 733f 1476 31bd
00000160: 753c b63e 0be6 583b 8fa5 d7bf 5da7 113f
00000170: 4398 a63d f922 caba b2b9 2abd 9e99 e03d
00000180: 7748 0d3f 7138 93bf d68b 813d 826f 5a3e
00000190: e1ed c13e 0a69 95be c7d9 643f 467d 423e
000001a0: eae8 b83e 2925 143e 7c0f df3e 374f a5bf
000001b0: 81ca 1dbd 473d 903f c710 60be bebe debe
000001c0: 1363 393f 9297 35be 8316 523e 5c04 cebe
000001d0: 19a9 cfbe b0ac 803f 485b 8bbd e3ff 06bf
000001e0: 3d2c 103f 9b72 81bf 69fe 543f 7f58 a53c
000001f0: db17 f03e 20b5 49be fe4d 93bd 240d 1e3e
00000200: 404d 153f b8c8 bd3e f0e0 27be 23f9 6ebf
00000210: 0456 1640 207f e9bd 5517 14bf fd6b b1be
00000220: 0ebe a4bf 6fc0 82bc 03fc 26bb eee7 b93c
00000230: d238 34bf d21d 0cc0 6c21 c4bf e337 293f
00000240: 3eaf c0be 70b2 353f d3f6 833f 728a 963f
00000250: 3e40 0bbf d5b1 9a3e 4f22 aabe 4694 823f
00000260: 17d9 1ebe a5a0 8bbf d218 a53f cfbd afbf
00000270: c003 9b3e 8885 3040 c40c cb3b b1a6 22be
00000280: cb2d 953f 8cbe 663f 97fe adbe bfee 14be
00000290: 87f9 2840 6f64 c63f b64a bcbf a5dd 303f
000002a0: 9eef 933f 0e10 e43f df70 1f3e 0c78 11bf
000002b0: 54e3 25c0 bc94 26bf dfc3 d5bf 8e75 9dbf
000002c0: 672e bbbd bdc4 583e c310 69bf 4a07 abbf
000002d0: aa9d 993e a67b e53e 9d80 28c0 e78c d0bf
000002e0: d0d0 83bf dd32 96bd 82ca 7ac0 e3f6 10bd
000002f0: 2a6f 55c0 8c19 bcbb 9274 0dbf 268b 13bf
00000300: 58e7 80bf 0894 bcc0 378a bcbe 0e32 17c0
00000310: cbd0 7d3d 5377 8dbe 3ab0 143f e3e2 903e
00000320: b54f 2540 af15 403b 9fac e83e 240a e5be
00000330: d200 48c0 0b5e 98bf 0344 21be f14b a53f
00000340: 5d26 14bd a9bc 6dbf 527e 02be f9f4 44bf
00000350: f5b3 5dbd 9dba 86bf 27bd ef3e d28d 103e
00000360: ae2e ef3e a565 7c3f 9790 a3bf 25ad c0be
00000370: 44fd ee3e 272f babe 7d5b 583f b37c 11bf
00000380: 6af9 513f 2523 63c0 016a a2bf db33 8b3f
00000390: de73 a03e 1cf0 893f a7cd 68be 29e8 d6bd
000003a0: 4069 143f 74b5 e9bf 2b6a 98bf 569f f73f
000003b0: a6b5 81be ec6c c8bc 0b41 5abf 322b 4abc
000003c0: 761a 01c0 009c 083d 187a 143f b667 bebf
000003d0: 0327 b33e bfc0 22bd 5c8f 0e40 9168 3dbd
000003e0: 0b08 253f 51f6 8e3e 49d6 f9be 19a9 03bf
000003f0: a8c4 8dbe eaaf d7bd 8a22 e43e a4b2 17bd
-0.373654 -0.799066 -1.51073 -0.144743 -3.326 -0.593734 -0.199456 -0.262547
0.0336525 -1.79207 -0.426284 -1.6787 0.743706 0.00680237 -1.02636 -0.0645424
-0.316052 2.76535 -2.55645 -1.54487 0.28669 -0.494885 0.48794 -0.114435
0.504948 -0.543109 -0.263087 -0.22977 -0.239929 -0.781304 0.1212 0.167247
-1.00904 1.00036 -0.563084 0.879148 0.673762 -0.0240256 -0.033127 -0.0392002
-0.808971 -4.28965 2.06517 1.17745 0.00919913 -1.93836 1.68182 0.49908
-0.578137 0.68132 0.206792 0.894373 -0.898796 0.32725 -1.10357 -0.926369
-0.551678 1.15866 0.0109574 -0.507096 0.28281 1.20514 -1.60936 -0.167693
0.237543 -0.655762 -0.4507 -1.86694 -0.946532 0.915061 0.248528 0.983486
-2.25557 0.363764 -0.274476 0.228911 -1.23286 0.0435223 -0.133143 -0.691606
-0.388453 1.42559 0.765388 0.504437 0.490463 -1.30392 0.951503 -0.0433255
0.35593 0.00330961 -1.68474 0.56896 0.0813451 -0.00154218 -0.041681 0.109668
0.551887 -1.15016 0.063255 0.213316 0.378768 -0.291817 0.893948 0.189931
0.361152 0.144673 0.435665 -1.29148 -0.0385232 1.12687 -0.218814 -0.435049
0.724168 -0.177336 0.205164 -0.402377 -0.405587 1.00527 -0.0680452 -0.527342
0.563175 -1.01131 0.832007 0.0201838 0.468932 -0.19698 -0.0719261 0.154347
0.58321 0.370672 -0.163944 -0.933489 2.349 -0.114012 -0.578481 -0.346527
-1.28705 -0.0159609 -0.00254798 0.0226936 -0.703992 -2.18932 -1.53227 0.661009
-0.376337 0.709754 1.03097 1.1761 -0.543949 0.302138 -0.332293 1.02015
-0.155125 -1.09084 1.28982 -1.37298 0.302763 2.75815 0.00619659 -0.158839
1.16546 0.901345 -0.339833 -0.145442 2.64023 1.54994 -1.47103 0.690882
1.15575 1.78174 0.155704 -0.568238 -2.592 -0.650707 -1.67004 -1.23015
-0.0913971 0.211688 -0.910412 -1.33616 0.300031 0.448209 -2.63285 -1.6293
-1.02981 -0.0733392 -3.91861 -0.0353917 -3.33491 -0.00574035 -0.55256 -0.576342
-1.00706 -5.89307 -0.368242 -2.36243 0.0619667 -0.276301 0.580814 0.282981
2.58299 0.00293098 0.454442 -0.447343 -3.12505 -1.19037 -0.157486 1.29138
-0.0361694 -0.92866 -0.127435 -0.769363 -0.0541267 -1.05257 0.46824 0.141166
0.467153 0.985926 -1.27785 -0.376321 0.466776 -0.363641 0.845146 -0.568309
0.820212 -3.54902 -1.26886 1.08752 0.313384 1.07764 -0.227347 -0.104935
0.579731 -1.82585 -1.19074 1.93455 -0.253339 -0.024466 -0.852555 -0.0123394
-2.01724 0.0333519 0.579988 -1.48754 0.349907 -0.0397346 2.2275 -0.0462423
0.644654 0.279223 -0.487963 -0.514299 -0.276891 -0.105316 0.445576 -0.0370356

Operation_4_Add_B f4 [50]
00000000: 75e4 e0be 4e62 b0bf 28ba 5ebe cb13 28bf
00000010: deb8 1b3d be89 113e 44a3 f7bf 685b 95be
00000020: ccba 5abc c746 dcbf 1e1a a6be cedf d0bf
00000030: 6501 9fbf 6ea7 a53e e8de 833f 2d5d 2d3f
00000040: 2575 863f 35eb 30bf 6362 19c0 ebe2 cebf
00000050: d89e f9be 59c0 84c0 5e2e 30c0 1613 9b3f
00000060: f853 1fbf 4dc5 b13d 4644 0dbf 81e9 a4be
00000070: 041c 1ac0 12d6 6b3d 971c 13c0 0b63 b7bf
00000080: 8ee8 1abf e00e 8c3e 5b7c 1abe e50a 833f
00000090: c4ea 6fbf 8451 7fbc 27a5 f0be 0615 30bd
000000a0: 9695 ca3f f645 0640 bc3b 62be 0dc2 ac3e
000000b0: 93ac 233e 0b0a fb3e 5cc6 edbd df17 03bf
000000c0: 30d8 99bf 8ae4 1fbf
-0.439243 -1.378 -0.217507 -0.656552 0.0380181 0.142127 -1.93467 -0.291713
-0.0133502 -1.72091 -0.324418 -1.63183 -1.24223 0.323543 1.03024 0.677203
1.05045 -0.691089 -2.39663 -1.6163 -0.48754 -4.14848 -2.75283 1.21152
-0.622375 0.0868021 -0.551823 -0.322094 -2.40796 0.0575772 -2.29862 -1.43271
-0.605111 0.273551 -0.150865 1.02377 -0.937176 -0.0155834 -0.47001 -0.0429888
1.58269 2.09802 -0.220931 0.337418 0.159838 0.490311 -0.116101 -0.512083
-1.20191 -0.624581

Operation_5_MatMul_W f4 [50, 50]
00000000: 3621 7dbe 6ee8 dabb c8e7 aabd f3e3 cf3d
00000010: efe1 8a3f 4582 e7bb 5ed8 0abf 8483 3d3e
00000020: bede 8dbf 7670 003e 0987 0e3f 8508 903e
00000030: b796 89bc 4bc8 af3e b9e1 373f 8594 e33f
00000040: 5f7c f9be 768b b8be 8352 50bf 2cf3 8ebe
00000050: 44c4 b83d aad3 413f 2f6f 8ebe a97e ba3d
00000060: 51c1 613e 791e a8bf b7b8 56be 72c3 47bf
00000070: 2a8d 98be 247e ad3e bc93 3f3e c7f4 e4bf
00000080: be6a a53f 85ce 0bbf 0551 173e 2e86 fcbc
00000090: 2d24 403e af94 053f 01a3 9b3e 5f7b cebe
000000a0: f3ca 353e 626a 273f b644 913a 3361 c53c
000000b0: ebc8 213f 9fe5 a1be 2ae3 abbf bebf 513e
000000c0: d5ae 0e3d 4392 143d 9e42 1e3f ac8d d13d
000000d0: e2b0 643e 8275 fcbe ef73 70bf c409 38bf
000000e0: 0467 1abd ea96 2d3e 6406 52bf 36e4 bfbe
000000f0: 26ac 9dbe f60c 91be 1497 033e c5ad 2e3f
00000100: 8b6c afbe 624d 393f fed4 583d 9e78 16bf
00000110: b98d 26be 800c adbe 336d 2f3f 1173 993e
00000120: a911 2abe b499 1ebd 8c05 af3d 4af1 813e
00000130: 3fc6 8ac0 b4be 12bd 7f87 8abf 0663 c43e
00000140: f0d6 1ebd 8121 09c0 3aca d93e fd9f 57bf
00000150: 6955 2b3e 7aa6 87be 4e98 003e 5859 a3be
00000160: 47cb 21bd 85b0 dcbb e696 3a3f 7c9d cc3e
00000170: 603d 0b3b dcbd 0c3f 55de aebe f569 05be
00000180: 9c33 bebf e915 c53c 5270 82bc ff59 a33e
00000190: 7e52 e9bf 3554 863d 4580 d3bd 66c1 18bf
000001a0: 2e55 453f d4d7 43be 1a64 1c3d bd06 d43b
000001b0: 7de7 173e c957 663f f4a8 18bf 41a5 c0bc
000001c0: 3381 ecbc c573 063f 5e85 ac3f f0dd 8ebe
000001d0: ceff 1b3e 4fb5 91bd 6d90 893d e90b b93e
000001e0: 588d 253f c1fe 5f3f a7ae 1cbe b153 d43e
000001f0: 4606 c13e 06ba 26be 7e56 69bf 8335 0e3c
00000200: 58d9 c83c 68b3 ba3e be31 583f 4df8 91c0
00000210: a391 073f 91f2 ab3e 06d6 81be 8b87 03bf
00000220: 36e4 1f3e de54 62c0 9c3c a03d 6072 63be
00000230: 20eb 19be 7635 69be 5f4f 2a3c 477e 333b
00000240: 1c7e ffbe 9e61 d2be d72f 9c3f 4ace e93e
00000250: df11 5b3b cafe 2dbf 8b71 0abf 66e0 9b3d
00000260: 8f8e b63d e2c9 4ebe ff06 353f 4a27 62be
00000270: b24a 25bf 9f3d 57be 1844 543e 344d a8be
00000280: ef9d 673d f9f6 b6be 8acc 7cbe 9276 23be
00000290: 2afb 933c 5309 aabd 9295 bfbe e246 20bd
000002a0: 4986 943e 177f 73bf b2f3 bebe 6ac0 0cbf
000002b0: 274e a63e aebc 44be f623 9d3e f92d 0a3e
000002c0: 05d1 24bc 5951 e33e 8313 713e dc2e f4bd
000002d0: 6265 74be 8bf9 b93c 3139 3f3d 8675 c3be
000002e0: 29d2 38bd 1c40 b73e 431e 413e 5795 3dbe
000002f0: 452d 1dbf aad6 b23e cc98 c23e 00ef c3bd
00000300: e671 bd3c 60b5 0d3d 6ff0 113f 635f da3e
00000310: f624 b8be 6e6e fcbe edea 1a3d d1e8 6ebe
00000320: e8d9 88bf 979c 49bd ab3e 47c0 16fa 18bf
00000330: 3e5c a6bf d8d7 da3d e3e1 0d3e afd1 52be
00000340: 62a2 313f fe28 c2be 8106 5b3d fc19 86be
00000350: aea0 49be 89b8 74bd a1e5 0f3d b875 c3bf
00000360: 82fb 86bd 4eb6 51be de38 69bd 7d40 0c3f
00000370: 520f c13d 2dea 03bf 4b5b 8cbe 861f debb
00000380: adda aa3d 8dd4 0bbf e0d9 1e3e 62f4 8c3e
00000390: cedd d6be cc46 e73d c955 8c3d c993 b4bf
000003a0: ea3d 29bf ee21 99be 8efe 3c3d 6d53 fcbd
000003b0: 2027 7c3e 53b3 bbbf cc9b 333e c4d0 0a3e
000003c0: 856b e43c 113d a43d 1d84 2abd 276b 04be
000003d0: 9a06 ad3e 04ff 4bbe a88e 25be 73b9 21bd
000003e0: a1a8 e23c 9c6e 39be 6612 75be 71c7 9bbd
000003f0: c381 a03d 269b 8cbd e338 703f d3a3 09be
-0.247197 -0.00668054 -0.0834499 0.101509 1.08502 -0.00706509 -0.542364 0.185072
-1.10836 0.125429 0.556748 0.281315 -0.0167955 0.343325 0.718288 1.77797
-0.487277 -0.360439 -0.813759 -0.279199 0.0902181 0.757136 -0.278192 0.0910619
0.220464 -1.31343 -0.209689 -0.780326 -0.297952 0.338853 0.187087 -1.78872
1.29232 -0.54612 0.14777 -0.0308257 0.187638 0.5218 0.303978 -0.403285
0.177532 0.653967 0.00110831 0.0240942 0.631972 -0.316205 -1.34287 0.204833
0.0348347 0.0362723 0.618204 0.102321 0.223331 -0.493084 -0.939269 -0.718899
-0.0376959 0.169521 -0.82041 -0.374788 -0.307954 -0.283302 0.128506 0.682339
-0.342625 0.723837 0.0529375 -0.587778 -0.16265 -0.337986 0.68526 0.299706
-0.166083 -0.0387208 0.0854598 0.253794 -4.3367 -0.0358264 -1.08226 0.383568
-0.0387792 -2.14267 0.425371 -0.842285 0.167318 -0.264942 0.125581 -0.319041
-0.0395005 -0.00673491 0.728865 0.399639 0.00212463 0.549772 -0.34154 -0.130287
-1.48595 0.0240583 -0.0159227 0.319046 -1.82283 0.0655903 -0.103272 -0.596701
0.770831 -0.191253 0.0381814 0.00647053 0.148344 0.899777 -0.596328 -0.0235163
-0.0288702 0.525204 1.34782 -0.279037 0.152343 -0.0711466 0.06717 0.361419
0.646688 0.874981 -0.15301 0.414701 0.377001 -0.162819 -0.911476 0.00867975
0.0245177 0.36465 0.844509 -4.56156 0.529566 0.335835 -0.253586 -0.513787
0.156144 -3.53643 0.0782406 -0.222116 -0.150311 -0.227743 0.0103949 0.00273885
-0.499009 -0.410901 1.22021 0.456652 0.00334274 -0.679669 -0.540795 0.0761116
0.0891391 -0.201942 0.707138 -0.220853 -0.645671 -0.210196 0.207291 -0.328714
0.0565471 -0.357353 -0.246874 -0.159632 0.0180641 -0.0830256 -0.374188 -0.0391301
0.290087 -0.951158 -0.372953 -0.549811 0.324815 -0.192126 0.306915 0.134941
-0.0100596 0.44398 0.235426 -0.11923 -0.238668 0.022702 0.0466854 -0.381756
-0.0451223 0.357911 0.188592 -0.18514 -0.613972 0.349294 0.380072 -0.0956707
0.0231256 0.0345968 0.570075 0.426509 -0.359657 -0.49303 0.0378217 -0.23331
-1.06915 -0.0492216 -3.1132 -0.597566 -1.29969 0.106857 0.138557 -0.205878
0.693884 -0.379219 0.053473 -0.261917 -0.196902 -0.0597463 0.0351311 -1.52703
-0.0659094 -0.204797 -0.056939 0.547859 0.0942675 -0.515292 -0.274134 -0.00677866
0.0834249 -0.546212 0.155128 0.275302 -0.419661 0.112928 0.068523 -1.41076
-0.661101 -0.299087 0.0461412 -0.123206 0.246243 -1.46641 0.175399 0.135562
0.0278833 0.0801946 -0.0416299 -0.129315 0.337941 -0.199215 -0.161677 -0.0394835
0.0276683 -0.181086 -0.239328 -0.076064 0.0783725 -0.0686553 0.938368 -0.134414

Operation_5_Add_B f4 [50]
00000000: 520a 8ebf 8cf4 1ebf ea59 c83e 406d c4be
00000010: 93a7 8cbe 4167 223f 5800 3f3f 2315 9a3f
00000020: cc9b e33d 2ead 12c0 f41a f3bf 5a66 65bf
00000030: 94a3 0c3f a513 39bf fcc6 0fc0 72a7 14c0
00000040: 87f9 4640 3e7b 463f d9ec 003f d271 753f
00000050: c6ce 4a3c 72de 633f 2b14 c13e cdcc f83f
00000060: 1d03 a2bf 2979 8d3f d89e 993f 9f55 463e
00000070: 34f2 c1be 382c 2d3f 53e8 8c3f 0b9a 063e
00000080: 3945 df3e cd06 a5bf 7574 70bf 8b4f 84c0
00000090: 2a39 573f 3602 9d3f 8f8d c03f 8c13 2f3e
000000a0: 91b6 0dbf 9ace 8e3f 61e1 04bd f777 263e
000000b0: 4339 81bf e943 99c0 e3c2 c13e 9031 dfbf
000000c0: e0bb 8dbc 1cef a6be
-1.10969 -0.620919 0.391311 -0.383646 -0.274716 0.634388 0.746099 1.20377
0.111137 -2.29182 -1.89926 -0.896093 0.549371 -0.722956 -2.24652 -2.32272
3.10898 0.775318 0.503614 0.958768 0.0123784 0.890113 0.377107 1.94375
-1.26572 1.10526 1.20016 0.193686 -0.378801 0.676456 1.10084 0.131447
0.436075 -1.28927 -0.939277 -4.13471 0.840716 1.22663 1.50432 0.170973
-0.553567 1.11568 -0.0324415 0.162567 -1.00956 -4.78954 0.37844 -1.7437
-0.0173015 -0.326043

Operation_6_MatMul_W f4 [50, 50]
00000000: 6092 82be 425c 4dbf c616 963f 9cf9 153f
00000010: d5ec 0f40 70eb 863f fcfd 8abe b589 8fbf
00000020: c18f 0abe c025 0cbf ae12 f43f 9198 e03e
00000030: 3cf7 ca3f 44a3 83bf 1571 3a3f 25cd 53bf
00000040: 3a69 2b3c 323d 07c0 1f0e f2bd fb04 1c3f
00000050: d6c1 663d 3754 ac3f 6b9e 4b3f 9f71 21c0
00000060: 018a c1be 1bd8 323f 2849 9fbe 1f12 6e3f
00000070: eff2 9e3d 8eea 843e ae2a d3bf 3aea 2cbf
00000080: 6a18 b23f 96b0 263f e36b c3bf 5875 ae3e
00000090: 496e 373a 6020 98be 16f8 2a3d cf83 5140
000000a0: 9126 5abf 8db6 2a3f b589 bb3f a49a 48bc
000000b0: ca6c fc3f ec07 263d 1d94 803f bc81 b8bc
000000c0: e388 dd3e b728 c33e 7e8b 0e3e 0741 8f3e
000000d0: 4bb5 2abd c493 3d3f d73e d33c 55a2 94be
000000e0: 0799 a43e e6b0 dbbe 5534 f63d 569b 3fbd
000000f0: ad65 573d ce56 f93c 603e d9bd bf0e dcbd
00000100: 3c4b d8be 959e 593e d717 a5bf d3a1 633e
00000110: 0b08 8d3d 51d5 093d c4b1 24c0 7348 4abe
00000120: 459d 09be 4c10 7fbd efe1 823f 0724 813e
00000130: 195a 58bd d196 f3bd b340 b33e 4d68 623e
00000140: 8046 09be cd5c 1e3c 9b4c 06bd dbfc 2f3e
00000150: 577b 98bd 785e eabd 2eab 283f 7a86 153d
00000160: 8dfa 7bbb d444 9f3e 8049 5abe 0970 9abe
00000170: 48f9 0dbf d4ec e4ba ea36 b2bc 8170 ec3a
00000180: 05c1 833e 5fb8 73be a216 99bd 2e53 43be
00000190: ec6d 8e3d e1ce 85bc d7a0 9fbe 6a2e 47be
000001a0: 0cf0 98bd 51db 863e dd1f c4bd ee0a f53e
000001b0: 7825 e9bd a85a 263d 66fa 253e 45d8 303e
000001c0: 62d9 cc3c 3bdf 9bbf af63 b73d c421 9bbe
000001d0: 4f23 f5bf 287e 9cbd 8f2b afbd fc19 be3d
000001e0: 62f3 c1bf 514d 4d3f c9cb ca3e bc3c ddbd
000001f0: ec12 7bc0 1903 3b3e 9e61 823e 3160 693e
00000200: bef6 9cbd d90c ab3d cdad 20be e6ad 1a3e
00000210: a681 973e d445 ca3e c8cf 463c 37a7 923e
00000220: 55fb abc0 b8f6 94bd 557a 973d 537b 513e
00000230: e6af 20be e5d1 b5be 8141 d2bd 2bc9 b2bb
00000240: 9489 bb3e 04dd 833c 8726 8abd bd19 653e
00000250: a9db 893d 87a7 cfbf 87a8 02be 8e28 68bd
00000260: 13bb 963e 7138 273f 5f00 6bbd 130f b83e
00000270: 9b90 b6bd 1007 913e 31b6 d8bf 0e2c cb3a
00000280: 5df8 113e 739c 1bbe 5c70 6b3d 36e9 223f
00000290: 2d78 a93e e3fa 1bbf 82fd 0fbf 2833 b5bb
000002a0: edd6 223e 910a 033e a2ee e73f f7ca 8cbe
000002b0: 81ea f73e 98a6 28be 2e56 50c0 96cc 31be
000002c0: dd5c ac3e 3a76 803e 61aa e1be 51ff 743d
000002d0: 185c 23be 997b 2d3d 8e59 3a3f 1b68 523f
000002e0: 4ab3 c1be 5a84 8abe 7dcb c83f 3f8b e53d
000002f0: ff5f 503c 3f91 93bf 27f5 553e 0f2b 773d
00000300: a471 283e b67b 03bd f548 e33e 970f 323d
00000310: f1ba 76bf 5f08 0dbf 7e39 d33d d509 1ec0
00000320: 6a6a b9bd 7e55 2ebd 97aa 14be 6af7 ab3b
00000330: b961 4a3d 5158 58bd 4cd8 883d 595f 6ebc
00000340: 53a2 99bb 896a c23b 0f6c 5eba f46e 5cbe
00000350: e964 69bd 1382 fdbe d7bc cf3c 172f a1bd
00000360: 581e 8cbe 786f d63c d029 10bf 631e c33b
00000370: 734f 5db9 656d b33d f63a 5cb9 7bdd bd3c
00000380: 3c6b ff3e f460 3cbd 0ba7 fb3c fdcf abbc
00000390: 9ac5 b53d bac8 aa38 1ed9 41bd 9872 99bc
000003a0: 46dd 1d3d 6477 e13d 94bc 56c0 5aa4 813a
000003b0: 24b9 b0bf 663f 1c3d 1228 a8bb 3b34 2cbe
000003c0: 6a13 a7be 5fcf 27be 5220 f9bb 4e8c b6bc
000003d0: 2c56 833c 1233 563c 5bd0 6b3e 4913 cf3d
000003e0: 539f 7dbb 6e21 5e3d 8794 35bd 2f6e e3bd
000003f0: 904d 323e 6d59 5e3e 042d be3d 79cb 953e
-0.255023 -0.802189 1.17257 0.58584 2.24883 1.05406 -0.271469 -1.12139
-0.135314 -0.547451 1.90682 0.438664 1.58567 -1.02842 0.728288 -0.827349
0.0104621 -2.11311 -0.118191 0.609451 0.0563372 1.34632 0.795386 -2.52256
-0.378006 0.69861 -0.311105 0.929964 0.0776118 0.259602 -1.64974 -0.675449
1.39137 0.651132 -1.52673 0.340739 0.000699733 -0.297122 0.0417405 3.27367
-0.852151 0.666848 1.46514 -0.0122439 1.97207 0.0405349 1.00452 -0.0225228
0.432685 0.38117 0.139204 0.279793 -0.0416768 0.740536 0.0257868 -0.290301
0.32148 -0.429084 0.120217 -0.046779 0.0525872 0.0304369 -0.106076 -0.10745
-0.422449 0.212519 -1.28979 0.222297 0.068863 0.0336507 -2.57335 -0.197542
-0.134389 -0.0622714 1.02252 0.252228 -0.0528203 -0.11894 0.350103 0.221101
-0.134058 0.00966568 -0.0327879 0.171863 -0.074454 -0.114438 0.658862 0.0365052
-0.00384489 0.311072 -0.213171 -0.301636 -0.554585 -0.00174656 -0.0217547 0.00180389
0.257332 -0.238008 -0.0747502 -0.190747 0.0695456 -0.016334 -0.311774 -0.194513
-0.0746766 0.263392 -0.0957639 0.478599 -0.113841 0.0406138 0.162088 0.1727
0.025006 -1.21775 0.0895456 -0.302992 -1.91514 -0.0764125 -0.0855323 0.092823
-1.51524 0.801961 0.396086 -0.108026 -3.92303 0.182629 0.254651 0.227906
-0.0766425 0.0835206 -0.156913 0.151054 0.295911 0.395064 0.0121345 0.286432
-5.37443 -0.0727362 0.0739638 0.204572 -0.156921 -0.355117 -0.102664 -0.00545611
0.366284 0.0160966 -0.0674563 0.223731 0.0673135 -1.6223 -0.127596 -0.0566793
0.294396 0.653205 -0.0573734 0.35949 -0.089143 0.283257 -1.69306 0.00155008
0.142549 -0.151964 0.0574802 0.636371 0.330995 -0.609297 -0.562462 -0.00552978
0.159023 0.12797 1.81197 -0.274986 0.484211 -0.164698 -3.25526 -0.173632
0.336646 0.250902 -0.440753 0.0598138 -0.159531 0.0423542 0.727929 0.821901
-0.378321 -0.270541 1.56871 0.112082 0.0127182 -1.15287 0.208943 0.0603438
0.164496 -0.0321004 0.443916 0.0434719 -0.96379 -0.550909 0.103137 -2.46935
-0.090535 -0.042562 -0.145182 0.005248 0.0494096 -0.0528186 0.0668188 -0.0145491
-0.00468854 0.00593311 -0.000848473 -0.215267 -0.056981 -0.495133 0.0253586 -0.0787031
-0.273669 0.0261762 -0.563138 0.00595455 -0.000211058 0.087611 -0.000210028 0.0231769
0.498865 -0.0459909 0.0307193 -0.0209732 0.0887558 8.14362e-05 -0.0473262 -0.0187314
0.0385411 0.110091 -3.35526 0.00098909 -1.38065 0.0381464 -0.00513173 -0.168168
-0.32632 -0.163877 -0.00760273 -0.0222837 0.0160323 0.0130737 0.230287 0.101111
-0.00386997 0.0542311 -0.0443311 -0.11105 0.174124 0.217138 0.0928593 0.292568

Operation_6_Add_B f4 [50]
00000000: 0ff0 ac3e 1a35 1f3e f1f3 b73e 5665 87bf
00000010: f9a3 08be bc91 913f c367 173f 0302 c2bc
00000020: 8081 00be 3f58 d63e 5c59 223f 0d18 743e
00000030: c4b3 9c3e 66bb 663f dc48 493e 2637 063f
00000040: 842a a5be df51 13be cbf3 90be 944d d93e
00000050: 9a77 a03f 75cc 313f 931b cd3e de2f 13bc
00000060: 897b a4bf 0b97 d53e d8d8 cd3e c8cd 343f
00000070: 87fd 4e3e 4965 263f 4b3f f13e 7ff8 993e
00000080: 8750 bd3f 9eea ec3f a0fb 363f b20d 4c3f
00000090: 2310 15c0 5d6c 1a3f 8ae6 513e 3dba 813e
000000a0: 404f 0bbf 9fac 0cbf 9a78 e73e 431a a53e
000000b0: babe 673f 148a febc 772d bdbf 2d23 fd3e
000000c0: 9a97 eb3e fe48 a9be
0.337769 0.155476 0.359283 -1.05778 -0.133438 1.13726 0.591427 -0.0236826
-0.125494 0.418642 0.634176 0.238373 0.306059 0.901297 0.196567 0.524279
-0.32259 -0.143867 -0.28311 0.42442 1.25365 0.694526 0.400601 -0.00898358
-1.28502 0.417168 0.402045 0.706265 0.202139 0.649983 0.471186 0.300724
1.47902 1.85091 0.714777 0.797084 -2.32911 0.603216 0.204981 0.253374
-0.544178 -0.549509 0.452092 0.322466 0.905254 -0.0310717 -1.47795 0.494409
0.460141 -0.330635

linear_7_MatMul_W f4 [50, 5]
00000000: 2cb6 4e3d 8527 343d 6b0c 3a3d 9957 3f3d
00000010: f1bd 5a3d ef4a 9c3c b823 b73c 6341 a13c
00000020: 0ac8 14ba e611 143c 21bf 98bd f1e5 32bb
00000030: 26aa 37bc 1acd a13b 01eb 44bb ee8b 153c
00000040: 0f99 72bc 8cc3 b43c 7a0f 01bd 1efa 6e3d
00000050: 3ac9 b439 50a3 f53c 7c77 12bc aa68 473d
00000060: 4043 49bc 7080 543d b72e 10bb ac5b 183a
00000070: a789 37b8 e7c8 cfb9 c40c 283d 8914 983a
00000080: cb92 0c3b f908 e3ba bf16 673a 39aa 643c
00000090: 409c ecbc 1f9a 7dbb 2d0d 173c f9ee 713a
000000a0: 6ebe b63c d167 b63c adb4 563c 05d4 e53c
000000b0: 4548 feba dce1 733a c4d8 783c 7836 da3c
000000c0: 6b3d 8d3c 2c67 ef3c 991b 823c 5c88 1fbc
000000d0: 91d0 fb3c 42db a0bc e636 063d 32cb de3c
000000e0: d110 043d 3b4d cb3c 04b4 463b 425d 243c
000000f0: 45ae 863b 7592 2dbc 8a24 f6ba 74ed 0b3d
00000100: 07de 1ebc 1809 ed3c 49ca 3a39 8a00 393a
00000110: cc67 33bb 58b8 043a de0e 203c 53f1 5abc
00000120: cd32 d53b ad11 623b bcd1 603b c61e b53c
00000130: 4e66 f6ba 888d 2fba 6087 9c3a 0f81 c0ba
00000140: 8950 db3c 42e6 10bb 0212 443a aeee 9a3a
00000150: 99a7 8c3a 8036 e8bc 725f d8bc f9b3 a9bc
00000160: b8f2 2b3b 7e10 b0bb 6c98 ac3d 64f1 b13d
00000170: c85a a83d 22d3 9b3d 1841 a33d 2a34 353b
00000180: 7e94 ec3c a79d 123c 7a28 1b3d f29a 323c
00000190: 7f88 8d3c 40e0 dcba e0e8 b6ba 3422 83ba
000001a0: fd4f ddba 9192 433c 0040 29bc 9302 073b
000001b0: d7f8 cc3c 21d4 1a3c d63b dcbb 4237 453c
000001c0: 26d2 ecbc 354f 053b 61ee 24bd 0278 f03c
000001d0: 23bd 8b3b 0943 323b 39f6 e4ba 882c f33a
000001e0: 52f1 7f3c e774 553b 530d f33b 1467 de3b
000001f0: e6ec f83b 13ca 2c3d 6f18 203d 06c8 063d
00000200: 9964 043d 8120 e53c 6831 02bd 7b18 f5bc
00000210: bbfb d2bc a846 de3c 6b80 12bd a4a9 aa38
00000220: 36ab 80bb 7d05 693d 3c73 a8bb a81e 893d
00000230: bfd2 393d 085b 873c d044 d83c fa50 583c
00000240: 3b43 073d 2501 ac3a ea2a 383c b4f4 d73b
00000250: e490 033d 348a 40bc 3196 693c 7146 a43a
00000260: 05e4 263c 0678 bd3b 06c9 713c 44dd 073d
00000270: f9cc e33c 122d 1e3d c800 353d 4915 a03c
00000280: cb2d 6f3b ff62 113d bb20 073d 0335 263d
00000290: 8b03 033d 8683 8ebc 2828 6fba a701 a8bb
000002a0: 8a0e 753b 0ef6 85bb a071 3c3c c86d 28bb
000002b0: d3aa 4c3c 2377 e2bc 7380 e03c 2900 6b3c
000002c0: a1b6 123d 8812 0d3d bd63 023d e169 283d
000002d0: f8fb c53c a8d2 a23a 728d 8d3a d727 4abc
000002e0: 9e0c 0e3b 77cc 2a3d 3b54 333d 0843 183d
000002f0: 9ca7 fa3c ebd1 ca3c a466 d93c 794b c33c
00000300: 8dd2 a53c 4e93 be3c ee31 c73c 6b0e 90bc
00000310: 83e6 4ebb ee43 5ebc d1c4 603b 1a78 a4bc
00000320: 474f 36bc 6163 28bd 5ee4 543c db25 9e3b
00000330: fff1 433a 3d8a 0cbb 32e5 833c 9bd4 c4bb
00000340: 3b12 14bd cf1c ab3b 498e ecbb 2f6c 4dbc
00000350: ec27 adbc 89a0 a43b 32cf 88bb 47e4 2bbe
00000360: b270 883c 0b75 acb9 b26c 83ba 2fff 3eba
00000370: 5e32 273b fa15 02bc c303 d23b d5c6 fdbc
00000380: bc65 1d3d 54c5 d43c d01a 32bd 829d 113d
00000390: 585c b9bb 3f3c a6bc 809f 4cbc 5716 96bc
000003a0: b397 0cbc 030b e0bc 67a3 29bc 58e8 5e3d
000003b0: 0d13 f23c 85a5 f03c 70b5 4e3c 0e78 ea3c
000003c0: 1087 f63c 538e 2e3d 1bda 9b3c c32a bd3a
000003d0: 2b59 e3ba 8ec9 e23d ab79 ed3b b955 303d
000003e0: d406 8ebb 0730 9b3d
0.0504667 0.043983 0.045422 0.0467144 0.0534038 0.0190787 0.0223559 0.0196845
-0.000567556 0.00903747 -0.0745833 -0.00272977 -0.01121 0.00493778 -0.00300473 0.0091276
-0.014807 0.0220659 -0.0315089 0.058344 0.000344822 0.0299851 -0.00893962 0.0486838
-0.0122841 0.0518803 -0.00220005 0.0005812 -4.37588e-05 -0.000396318 0.0410278 0.00116028
0.00214498 -0.00173214 0.000881534 0.0139566 -0.0288831 -0.00386966 0.00921945 0.000922903
0.0223076 0.0222663 0.0131046 0.0280552 -0.00194002 0.000930337 0.0151884 0.0266373
0.0172412 0.029224 0.0158823 -0.0097371 0.0307391 -0.0196358 0.0327672 0.0271965
0.0322426 0.0248171 0.00303197 0.010032 0.00411013 -0.010594 -0.00187792 0.034162
-0.00969649 0.028935 0.000178137 0.000705727 -0.00273751 0.000506287 0.00976917 -0.0133632
0.0065063 0.00344954 0.00343047 0.0221094 -0.00187988 -0.000669681 0.00119422 -0.00146869
0.0267718 -0.00221099 0.000747949 0.00118204 0.00107311 -0.0283463 -0.0264127 -0.0207157
0.00262372 -0.00537306 0.0842751 0.0868862 0.0822044 0.0760863 0.079714 0.00276495
0.0288794 0.00894872 0.0378804 0.0109012 0.017277 -0.00168515 -0.00139549 -0.00100047
-0.00168848 0.0119368 -0.0103302 0.00206009 0.025021 0.00944999 -0.006721 0.0120371
-0.0289088 0.00203414 -0.0402664 0.0293541 0.00426449 0.00272006 -0.00174684 0.00185527
0.0156215 0.00325709 0.00741736 0.00678719 0.0075966 0.0421849 0.0390858 0.0329056
0.0323225 0.0279696 -0.0317854 -0.0299189 -0.0257548 0.0271333 -0.035767 8.13783e-05
-0.00392666 0.05689 -0.00514069 0.066953 0.045367 0.0165229 0.0264 0.0132029
0.0330231 0.00131229 0.0112407 0.00659045 0.0321206 -0.0117517 0.014257 0.00125332
0.0101862 0.00578213 0.0147574 0.03317 0.0278077 0.0386172 0.0441902 0.0195414
0.00364958 0.0354948 0.0329902 0.0405779 0.0319858 -0.0173967 -0.000912311 -0.00512715
0.00373927 -0.00408817 0.0115017 -0.00257002 0.0124919 -0.0276447 0.027405 0.0143433
0.0358187 0.0344415 0.0318334 0.0411166 0.024168 0.00124224 0.00107996 -0.0123386
0.0021675 0.0416989 0.0437815 0.0371733 0.0305975 0.0247583 0.0265382 0.0238397
0.020242 0.0232636 0.0243158 -0.017585 -0.00315705 -0.013566 0.0034297 -0.0200768
-0.0111273 -0.0411104 0.0129939 0.00482629 0.000747472 -0.00214447 0.0161005 -0.00600679
-0.0361502 0.00522194 -0.00721911 -0.012538 -0.0211372 0.00502402 -0.00417509 -0.167863
0.0166553 -0.000328936 -0.00100269 -0.000728595 0.00255122 -0.00793981 0.00640914 -0.0309786
0.0384271 0.025973 -0.0434826 0.0355506 -0.00565676 -0.0202924 -0.0124892 -0.0183212
-0.00858109 -0.027349 -0.0103539 0.0544208 0.0295501 0.0293758 0.0126165 0.0286217
0.0300937 0.0426162 0.0190249 0.00144323 -0.00173453 0.110736 0.00724717 0.0430505
-0.00433431 0.0757752

linear_7_Add_B f4 [5]
00000000: 789d a8bc 669a 95bc 2f83 963c fb96 94bc
00000010: 7b41 953c
-0.0205829 -0.0182621 0.0183731 -0.0181384 0.0182197
