networks/onnx/ACASXU_run2a_5_2_batch_2000.onnx (onnx, 55914 bytes, 15 tensors)

input_AvgImg f4 [1, 1, 5]
00000000: 0000 0000 0000 0000 0000 0000 0000 0000
00000010: 0000 0000
0.0 0.0 0.0 0.0 0.0

Operation_1_MatMul_W f4 [5, 50]
00000000: 261a e43d 4d9b a63d 67ed d2bf b285 503e
00000010: a39b 73bd e8c1 383c 6212 96be 8301 1f3c
00000020: 9872 993c 80f4 f5be f6f3 613d 4fb9 783d
00000030: e6c7 04bd 8283 bbb9 cd1f 5bbf 9841 463c
00000040: e0f0 e73c f8e0 1dbf 4581 96bf 0933 b9bf
00000050: 629a d0bb cf2c ec3b 56a5 48bd 30d8 a5bf
00000060: fb75 37bf 2ee7 9abf 35be a7bb 5b8b e03c
00000070: 34b2 353d 9e29 b8bf 38bd a33e 111d cabe
00000080: dd78 5c3d 4b02 b8bf 540c 463d 33d7 333c
00000090: d0b3 e1bf 1cd3 723b c14d 6b3d 923c 4bbf
000000a0: 4b94 98bb 7274 30bd dc46 b33e b43d 4a3e
000000b0: b8c8 b5be 70b2 3dbe 2b07 e9bb de55 933b
000000c0: dd07 a4bf 2c34 463b 54c5 443f 2ff7 113f
000000d0: d932 aebb bede b93f ad17 9f3f dfc1 cfbd
000000e0: e8bf d7be e1e9 ba3c 407e df3b 406b b63e
000000f0: 6f66 003f 5dc6 68bd 92e8 c83a 4daa ecbc
00000100: c0c9 5bbd e199 f03d dc46 633d a513 e93d
00000110: 2fc4 ea3d ab1f 5db9 6c88 1e3b 3ca0 943f
00000120: 0e67 febc 25cb 993d ace4 933e 75a7 813b
00000130: ba94 44bd dae1 9bbf 2558 fc3f b621 903b
00000140: 5726 643f e3e4 2e39 26fe 6c3f 32bd 4e3d
00000150: f8e0 75bd a123 203c 10c6 743c ce1b 573e
00000160: 66d8 70bf 0862 0f3d 62b9 9abd ab59 2b3f
00000170: 2497 87bf f98c 5a3d 2c17 e03c 965f 963e
00000180: 6576 c13d 8048 a73e 54c7 0abd 997a 223d
00000190: 58e2 45bf a88a c13e 5c41 0e3d 96e7 c1bf
000001a0: 2c78 ab3d a0fe f33d 512e edbd 5174 73bd
000001b0: 2bcb ecb7 881b a63d 2563 bb3d bb9b a73f
000001c0: 84ff 633c 8316 f23d 4783 853d d141 1b3f
000001d0: ad6a 01bf 778c c1bd 6e91 8abd c338 0e3d
000001e0: 36a5 23bb 1715 8c3c d00a ec3d e025 adbd
000001f0: 4642 cbbe d69d f83c bf90 9f3c 31b6 6c3f
00000200: 8750 c63b 01a7 b7bc abea 51bf 1f9e 213f
00000210: 6c07 233d 6d35 ef3b 185b 88bf 3a21 b63a
00000220: a544 79bb bc94 3abe 734b 83bf 461b b2bb
00000230: 2349 f03d ba81 eabe 6f2a 723f 9615 14bd
00000240: b484 c63c 7a8e 34bf 478f e7bf f81c b8be
00000250: 9455 4c3d 66b7 3bbd bbb6 f7bd eb73 8dbe
00000260: 22d8 703a 844e b33d a139 613d 24f2 15bf
00000270: c311 8c3e edb8 59bf 08cb 793b cedc 883d
00000280: c823 38be c1d4 953d 13b6 13bf f20c b6bf
00000290: e5c5 b23b 94f5 33bf 24d2 fe3e 0aa1 bbbe
000002a0: ebc4 95be a0d9 dc3b 42c4 553b 577c 333e
000002b0: 1602 743d de3c a53e 4c33 dd3d cd5c 1c3c
000002c0: fda0 3ebf a3d1 78bc dbbb 4b3d 492b 5ebe
000002d0: 6116 ffbc 63e1 35bc 31b2 b4be 8463 46be
000002e0: 42b2 80bf 80fe ef3a 0b0c b83b f94e 02c0
000002f0: c2ac 0b3d f5b9 66bf d4e7 54bd 92ea 3b3d
00000300: e0f7 6fbd fb1f 3cbf 3fc8 32be 15d1 45bd
00000310: deaf 02bc aa2b 8fbf 2f0e 82ba c3f0 adbf
00000320: f5a1 b3bf 3d0d 583e b54e 5c3c c389 c3bc
00000330: 68bf 7f3c ec6d 233f 5f8f 83bd 5ce8 6ebf
00000340: 434a 7d3b 7242 323c 7bf0 8fbd 15c6 d6bd
00000350: 09f9 a8bf a0c5 4e3f 15f3 3dbc 08ca ed3d
00000360: 9d64 53bf 014c 293e 469a 14bf b474 e8bb
00000370: ad62 bb3b 0ef7 01be 46b1 04c0 c30f cebe
00000380: b94a 61bd 035f d9be 255d f3bd f12c 213d
00000390: 89e6 96bd eaea 6ebd dd45 083e e1ca c0ba
000003a0: 0637 e73b 7940 a1be 957e 823e 3017 beb9
000003b0: 3995 313c 6d74 d63e 7f45 93bd 0726 ffbe
000003c0: 4165 90bf 33a7 1bbe aff4 30bd deab 86bf
000003d0: 8450 c9bd 938f dd3e 0f88 c63c eeb3 5ebf
000003e0: 612d 633b 32af 1f3f
0.111378 0.0813509 -1.64787 0.203635 -0.0594746 0.0112767 -0.293109 0.00970495
0.0187314 -0.480381 0.0551643 0.0607236 -0.0324172 -0.000357654 -0.855954 0.0121006
0.0283131 -0.616714 -1.17582 -1.44687 -0.00636606 0.00720749 -0.0489858 -1.29566
-0.716644 -1.21018 -0.00511911 0.0274102 0.0443594 -1.43877 0.319803 -0.394753
0.0538262 -1.43757 0.0483516 0.0109766 -1.7633 0.00370521 0.0574472 -0.793893
-0.00465635 -0.0430798 0.35015 0.197501 -0.355047 -0.185251 -0.00711145 0.00449632
-1.28149 0.00302435 0.768636 0.570178 -0.00531612 1.45211 1.24291 -0.101444
-0.421386 0.0228166 0.00682047 0.356287 0.501563 -0.0568298 0.00153281 -0.0288898
-0.0536592 0.117481 0.0554875 0.113807 0.114632 -0.00021088 0.00241902 1.16114
-0.031055 0.0750945 0.288854 0.00395673 -0.0479934 -1.21783 1.97144 0.00439855
0.89121 0.000166792 0.925753 0.0504734 -0.060029 0.00977412 0.0149398 0.210067
-0.940802 0.0350056 -0.0755489 0.669337 -1.0593 0.0533571 0.0273548 0.293698
0.0944641 0.326725 -0.0338815 0.0396677 -0.772985 0.378011 0.0347303 -1.51488
0.0837253 0.119138 -0.115811 -0.0594371 -2.8228e-05 0.0811072 0.0914977 1.30944
0.0139159 0.118207 0.0651918 0.606473 -0.505534 -0.0945062 -0.0676602 0.0347221
-0.00249703 0.0170999 0.115255 -0.0845449 -0.39699 0.0303487 0.0194782 0.924655
0.00605208 -0.0224185 -0.819987 0.631319 0.039802 0.00730007 -1.06528 0.00138954
-0.00380353 -0.182208 -1.02574 -0.00543538 0.117327 -0.458021 0.94596 -0.0361534
0.0242332 -0.705299 -1.80906 -0.359596 0.0498863 -0.0458292 -0.120954 -0.276275
0.000918748 0.0875521 0.0549866 -0.585726 0.273573 -0.850478 0.00381154 0.0668274
-0.179824 0.0731597 -0.576997 -1.42227 0.00545572 -0.702966 0.497697 -0.366463
-0.292518 0.00673981 0.00326182 0.175279 0.0595723 0.32273 0.108008 0.00954361
-0.744644 -0.0151867 0.0497397 -0.216962 -0.0311386 -0.0111011 -0.352922 -0.193739
-1.00544 0.00183101 0.00561667 -2.03607 0.0341003 -0.901275 -0.0519789 0.045878
-0.058586 -0.734863 -0.174592 -0.0482951 -0.0079765 -1.11852 -0.000992244 -1.35891
-1.40338 0.210988 0.0134465 -0.0238694 0.0156096 0.638396 -0.0642383 -0.933233
0.0038649 0.0108801 -0.0702829 -0.10487 -1.3201 0.807703 -0.0115936 0.116108
-0.825754 0.165329 -0.580479 -0.00709399 0.00571855 -0.126919 -2.07332 -0.402464
-0.0550029 -0.424553 -0.11883 0.0393495 -0.0736819 -0.0583295 0.133079 -0.00147089
0.00705612 -0.314945 0.254872 -0.000362569 0.0108388 0.418857 -0.0719099 -0.498337
-1.12809 -0.152005 -0.0432021 -1.05212 -0.0982981 0.432736 0.0242348 -0.869933
0.00346645 0.623767

Operation_1_Add_B f4 [50]
00000000: 26c7 05bf aadd a53d 7714 c7be 7d05 d9be
00000010: 0f0a ba3e 3f91 e73d 452e f6bb c3d6 e4be
00000020: 1ffa c9bc c6fd 643b b9fc 273e 2aff 1a3e
00000030: d40a 4bbf 2db4 83be 3794 35bd 3f38 3fbe
00000040: 77ce 403d e4f8 e1bd fad3 06bf efca 96be
00000050: 8c38 53bc 7cd1 0e3e 58c6 3ebf b323 c5be
00000060: 44f9 02be fc38 4abe e068 673e 4dda d4be
00000070: d92c 8d3d 00e6 a2be d8bc 0a3f 98a5 ddbd
00000080: ffca dabe c991 eebe 1139 19bf e56f ccbc
00000090: e5ee fbbe 8927 43bf dd09 763d 02a0 4abf
000000a0: 1ea7 803e bedc 073e 5115 1f3f 62da 0fbf
000000b0: 6573 c03d 3a3a d3bc 9793 0a3c c9e5 6fbe
000000c0: 9b8f 4bbe d922 2bbb
-0.52257 0.0809892 -0.388828 -0.42387 0.363358 0.11307 -0.00751284 -0.446951
-0.0246554 0.00349413 0.16405 0.151364 -0.793134 -0.257234 -0.0443308 -0.186738
0.0470719 -0.110338 -0.526672 -0.294517 -0.0128919 0.139471 -0.745214 -0.385038
-0.127904 -0.197483 0.225986 -0.415728 0.0689332 -0.318161 0.541944 -0.108226
-0.42733 -0.465956 -0.598527 -0.0249557 -0.492057 -0.762322 0.060068 -0.791504
0.251275 0.132678 0.621419 -0.561926 0.0939701 -0.0257846 0.00845804 -0.234275
-0.19879 -0.00261133

Operation_2_MatMul_W f4 [50, 50]
00000000: 4e60 523f a782 803c 0d34 6f3f 780f 4b3d
00000010: f911 ff3d 560e cd3d 7368 c9be 8733 7f3e
00000020: 57cd 333f e8f4 c4be 9e7b 7fbe 1675 acbd
00000030: 3c32 363d ad29 9abd e5bf f6bc 5d6a a93c
00000040: 0c20 4cbe 8463 d6bd 5bc1 853d 3bd4 803c
00000050: 069d 30be c3e9 aebd 5305 973f 4837 02bf
00000060: 0f0b 3dbf f3cd 74bb d464 1e3f e76d 7c3e
00000070: 8121 d03c a417 153f 170f 433f 8772 bdbc
00000080: 1515 36bd e7a1 1b3d 0308 3bbf 4410 4cbd
00000090: 1048 3a3b 9545 513e b551 4dbe 0cea 03bf
000000a0: cc41 10bf 130d 4e3f 3734 053e ea58 853e
000000b0: 4f86 143d b4dd 29bd 0634 acbd 1a21 823d
000000c0: d498 c53d 353a 913d b76f 033b a777 10bc
000000d0: 59f8 3a3e a72b 4ebd f0fe 833d ff41 74be
000000e0: ee7b ccbe 1b33 64bc 964a 113c 5870 f7be
000000f0: 0fb7 17bf 79ba e9bc 4cab 3e3b 6073 febe
00000100: 27a0 a53f 07cd 91bb 9145 b2be e42e 72be
00000110: 52db b13d 22c6 c3be 7904 0b3f f08b cb3e
00000120: eba7 ff3d d386 133e cc9a a8be b3b0 ccbc
00000130: 54c8 adbe 25e8 03bf 08a1 0b3c 6f63 d3bd
00000140: fa85 b23c aa5d b83c 9138 35bd b937 dfbd
00000150: 6231 f2be 5680 cf3d b2fd 5abd b1fa 433e
00000160: 9cfd a13e 0d36 65be 9790 873f c84c 58bd
00000170: c1e8 6dbd 24ec c0bd 8a77 00be 60ce c73c
00000180: 6e4e 193f 71c6 10be 6951 4f3e 6f0c 653f
00000190: 4b05 75be 67e1 a1bc c7f3 f9bd 247b 8c3e
000001a0: 7094 e83f 41a7 163d 17d2 86bd be4d 4fbe
000001b0: c68b 653f 65d2 95bc e6cb 3f3f c364 0a40
000001c0: 452f eb3f 02fc a93d d26d 39bf 1eff 60bc
000001d0: 5cca 49be 705f f73f adfa 943f 22e3 813e
000001e0: 2b30 0a40 bd6f f4be 494b 8d3e 00c5 383e
000001f0: f183 633e 4225 2ebd b398 183e 041c ca3e
00000200: a76f 3ebc f5db 6b3f 5fd2 d83f 12e6 acbb
00000210: b981 4c3c fc86 2ebc 7c7e 083e 64e9 173f
00000220: 565b 36bd f25b 203f c8b5 a5bf b51b 8d3e
00000230: e8bb 0b3e 163e 91bd d595 eb3f ddb6 2f3e
00000240: 39d6 0140 197b 053d 62ba 7c3f c807 85be
00000250: bf49 23bf a46a 603d 5858 e03e bf81 c93c
00000260: cc5f 013e ce18 56be 6e6e 4cbe 56d4 c0be
00000270: 0454 c8be 0df5 85bc 0c77 0a3f 97e1 7f3e
00000280: f983 41bf 0b22 a73d cfe2 ab3d fcc8 b53e
00000290: 999c cabe 9879 41bd c499 0fbe ee38 aabc
000002a0: 713e 903c afcf 5c3e 959f 083f c2ac 2bbb
000002b0: 0283 dc3e b79b 983e 74d0 093f 4408 39bd
000002c0: 304c e23f e5b7 40bf 76e7 a23a a27b 563e
000002d0: 7f5c d1ba 840f 253c c460 3ebd 23f5 6ebe
000002e0: 644f 8c3c 7764 a4be fb76 123d 8d0a 4cbe
000002f0: e97f 893e cd3d 083f 0799 a43e 795d 1fbe
00000300: 25ae 233e a9d9 e33f de00 9bbe 5718 ecbc
00000310: 1ed1 333d 19c6 51bf 8d0b b3bf f298 05bf
00000320: cc4c 04bd aabe 2ebd cafd 56bf 3f39 3a3e
00000330: 844b 673e 4bab 41be 4e98 00be 4a5e bd3f
00000340: 7a98 4c3d 13b8 bdbe 5d8c 993e 0f15 9e3d
00000350: 5a12 8b3d 2a1c 01be 62f3 27c0 6f21 d9bc
00000360: 33dd ab3e f78e dabd 541f 903e 1618 dabe
00000370: 467c 37be 3753 913e 0971 75bf 0ce9 a03e
00000380: 876d 2bbe f742 1cbd 85b4 ce3e 800b 023e
00000390: 9f53 153d 809e 0abf 9c8c 72bf 4dc6 32ba
000003a0: bbf7 cbbc 88c1 993b 5611 8ebe 7f4b 98be
000003b0: e887 91bc d366 6cbe b249 1abf 2e75 983e
000003c0: 6f67 bfbe dbde b63e b88f 18bf b7d1 a7c0
000003d0: 703f 10be 4936 f23c ea92 35bf 880d f6bd
000003e0: 3a3f 9dbe ffea 513e 2922 d33f 8c4b 153c
000003f0: d61c 08c0 42c9 c7bb 4122 923c 4415 723f
0.821782 0.0156873 0.934388 0.0495753 0.124546 0.100125 -0.393375 0.24922
0.702352 -0.384681 -0.249495 -0.0842077 0.0444815 -0.0752748 -0.0301208 0.0206806
-0.199341 -0.104682 0.0653102 0.0157262 -0.172474 -0.0854068 1.17985 -0.508656
-0.73845 -0.00373542 0.618726 0.246513 0.0254066 0.582392 0.761949 -0.0231259
-0.0444537 0.0379962 -0.730591 -0.0498202 0.00284243 0.204367 -0.200507 -0.51529
-0.563504 0.804887 0.130082 0.260444 0.0362609 -0.0414712 -0.0840836 0.0635397
0.0964829 0.0709118 0.00200556 -0.00881759 0.182588 -0.0503346 0.0644511 -0.238533
-0.399383 -0.0139282 0.00886788 -0.483279 -0.592637 -0.0285313 0.00290938 -0.496974
1.29395 -0.00444949 -0.348187 -0.236507 0.0868441 -0.382371 0.543037 0.397552
0.124832 0.144069 -0.329306 -0.0249866 -0.339419 -0.515261 0.00852228 -0.103217
0.0217924 0.0225056 -0.0442434 -0.108993 -0.473033 0.101319 -0.0534646 0.191386
0.316388 -0.223839 1.0591 -0.0528076 -0.0580833 -0.0942004 -0.125456 0.0243904
0.598853 -0.141382 0.202459 0.894721 -0.239278 -0.0197608 -0.122047 0.274377
1.81703 0.0367806 -0.0658304 -0.202445 0.896664 -0.0182888 0.749205 2.1624
1.83738 0.0830002 -0.724332 -0.0137327 -0.197061 1.9326 1.1639 0.253686
2.15919 -0.477415 0.275965 0.180439 0.222183 -0.042516 0.14902 0.394745
-0.0116233 0.921325 1.69392 -0.00527645 0.0124821 -0.0106523 0.133295 0.593405
-0.0445207 0.626403 -1.29461 0.275602 0.136459 -0.0709192 1.84051 0.171596
2.0287 0.0325881 0.987219 -0.259825 -0.637844 0.0547892 0.438174 0.024598
0.126342 -0.209079 -0.19964 -0.37662 -0.391266 -0.0163522 0.540879 0.249884
-0.75592 0.0816079 0.0839287 0.355049 -0.395726 -0.0472351 -0.140235 -0.0207791
0.0176079 0.215636 0.533685 -0.00261955 0.430687 0.298063 0.538337 -0.0451739
1.76795 -0.752806 0.00124286 0.209456 -0.0015973 0.0100745 -0.046479 -0.233357
0.0171277 -0.321079 0.035758 -0.199259 0.268554 0.532193 0.32148 -0.15563
0.159844 1.78008 -0.302741 -0.0288202 0.0439006 -0.819429 -1.39879 -0.521865
-0.0322998 -0.0426623 -0.83981 0.181859 0.225874 -0.18913 -0.125581 1.47944
0.0499501 -0.370545 0.299899 0.0771886 0.0679061 -0.126084 -2.62423 -0.0265052
0.335672 -0.106718 0.281489 -0.425965 -0.179185 0.283838 -0.958756 0.314278
-0.16741 -0.0381498 0.403721 0.126997 0.0364567 -0.541481 -0.947458 -0.000681971
-0.0248984 0.00469226 -0.277476 -0.297451 -0.017765 -0.230861 -0.602687 0.297769
-0.373836 0.357169 -0.595943 -5.24435 -0.140867 0.0295669 -0.709273 -0.120143
-0.307123 0.204998 1.64948 0.00911225 -2.12676 -0.00609699 0.0178386 0.945637

Operation_2_Add_B f4 [50]
00000000: 2920 65bf b22f 99bc 0516 503e 85ef 153f
00000010: e146 9abe c9e4 643e 9f21 dc3e 478f dfbd
00000020: 1de3 4a3e 38a1 803e 15c9 cf3e f110 62bf
00000030: 27bd 5bbf d90f 4cbd c47c 113f d94f 90bc
00000040: 931a 223f cc28 9abf 575e e2be dec7 01be
00000050: f96a 47bf 6893 e33d 2bcb a6bd c3f2 bfbe
00000060: 713d 2abf a0f0 04bc 452e 78be 7b30 c13e
00000070: 417d 70bc 32e2 273c 0c01 f0be a641 76bc
00000080: de2f 11bc f216 7ebd 8849 203f ea6c a2bd
00000090: f34c 79bc bda8 593f 84f4 043f d39f fd3d
000000a0: cc27 d33e dcf5 d2bc 6edd 91bf 9012 d3be
000000b0: 0515 093f d616 83bc e7a3 51bd d108 1a3f
000000c0: 6535 0d3f aeac febc
-0.895022 -0.0186995 0.203209 0.585686 -0.301322 0.223529 0.429944 -0.10916
0.198132 0.25123 0.405831 -0.883071 -0.858355 -0.0498198 0.56831 -0.0176162
0.633218 -1.20437 -0.442126 -0.126739 -0.778976 0.111121 -0.0814422 -0.374899
-0.665 -0.00811401 -0.242364 0.377323 -0.0146783 0.0102468 -0.468758 -0.0150303
-0.00886151 -0.0620336 0.626122 -0.0793093 -0.0152161 0.850231 0.519356 0.12384
0.412413 -0.025752 -1.13957 -0.412251 0.535477 -0.0160021 -0.0511817 0.601697
0.551596 -0.0310882

Operation_3_MatMul_W f4 [50, 50]
00000000: 57cf 893e c7a0 133e ddce 1ebe a0dc 363c
00000010: 2a8f 963e 16c1 db3f 431b 103e d8bb 9fbe
00000020: 6a12 8c3e 8256 94bf d4de c6bd 670c 33bd
00000030: 902f d93e 02f0 5fbe f38d 08bf 313e 713c
00000040: b0c5 b6be 088f d63e 6a87 87bf b1c3 f03e
00000050: 08aa 46bd 14cd 4f3f a549 f9bf 5bb3 453e
00000060: 9938 483d 357a 45be 7dae 9a3f 2026 613e
00000070: 056a 313c 8291 333f e597 813e 2d26 86be
00000080: 94de ff3f ac19 113f 349d c1bf 2a8c e53e
00000090: 1f36 89ba 8a3b 5e3e 49d6 f13e 6494 533f
000000a0: 2079 1bbf 874f 5abe c372 aabd f38f 6abf
000000b0: 2e06 2abd 4d12 8bbe 0fee aabf b224 e53c
000000c0: d2a6 d23e e95f b23e 690f 253d 5011 afba
000000d0: ab60 0f3d 85b7 423d 0f1e b7bc a1d7 80b7
000000e0: d4b5 f63c 2416 e7bc e741 303c b3c6 2a3d
000000f0: d67b e0bc a1de e7bc b9ae d23b 0ab4 853c
00000100: 73fc 0b3d 9cec 15bd 9ccb 43bc 3678 5fbc
00000110: c49e d13c b910 75bc 8a10 4d3d 63f5 423d
00000120: 71e1 a5bc a70a a13c f224 093d 4686 8b3c
00000130: 6d64 cdbc 79ce 363d 8d47 293d fcbf 723b
00000140: dea3 c83c bb53 cb3c ae7d 03bc c78e 7cbc
00000150: 6e4c 4fbc c88d 2c3d 027e 0dbd 33ac ff3b
00000160: c70f 35bd 1d63 5dbc 3924 1abc 337e 2bbd
00000170: da14 193d ffaa 88bc 6d16 943c 9d5a 07bd
00000180: c00f fdbc 6199 2d3d 1619 3abb d522 023d
00000190: 4837 e23d d1e8 823f cc62 82bf aa8a c2bb
000001a0: 4ef0 a5be c4ee 4bbf eda8 b03d 5f9b b53e
000001b0: 3012 3a3e d8bb afbf 5089 6b3e 9569 8f3c
000001c0: a800 803f 0e32 2dbf e995 573d 2289 d63e
000001d0: a06c a63f 9180 c13e 8eea bf3d e3fc a1bf
000001e0: 974f 7bbc 2c65 a5bf 58ca f23e 0af2 dbbe
000001f0: 412a cd3e ca15 3e3e cc61 333f dff9 ad3e
00000200: d597 ed3e 0117 8c3e 060d f53e 3b36 a23e
00000210: 8b17 6b3f 105c c53e 8e3b 653e bf0c 263e
00000220: d3a5 ffbd df6c 833f e21f 463f bc82 833d
00000230: 12f7 443f 9697 2cbe 6e69 ad3e b402 8bbf
00000240: b89b b73b 4b3d 2bbf d602 c63d 7f89 a0be
00000250: a0fb 323d c234 283f 4701 9abe f52a eabe
00000260: 9f19 893d c8ea 9e3e adf7 333f c380 193f
00000270: 27d2 b2bd 2f99 843d 755a f7be 5e7e bc3d
00000280: d350 a33c 5b7f 46bd ee40 ddbd 1bbe ed3e
00000290: 2e2c 6e3d 6879 9ebd 6a71 61bd 3154 0fbd
000002a0: 39b4 2dbd d9ea 42be 85e5 b4bc 07cf 343f
000002b0: 3f74 b1be a016 45bb a20e 2bbe afec 12be
000002c0: af6e 46bd b648 b2be 8100 1e3d 3b18 c63d
000002d0: 2f36 ad3e 06a1 1cbe 753f 873e 4911 b1be
000002e0: 3b7d 733d f6cb bc3d 967b 293f a852 9b3e
000002f0: a1bd 5abe 77bd 14be a14c 533e 1a32 febd
00000300: ca70 0cbe e593 cabd 7852 703c 1a8b 963d
00000310: 1426 94be 1c5d a5be 4633 903d fb77 8dbe
00000320: 158e 803e 4ca9 1bbe c89a 51bd d4b6 05bf
00000330: 9eef 77be d15c 97be ba86 69be ebe1 933e
00000340: 01a7 473e a4ab bcbe cd5b 253e 758d 3b3c
00000350: fe2c 763e c286 073f c619 133e ef55 23bf
00000360: d40c c13e 800d d8be 6171 803e 4ce3 c7be
00000370: 94f6 c6bc 0f7f 893f 82e6 f3bd b456 183f
00000380: 3645 a6bd b0fb 933d b0c9 023f 9c19 7d3b
00000390: 884a b3be 07d3 a8be 972f b9bd 38db 08bf
000003a0: d95a 44bd 1dc7 2f3e 26ac 19bf bc21 d5be
000003b0: 2399 5abd 57cf 853f 0a43 993d ed2c 823e
000003c0: 26a8 313e e71a a6be eb8e 453e 85b0 0a3e
000003d0: a98c b9bb 3e5e d0be 9580 a0be 7dd0 173f
000003e0: f6c4 84bc 5ef2 97be 5988 ce3d fda4 7840
000003f0: 304c 42bf be11 dd3c b057 58bc 4221 99c0
0.26916 0.144168 -0.155086 0.011161 0.294061 1.71683 0.140729 -0.31198
0.273578 -1.15889 -0.0971047 -0.043713 0.424191 -0.218689 -0.533416 0.0147243
-0.356977 0.41906 -1.05882 0.470243 -0.048502 0.811723 -1.94756 0.193067
0.0488821 -0.192849 1.20845 0.219872 0.0108285 0.701439 0.253112 -0.26201
1.99898 0.566798 -1.51261 0.448335 -0.00104684 0.217024 0.472338 0.826483
-0.607317 -0.213194 -0.0832267 -0.916259 -0.0415098 -0.271624 -1.33539 0.0279716
0.411429 0.348388 0.0402979 -0.00133566 0.0350043 0.0475383 -0.0223532 -1.53592e-05
0.030116 -0.0282088 0.0107579 0.0416934 -0.0274028 -0.0283044 0.00642952 0.0163212
0.0341763 -0.0366026 -0.0119504 -0.0136395 0.0255884 -0.0149576 0.0500646 0.0475973
-0.0202491 0.0196584 0.0334825 0.0170318 -0.0250723 0.0446305 0.041328 0.00370407
0.0244922 0.0248202 -0.00802557 -0.0154149 -0.0126525 0.0421274 -0.034544 0.00780251
-0.0442045 -0.0135124 -0.00940805 -0.0418684 0.0373734 -0.0166831 0.0180771 -0.0330454
-0.0308913 0.0423826 -0.00283963 0.0317715 0.110457 1.02273 -1.01864 -0.00593694
-0.324099 -0.796612 0.0862597 0.354701 0.18171 -1.37292 0.230016 0.0175064
1.00002 -0.676545 0.0526332 0.419015 1.30019 0.377934 0.0937091 -1.26553
-0.0153388 -1.29215 0.4742 -0.429581 0.400713 0.18563 0.700711 0.339797
0.464049 0.273613 0.478615 0.31682 0.918328 0.385468 0.22386 0.162158
-0.124828 1.02676 0.773924 0.0642142 0.769395 -0.168547 0.338695 -1.08602
0.00560328 -0.668904 0.0966851 -0.313549 0.043697 0.657055 -0.300791 -0.457359
0.0669434 0.310385 0.702998 0.599621 -0.0873149 0.0647453 -0.483112 0.0920379
0.019936 -0.0484613 -0.108034 0.464341 0.0581476 -0.07738 -0.0550398 -0.0349924
-0.0424082 -0.190349 -0.0220821 0.706284 -0.34659 -0.00300733 -0.167048 -0.143481
-0.0484454 -0.348211 0.0385747 0.0967259 0.338304 -0.152958 0.264156 -0.345835
0.0594456 0.0921859 0.662042 0.303365 -0.213614 -0.145254 0.206347 -0.124119
-0.137149 -0.0989149 0.0146681 0.0735075 -0.289353 -0.322976 0.0704103 -0.276306
0.251084 -0.152013 -0.051173 -0.522321 -0.242125 -0.29563 -0.228053 0.288833
0.194973 -0.368497 0.161483 0.0114473 0.240406 0.5294 0.143653 -0.63803
0.377051 -0.421978 0.250865 -0.390406 -0.0242875 1.07419 -0.119092 0.595073
-0.0811867 0.0722574 0.51089 0.003862 -0.350178 -0.329735 -0.0904228 -0.534595
-0.0479382 0.171658 -0.600283 -0.416273 -0.0533687 1.04539 0.0748349 0.254249
0.173493 -0.324424 0.192928 0.135439 -0.00566252 -0.406969 -0.313481 0.593025
-0.0162072 -0.296771 0.100846 3.88507 -0.758975 0.026986 -0.0132045 -4.78531

Operation_3_Add_B f4 [50]
00000000: ce50 24bf 72dd 28bf 68cb c5bf d105 4d3f
00000010: 6345 5d3e 9cdb 04be 234d 0cbe f9d7 babe
00000020: e6e5 88be 7234 673e 0916 afbf 36ec d2bc
00000030: ed9c 1a3f 7502 aabe c992 0dbf 319a 59bf
00000040: 5b5e 593e b1fa b33e f758 86bf 9160 c23e
00000050: e7fc 94bc 3e22 3ac0 2f30 3bbe 89b2 b7bd
00000060: 9dbe e6be 3106 023f 6570 c43e bb3d 6d3d
00000070: 552c c3bd 0b97 19bf d447 40be ee4a c1bd
00000080: 5f07 3e3e 8d5d 9abf 6364 61bf ad86 84bf
00000090: cb0e 91be 6ede f03e e0d9 2e3e 05cc b23c
000000a0: 3e79 d8bd 0dc4 823e 46ce 5ebf ca4f 9ebf
000000b0: 760e 0fbd 0fd4 5dbf 745f 22bf 6823 57be
000000c0: 1d58 eebe 61de 833e
-0.641858 -0.659629 -1.54527 0.80087 0.216085 -0.129744 -0.137013 -0.364929
-0.267379 0.225786 -1.36786 -0.0257474 0.603957 -0.33205 -0.553021 -0.850009
0.212274 0.351522 -1.04959 0.379643 -0.018187 -2.90834 -0.182801 -0.089696
-0.450673 0.507907 0.38367 0.0579202 -0.0952994 -0.599961 -0.187774 -0.0943812
0.185575 -1.20598 -0.880438 -1.03536 -0.283316 0.470447 0.170753 0.0218258
-0.1057 0.255402 -0.870335 -1.23681 -0.0349259 -0.866517 -0.634269 -0.210096
-0.465516 0.257556

Operation_4_MatMul_W f4 [50, 50]
00000000: fa0e 2ebe aef0 623f da72 7ebe f6ee 3fbe
00000010: 59f7 cfbd 2b4b 303f 4fff 9ebd b24c 873e
00000020: 5b41 b3be 9a08 0bbe 6aa3 363f c4ea 3fbe
00000030: a4fb 09be 4b03 3fbe 7ec5 163f 2025 debe
00000040: 57ea d93d 7aa6 07be baf5 7abd 5bd3 fc3e
00000050: 06f2 7c3e be14 7a3f 13c9 b13d efc7 2d3f
00000060: ac73 9cbe de20 3a3e 137f f43d ccd4 343e
00000070: d13f 31bf fb26 b8bd 36ae d7be edbc edbd
00000080: 02d9 273f 78ec 3bbf e9e1 fa3c 9ca2 03be
00000090: 3abe ecbc 6d1f fabe ca64 92bd be2f 1ebe
000000a0: e547 d4be 2783 c33e 54c4 81be 8b71 7ebe
000000b0: e7e4 05bf 780e 79bf 4f0a 2e3d 923e 113f
000000c0: 12a5 8d3f 199e 8dbc 04ac b5be cc7a 9dbf
000000d0: 5c59 e2be 7c7d 5dbe 477e 833d e013 0bbf
000000e0: 0e16 093d 93d3 9dbd 7ce5 bb3d c70d df3d
000000f0: 0894 c5bf 85b1 9dbe a453 8bbf ec67 b93e
00000100: 9f76 f8bf 53cc 91be 6dc9 76bf 2cd8 223f
00000110: 5919 4dbe 1fa2 51be fb73 f9be 0fee 863f
00000120: 2fc1 29be e97f e13e f510 5d3e 1745 cfbe
00000130: d7db 06be 9f5a 41bf 18b2 8e3f 4303 e13e
00000140: 9a42 87bd d2c6 81be b610 a43f d976 aa3e
00000150: ba55 ec39 ad6b d4bd f81c 0c3f 664a 073f
00000160: b552 10bf 74eb 153e bcca 123f 28b5 ef3e
00000170: 82ac 37be 0cce a0be bc05 a2bf 494c 3c3f
00000180: ad9b 9c3d e1ee 90bf a83a 7cbf 24a5 0fbd
00000190: f913 0d3f 32ca 4b3f cb9d c93e c538 3f3e
000001a0: b458 0abe 05e0 d73e e37e 713d c03e 323f
000001b0: e78d 53be 57a9 953d 7ba0 41c0 8719 5a3d
000001c0: e97c 2c3f bc57 7dbe 9fe7 d73e baa2 44be
000001d0: 97e2 32c0 61aa 113f 5d1a 4fbe f376 743e
000001e0: 7cba dabe 8559 9dbd 11fe 0d3f 9eb6 063f
000001f0: a019 bc3e 61e0 b1bf fda4 96bf 59bf 79be
00000200: cd1e 4cbf e99e 153d 9ed2 d1be 643b abbf
00000210: 2a55 f2be 1365 bfbe 62ae 36bd b75e d3bd
00000220: bc90 333c 3ca1 cf3e 0a80 893e 43ff 8c3e
00000230: 088f 163e 2714 323e 0a67 57be 4dbb 78be
00000240: 109b b33d 7042 89bf 66d9 23be fce0 4cbf
00000250: 1c78 75bf 8205 ee3b 770f d8be 2102 78c0
00000260: 3751 1bbf c5a9 2e3f ce70 d7bf 1fbf 17bf
00000270: cefa 1c3f 67d4 bcbe 0745 233e 45f4 5b3e
00000280: bb26 70bf 96e7 95bf c844 4a3f d175 e1bd
00000290: 5c77 1fc0 f242 6a3e 38f3 ab3e 5e63 17be
000002a0: 8c2f 2abf d8bb bf3f 9b1d 89bd 27a1 8cbe
000002b0: 2e8d c73e 6ff0 71bf 814c 3ebb 3c31 27bf
000002c0: 6de2 24be 94de 87be 14d1 7f3e 354e 993d
000002d0: e084 8a3f e604 ed3e f302 903f 5dd1 373d
000002e0: 7d13 79bc 936e 8b3e 3f39 82be 499e 433f
000002f0: 3e76 47be 2f32 69bf 9f8e 9b3f e02c cdbe
00000300: 23f7 c43d 6b45 733f 73a2 913f b9fa 41be
00000310: 53cf 02be 1efc 183f 26aa 6fbf a8df c5bc
00000320: f5d8 663e 6fe7 8cbd daca 1bbf f6ee 4f3e
00000330: 4cee 613d 3448 99be 610b 30bc 52f0 64be
00000340: 26c5 973d 8ca3 663f 575b 81bf 7383 11be
00000350: 0caf 18bf eb1b 383e c45e 28be c520 a0bd
00000360: 10ee b93d 3dab a63d 7358 bb3d b58d af3e
00000370: 7f28 823d 1ee1 943d 1ec5 f93c 9ed0 cbbe
00000380: 98bc a6bd 6122 343d a2d4 3e3e 02f0 233f
00000390: 904d 163f 7aab 0ebf 3f50 c3bd a837 e33d
000003a0: 0d33 24be e030 c9be 4cdb 643c 6550 85be
000003b0: aad5 df3e 5f91 c43c 6c79 453e 56b6 b73e
000003c0: 8d7f d7bf 8c2d d8bf c251 9e3f e6cd 213f
000003d0: b51a debf 323d 893e 3b19 ec3e 4e2b 75be
000003e0: d34d 54c0 b499 193d 0ea3 903e d3f9 403e
000003f0: b726 e53e 6760 68bf f0a0 fe3b dcf6 f53e
-0.169979 0.886485 -0.248485 -0.187435 -0.101546 0.688647 -0.0776354 0.264257
-0.350108 -0.135775 0.713431 -0.187419 -0.134749 -0.186536 0.588951 -0.433877
0.106404 -0.132471 -0.0612695 0.4938 0.247017 0.976879 0.0868093 0.678832
-0.30557 0.181766 0.119383 0.176593 -0.69238 -0.0899181 -0.421251 -0.116083
0.655655 -0.734077 0.0306253 -0.12855 -0.0288993 -0.488521 -0.0714813 -0.154479
-0.414611 0.38186 -0.253451 -0.24848 -0.523024 -0.972877 0.0424903 0.567361
1.1066 -0.0172873 -0.354828 -1.23031 -0.442088 -0.216299 0.0642057 -0.543272
0.0334683 -0.0770637 0.0917463 0.108913 -1.54358 -0.307995 -1.08849 0.362121
-1.94112 -0.284762 -0.964011 0.636111 -0.200292 -0.20472 -0.487213 1.05414
-0.165776 0.440429 0.215885 -0.404824 -0.131698 -0.755289 1.11481 0.439478
-0.066045 -0.25347 1.28176 0.332938 0.000450773 -0.103721 0.547317 0.528479
-0.563762 0.146406 0.573406 0.468179 -0.179369 -0.314072 -1.2658 0.735539
0.0764688 -1.13229 -0.98527 -0.0350696 0.551086 0.796054 0.393782 0.18674
-0.135104 0.421631 0.0589589 0.69627 -0.206596 0.0730769 -3.02542 0.053247
0.673781 -0.247405 0.421689 -0.192027 -2.79508 0.569006 -0.202249 0.238735
-0.427204 -0.0768309 0.554658 0.526224 0.367383 -1.38966 -1.17691 -0.243894
-0.797345 0.0365285 -0.40981 -1.33775 -0.473306 -0.373818 -0.0445999 -0.103208
0.0109598 0.405527 0.268555 0.275385 0.14703 0.173905 -0.210354 -0.242902
0.0876981 -1.07234 -0.160009 -0.800308 -0.958864 0.00726384 -0.421993 -3.87513
-0.606708 0.682278 -1.68313 -0.59276 0.613202 -0.368808 0.159443 0.214799
-0.938091 -1.17113 0.790112 -0.110088 -2.49166 0.228771 0.33584 -0.14784
-0.664788 1.49792 -0.066951 -0.274667 0.389749 -0.945075 -0.00290373 -0.653095
-0.16102 -0.26537 0.249821 0.0748562 1.08218 0.462928 1.12509 0.0448774
-0.0152024 0.272328 -0.254343 0.764134 -0.194787 -0.910922 1.21529 -0.400733
0.0961745 0.950278 1.13777 -0.189433 -0.127744 0.597597 -0.93619 -0.0241545
0.225437 -0.0688008 -0.608564 0.20306 0.0551589 -0.299379 -0.0107449 -0.223573
0.0741065 0.900933 -1.0106 -0.142103 -0.596421 0.179794 -0.164424 -0.0781875
0.0907861 0.0813813 0.0914773 0.342878 0.0635538 0.072695 0.0304895 -0.398076
-0.0814144 0.0439781 0.186358 0.640381 0.587121 -0.557304 -0.0953679 0.110946
-0.160351 -0.392951 0.0139683 -0.260379 0.437177 0.0239951 0.192846 0.358813
-1.68358 -1.68889 1.23687 0.632048 -1.73519 0.268045 0.46113 -0.239423
-3.31725 0.0375001 0.282494 0.188453 0.447561 -0.907721 0.00777065 0.480399

Operation_4_Add_B f4 [50]
00000000: 79bf 9bbd 4180 14bf 363a ff3e 232d 91bf
00000010: c5ca 08be 8dd4 2bbf d470 5b3c 2578 9bbe
00000020: 8925 a5be 857d 2bbe 603c 833f e185 a5bb
00000030: c633 84bf b936 44be 5ce6 8c3f 9370 09bf
00000040: b24b d83f 3f91 9fbf e678 313f 008f 543f
00000050: 0fd1 a03e f1d8 0fbd 185b c8be 5261 2cbe
00000060: f073 573c 282c a93f a016 1f3f 995a 9dbb
00000070: 3867 e43f 855f 9a3d 4b59 92bf 4337 63bf
00000080: 6c3e c6bf f52d 6b3f 7ec3 06bc ffce 6ebf
00000090: 7ac4 88be ec4c 05c0 016a 163f 5112 323e
000000a0: b98d 9abf ee41 48be 0648 0cbf 72c4 b6bf
000000b0: 8385 4fbf d305 eb3c 53ca fb3e d6e2 ab3f
000000c0: 350a c13e 2e09 c6bc
-0.0760488 -0.580082 0.498491 -1.13419 -0.133586 -0.671212 0.0133936 -0.303651
-0.322552 -0.167471 1.02528 -0.00505136 -1.03283 -0.191615 1.10078 -0.536874
1.68981 -1.24662 0.693251 0.830307 0.314095 -0.035119 -0.39132 -0.16834
0.0131502 1.32166 0.621439 -0.00480206 1.7844 0.0753775 -1.14335 -0.887562
-1.54878 0.91867 -0.00822532 -0.932846 -0.267124 -2.08282 0.587555 0.173898
-1.20745 -0.195564 -0.547974 -1.42787 -0.810631 0.0286893 0.491778 1.34286
0.377031 -0.0241743

Operation_5_MatMul_W f4 [50, 50]
00000000: 4788 fc3c e959 5a3c 5e11 4cbe 5c88 1fbd
00000010: 4ff8 a6bd fa26 6dbd de3a 47bf a527 a1bd
00000020: c6e1 4cbc 651d 5ebe 234b 56be ae78 a4bd
00000030: 713d 24c0 af2c acbc 3bc6 653f e21d 0cbf
00000040: 5548 3ebd 3cf6 9bbe 7579 6ebd 535d e0bd
00000050: 85c8 cebc a95e 883d c4af 18bf 9357 473d
00000060: 9a5e 9a3e 82b3 cebb 53e2 5fbd afb1 d3be
00000070: f304 3abf 7d05 7bc0 4dbe d9be 6af9 51bf
00000080: a298 acbd a65e 77be 5c20 a9be 5c6a 9ebd
00000090: fbe6 1e3d 6006 e3be a9d8 4cbf 0471 1ebe
000000a0: 259f cbba 0b43 84be 2e73 9a3e 26fb 2bbf
000000b0: c903 21be 9d67 0c3e 04e8 573f 2849 0fc0
000000c0: be4f edbe d044 2c3f 5425 903d 1959 12be
000000d0: 193e fdbc f60c 89be 98e0 043e 6d39 27be
000000e0: e7fc 04be 38ba ea3e 96b2 3cbe 4a12 af3d
000000f0: dbf7 a8be 7ae4 e7be f085 c93f 4c53 ccbe
00000100: e444 c0bd a228 603e 7f67 bb3d 5b67 173d
00000110: c8d0 89be e736 f13e ffcd 833e 7ba0 153e
00000120: 08c8 df3e a637 92bc 15a8 01bf cbe2 f4bc
00000130: 84db c53d 17d3 6c3e f92f 6c3f 32e6 aebc
00000140: 1ae0 e2bd b762 b7be 69d4 2d3d 11a9 11bf
00000150: dc62 863e 8d7f 0f3e 5dfa 873d 0fa3 cb3d
00000160: 6002 0b3f de58 c0bd f71f 813e f6b7 44be
00000170: 3fef fc3c 2f78 873c f304 e2bd 3cbe 6dbf
00000180: fce1 9f3e 0f0b 81bf 1614 8ebe 5bd3 7cbe
00000190: d6f3 bf3c 1de3 2a3e 40db 6abe 5d87 aa3e
000001a0: 8203 cabd d962 d2bc 5040 893d 5587 5c3e
000001b0: cf04 a43d 3c4d 263e d13b ba3c 4460 c63d
000001c0: 9678 08c0 81cb 633e ecac 8c3d 5f24 ccbe
000001d0: c63b c63d 618e cebe 035e bebe c747 6bbe
000001e0: f454 a2bd 26fb 4cbd a390 00bf 3284 0ebc
000001f0: f3d2 c83d 2fc3 1fbd 7e9d 25bd 5cca b93e
00000200: 7a17 5fbe def9 8f3c ad85 993d 28d3 60bf
00000210: 552b 98bd b9ff 083e ffe8 6bbe 6dab 593e
00000220: 9815 4abe 4f1f 11be 1295 57bc ef80 a1bc
00000230: b43e 053f 94a3 90be b90b ae3d 0b29 a73e
00000240: f96f 59bd 24b7 663e 29b2 263f 6475 bbbf
00000250: 4331 c33c 03ce b2be 772c a63e 91f5 bfbd
00000260: 28f4 4abe 0ebf 3b3e b7d2 4b3e 14d4 4b3c
00000270: 175e ee3c 4e7a 93bf 4757 093e 9e0e bfbd
00000280: 0aa3 813e 5089 1bbe ddef b8bf a241 a2be
00000290: d443 b8bf 97e4 20be 7b15 593e b441 a1bd
000002a0: 52b8 9e3e f8ee 603d 38f9 9dbe f22b 91bd
000002b0: 69fe d8bd c806 523e 7b32 3abd 7e6e 2dbd
000002c0: 3813 533d f67b 163f 73f1 b7be a7ff 11bd
000002d0: eac4 2fbc 289b eebf 4981 9d3e e55f a33e
000002e0: f489 0cbf e960 853e 460c 173f 3194 9b3e
000002f0: 6a4b 2dbe 4e63 1bbe 359a 9cbe b2d6 803e
00000300: c5c5 21bf 11c8 753e 5050 ca3c da38 dabe
00000310: d84a a8be 91b8 b7bf 43c5 143f 8892 7a3d
00000320: 4353 1a3f 2b84 39bf 36e9 06bf 64e6 9abe
00000330: 048f 5b3f 29ea 20bf 6cde a3bb 1008 00bf
00000340: 1d38 efbe 48ff 89bb 976f b5be c03f 0d3f
00000350: af42 24c0 00ae 103f b45b 633f 37fc 6ebe
00000360: 48df e43d 651e 74bd 8c42 acbd eb8c ffbe
00000370: b5e0 793f 6094 e83e 4bea c4be 473d 043f
00000380: 3485 cebe 9696 913c 3375 32bc 5c03 1f3f
00000390: 863d bdbe b9a5 153d 1993 593c fa0a 823f
000003a0: 3831 b43e a775 933e b46c a2bd e109 ed3e
000003b0: dc47 7e3e 7d25 303e 986d e73e 6cec f2be
000003c0: 4696 a43e 533c 1ebf 2d94 2c3e b7cf f23e
000003d0: 3197 583f 02f1 eebf ea91 2a3f a7e8 5cc0
000003e0: 52b5 f5be ecbf a6be 4b59 26be 7978 2f3f
000003f0: 4be6 88be 382c 45bf d7ad 34bd a2ef 5ebe
0.0308267 0.0133271 -0.199285 -0.0389484 -0.0815283 -0.0578985 -0.778242 -0.0786889
-0.012505 -0.216909 -0.209271 -0.0803083 -2.56625 -0.0210174 0.897556 -0.547331
-0.0464557 -0.304613 -0.0582213 -0.109553 -0.0252421 0.0665868 -0.596432 0.0486675
0.301503 -0.00630802 -0.0546592 -0.413465 -0.726638 -3.92221 -0.42528 -0.820212
-0.0842755 -0.241572 -0.330325 -0.0773513 0.0387945 -0.443408 -0.800181 -0.154728
-0.00155351 -0.258324 0.30166 -0.671801 -0.157241 0.137114 0.843384 -2.23884
-0.463499 0.672925 0.0703837 -0.142918 -0.0309134 -0.267677 0.129763 -0.163305
-0.129871 0.458452 -0.184275 0.0854841 -0.330016 -0.452915 1.5744 -0.399073
-0.0938814 0.218905 0.091506 0.0369638 -0.269171 0.471122 0.257431 0.14612
0.437073 -0.0178488 -0.506471 -0.0298933 0.0966101 0.231274 0.922607 -0.02135
-0.110779 -0.358175 0.0424389 -0.568986 0.262473 0.140135 0.0663955 0.0994321
0.543005 -0.0939195 0.252197 -0.192108 0.0308758 0.0165368 -0.110361 -0.928684
0.312271 -1.00815 -0.277497 -0.2469 0.0234317 0.166882 -0.229352 0.333064
-0.0986395 -0.0256819 0.0670172 0.21536 0.0800873 0.162404 0.0227336 0.0968633
-2.13236 0.222456 0.0686892 -0.398715 0.0967937 -0.40343 -0.371811 -0.229766
-0.0792636 -0.0500442 -0.502207 -0.00869851 0.0980586 -0.0390045 -0.0404334 0.362872
-0.217863 0.0175752 0.074962 -0.878222 -0.0743014 0.133788 -0.230381 0.212568
-0.197348 -0.141721 -0.0131581 -0.0197148 0.520488 -0.282498 0.0849833 0.326485
-0.0530853 0.225308 0.651156 -1.46452 0.0238272 -0.349228 0.324558 -0.0937301
-0.198197 0.183346 0.199046 0.0124407 0.0290976 -1.15217 0.134122 -0.0932896
0.253197 -0.151891 -1.44482 -0.316907 -1.43957 -0.157122 0.211996 -0.0787386
0.31 0.0549154 -0.308542 -0.0708846 -0.105954 0.205104 -0.0454583 -0.0423417
0.051532 0.587829 -0.359264 -0.0356442 -0.0107281 -1.86411 0.307627 0.319091
-0.54898 0.260505 0.590031 0.303865 -0.169233 -0.151746 -0.305864 0.251638
-0.631924 0.240021 0.0246965 -0.426215 -0.328696 -1.43532 0.581135 0.0611749
0.602833 -0.724673 -0.526996 -0.302539 0.857651 -0.628573 -0.00500088 -0.500123
-0.467225 -0.00421134 -0.354367 0.551754 -2.56657 0.565155 0.888118 -0.233384
0.111754 -0.0595993 -0.0841113 -0.499122 0.976085 0.454257 -0.3846 0.51656
-0.40336 0.017772 -0.0108922 0.621145 -0.36961 0.036535 0.0132797 1.01596
0.351938 0.288007 -0.0793089 0.462966 0.248321 0.172018 0.452008 -0.47446
0.321459 -0.618108 0.168534 0.474241 0.846057 -1.86673 0.666289 -3.4517
-0.479899 -0.325683 -0.16245 0.685432 -0.267382 -0.770206 -0.0441111 -0.217711

Operation_5_Add_B f4 [50]
00000000: 97c8 69bf 3a9b c93d 6fd3 933f 80b9 a6be
00000010: 0abb 08be 26a7 ae3e 199f 933c c976 663f
00000020: e8bb 3b3e 82e7 023f 3f8f a9be dd7a 653f
00000030: ad69 c23f 8a02 bd3e 2ba4 dcbf 3f39 d23e
00000040: 5cc9 3ebe 36ae 873e d315 2cbe a724 4b3e
00000050: 8f70 0840 90c2 70bd 904f 243f 9b39 dcbe
00000060: 2da8 b93c 92fd 1dbd 641f 24be 48a7 a63e
00000070: bb7c fbbe c68b 113f c993 38c0 6d70 0a3f
00000080: d540 473f 33a9 59bf bfb6 623f 90da 94bf
00000090: 726e fbbe 386b 303f 5d6e 10bf d9eb 7d3e
000000a0: 61fa c6be 6ccd 36bd 5f09 f43e af08 de3d
000000b0: a306 f7bf bd1d a5bf 703e 453e 9549 7dbe
000000c0: 9fe5 993e 700a eb3d
-0.913217 0.0984406 1.15489 -0.325634 -0.133526 0.341119 0.0180202 0.90025
0.183334 0.511345 -0.331171 0.896406 1.51885 0.36916 -1.72376 0.410593
-0.186315 0.265001 -0.168052 0.198382 2.13187 -0.0587793 0.641839 -0.430127
0.0226632 -0.0385719 -0.160276 0.325495 -0.491186 0.568539 -2.88402 0.540778
0.778333 -0.850238 0.885601 -1.16292 -0.491077 0.689136 -0.564184 0.24797
-0.388629 -0.0446295 0.476634 0.108415 -1.92989 -1.28997 0.192621 -0.247351
0.30058 0.114766

Operation_6_MatMul_W f4 [50, 50]
00000000: a1f4 fd3e 9433 743e 1137 d7be dd25 313e
00000010: 90f9 d03e e035 933d 45a0 2e3f bd8a 8cbe
00000020: 643e a03e 7f67 573f a1a2 1abf 3c6c fd3c
00000030: 2099 7e3e 1e19 fb3e afeb d7bd fedd b13d
00000040: 1a8b 923f 075f e0bf 1bf1 fc3e 711f 393f
00000050: 7cd6 d53e d2aa 9ebe 1075 1f3e c7e1 b2bd
00000060: 4fca 08bf 4a44 38be ace4 a1bb 1d1c ec3d
00000070: e203 0b3e 4fe5 143f 919a 26be 04d7 a63d
00000080: a46f 223f 0188 8bbd d3a1 2bbf 3718 4a3e
00000090: aae2 3cbd 30d5 0c3e b18b f2be c008 da3c
000000a0: fed4 c4bf a54e 603e ab3e 1bbf 4fbe 6f3d
000000b0: 24b9 cc3f e351 aa3e f085 5dbf ca1a c5bf
000000c0: d36a 0e40 a835 2540 2e30 553d a488 c4bf
000000d0: 3ecb d3bd d55b 01c1 eee1 5cbd 7de7 67be
000000e0: c85b 72bf e468 863e 3255 50be 7216 d6bf
000000f0: 1470 f8bb 276b 84be 7c0c d63c d6ab 683e
00000100: f511 f83c 3337 ba3c c53a 95be 0033 e73b
00000110: 3a9b 69bb 7d5a 85be e00e 04be 347a 1a3d
00000120: c3a0 5cbe 8d9c 85bd 7241 9cbd b473 0abe
00000130: ad07 9d3c 0bb4 bfbb 3b3e c5bd a506 243d
00000140: ca5f c0bd 811f 3a3d ea6e 88bd a2df 2dbc
00000150: ac61 15bd d032 b1bd 29a3 9bbc cfa2 27be
00000160: ba1f 96bd afee a0be 1dcf 213c f48b 2ebf
00000170: 1f29 47bc cdac fdbe a453 05c0 9eef 27be
00000180: 1812 96bd 029f 3f3d c88f 82bd 94bf 0bbe
00000190: 0458 0cbf 6b45 3fbf 38b2 3cbd 4513 583e
000001a0: 29e2 193d a67c 28be 9be3 3c3e a8a9 21c0
000001b0: a870 043e 4298 db3d 4a55 443d 2459 6cbd
000001c0: 46cd 47be e5b3 b4bf ca89 b63d 04a4 e2bc
000001d0: 50fa 073d 1822 07be 00bb 443d 0708 663e
000001e0: 5ef3 0abe 7bfc 39bc 40bd f9bd ccb3 33bb
000001f0: bdff 8fbc 4ca5 dfbd dfbc 9d3c c515 bcbc
00000200: 2238 aebd 78ee c93f fd33 333e 3b07 0abd
00000210: fd8a 30bd 301b a33d 9a95 bd3e 5c7f 413d
00000220: 8189 493d c540 b23d a73b 4f3d f69e 253d
00000230: e676 1fbe 9edd adbb 5da7 f1be 083d db3d
00000240: c498 343f 43a2 9a3c 7b91 ffbc c4ec 29bf
00000250: 5d52 f53c 9868 f5bc cff7 e3bf ec51 28be
00000260: 16a9 4bbd b9a6 203e 8598 8bbe 037d dabe
00000270: 84b8 523e a60b 45bf 7f84 41be 43e2 8ebe
00000280: be2d b8be 700c 5cbc aca8 013f bb98 123f
00000290: d272 d83e 5820 6abe d89c 83be 3203 8d3f
000002a0: 00c8 05bf 15c5 a3be 5d59 78bd f65e 2c3e
000002b0: acfd bdbe ab07 6cbe ad7b 95bd 37c5 533e
000002c0: 7fef 40bd 3fe1 2c3e d4e1 773d 8198 00bf
000002d0: cd2b 6dbd 4bcb 08be fab3 dfbe 6ff1 00be
000002e0: b532 253f 6021 33be cf48 04be 61a4 8fbe
000002f0: fe2b 8bbe a75d 0cbe 5cf7 903d c485 12bd
00000300: 8158 9b3d 8d7b dbbe a774 c0c0 4c66 963d
00000310: a149 aa3e efac d93f 6ac1 1bbf 22ab fbbd
00000320: 2017 cbbc dbbe 17be 5303 1d3e 50ab 043f
00000330: 07b4 08bf 71c9 493f 7cb9 6f3e cc96 e43e
00000340: f3b0 2bbc d979 733f 8385 73bf 9144 bfbf
00000350: e9f2 b6be f320 213f 98dd fb3e 1669 723e
00000360: fd49 ec3e 62f6 3e3f eb56 17bf 0d08 2fba
00000370: 3ecb 0fbf 7c5f 0c3e 82c6 3c3e 3482 6d3e
00000380: 658b b43e 2d26 163f c455 0f3d 19e2 f83d
00000390: 9d84 c2bd f164 07be a6cf c3bd 5435 d93e
000003a0: 40da 5fbe 4688 613c ad17 03be e927 c4be
000003b0: edef 0dbc dd28 02be a130 78be 5cc6 d53e
000003c0: 6d91 e4be 3ac9 563e 6210 84bf c2a3 9d3f
000003d0: 4c4f ac3f 0d7a b53d dba5 b53e d196 8f3f
000003e0: 93a7 343f 041c 02c0 2bdf 2f3f a31e 4cc0
000003f0: df8a 24bd 79af 5a3e 9697 203f 47e6 fd3f
0.496007 0.238478 -0.420342 0.172996 0.408154 0.0718801 0.682133 -0.274496
0.312976 0.841423 -0.604044 0.0309354 0.248631 0.490426 -0.10543 0.0868492
1.14487 -1.7529 0.494027 0.723136 0.417652 -0.309897 0.15572 -0.0873447
-0.534337 -0.179948 -0.00494059 0.115288 0.135757 0.581624 -0.162699 0.0814648
0.634516 -0.0681305 -0.670438 0.197358 -0.0461146 0.137532 -0.473722 0.0266155
-1.53775 0.21905 -0.606425 0.0585311 1.5994 0.332656 -0.865325 -1.53988
2.22527 2.5814 0.0520479 -1.53542 -0.103415 -8.08492 -0.0539264 -0.226469
-0.946713 0.262519 -0.20345 -1.67256 -0.00758172 -0.25863 0.026129 0.227218
0.030282 0.0227314 -0.291464 0.00705564 -0.00356455 -0.260456 -0.128963 0.0377142
-0.215457 -0.06524 -0.0762967 -0.135207 0.0191687 -0.00585032 -0.0963101 0.0400454
-0.0939327 0.0454402 -0.0666178 -0.0106124 -0.0364701 -0.0865227 -0.0189987 -0.163707
-0.0733027 -0.314321 0.00987604 -0.681823 -0.0121558 -0.495459 -2.08323 -0.164
-0.0732767 0.0467825 -0.0637508 -0.136473 -0.548218 -0.747153 -0.0460684 0.211011
0.0375692 -0.164538 0.184462 -2.52598 0.129336 0.107224 0.0479329 -0.0577022
-0.195119 -1.41174 0.08913 -0.0276661 0.0331977 -0.131966 0.0480299 0.22464
-0.135694 -0.0113517 -0.121943 -0.00274204 -0.017578 -0.109202 0.0192551 -0.0229596
-0.085068 1.57759 0.175003 -0.0336983 -0.0431013 0.0796417 0.370282 0.0472406
0.0492034 0.0870376 0.050594 0.0404348 -0.155727 -0.00530596 -0.47198 0.10705
0.705456 0.0188762 -0.0311973 -0.663769 0.0299465 -0.0299571 -1.781 -0.164375
-0.0497218 0.156886 -0.272648 -0.426735 0.205782 -0.769709 -0.188982 -0.27907
-0.359724 -0.0134307 0.50648 0.572643 0.422751 -0.228639 -0.257056 1.10166
-0.522583 -0.319863 -0.0606321 0.168331 -0.371076 -0.230498 -0.0729898 0.206807
-0.0471034 0.168828 0.0605181 -0.502327 -0.0579031 -0.133588 -0.43692 -0.125921
0.645305 -0.174932 -0.129184 -0.280551 -0.27182 -0.137076 0.0707843 -0.0357721
0.0758524 -0.428677 -6.01424 0.0734373 0.332593 1.70059 -0.60842 -0.122885
-0.0247913 -0.148189 0.153333 0.518239 -0.533997 0.78823 0.234106 0.446463
-0.0104792 0.951078 -0.951256 -1.49428 -0.357322 0.629409 0.491925 0.236729
0.461502 0.745947 -0.59117 -0.000667692 -0.561695 0.137083 0.184351 0.231942
0.352626 0.58652 0.0349939 0.121525 -0.0949795 -0.132221 -0.0956109 0.424235
-0.218606 0.0137654 -0.12802 -0.383117 -0.00866316 -0.127109 -0.242373 0.417529
-0.446422 0.209752 -1.03175 1.23156 1.34617 0.0886117 0.354781 1.12179
0.705682 -2.03296 0.686999 -3.18937 -0.0401715 0.21356 0.627313 1.98359

Operation_6_Add_B f4 [50]
00000000: c9e6 66bf 0aa3 19bf 8035 de3b 9f74 12bf
00000010: d67a aa3d 58aa 37bf 51a0 cfbd b70b 51c0
00000020: b159 943d 2b16 4bbf 0b0a 9b3e e2b0 44be
00000030: 6dc5 debe 8929 09bf 39b6 12bf d460 5abe
00000040: 3ffe aabe 4e77 833d d11e 5f3e 31d2 933e
00000050: 5f96 363e 3126 853e 4e40 ff39 36e5 0abf
00000060: b344 e73d dcb8 ad3e d5a7 e6bc ea7a 423e
00000070: 7d07 f73e f299 10bf da72 dabf 7d07 7fbd
00000080: ac1b d73e 3e42 953e f1bc 543c 6955 7b3e
00000090: b004 c2be 11c5 443e 1fbf 873e 6bb7 a53e
000000a0: 38f9 2d3e 67f3 78be 84d6 67bf 9fc9 0abf
000000b0: 022b c7bf d6e2 cb3e b30a 5b3e d449 263e
000000c0: 9cc0 043f cd3a eb3e
-0.901959 -0.600144 0.00678128 -0.572092 0.0832421 -0.717443 -0.10138 -3.26634
0.0724367 -0.793307 0.302811 -0.192081 -0.4351 -0.53579 -0.573093 -0.21326
-0.333971 0.0641924 0.217891 0.288713 0.178308 0.260057 0.000486853 -0.54256
0.112924 0.339301 -0.0281562 0.189922 0.482479 -0.564849 -1.70663 -0.062263
0.420133 0.291521 0.0129845 0.245443 -0.378942 0.192158 0.26513 0.323665
0.169896 -0.243116 -0.905617 -0.542139 -1.556 0.398215 0.213908 0.162391
0.518564 0.459433

linear_7_MatMul_W f4 [50, 5]
00000000: 1614 663d e459 933d a015 983d ff3c cd3d
00000010: ed8a b23b 31b9 acbc 9923 75bc a380 e3bc
00000020: 702a 2d3c 5642 3cbd 4749 c93d 6090 443e
00000030: 04e2 253e 8d0c 223e 6001 bc3d fc31 143b
00000040: 2e2c ee3c 484e 0b3d 7b29 61bb fd4c 3dbc
00000050: 1ce8 c63c c64d cd3c c9a2 fa3c 6e0c 4b3c
00000060: dadd a83c 7105 343d b796 8e3d 7c9e 3a3d
00000070: 1711 e53d 85a9 b7bc 917f 28ba c116 223c
00000080: 2077 36bc 7214 053d 4bd3 bbbc 79f6 e63c
00000090: 4ce4 87b9 bbfb 363a 9401 18bb 2927 e9b8
000000a0: 21e6 52be 2365 b0bb 6e20 933c 69c4 4c3c
000000b0: b54e 5c3c c00c a1bc 2df7 17bb 711f b9bc
000000c0: b80b a43a 542b 1dbd 5ccf 0cbc 73c6 a6bc
000000d0: e135 9ebc 205d d1bc c5cb aebc c4c0 a93c
000000e0: a3cc e63d 4dc0 1f3e 1dc7 0f3e 4f74 1d3e
000000f0: 4c12 f03c b8ba d23c 2240 bc3c 1b65 bd3c
00000100: 3343 b43c 776a 0e3d 9c59 613d efd7 113c
00000110: 4e02 653d 6896 84bc d8f5 263d 95ee 0e3d
00000120: 13f9 043d a3ce 5c3c 6289 a23c 5bc3 b9bb
00000130: 27b8 1cbc 0b28 943c 4b6d 8ebc 19f2 3e3d
00000140: 1edb 953b 1184 3c3a 0f4a b3bc 9540 af3c
00000150: 9284 33bc 13a3 e3bb 7948 67bc cac5 73bc
00000160: 0f15 99bc 671f 75bc a4cd cc3b d23b 103d
00000170: a800 183d 8750 053d e646 273d c2b2 b33d
00000180: 5198 7f3b ff5b eabb c170 2ebc 9026 663b
00000190: a896 233d 2253 fe3c 2ae2 343d ae61 2b3c
000001a0: 3a3a d33c f531 ba3c f3ff 2a3c b6cf 743c
000001b0: 4892 563c 660e aebc 533e 343e 1ec2 683e
000001c0: fd11 263e a69c 1f3e 7767 ed3d a445 473c
000001d0: b4d7 f13c 3ce2 0b3d 6e68 af3c 07b1 333c
000001e0: 8c3c bf3c e16d 943c 60f5 f63c 8bb5 ae3c
000001f0: 529d 8e3c 607d b23c 9e0c 693c b680 f53c
00000200: 77ad 133d 494e 643b de07 1bbd 7e4c d0bc
00000210: 4a8d 9a3c ae6d 603d aab4 aa3c 71f2 d13c
00000220: a720 3f3c 654a 523b 3503 3539 e49d a83c
00000230: 32ef a73c f0a7 e13c 2c28 313c 1bf1 043d
00000240: 66a1 9dbc 9cb4 baba 95e0 43bc 6287 90bb
00000250: 3c51 0dbd 86af ca3c 0452 973d c988 903d
00000260: cb1e 973d 18e9 953d 8ae5 863d c526 283d
00000270: fdb7 373d 59b0 033d ebd6 1c3d 9c91 573d
00000280: 3406 84bb 89b3 a2bb 8b4d 2f3b ad72 193c
00000290: 5451 01bd 3002 993b 0624 4b3d 81e1 05bc
000002a0: eec2 803d 1adc 56bc 54c0 e23c 6f6d 3c3c
000002b0: 2010 433c 1f65 443b c1af acbc bba6 163d
000002c0: 53c0 a8ba d300 39bc fd4e 933c e42a 5cbb
000002d0: e0f4 ee3c 87c4 1d3d 6633 073d 0e78 2a3d
000002e0: 3a2a ed3c 840d cf3d 9673 0e3c a33a df3b
000002f0: 35b1 e1bb 3e8e 0dbc 3c95 a13a d11e 943c
00000300: 0e36 50bc 9c77 d23c 3013 25bd b3ad 8b3c
00000310: 3f05 db3c a964 843b 7ca3 313d a780 eabb
00000320: d38f 75b9 d496 5fbc 1f69 f0bc 14d5 15bb
00000330: 67f3 b83c fa13 2439 d2c2 8abc 719e 3b3d
00000340: 2f72 aabc 98c0 ef3b e17e 80bc 567f 84bc
00000350: 7d76 80bc dd1d 63bc f14d 2ebc d459 a73d
00000360: bc9b 923d a006 923d f531 7a3c 870e cb3d
00000370: 8dc9 acbc c898 bbbc fa3c ebbc 93bc 84bc
00000380: 548e c9bc c43d 1b3d 0314 d93c de38 e93c
00000390: a0e3 02bc ec64 153d 1037 9c3d 1dd1 983d
000003a0: 1102 9d3d e2b7 8c3d af20 a23d b44a babc
000003b0: 78dc e8bb db19 26bb 3537 70bc 4fd4 883c
000003c0: 396a 60bc 9dbc a7ba 33d7 10bc b8a2 a0bb
000003d0: 599b d03c 6c43 e0bc af43 f5bc 94bd e5bc
000003e0: d56a febc 824d c2bc
0.0561715 0.0719488 0.07426 0.100214 0.00544869 -0.0210844 -0.0149621 -0.0277713
0.0105692 -0.0459617 0.0982843 0.191957 0.161995 0.158251 0.0917995 0.00226128
0.0290738 0.0340102 -0.0034357 -0.011554 0.0242806 0.0250615 0.0305952 0.0123931
0.0206136 0.0439505 0.0696234 0.0455613 0.111849 -0.0224197 -0.00064277 0.00989312
-0.0111368 0.0324902 -0.0229279 0.0281937 -0.000259193 0.000698026 -0.00231943 -0.000111176
-0.205956 -0.00538315 0.0179598 0.012498 0.0134465 -0.0196594 -0.00231881 -0.022598
0.00125157 -0.0383714 -0.00859436 -0.0203583 -0.0193128 -0.0255571 -0.0213374 0.0207218
0.112695 0.156007 0.140408 0.153764 0.0293056 0.0257238 0.0229798 0.0231195
0.0220047 0.0347695 0.0550171 0.00890158 0.0559104 -0.016185 0.0407618 0.0348955
0.0324641 0.013477 0.0198409 -0.00566904 -0.00956539 0.0180855 -0.0173861 0.0466176
0.00457324 0.000719131 -0.0218859 0.0213931 -0.0109569 -0.00694693 -0.0141164 -0.0148787
-0.0186868 -0.0149611 0.0062501 0.0352133 0.03711 0.0325475 0.0408391 0.0877433
0.00390007 -0.00715208 -0.010647 0.00351182 0.0399386 0.0310455 0.044161 0.0104603
0.0257846 0.0227289 0.010437 0.0149421 0.0130964 -0.0212471 0.176019 0.227303
0.162178 0.155871 0.11592 0.0121626 0.0295218 0.0341513 0.0214121 0.0109675
0.0233443 0.0181188 0.0301463 0.0213268 0.017409 0.0217883 0.0142242 0.0299686
0.0360541 0.00348367 -0.0378493 -0.0254271 0.0188662 0.0547921 0.0208381 0.0256283
0.0116655 0.00320878 0.000172627 0.0205831 0.0204998 0.0275459 0.0108128 0.0324565
-0.019242 -0.00142445 -0.0119554 -0.00441067 -0.0345013 0.0247419 0.0738869 0.0705734
0.0737892 0.0731985 0.0658675 0.0410526 0.0448532 0.0321506 0.0382909 0.0526291
-0.00402906 -0.00496525 0.00267491 0.00936572 -0.0315717 0.00466945 0.0495949 -0.00817144
0.0628718 -0.013114 0.0276796 0.0115007 0.0119057 0.00299675 -0.0210799 0.0367801
-0.00128747 -0.0112917 0.017982 -0.00335949 0.0291695 0.0385175 0.033008 0.0416184
0.0289508 0.1011 0.00869455 0.00681241 -0.00688758 -0.00863987 0.00123278 0.0180811
-0.0127082 0.0256918 -0.0403015 0.0170506 0.0267359 0.00404032 0.0433688 -0.00715645
-0.000234186 -0.0136468 -0.029347 -0.00228626 0.022577 0.000156477 -0.0169386 0.0458054
-0.0208064 0.00731666 -0.0156855 -0.016174 -0.0156815 -0.0138621 -0.0106387 0.0817143
0.0715861 0.0713017 0.0152707 0.0991488 -0.0210922 -0.0229 -0.0287156 -0.0162032
-0.024604 0.0379007 0.0264988 0.0284695 -0.00798884 0.0364732 0.0762769 0.0746176
0.0766641 0.0687101 0.0791639 -0.0227407 -0.00710636 -0.0025345 -0.0146616 0.0167028
-0.0136972 -0.00127973 -0.00884037 -0.00490221 0.0254647 -0.0273759 -0.0299395 -0.0280445
-0.0310568 -0.0237186

linear_7_Add_B f4 [5]
00000000: a2a3 8bbc 7dca d63c 1539 23bc 1563 ea3c
00000010: 6e6e 27bc
-0.0170458 0.0262196 -0.00996234 0.0286117 -0.0102192
