networks/onnx/ACASXU_run2a_4_8_batch_2000.onnx (onnx, 55914 bytes, 15 tensors)

input_AvgImg f4 [1, 1, 5]
0	0x00000000	0.0
1	0x00000000	0.0
2	0x00000000	0.0
3	0x00000000	0.0
4	0x00000000	0.0

Operation_1_MatMul_W f4 [5, 50]
0	0x3c07e05f	0.00829324
1	0x3b8202fa	0.00396764
2	0x3d951fe0	0.0728147
3	0x3cadc7b9	0.0212134
4	0xbcb3174f	-0.0218617
5	0x3f17d76f	0.593131
6	0x3cd75d7f	0.0262897
7	0x3c2f082b	0.0106831
8	0xbc20f0b1	-0.00982301
9	0xbd8482d9	-0.0647027
10	0xbd924313	-0.071417
11	0x3dab942b	0.0837787
12	0xbd4b9dde	-0.0497111
13	0xbc5dd675	-0.0135399
14	0xbd8e9821	-0.0696261
15	0xbbcf483d	-0.00632575
16	0x3c28ffd4	0.0103149
17	0x3fd534ad	1.66567
18	0xbe5096ff	-0.203701
19	0xbc56b152	-0.0131038
20	0x3c598684	0.0132767
21	0xbd21f370	-0.0395388
22	0x3e95208e	0.291264
23	0xbca7c10f	-0.0204778
24	0xbc864452	-0.01639
25	0x37e6e4a1	2.75246e-05
26	0xc01249ba	-2.28575
27	0xbc917eae	-0.0177606
28	0x3c454d11	0.0120423
29	0xbb284dbc	-0.00256811
30	0x3d376bc2	0.0447805
31	0x3d3ea1fc	0.0465412
32	0x3d91d997	0.0712158
33	0x3bd7d427	0.00658657
34	0xbe30e560	-0.17275
35	0xbedfcb2e	-0.437097
36	0xbb8ff14f	-0.00439278
37	0x3d5e2f2b	0.0542442
38	0xbc0bc2ac	-0.0085303
39	0x3e3e51d2	0.185859
40	0xbe3fd5cb	-0.187339
41	0xbe311a97	-0.172953
42	0xbd5f2057	-0.0544742
43	0x3dbefee4	0.0932596
44	0x3cf085da	0.0293607
45	0x3d164877	0.0366902
46	0x3c96d05c	0.0184099
47	0xbb11b5a0	-0.00222335
48	0x3b9e5d4e	0.0048329
49	0x3e034480	0.128191
50	0x3d9b6ccb	0.0758911
51	0xbbc5da55	-0.00603799
52	0xbfced42c	-1.61585
53	0x3fa5d2f2	1.2955
54	0x3e1a7547	0.150838
55	0x3f34f8c6	0.706921
56	0xbfa706f7	-1.3049
57	0x3c0f481c	0.00874522
58	0xbe6d2dcb	-0.23162
59	0x3f3c895d	0.736471
60	0x3f670c02	0.902527
61	0x3f92f7e4	1.14819
62	0xbfe0c7e3	-1.7561
63	0x3d5c22e1	0.0537442
64	0x3f17430f	0.590867
65	0xbf381eef	-0.719222
66	0xbe595897	-0.212252
67	0x3c1366fb	0.00899672
68	0xbfbde1b1	-1.48345
69	0x3a5e4240	0.00084785
70	0x3f292029	0.660647
71	0x3f7dd1a2	0.99148
72	0xbf993501	-1.19693
73	0x3f51ac15	0.819032
74	0xbec02ecb	-0.375357
75	0xbf625626	-0.884127
76	0x3d77b289	0.060473
77	0xbf551f1d	-0.832506
78	0x3f1ba68b	0.60801
79	0x3ac1f6db	0.00147983
80	0x3f9336ce	1.15011
81	0x3f7f7cbb	0.997997
82	0xbf8a0c4a	-1.0785
83	0x3c801a37	0.0156375
84	0xc035b9b6	-2.83946
85	0x3fc0941d	1.50452
86	0x3e3def85	0.185484
87	0xbf94ded3	-1.16305
88	0xbbeda118	-0.00725187
89	0x3e5eb1c4	0.217475
90	0xbf9a7525	-1.2067
91	0xbee68167	-0.450206
92	0xbf1c37f8	-0.610229
93	0x3f0e9df9	0.557098
94	0xbd3ced26	-0.0461246
95	0x3dce49f5	0.100727
96	0x3fed0f52	1.85203
97	0xba058fa1	-0.000509495
98	0xbf7a3583	-0.977379
99	0xbfad39eb	-1.35333
100	0x3f8b8866	1.0901
101	0xbc81b831	-0.0158349
102	0xbf11a101	-0.568863
103	0xbf99d0fa	-1.20169
104	0x3ea86163	0.328868
105	0xbec2a5e8	-0.380172
106	0xbe08fcd6	-0.133777
107	0xbbe07fdd	-0.00685118
108	0xbf0ed5d0	-0.55795
109	0xbf77fb26	-0.968676
110	0xbf6aacc9	-0.916699
111	0xbf7a24ab	-0.977122
112	0x401148aa	2.27006
113	0x3d6c0fd9	0.0576323
114	0xbe27b203	-0.163765
115	0x3f7657a8	0.962275
116	0x3d108370	0.0352816
117	0x3d040040	0.0322268
118	0x3fe41301	1.78183
119	0x3b9b6231	0.00474193
120	0x3f0c7fed	0.548827
121	0x3b20a277	0.00245109
122	0x3fb8ff97	1.4453
123	0x3d76d839	0.0602648
124	0xbbbd2d1d	-0.0057732
125	0x3f94572a	1.15891
126	0x3b9d732d	0.00480499
127	0xbf2b414a	-0.668965
128	0x3f84169c	1.03194
129	0xbb8fa6bc	-0.00438389
130	0x3eeb6b09	0.459801
131	0xbf6b588e	-0.91932
132	0x3ea98634	0.331102
133	0xbf2f4f72	-0.684806
134	0x4020e7d5	2.51415
135	0xbff148aa	-1.88503
136	0x3f308388	0.689507
137	0xbe4a9fbe	-0.197875
138	0x3ba1992d	0.00493159
139	0x3e8379fb	0.25679
140	0x3f999360	1.19981
141	0xbe7fea3e	-0.249917
142	0x3eab9bcc	0.335173
143	0x3e99d94d	0.300486
144	0xbd56e829	-0.0524675
145	0xbd122a54	-0.0356849
146	0x3e06c3fc	0.131607
147	0xbbbc4f7c	-0.00574678
148	0xbf672181	-0.902855
149	0x3f861a61	1.04768
150	0xbd7b7b87	-0.0613971
151	0xbb31f4af	-0.00271539
152	0x3da02498	0.0781948
153	0x3e48765c	0.195764
154	0x3e97722e	0.295793
155	0xbed6ccc4	-0.419531
156	0x3f5d6020	0.864748
157	0xbab8ef4a	-0.00141094
158	0xbe2785f9	-0.163597
159	0xbdafc09d	-0.0858166
160	0x3e44202e	0.191529
161	0x3dcdfdf0	0.100582
162	0xbdf76e61	-0.120816
163	0xbe7f1ae3	-0.249126
164	0x3f365908	0.712296
165	0x3eb30b7c	0.349697
166	0x3edb6bd3	0.428557
167	0x3c3a79e4	0.0113816
168	0xbdecb3a2	-0.115577
169	0xbb132561	-0.00224527
170	0x3e4e2930	0.201329
171	0x3c8e944d	0.0174047
172	0x3e3e9f6b	0.186155
173	0xbea0285f	-0.312808
174	0xbeab7e4e	-0.334948
175	0xbdcc4695	-0.099744
176	0x3c9ac39b	0.0188921
177	0x3eb3cb81	0.351162
178	0x3f166a44	0.587559
179	0xbc85fb57	-0.0163552
180	0x3f8da60d	1.10663
181	0x3dd0cb29	0.10195
182	0x3ee9c4db	0.45658
183	0xbf56a034	-0.838382
184	0x3ed270b0	0.411016
185	0x3da61383	0.0810919
186	0x3dea758a	0.114482
187	0x3dcb0509	0.0991307
188	0xbaa0618a	-0.00122361
189	0x3e2b823d	0.167489
190	0x3e8d0acc	0.275473
191	0xbeb9a416	-0.36258
192	0x3efe731d	0.496972
193	0x3e1522ea	0.145641
194	0x3e647c74	0.223131
195	0xbd2db7ae	-0.0424115
196	0x3e23508f	0.159487
197	0xbb962f01	-0.00458324
198	0x3f06a2a1	0.525919
199	0x3d97372c	0.0738357
200	0x3e0e7bc4	0.139144
201	0x3ca28a6f	0.0198414
202	0xbdec7b89	-0.11547
203	0xbed1804e	-0.409182
204	0xbea07f45	-0.313471
205	0x3eceb229	0.403703
206	0xbf927f4e	-1.14451
207	0x3c208c68	0.0097991
208	0xbe952589	-0.291302
209	0x3e797204	0.243599
210	0xbea1040c	-0.314484
211	0x3c47679e	0.0121707
212	0x3f322856	0.695928
213	0xbe80c3f4	-0.251495
214	0xbf2dd367	-0.679007
215	0xbf32aac1	-0.697918
216	0xbf0c3f3e	-0.54784
217	0x3c8e58be	0.0173763
218	0x3f3cf180	0.73806
219	0xbc8d4bad	-0.017248
220	0xbd6acf16	-0.0573264
221	0xbf10b0e2	-0.565199
222	0xbe8c3d8a	-0.273907
223	0x3ddeec39	0.108849
224	0x3ebccdb8	0.368757
225	0x3e8460cc	0.258551
226	0xbc2cefb8	-0.0105552
227	0xbe62ce46	-0.22149
228	0xbe90abb4	-0.28256
229	0x3c4f7305	0.0126617
230	0xbfa2786c	-1.2693
231	0x3d8b154a	0.0679117
232	0xbf040e28	-0.515841
233	0x3f69a166	0.912619
234	0xbf1b6c8b	-0.607125
235	0x3d8520d1	0.065004
236	0xbe15e02f	-0.146363
237	0x3d280cfa	0.041028
238	0xb829f790	-4.05233e-05
239	0x3de83559	0.113383
240	0xbef8763a	-0.485277
241	0x3e2996b7	0.165614
242	0xbf005d64	-0.501425
243	0x3da2a3f7	0.0794143
244	0x3e8635a4	0.262128
245	0xbff1859d	-1.88689
246	0xbe9e106b	-0.308719
247	0x3cd83f5c	0.0263974
248	0xbe706e5d	-0.234796
249	0x3e139de5	0.144157

Operation_1_Add_B f4 [50]
0	0x3d98a8e6	0.0745409
1	0xbccca205	-0.0249796
2	0xbea5eaab	-0.324056
3	0xbeae0ae9	-0.339927
4	0xbd06b816	-0.0328904
5	0xbd691461	-0.0569042
6	0xbe18cb08	-0.149212
7	0xbca9984a	-0.0207025
8	0x3d4a0126	0.0493175
9	0xbec51351	-0.384913
10	0x3cca4e02	0.0246954
11	0xbe977dfa	-0.295883
12	0xbf2e54e7	-0.680983
13	0x3d0fa7a8	0.035072
14	0x3e287011	0.16449
15	0x3e478466	0.194841
16	0x3c8c04bb	0.0170921
17	0x3efb67c3	0.491026
18	0xbe9a2af5	-0.301109
19	0xbc8d101e	-0.0172196
20	0xbe284a0e	-0.164345
21	0xbe26dfc6	-0.162963
22	0xbee2cd18	-0.442971
23	0xbe5a2489	-0.21303
24	0x3da58cb7	0.0808348
25	0xbef25fc8	-0.473387
26	0xbeac8ba8	-0.337003
27	0xbe355001	-0.177063
28	0xbd9208ac	-0.0713056
29	0xbca5f197	-0.0202568
30	0xbe1fc760	-0.156034
31	0xbebad3a6	-0.364896
32	0xbe29118c	-0.165106
33	0xbe9127d4	-0.283507
34	0xbf175e20	-0.59128
35	0xbe46a982	-0.194006
36	0xbc8c3746	-0.0171162
37	0x3e452e73	0.19256
38	0xbc86a825	-0.0164376
39	0xbe136f3b	-0.143979
40	0x3d7622d2	0.0600918
41	0xbe7dcf89	-0.247862
42	0x3d65d689	0.0561128
43	0x3c3b41f5	0.0114293
44	0xbce10782	-0.0274694
45	0xbf38a7c6	-0.72131
46	0xbdb1620d	-0.0866128
47	0xbcbcadd1	-0.0230321
48	0xbd64bfb8	-0.0558469
49	0xbeb79831	-0.358583

Operation_2_MatMul_W f4 [50, 50]
0	0xbda74de0	-0.0816915
1	0x3fb7ab75	1.43492
2	0xbfd24f22	-1.64304
3	0xc1421340	-12.1297
4	0xbcc35b34	-0.0238472
5	0xbee7125e	-0.451312
6	0x3fd93a93	1.6971
7	0xbe29f948	-0.16599
8	0xbd1779b4	-0.0369813
9	0x3f70d089	0.940682
10	0xbfaff877	-1.37477
11	0x3f613511	0.879716
12	0xbe999b2c	-0.300012
13	0x40036873	2.05325
14	0xbe99df98	-0.300534
15	0x3f4fc361	0.811575
16	0xbf09694d	-0.536763
17	0xbd3e4cbc	-0.0464599
18	0x3fc625d9	1.54803
19	0xbf20c815	-0.628053
20	0x3e06049f	0.130877
21	0x3ef21dda	0.472884
22	0xbefa1102	-0.488411
23	0xbca2eb1c	-0.0198875
24	0x3cd3f4aa	0.0258735
25	0x3f82efb3	1.02294
26	0x3f3a0297	0.726602
27	0x3ec5a2d7	0.386008
28	0x3fa961e5	1.3233
29	0xbf87822c	-1.05866
30	0x3be23b89	0.00690407
31	0x3e0960b7	0.134158
32	0xbfa1ce07	-1.2641
33	0x3f0c5133	0.548114
34	0xbeebe4ef	-0.460731
35	0xbea40b9a	-0.320401
36	0x3ed42df1	0.414413
37	0xbc883ba3	-0.01663
38	0xbed42a24	-0.414384
39	0xbc589848	-0.0132199
40	0x3e903516	0.281655
41	0xbd03c71a	-0.0321723
42	0x3f382689	0.719338
43	0xbf0619b9	-0.52383
44	0xbc2d468a	-0.0105759
45	0xbe44d445	-0.192216
46	0x3f8f4688	1.11934
47	0x3f4e75ab	0.806483
48	0x3bc4d4dc	0.00600682
49	0x3f1ee18b	0.620629
50	0x3d2433f2	0.0400886
51	0xbba838ef	-0.00513374
52	0xbc40c481	-0.0117656
53	0xbd2521de	-0.0403155
54	0x3d44109b	0.0478674
55	0x3d50f3f4	0.0510139
56	0x3c922241	0.0178386
57	0x3a7e8636	0.000970933
58	0x3c0182ed	0.00790475
59	0x3d0fc951	0.0351041
60	0xbc4d898b	-0.012545
61	0xbac84fe5	-0.00152826
62	0x3d06ecef	0.0329408
63	0xbd191022	-0.0373689
64	0xbc043f8b	-0.00807179
65	0xbc1f1f35	-0.00971203
66	0x3cff4129	0.031159
67	0xbc017ef1	-0.0079038
68	0xbc3e5fb7	-0.0116195
69	0xbd26be60	-0.0407089
70	0xbaa6c653	-0.00127239
71	0x3bf22edc	0.00739084
72	0xbca1470d	-0.0196872
73	0xbbc72497	-0.00607736
74	0xbbd74a3f	-0.00657013
75	0x3d63d146	0.0556195
76	0x3cf8b0ec	0.0303578
77	0xbcefb4f9	-0.0292611
78	0x3d33924e	0.0438407
79	0x3b76565e	0.00375881
80	0xbaea0f28	-0.00178573
81	0x3cfaf88f	0.0306361
82	0xbd2b09ea	-0.0417575
83	0xbcf0a07c	-0.0293734
84	0xbcf6aee9	-0.0301127
85	0x3cc7230a	0.0243087
86	0xbd14d7c9	-0.0363386
87	0x3d1e369c	0.0386263
88	0xbb17a070	-0.00231364
89	0xbd2b362a	-0.0417997
90	0x3d1129f4	0.0354404
91	0x3cf30bc6	0.0296687
92	0x3ca7d999	0.0204895
93	0x3d43a67e	0.0477662
94	0x3c4342e0	0.0119178
95	0x3c4bf31e	0.0124481
96	0xbd1083c1	-0.0352819
97	0xbc8c6279	-0.0171368
98	0xbc993f01	-0.0187068
99	0xbd06948a	-0.0328565
100	0xbd15856e	-0.0365042
101	0xbf37122b	-0.715121
102	0x3f9ff488	1.24965
103	0x3fb54174	1.41606
104	0x3ee14ab2	0.440023
105	0x3db32010	0.0874635
106	0xc0194174	-2.39462
107	0x3e8f2fba	0.279661
108	0xbc2601f2	-0.0101323
109	0x3ec2edfe	0.380722
110	0xbee7d029	-0.45276
111	0xbf7e89ca	-0.99429
112	0xbf4ed762	-0.807974
113	0x408627d0	4.19236
114	0x3dc2b2cd	0.0950676
115	0x3f1ef60e	0.620942
116	0x3f3a730c	0.728318
117	0x3e7937d2	0.243377
118	0xbe6ed741	-0.233243
119	0x3f3125ff	0.691986
120	0xbda92adf	-0.0826013
121	0xbef02a13	-0.469071
122	0xbec2bde4	-0.380355
123	0xbd5d4ce2	-0.0540284
124	0x3c9c380f	0.0190697
125	0xbfd676c9	-1.6755
126	0x3eb48a37	0.352617
127	0xbe85f58c	-0.261639
128	0x3f247065	0.64234
129	0xc054c986	-3.3248
130	0xbecda1cb	-0.401625
131	0x3f73d178	0.952415
132	0x3fa2c95c	1.27177
133	0xbb822f1a	-0.0039729
134	0xbedb5ac9	-0.428427
135	0xbef89c1b	-0.485566
136	0x3f83227d	1.02449
137	0x3a9e7cad	0.00120916
138	0x3f603a43	0.875889
139	0xbbebeb20	-0.00719966
140	0xbe699243	-0.228097
141	0xbcea4f29	-0.0286022
142	0x3e32ca9b	0.174601
143	0xbe6ac4f8	-0.229267
144	0xbd2154ca	-0.0393875
145	0x3f4dbb49	0.803639
146	0x3fc8d014	1.56885
147	0x3ed67ee9	0.418937
148	0xbc8f96ac	-0.0175279
149	0xbf3c851b	-0.736406
150	0x3d1c92f9	0.0382261
151	0x3f590c80	0.847847
152	0xbeb5cf68	-0.355098
153	0xc007465f	-2.11367
154	0xbf635ed9	-0.888166
155	0x3f871bef	1.05554
156	0x3fc48de3	1.53558
157	0xbde3e6c5	-0.11128
158	0x3c467c51	0.0121146
159	0x3f00aa32	0.502597
160	0xbf18de4c	-0.597142
161	0x3f0bcc8e	0.54609
162	0x3f333376	0.700004
163	0x3fb47d2c	1.41007
164	0x3e9cb253	0.306048
165	0xc040a2b1	-3.00993
166	0x3fb29e6f	1.39546
167	0x3e8424c4	0.258093
168	0xbf40c62e	-0.753024
169	0x3fa85a1d	1.31525
170	0xbe434dad	-0.190726
171	0x3d7a6216	0.0611287
172	0x3f311138	0.691669
173	0xbbcf24ec	-0.00632154
174	0xbd5b4734	-0.0535347
175	0xbf5e45c3	-0.868252
176	0xbea9654d	-0.330851
177	0xbf93bc7f	-1.15419
178	0xbfa0aea7	-1.25533
179	0x3f8961e5	1.0733
180	0xbdb7c10f	-0.0897237
181	0xbfc95619	-1.57294
182	0xbd122948	-0.0356839
183	0x3e36f263	0.178659
184	0xc01f335d	-2.48751
185	0x3f16f6c7	0.589703
186	0xbf294f37	-0.661365
187	0xbd38e64b	-0.0451415
188	0xbfb2be38	-1.39643
189	0x3c869403	0.016428
190	0xbfe5feda	-1.79684
191	0xbcc39e1a	-0.0238791
192	0x3ddd6d7f	0.108119
193	0xbf18fa16	-0.597566
194	0x39ea4e93	0.000446905
195	0x3d59ef2a	0.0532066
196	0x3e760a63	0.240274
197	0x3d5a421b	0.0532857
198	0x3c3c7c1d	0.0115042
199	0x3f22137f	0.63311
200	0xbcf7810b	-0.0302129
201	0xbfa5ba5e	-1.29475
202	0x3f96108c	1.17238
203	0xc0179210	-2.36829
204	0xbf6c86cf	-0.923932
205	0xbff8fc50	-1.9452
206	0x3f8edff8	1.11621
207	0xbe1268d3	-0.142978
208	0xbd1c8034	-0.0382082
209	0x3fb9c28f	1.45125
210	0xbf5dcd4f	-0.866414
211	0x3fc16b66	1.51109
212	0xc02fdebe	-2.74797
213	0x3fba54b5	1.45571
214	0xbe47f7be	-0.195281
215	0x3dd18ca0	0.102319
216	0xbf0a8e93	-0.541238
217	0x3b402d2c	0.00293238
218	0x3f3951a4	0.723902
219	0x3e7ad256	0.244943
220	0x3f043fd5	0.516599
221	0x3f604263	0.876013
222	0xbf3ae05d	-0.729986
223	0x3c8981bf	0.0167855
224	0xbcd21866	-0.0256464
225	0xbf42ea31	-0.761386
226	0xbec99b4e	-0.393763
227	0x3ea46f9c	0.321164
228	0x400978ab	2.14799
229	0xbf25e9f2	-0.648101
230	0xbdb2913f	-0.0871911
231	0x3fac6834	1.34693
232	0xbf858d7a	-1.04338
233	0x3f93c99b	1.15459
234	0xbf54a57a	-0.83065
235	0x3ed51cc1	0.416235
236	0x3e937996	0.288037
237	0xbcb50607	-0.0220976
238	0xbf5eb617	-0.869966
239	0x3bc4f842	0.00601104
240	0xbeabfd72	-0.335918
241	0xbbed82fb	-0.00724828
242	0x3f17214f	0.590352
243	0x3dbdebd9	0.092735
244	0xbd1700e8	-0.0368661
245	0xbf22be6a	-0.635718
246	0xc075be4d	-3.83974
247	0x3e282060	0.164186
248	0xbd422f4f	-0.0474084
249	0xc00787be	-2.11766
250	0xbca75b59	-0.0204293
251	0xbf17a0a5	-0.592295
252	0x3ee9ef52	0.456904
253	0xbdaab5a9	-0.0833543
254	0x3d8573c2	0.0651622
255	0x3ec1c68f	0.378468

Operation_2_Add_B f4 [50]
0	0xbc8321be	-0.0160073
1	0x3f91aa50	1.13801
2	0xbd4eb463	-0.050465
3	0x3f6cfa27	0.925692
4	0xbf04c78f	-0.51867
5	0xbeb9754b	-0.362223
6	0x3f1b533f	0.606739
7	0xbfb75643	-1.43232
8	0xbc1185ef	-0.00888203
9	0xbfc25365	-1.51817
10	0xbf11b8aa	-0.569224
11	0xbf71e881	-0.944954
12	0x3ec1806f	0.377933
13	0xbb98dff6	-0.00466537
14	0xbe00a41a	-0.125626
15	0xbf9d7e67	-1.23042
16	0x3f465fc8	0.774899
17	0x3e945f5b	0.28979
18	0xbfeba494	-1.84096
19	0xbe103926	-0.140843
20	0x3e32e233	0.174691
21	0xbe8499f2	-0.258987
22	0x3daedfb2	0.0853876
23	0xbc6a5d6c	-0.0143045
24	0xbd5de219	-0.0541707
25	0x3fc93dd9	1.5722
26	0x3eecfa8b	0.462849
27	0xbe9183f9	-0.28421
28	0x3fe454de	1.78384
29	0xbe917a46	-0.284136
30	0x3f515c10	0.817811
31	0x3f15d5b2	0.585292
32	0xbeb04fd3	-0.344359
33	0xbe8d3804	-0.275818
34	0x3e1ab325	0.151074
35	0x3f6fa7db	0.936155
36	0xbf5ea10e	-0.869645
37	0xbb7934e0	-0.00380259
38	0x3f1f9d2c	0.623492
39	0xbcabd2ed	-0.0209746
40	0x3f6e5508	0.930985
41	0xbc46b632	-0.0121284
42	0x3f110f1f	0.566637
43	0x3f432b99	0.762384
44	0xbc13f8f1	-0.00903152
45	0xbf417614	-0.755708
46	0xbe675148	-0.225896
47	0xbe92747e	-0.286045
48	0xbbf28e27	-0.0074022
49	0xbf2987c6	-0.662228

Operation_3_MatMul_W f4 [50, 50]
0	0xbc8eba0d	-0.0174227
1	0xbccfaace	-0.02535
2	0xbcae63c1	-0.0212878
3	0x3d127e37	0.0357649
4	0xbd1cf788	-0.038322
5	0x3cace6b3	0.0211061
6	0x3b48fa2f	0.00306667
7	0xbd2e5f8f	-0.0425716
8	0xbcb111f1	-0.021615
9	0xbd3695f4	-0.0445766
10	0xbc2623ec	-0.0101404
11	0xbc9ca629	-0.0191222
12	0x3cf0a300	0.0293746
13	0xbbf0a8b5	-0.00734433
14	0x3d3ee0cc	0.0466011
15	0x3a240f69	0.00062584
16	0xbca185c1	-0.0197171
17	0xbc8ac15a	-0.0169379
18	0x3c63ed7b	0.0139116
19	0x3cdc3555	0.0268809
20	0xbd279449	-0.0409129
21	0xbd25857b	-0.0404105
22	0x3ceca834	0.0288888
23	0xbcb7bda7	-0.0224293
24	0xbd20eae2	-0.0392865
25	0x3d38a6c0	0.0450809
26	0x3c117b32	0.00887947
27	0xbd01606d	-0.0315861
28	0x3c948634	0.0181304
29	0xbcad641c	-0.0211659
30	0x3d3b2b1a	0.0456954
31	0x3d023168	0.0317854
32	0x3c241caa	0.0100166
33	0xbc1837da	-0.00929066
34	0xbcb5c366	-0.0221879
35	0x3d23a1e1	0.0399493
36	0x3cdb6043	0.0267793
37	0xbcfa8fe9	-0.0305862
38	0x3c96d7b3	0.0184134
39	0x3cf1d05d	0.0295183
40	0x3d4b7ad8	0.0496777
41	0x3d03472d	0.0320503
42	0x3b40c1fd	0.00294125
43	0x3cb946de	0.0226168
44	0x3c4e1f48	0.0125807
45	0xbc76b640	-0.0150581
46	0xbb543cae	-0.00323848
47	0xbc84dd4a	-0.0162188
48	0x3cc67c1b	0.0242291
49	0x3cbd1f10	0.0230861
50	0xbe80650e	-0.250771
51	0x3dd6861f	0.104748
52	0x3fa378ab	1.27712
53	0xbcd14933	-0.0255476
54	0xbe11e53b	-0.142476
55	0x3f2e36f4	0.680526
56	0xbd15ae38	-0.0365431
57	0x3f1b7bf2	0.60736
58	0xbee5e8f7	-0.449043
59	0xbcceddb4	-0.0252522
60	0xbe9133a0	-0.283597
61	0x3f0c3f4f	0.547841
62	0xbe4679cc	-0.193824
63	0x3c34b0e2	0.0110285
64	0xbf8ebb99	-1.1151
65	0xbeb305fb	-0.349655
66	0xbd12b1e9	-0.0358142
67	0xbd0cafdc	-0.0343474
68	0xbfaa1134	-1.32865
69	0x3d91286f	0.0708779
70	0x3ed935fc	0.42424
71	0x3f2a04c0	0.664135
72	0xbe9ef4bf	-0.310461
73	0x3dbec835	0.0931553
74	0x3e7f41f2	0.249275
75	0xbc736410	-0.0148554
76	0xbdf42891	-0.119218
77	0x3d8eb215	0.0696756
78	0x3c1b9f38	0.00949841
79	0x3e38b19a	0.180365
80	0xbef6dbb6	-0.482145
81	0xbe24a7f8	-0.160797
82	0x3d75aa06	0.0599766
83	0x3e119829	0.142182
84	0xbecc2870	-0.398746
85	0x3f34a687	0.705666
86	0x3ee12ab7	0.439779
87	0xbe2d362f	-0.169152
88	0xbf9fa9d2	-1.24737
89	0xbf56b95e	-0.838766
90	0x3f3283d3	0.697324
91	0xbe122963	-0.142736
92	0xbedaf89c	-0.427678
93	0x3eece896	0.462712
94	0xbe879ce9	-0.264869
95	0xbd758f64	-0.0599512
96	0x3f8a3b79	1.07994
97	0x3eb997e5	0.362487
98	0x3e0a3ec0	0.135005
99	0xbf1d4ca9	-0.614451
100	0x401852e7	2.38006
101	0x3d388de6	0.0450572
102	0x3f5c0735	0.859485
103	0xbc7ed634	-0.015554
104	0xbe7c8b87	-0.246626
105	0x3f90ffeb	1.13281
106	0xbaa2d603	-0.00124234
107	0x3ec9abb0	0.393888
108	0x3fd73fa7	1.68163
109	0x4062d289	3.5441
110	0x3f716a7b	0.943031
111	0x3fd5374c	1.66575
112	0x3e3773e2	0.179153
113	0xbd0a202f	-0.0337221
114	0xc024e3e7	-2.57641
115	0x3f5bf099	0.85914
116	0x3f319781	0.693718
117	0x3d1c6089	0.038178
118	0xbf78e5f7	-0.972259
119	0xc041eb5b	-3.02999
120	0x3fa32f98	1.27489
121	0x3d8e96ec	0.0696238
122	0x3d9aca1b	0.0755808
123	0x3fde6cf4	1.7377
124	0xbfc86834	-1.56568
125	0x3e880fbb	0.265745
126	0xbf97ec57	-1.1869
127	0x3db8c3a3	0.0902169
128	0xbce5c521	-0.0280481
129	0x3ee0e044	0.439211
130	0xbfbe24dd	-1.4855
131	0x3f067169	0.525168
132	0x3fa3f488	1.2809
133	0x3f29a997	0.662744
134	0x3e67392a	0.225804
135	0x3f53b7d8	0.827024
136	0x3def8a4c	0.116963
137	0x3d67c01e	0.0565797
138	0xc0c0646f	-6.01226
139	0x3fe5883c	1.79322
140	0x40034952	2.05135
141	0xbfff10cb	-1.9927
142	0x3db2372d	0.0870193
143	0xbe1ccd96	-0.153128
144	0x3f9f67f5	1.24536
145	0xbd474843	-0.0486529
146	0xbf44dd72	-0.769004
147	0xbe95566d	-0.291675
148	0xbef6edcc	-0.482283
149	0x3e952913	0.291329
150	0x3bbcd9fb	0.00576329
151	0xc00fb2ab	-2.24528
152	0xbfe3dfe3	-1.78027
153	0xbcc20777	-0.0236852
154	0x3ea22b7c	0.316738
155	0x3ed81ffb	0.422119
156	0xbd3b7d6a	-0.0457739
157	0xbf45f6ec	-0.773299
158	0x3e4ecc3e	0.201951
159	0x3f035419	0.513002
160	0xbd58e234	-0.0529501
161	0x3f28c101	0.659195
162	0x3f10b902	0.565323
163	0x3d067b0f	0.0328322
164	0x3f66e9ee	0.902007
165	0x3f9e9004	1.23877
166	0x3df06680	0.117383
167	0x3c0ae516	0.00847747
168	0x3f069a5f	0.525793
169	0x3f13645a	0.57575
170	0x3eaadeec	0.333732
171	0xbf804285	-1.00203
172	0x3fab136a	1.33653
173	0x3f50b47c	0.815254
174	0xbe372c0e	-0.178879
175	0xbf150a03	-0.582184
176	0xbc12df8b	-0.00896443
177	0xbe198527	-0.149922
178	0xbc796836	-0.0152226
179	0xbe7a28fe	-0.244297
180	0x3e18ecd9	0.149341
181	0x3f2fe5da	0.687101
182	0x3eb83be6	0.359832
183	0xbe8fd4bf	-0.28092
184	0xbf50cd64	-0.815634
185	0xbde45e4e	-0.111508
186	0x3e7893b8	0.242751
187	0x3f1715d7	0.590177
188	0xbf5d840a	-0.865296
189	0xbe576966	-0.210363
190	0x3e3605ee	0.177757
191	0x3fde7a10	1.7381
192	0x3f19adc9	0.600308
193	0x3f54fd7e	0.831993
194	0x3ea48798	0.321347
195	0xbcb9071d	-0.0225864
196	0x3ed04d77	0.406841
197	0xbf8fba34	-1.12287
198	0x3e71f1d0	0.236274
199	0x3eba93d1	0.364409
200	0xbf69e881	-0.913704
201	0x3edd27a2	0.431943
202	0x3f85ea89	1.04622
203	0x3cca3a16	0.0246859
204	0x3f7cd38d	0.987603
205	0x3f866ba5	1.05016
206	0xbc213e29	-0.00984148
207	0xbf8ecbfb	-1.1156
208	0xbe0751ce	-0.132148
209	0x3f53ccf3	0.827346
210	0xbe9abf98	-0.302243
211	0x3f96186a	1.17262
212	0x3e9d52e3	0.307273
213	0x3cfbb228	0.0307246
214	0xc033bfc6	-2.80858
215	0xbf89f6fd	-1.07785
216	0xbe923a6d	-0.285602
217	0xbcc5718f	-0.024102
218	0xbf7b2346	-0.981007
219	0xbf3a3950	-0.727437
220	0x3ef76a2f	0.483232
221	0x3f11ab3b	0.569019
222	0x3e044956	0.129186
223	0x3fa3dcf0	1.28018
224	0x3ea3acd6	0.319678
225	0x3f04840e	0.51764
226	0x3f17e88a	0.593392
227	0x3e8e4fdb	0.277953
228	0x3d0e6ac7	0.0347698
229	0x3edb2a06	0.428055
230	0x3ee6fc16	0.451142
231	0x3fb3ca43	1.40461
232	0x3fb425af	1.4074
233	0x3d132eb1	0.0359332
234	0xbf4800fc	-0.781265
235	0x3ee4d7ae	0.446958
236	0x3e0f4b1f	0.139935
237	0xbdbe5bf1	-0.0929488
238	0xbe08c2a4	-0.133555
239	0x3efcd120	0.493783
240	0x3d039de5	0.032133
241	0x3f1514b1	0.582347
242	0x3f23d178	0.639915
243	0xbfa8db8c	-1.3192
244	0x3f9fcddd	1.24847
245	0xbd2c6874	-0.0420918
246	0x3f0a806b	0.541022
247	0xbefa2f8c	-0.488644
248	0xbeb3f983	-0.351513
249	0x3f1ce94f	0.612935
250	0x3fbdecd5	1.48379
251	0x3f72d7a5	0.948603
252	0x3ede57fb	0.434265
253	0xbd276eda	-0.0408772
254	0x3f210b31	0.629077
255	0x3f69a038	0.912601

Operation_3_Add_B f4 [50]
0	0xbf9e0d45	-1.23478
1	0xbe87687b	-0.264469
2	0x3e89183b	0.267763
3	0xbd085f4a	-0.033294
4	0xbf054e7f	-0.520729
5	0x3f9da805	1.23169
6	0xbcb56c5e	-0.0221464
7	0xc042fdf4	-3.04675
8	0xc0029f41	-2.04097
9	0xc063e7c0	-3.56102
10	0xbd70d555	-0.0587972
11	0xbf1076e2	-0.564314
12	0x3f6bd44a	0.921208
13	0xbc99bde1	-0.0187673
14	0xbf140bed	-0.578307
15	0xbeb6bd90	-0.356915
16	0xbed78099	-0.420903
17	0xbd4c90b7	-0.0499427
18	0x3e6b9c73	0.230089
19	0x3c6df82b	0.0145245
20	0xbfe63fbc	-1.79882
21	0x3db94d36	0.0904793
22	0xbf29ede1	-0.663786
23	0xc0016a40	-2.02211
24	0xbf0697c0	-0.525753
25	0xbfcc4a62	-1.59602
26	0x3ef775b8	0.48332
27	0x3e619653	0.2203
28	0xbc8e354d	-0.0173594
29	0xbf6d8288	-0.927773
30	0xbedfae36	-0.436876
31	0xbfd4b828	-1.66187
32	0xbfba3593	-1.45476
33	0x3fbd5b57	1.47935
34	0xc0037b9e	-2.05442
35	0xbf6caa86	-0.924477
36	0xbf21346a	-0.629706
37	0xbf44df7a	-0.769035
38	0xbeda4f87	-0.426388
39	0xbfa4ae00	-1.28656
40	0xc044538f	-3.0676
41	0x3f798549	0.97469
42	0x3e9bd35f	0.304347
43	0xbf1bb2ab	-0.608195
44	0xbf8321d5	-1.02447
45	0xbd11db44	-0.0356095
46	0xbec83148	-0.391001
47	0xbbefcdd9	-0.00731824
48	0x3f6a7ec8	0.915997
49	0x3fc6be8c	1.55269

Operation_4_MatMul_W f4 [50, 50]
0	0xbec9aa61	-0.393878
1	0x40257343	2.58516
2	0x3ffb3eab	1.96285
3	0x3e7a4b55	0.244428
4	0xbebc9364	-0.368312
5	0x3e5a5eff	0.213253
6	0x3f491a33	0.785556
7	0x3faa324d	1.32966
8	0x3e1221c9	0.142707
9	0x3fcc40e1	1.59573
10	0xbeb2f923	-0.349557
11	0x40722a6f	3.78384
12	0xbe209d06	-0.156849
13	0xbee44114	-0.445809
14	0x3f549f51	0.830556
15	0x3f3d8e65	0.740454
16	0x3f1ea1c7	0.619656
17	0x3f32556d	0.696616
18	0x3b2d0fee	0.00264072
19	0x3cbbd995	0.0229309
20	0x3f5bf7f0	0.859252
21	0xbf3e25ea	-0.742766
22	0x3fc9b574	1.57585
23	0xbda13d67	-0.0787304
24	0x3fe1c91d	1.76395
25	0x3e24f11b	0.161076
26	0xbef0754f	-0.469645
27	0xbd2d9f0a	-0.042388
28	0x3e5e2da5	0.216971
29	0x3f55d745	0.835316
30	0x3eed421c	0.463395
31	0x3eac812c	0.336923
32	0x404ded29	3.2176
33	0x3f8ff67f	1.12471
34	0x3f46aceb	0.776076
35	0x406fd7b2	3.74754
36	0x3ed64c73	0.418552
37	0x3fc129dc	1.50909
38	0x3e2c8fb8	0.168517
39	0xc022fd76	-2.54672
40	0xbc61da10	-0.0137849
41	0x3e2959a3	0.165381
42	0xbdc79c26	-0.0974658
43	0x404fe521	3.24836
44	0x3e3e9bbf	0.186141
45	0xbdb3c9d4	-0.0877873
46	0x3f8a29c7	1.0794
47	0xbe16e1df	-0.147346
48	0xbf9b5697	-1.21358
49	0xbc1de335	-0.00963669
50	0x3eb78423	0.35843
51	0xbea700ce	-0.326178
52	0xbe860115	-0.261727
53	0x3f17cc3a	0.59296
54	0x3f999557	1.19987
55	0x400b537a	2.17697
56	0xbf17eef6	-0.59349
57	0x4039d9fd	2.90393
58	0xbda4202e	-0.0801395
59	0x3e42d2bb	0.190257
60	0x3db2094d	0.0869318
61	0x403b2b2c	2.92451
62	0x3e9e642c	0.309358
63	0x3f8319a4	1.02422
64	0xbef6b6bf	-0.481863
65	0x401ffc8f	2.49979
66	0xbe6cecc8	-0.231372
67	0xbf0766b6	-0.528911
68	0xbf604dec	-0.876189
69	0xbc44d588	-0.0120138
70	0xbdefb8f5	-0.117052
71	0xbfde4452	-1.73646
72	0x4066abde	3.60424
73	0x3d04fea2	0.0324694
74	0x3e4c63f1	0.1996
75	0x3e32a1b6	0.174445
76	0x3fe71aa0	1.8055
77	0xbc616d02	-0.0137589
78	0xbf535569	-0.825522
79	0xbf4d759f	-0.802576
80	0x3f1fab86	0.623711
81	0xc05c725c	-3.44448
82	0x4045042e	3.07838
83	0x3cf2cac3	0.0296377
84	0xbf513a82	-0.817299
85	0x3f7b43a6	0.981501
86	0xbe2468cb	-0.160556
87	0x3fbfff58	1.49998
88	0xbb944e81	-0.00452596
89	0xc1029e3a	-8.16363
90	0xbd5ba64f	-0.0536254
91	0xbfe08605	-1.75409
92	0x3fc6dcb1	1.55361
93	0x3f31197a	0.691795
94	0x402fe037	2.74806
95	0x3eacd6a1	0.337575
96	0x3edbaf96	0.429074
97	0x3fc2bb99	1.52135
98	0x4009b036	2.15138
99	0x3f1eab36	0.6198
100	0x3f3a5b96	0.72796
101	0x3db31876	0.087449
102	0xbff27675	-1.89424
103	0xbfe011b2	-1.75054
104	0x3d8ce896	0.068803
105	0x3f47aebc	0.78001
106	0x4042b631	3.04237
107	0x3ee064ed	0.43827
108	0xbda9c0a9	-0.082887
109	0xbf8a599f	-1.08086
110	0x3f48b9ed	0.784087
111	0x40468c69	3.10232
112	0xbebfbd49	-0.374491
113	0xc04cd624	-3.20057
114	0xbe3a6373	-0.18202
115	0x3f2fb129	0.686297
116	0xbed2b303	-0.411522
117	0xbf05ed5b	-0.523153
118	0x3ea48451	0.321322
119	0x3b51638a	0.00319502
120	0xbfa5e4a4	-1.29604
121	0xbf114a3c	-0.567539
122	0xc03ba1cb	-2.93175
123	0x3a941271	0.0011297
124	0x3fdb9874	1.71559
125	0xbf290397	-0.660211
126	0xbe4a41a2	-0.197516
127	0x3cceca9e	0.0252431
128	0x3f60c6b5	0.878032
129	0x3f75346a	0.957831
130	0x3faabf87	1.33397
131	0xbd2d29b4	-0.0422761
132	0x401088ce	2.25835
133	0xbe164f98	-0.146788
134	0xbf033908	-0.512589
135	0x40863127	4.1935
136	0x3f905921	1.12772
137	0xbf4f8c65	-0.810736
138	0xbf037b8d	-0.513604
139	0x3fb54079	1.41603
140	0x3c817af5	0.0158057
141	0xbfcec8b4	-1.6155
142	0x3ddd81f1	0.108158
143	0xbfbc6b27	-1.47202
144	0x3fd3d662	1.65498
145	0x3f07e9d9	0.530912
146	0x3f1e3a19	0.618074
147	0xc02588b9	-2.58647
148	0xc06f861a	-3.74256
149	0xbdb0248b	-0.0860072
150	0xbb93330e	-0.00449217
151	0x3cb3ade2	0.0219335
152	0x3d8612ac	0.0654653
153	0x3d0e42d4	0.0347317
154	0xbd1c2b44	-0.0381272
155	0x3d300cbd	0.0429809
156	0xbd2acd9f	-0.0417
157	0x3d0ce704	0.0344
158	0x3d4b1ce4	0.0495881
159	0xbc96efd1	-0.0184249
160	0xbc03001a	-0.00799563
161	0xba70140b	-0.000915826
162	0x3cc3fe27	0.0239249
163	0x3d028119	0.0318614
164	0x3d2b0094	0.0417486
165	0x3d825403	0.0636368
166	0xbc31efd2	-0.0108604
167	0x3ba472bc	0.00501856
168	0xbd1f22a5	-0.0388514
169	0x3cc2e9bf	0.0237931
170	0xbac7706c	-0.0015216
171	0xbb3934bf	-0.00282602
172	0x3d0e2f6e	0.0347132
173	0x3cbe5937	0.0232359
174	0x3c544c88	0.0129577
175	0x3ca7c907	0.0204816
176	0x3d3c3cfd	0.0459566
177	0x3d264686	0.0405946
178	0xbd416ccd	-0.0472229
179	0xbd3dc345	-0.0463288
180	0x3d139467	0.0360302
181	0xbce07018	-0.0273972
182	0xbcc30f7f	-0.0238111
183	0x3c582195	0.0131916
184	0x3d1b28b0	0.0378806
185	0xbc970f7c	-0.01844
186	0xbc5f2c4b	-0.0136214
187	0x3cfea2d3	0.0310835
188	0x3cbd5779	0.023113
189	0xbd61f5f4	-0.0551662
190	0x3d4baac4	0.0497234
191	0x3b7dc3e6	0.00387215
192	0x3cbaaca4	0.0227874
193	0xbad1e007	-0.00160122
194	0x3ac2c7e6	0.00148606
195	0xbca850b7	-0.0205463
196	0x3bdb0c6b	0.00668483
197	0xbd5dc4bc	-0.0541427
198	0x3ca88f6b	0.0205762
199	0x3d018308	0.0316191
200	0x3f4f3908	0.809464
201	0xbfa40dc3	-1.28167
202	0xbf712d34	-0.942096
203	0xbf973387	-1.18126
204	0x3f161fd1	0.586423
205	0x3f51b489	0.819161
206	0x3f3f1737	0.746448
207	0xbe1d04a3	-0.153338
208	0xbe9c254a	-0.304972
209	0x3f26cf20	0.651598
210	0xbf799392	-0.974908
211	0xbf845faf	-1.03417
212	0xbd9b8bac	-0.07595
213	0x3f1b9cfa	0.607864
214	0x3e629dc7	0.221305
215	0x3ebc05f7	0.367233
216	0xbe0591cd	-0.130439
217	0xbf08df37	-0.534656
218	0xbef60f1b	-0.480584
219	0xbcdbdbff	-0.0268383
220	0xbddaf07c	-0.106904
221	0x3f1f9d91	0.623498
222	0x3ce7d0ca	0.0282978
223	0xbec0ecfa	-0.376808
224	0x3f231f15	0.637193
225	0x3f0f0037	0.558597
226	0x3f96353f	1.1735
227	0xbb2cc2ec	-0.00263613
228	0x3eb93ccd	0.361792
229	0x3ebe86e8	0.372123
230	0xbe5875d5	-0.211387
231	0xbe68198f	-0.22666
232	0x3f3a5c1c	0.727968
233	0x3d3b3992	0.0457092
234	0x3f5c8755	0.86144
235	0x3f959408	1.16858
236	0x3ef587d7	0.479552
237	0x3e7991ff	0.243721
238	0xbeacb125	-0.337289
239	0x3f3b18a8	0.730845
240	0xbb57ec66	-0.00329473
241	0x3d13fe85	0.0361314
242	0x3e2b6b2b	0.167401
243	0x3ec48da0	0.383893
244	0x3eba2d51	0.363627
245	0x3f0d3ee6	0.551741
246	0x3f12275b	0.570913
247	0xbf0b0fae	-0.543208
248	0xbf32f263	-0.699011
249	0x3f7a1bb0	0.976985
250	0xbf6ddef0	-0.929183
251	0xbe6a276b	-0.228666
252	0xbece5a9b	-0.403035
253	0xbecc3a00	-0.39888
254	0x3ed19392	0.409329
255	0xbf00aba4	-0.502619

Operation_4_Add_B f4 [50]
0	0x3ff74784	1.93187
1	0xbfa7b795	-1.31029
2	0xbef0624e	-0.4695
3	0xbedd16fd	-0.431816
4	0x3febe187	1.84282
5	0xc0242a45	-2.56508
6	0xbe252c5a	-0.161302
7	0x3f15f40a	0.585755
8	0x3f5ad40b	0.854798
9	0x402c8ede	2.69622
10	0x403a110a	2.90729
11	0xc02dfb94	-2.71848
12	0xbd7b2321	-0.0613128
13	0xc01fef20	-2.49897
14	0x3ecef9db	0.40425
15	0xc00bffd6	-2.18749
16	0x3c158fd4	0.00912853
17	0x3e6eee52	0.233331
18	0x3e021145	0.127019
19	0xbd0cd2ac	-0.0343806
20	0x402c092d	2.68806
21	0x3eba2403	0.363556
22	0xc010007e	-2.25003
23	0xbe7bd87b	-0.245943
24	0x3f3ff0ed	0.74977
25	0x3fb73040	1.43116
26	0x3f5fc665	0.874121
27	0xbbc5696c	-0.00602453
28	0xbf05335d	-0.520315
29	0xbf3ee48f	-0.745675
30	0x4043768a	3.05411
31	0xbe8045bb	-0.250532
32	0xbef7e0ac	-0.484136
33	0x3fd4ee8d	1.66353
34	0x3f1b74ef	0.607253
35	0x408dc2a4	4.43001
36	0xbf95e743	-1.17112
37	0x3eb4af2d	0.352899
38	0xbe7c6195	-0.246466
39	0xbf47d428	-0.780581
40	0xbcb71469	-0.0223486
41	0x3fce7137	1.61283
42	0xbf53583a	-0.825565
43	0xbfab0dd8	-1.33636
44	0xbe85c465	-0.261264
45	0xbfd0ea9e	-1.63216
46	0x3d29b7f5	0.0414352
47	0x40192863	2.39309
48	0xbed311a5	-0.412244
49	0xbfa57397	-1.29259

Operation_5_MatMul_W f4 [50, 50]
0	0xbd56e900	-0.0524683
1	0xbf187486	-0.595528
2	0x3f2d2828	0.676394
3	0x3e54c943	0.207799
4	0xbfa807dd	-1.31274
5	0x3ffeec6c	1.99159
6	0xbf054584	-0.520592
7	0x3f1f1cfc	0.621536
8	0xbe062e0a	-0.131035
9	0x3fba51c2	1.45562
10	0x3feae04c	1.83497
11	0xbf14f4f9	-0.581863
12	0x3e9750e3	0.295539
13	0x3e5af790	0.213835
14	0xbf28406c	-0.657233
15	0x3fee9c78	1.86415
16	0x3f78d856	0.972051
17	0x3dbf124a	0.0932966
18	0xbf9935a8	-1.19695
19	0x3faa7b5f	1.33189
20	0x3f1f6018	0.62256
21	0x3fb23d71	1.3925
22	0x3ee58490	0.448277
23	0xbf6968d7	-0.911756
24	0x3fb45c68	1.40907
25	0xbf61b1fb	-0.881622
26	0xbd98e417	-0.0746538
27	0xc0a467b6	-5.13766
28	0xbc0c4e57	-0.0085636
29	0x3f9adff8	1.20996
30	0x3f334539	0.700275
31	0xbf181dd2	-0.594205
32	0x3f872bfe	1.05603
33	0x3f0d5400	0.552063
34	0xbfb627d0	-1.42309
35	0xbe5d2807	-0.215973
36	0xbd21b5fd	-0.0394802
37	0xbd75322c	-0.0598623
38	0xbe09949f	-0.134356
39	0x3ce47a68	0.0278904
40	0xbfb7d6b6	-1.43624
41	0x3f8767f5	1.05786
42	0x3edbca75	0.429279
43	0xbd9482bf	-0.072515
44	0x3e3cd317	0.184399
45	0x3e9f6b3c	0.311365
46	0x3f94aea7	1.16158
47	0x401fe910	2.4986
48	0xc01420c5	-2.3145
49	0xbf179ebf	-0.592266
50	0xbd40fa4c	-0.0471137
51	0xbfbc548b	-1.47133
52	0x3f53403e	0.825199
53	0x3ef149c7	0.471266
54	0x3e946f15	0.28991
55	0x3fd5a9a8	1.66924
56	0xbe9fa744	-0.311823
57	0xbec8be0e	-0.392075
58	0xc03d4cec	-2.95782
59	0x3fbbf9c6	1.46856
60	0x3eb97fa6	0.362302
61	0x3e03df2b	0.128781
62	0xbd774ad5	-0.0603741
63	0x3f5fc48f	0.874093
64	0x3f8b9b67	1.09068
65	0x3f79f58c	0.976403
66	0x3f917fb7	1.13671
67	0x401662f6	2.34979
68	0x3fcc9b52	1.59849
69	0x3ffea7f0	1.9895
70	0x3dbc8415	0.0920488
71	0x3e0ac860	0.13553
72	0x3fb32229	1.39948
73	0x3f275d68	0.653769
74	0x400249e4	2.03576
75	0xc0463276	-3.09683
76	0xc023c433	-2.55885
77	0x3f8997f6	1.07495
78	0x3cb2a7bd	0.0218085
79	0xbfa0d163	-1.25639
80	0x3f130bd0	0.574399
81	0x3f3cb695	0.737161
82	0x4033306a	2.79983
83	0x3e305b3a	0.172223
84	0xbfb271de	-1.3941
85	0x3ef36f7e	0.47546
86	0xbb791be0	-0.0038011
87	0x3f2a321a	0.664827
88	0xbf6e50e7	-0.930922
89	0xbe4a2510	-0.197407
90	0x40870b78	4.22015
91	0x3f055e9e	0.520975
92	0xbdd45e92	-0.103696
93	0x3f8c0d6f	1.09416
94	0x3eea7ded	0.457992
95	0xbda4c7cb	-0.0804592
96	0x3fb0a6ca	1.38009
97	0x3edd0460	0.431674
98	0xc06402c9	-3.56267
99	0xc0468390	-3.10178
100	0x3d1eacae	0.0387389
101	0xbed11ff7	-0.408447
102	0xbce90760	-0.0284459
103	0x3efdcfab	0.495725
104	0x3e882d5a	0.265971
105	0xbe3ad14a	-0.182439
106	0xbe559ab7	-0.208598
107	0xbeb0c2c6	-0.345236
108	0x3d7c79b3	0.0616395
109	0xbbd28736	-0.00642481
110	0x3ee6f7c2	0.451109
111	0x3e152ef9	0.145687
112	0x3e9bdf8f	0.30444
113	0x3e47a249	0.194955
114	0x3dd205bc	0.10255
115	0x3fc2defc	1.52243
116	0xbebb6630	-0.366014
117	0x3facbd12	1.34952
118	0xbe873cb4	-0.264135
119	0x3eef4773	0.467342
120	0xbee5c055	-0.448733
121	0x3f2d9fb2	0.678218
122	0xbaa89159	-0.00128607
123	0xbd57eaf3	-0.0527143
124	0x3bd5b020	0.00652124
125	0x3f23fbbd	0.64056
126	0x3f8c92cd	1.09823
127	0x3f3c3212	0.735139
128	0x3ad02821	0.00158811
129	0x3f89119d	1.07085
130	0x3dda2596	0.106517
131	0xbe9308dd	-0.287177
132	0x3fbb41f2	1.46295
133	0x3bef8d57	0.00731055
134	0xbec6c743	-0.388239
135	0x3df8b60f	0.121441
136	0xbcf5894f	-0.0299727
137	0x3f0b34f8	0.543777
138	0xbf8523f6	-1.04016
139	0x3df9c38b	0.121955
140	0x3fe2d57c	1.77214
141	0x3f8dd4e9	1.10806
142	0xbf83de40	-1.03022
143	0x3e05efe9	0.130798
144	0xbdbd5439	-0.0924458
145	0xbe6ba83f	-0.230134
146	0xbf269446	-0.6507
147	0x3be695e1	0.00703691
148	0xbf2514c2	-0.644848
149	0x3f551f60	0.83251
150	0x3cb7a695	0.0224183
151	0x3ea0d0ab	0.314092
152	0xbe5b79d9	-0.214332
153	0xbeb779c8	-0.358351
154	0x3f8e8d65	1.11369
155	0xbfad8f1d	-1.35593
156	0xc0a1e853	-5.05961
157	0x3f989cf5	1.19229
158	0x3d912f9d	0.0708916
159	0xbf92233a	-1.1417
160	0x3f1c2de0	0.610075
161	0xbe8d3d86	-0.27586
162	0xbd6ae628	-0.0573484
163	0xbee5c2f4	-0.448753
164	0xbdb0b1f1	-0.0862769
165	0xc03a2db6	-2.90904
166	0xbf46a92e	-0.776019
167	0xbe9e62bb	-0.309347
168	0xbf747df6	-0.955047
169	0xc057342f	-3.36256
170	0x3f0af8f0	0.542861
171	0xbf8e262d	-1.11054
172	0x3edd27e5	0.431945
173	0xbfaa3886	-1.32985
174	0x3f8651c2	1.04937
175	0xc058147b	-3.37625
176	0xbfd6ae7d	-1.6772
177	0xc0165437	-2.34889
178	0x3c77475f	0.0150927
179	0x3e84579f	0.258481
180	0xbe258256	-0.16163
181	0xbe471ac1	-0.194438
182	0xc044245f	-3.06472
183	0xbe2085b2	-0.15676
184	0x3f7ae4b0	0.980052
185	0x3ea98373	0.331081
186	0xbcdf8826	-0.0272866
187	0x3f22f0d0	0.636487
188	0xbfdad03e	-1.70948
189	0xbfea0f3d	-1.82859
190	0x3f346f15	0.70482
191	0xc0156f54	-2.33492
192	0x3c56b294	0.0131041
193	0xbea34a66	-0.318927
194	0xbf28829d	-0.658243
195	0xbe7d3e0c	-0.247307
196	0xbe2aacda	-0.166675
197	0x3ff73190	1.9312
198	0xbf6806af	-0.906352
199	0xbf6dfe97	-0.929666
200	0x3c907889	0.0176356
201	0x3c85e5bd	0.0163449
202	0x3f4c29e1	0.797514
203	0xbe134e33	-0.143853
204	0x3e541f64	0.207151
205	0xbfc51b1e	-1.53989
206	0x3eca5482	0.395176
207	0x3f81f7a5	1.01537
208	0x3ec546f6	0.385307
209	0x3f23517a	0.637962
210	0x3f4bc2ec	0.795943
211	0xbf196180	-0.599144
212	0xbee1ec2d	-0.441255
213	0x3e91567e	0.283863
214	0x3ea418b5	0.320501
215	0x3f094595	0.536218
216	0xbf9713be	-1.18029
217	0x3fd84913	1.68973
218	0x3fd1fd37	1.64054
219	0xbeae1651	-0.340014
220	0xbed2426c	-0.410663
221	0x3f9022bc	1.12606
222	0x3f9261d0	1.14361
223	0x3f9050f0	1.12747
224	0x3f7d040c	0.988343
225	0xbd1b02d6	-0.0378445
226	0xc0434802	-3.05127
227	0xbff9f751	-1.95286
228	0x3c6bbfd7	0.014389
229	0x3eeba14d	0.460215
230	0x3eb2c0c6	0.349127
231	0xc0ad9a02	-5.42505
232	0x3fa62489	1.29799
233	0xbf1f3eab	-0.62205
234	0x3ebcb74e	0.368586
235	0x3d8d2517	0.0689184
236	0xbd2adbfc	-0.0417137
237	0xbd7df9cb	-0.0620058
238	0xbef03f92	-0.469235
239	0x3f4a9c24	0.791445
240	0x4033ef20	2.81147
241	0x3eda3401	0.426178
242	0x3e73b603	0.237999
243	0x3f48d24e	0.784459
244	0xbe9e8ec5	-0.309683
245	0x3e04a44c	0.129533
246	0x3f2e2f7b	0.680412
247	0xbfac3223	-1.34528
248	0xc0b07c9a	-5.51521
249	0x3e8f3648	0.279711
250	0x3b2178e1	0.00246387
251	0x3ecd6b87	0.401211
252	0x3e65375d	0.223844
253	0xbea25acd	-0.317099
254	0xbef8ab93	-0.485684
255	0x3d557d0a	0.0521212

Operation_5_Add_B f4 [50]
0	0xbca1a3bf	-0.0197314
1	0xbe32c387	-0.174574
2	0x3fcc5293	1.59627
3	0x3ee345d0	0.443892
4	0x3fcdc67e	1.60762
5	0x3e9e1998	0.308789
6	0x3e983ada	0.297324
7	0x40380b4e	2.87569
8	0x3fa2602d	1.26856
9	0x3fde5311	1.73691
10	0x3f536f2a	0.825915
11	0x3f7b18db	0.980848
12	0x4005f30e	2.09296
13	0x402905a7	2.64097
14	0xc0203348	-2.50313
15	0xbfaf8df8	-1.37152
16	0x3fef913f	1.87162
17	0xbe4249a1	-0.189734
18	0x3f462a4e	0.774083
19	0x3f0aa23c	0.541538
20	0x405e01cd	3.46886
21	0x3f4d625a	0.802282
22	0x3ee5612c	0.448007
23	0x3fca540d	1.58069
24	0x4068b94e	3.63631
25	0xbfc1259a	-1.50896
26	0x3fb60bf6	1.42224
27	0xbe8a7efa	-0.2705
28	0xbcf5c28f	-0.03
29	0xbf633eab	-0.887675
30	0x400ebf5d	2.23043
31	0xc005cc3a	-2.09059
32	0xbef784cb	-0.483435
33	0x404c01f7	3.18762
34	0x3fcbb6ed	1.59152
35	0x3fab08ee	1.33621
36	0xbbafea94	-0.00536854
37	0xbf674906	-0.903458
38	0x3efcaec9	0.493521
39	0x3ef15a08	0.47139
40	0xc097fb01	-4.74939
41	0x4016b392	2.35471
42	0x3fbad7c7	1.45971
43	0xc03941c8	-2.89464
44	0x3fb6b7aa	1.42748
45	0xbec3c8e2	-0.382392
46	0xbf41d851	-0.757207
47	0xbc0dd2dc	-0.00865623
48	0xc02e1dfc	-2.72058
49	0xbf60257d	-0.875572

Operation_6_MatMul_W f4 [50, 50]
0	0xbceaf64e	-0.0286819
1	0xbccce8e7	-0.0250134
2	0xbd1ae6bc	-0.0378177
3	0x3cbb2647	0.0228454
4	0xbaa54f85	-0.00126122
5	0xbc97b9fb	-0.0185213
6	0xbd1ca42b	-0.0382425
7	0x3cbe0016	0.0231934
8	0xbab41b25	-0.0013741
9	0x3d043bb4	0.0322835
10	0xbc211d71	-0.00983368
11	0xbd0cb9b7	-0.0343568
12	0x3cfcec4f	0.0308744
13	0x3d3d3515	0.0461932
14	0xbc6c8564	-0.0144361
15	0x3c5c6dbf	0.0134539
16	0x3caa2a0b	0.020772
17	0x3d0c210b	0.0342112
18	0x3b86c079	0.0041123
19	0xbd3e32a0	-0.046435
20	0xbae9d922	-0.00178412
21	0x3cf1d8c0	0.0295223
22	0xbcf6569e	-0.0300706
23	0xbc414403	-0.011796
24	0xbb022285	-0.0019857
25	0xbc91485d	-0.0177347
26	0xbcd0ef06	-0.0255046
27	0xbd412747	-0.0471566
28	0x3cbb5bc1	0.0228709
29	0x3cbd1bea	0.0230846
30	0xbcf4a58f	-0.0298641
31	0xbc8ee724	-0.0174442
32	0x3cb274fd	0.0217843
33	0xbc44bf4d	-0.0120085
34	0xbcbe1e7e	-0.0232079
35	0x3b68a69d	0.00354997
36	0xbc8f242b	-0.0174733
37	0xbc5d377e	-0.013502
38	0x3cec9ac8	0.0288824
39	0x3d32c40d	0.043644
40	0xbb26b206	-0.00254357
41	0xbd189dbb	-0.0372598
42	0xbc73973c	-0.0148676
43	0x3d325588	0.0435386
44	0x3d047c81	0.0323453
45	0x3c1c424b	0.00953729
46	0xbd16d762	-0.0368265
47	0xbc96fe49	-0.0184318
48	0xbcc06f5c	-0.0234906
49	0x3cab5e88	0.0209191
50	0xc087cc3a	-4.24368
51	0x3f859168	1.0435
52	0xc03f6ead	-2.99113
53	0xc0b9afb8	-5.8027
54	0xbf46836f	-0.775443
55	0xbf9aa0ba	-1.20803
56	0x3f55ce7d	0.835182
57	0xbc558a76	-0.0130335
58	0x3fb0e315	1.38193
59	0x400749a5	2.11387
60	0x3f129aa2	0.572672
61	0xbf52731d	-0.822069
62	0xbf1bcd46	-0.608601
63	0x3dfcdcca	0.123468
64	0x3f8a171a	1.07883
65	0xc099786c	-4.79595
66	0xbe08a611	-0.133446
67	0x3cd8dc3a	0.0264722
68	0xbd8b5ab5	-0.0680441
69	0xbf55df33	-0.835437
70	0x3f8510f5	1.03958
71	0x3e39bd40	0.181386
72	0x400bf0ed	2.18658
73	0x3c8b2208	0.016984
74	0xc02273ac	-2.53831
75	0x3ef69d52	0.481669
76	0x3f4b97ee	0.795287
77	0xbc63299b	-0.0138649
78	0xbf89a7b1	-1.07543
79	0xbd2f95f0	-0.0428676
80	0xbe444285	-0.19166
81	0xbf1a97af	-0.603877
82	0x3da1b3ff	0.0789566
83	0x400dabc9	2.21361
84	0xc03dafb8	-2.96385
85	0xbf7aa9e7	-0.979155
86	0x3fa28241	1.2696
87	0x3efecdaf	0.497663
88	0xbfeea93f	-1.86454
89	0xc00a3c21	-2.15992
90	0x3f911e11	1.13373
91	0x3cdec121	0.0271917
92	0x4000255b	2.00228
93	0x3ebc1dd2	0.367415
94	0x3fd76406	1.68274
95	0x3e858be7	0.260833
96	0xc025bf72	-2.58981
97	0x3fe59653	1.79365
98	0x398bc5c6	0.000266595
99	0xbe9641f6	-0.293472
100	0xbd3cd4ed	-0.0461015
101	0x3f7df0a2	0.991953
102	0xc10b1d73	-8.69469
103	0xbfc9fb94	-1.57799
104	0xbf5685db	-0.83798
105	0x40271de7	2.6112
106	0xbf1b8972	-0.607566
107	0xbc5bff04	-0.0134275
108	0xbea9f128	-0.331918
109	0x3fb903da	1.44543
110	0xbfba9692	-1.45772
111	0xbe00752e	-0.125447
112	0x3f360631	0.711032
113	0xc010f766	-2.2651
114	0x3f0e8640	0.556736
115	0x3fa8e11e	1.31937
116	0x3ec36d01	0.381691
117	0x3ce36e64	0.0277626
118	0x40250ed4	2.57903
119	0x4017cbbc	2.37181
120	0xbe9706b3	-0.294973
121	0xbdad78ec	-0.0847033
122	0x3fcbbb30	1.59165
123	0xbd0f84a3	-0.0350386
124	0xc109a494	-8.60268
125	0x3f6286d7	0.88487
126	0xbd238195	-0.0399185
127	0xbd106da1	-0.0352608
128	0xbfb0c0ad	-1.38088
129	0x3c940fb7	0.0180739
130	0x3d900f0c	0.0703412
131	0x3e0d7492	0.13814
132	0x3e3cb791	0.184294
133	0x3fb1c91d	1.38895
134	0xc0459eae	-3.08781
135	0x3f99652c	1.1984
136	0x3fbfcc3a	1.49842
137	0x3e93fd50	0.289042
138	0xbfca9835	-1.58277
139	0x3f7f20fb	0.996597
140	0xbf06833c	-0.52544
141	0xc0850c89	-4.15778
142	0x3d4e1b67	0.0503191
143	0xbd792bb6	-0.0608327
144	0x402697b7	2.60301
145	0x3f8f7f39	1.12107
146	0xc053583a	-3.30226
147	0xc00496bc	-2.0717
148	0xbb5dcfa9	-0.00338457
149	0x3f777c24	0.966738
150	0xc02bf972	-2.6871
151	0x400c6224	2.19349
152	0xbdd3f962	-0.103503
153	0xbfaea2b1	-1.36434
154	0xbeb686c6	-0.356497
155	0x403aee8d	2.92081
156	0x3fcef05a	1.61671
157	0x3c8a01ac	0.0168465
158	0xbf7604e2	-0.961012
159	0x4000f6e8	2.01507
160	0x3fcdcc10	1.60779
161	0xc018464a	-2.37929
162	0xbf19e604	-0.601166
163	0x3efe64f5	0.496864
164	0x3f5367d3	0.825803
165	0x3fbff045	1.49952
166	0x3e954456	0.291537
167	0xbe1cb429	-0.153031
168	0x3f4c24f6	0.797439
169	0x3f89df65	1.07713
170	0x3e317508	0.173298
171	0xbe225aee	-0.15855
172	0x3ed49ba6	0.41525
173	0x3e000d5f	0.125051
174	0x3f91ba5e	1.1385
175	0xbf119568	-0.568686
176	0x3f9f98c8	1.24685
177	0xbd3ac19d	-0.0455948
178	0x3e16d58d	0.147299
179	0x3c09e03e	0.00841528
180	0x3e2fe8ee	0.171787
181	0x3e620e1f	0.220757
182	0x3eb537e3	0.353942
183	0x4006f1d4	2.10851
184	0xbf3737ca	-0.715695
185	0x4007df8f	2.12302
186	0xc038cb29	-2.8874
187	0x3db8d0b1	0.0902418
188	0xc038be62	-2.88662
189	0xbfdff62b	-1.7497
190	0xc029c600	-2.65271
191	0xc01739eb	-2.36291
192	0x3f3df666	0.742041
193	0x3effb118	0.499398
194	0xbfa098b3	-1.25466
195	0x3b918437	0.00444081
196	0xc04c3cc9	-3.19121
197	0xbe8a005c	-0.269534
198	0xbd64746e	-0.0557751
199	0xbf6e7c4a	-0.931584
200	0xbf75bc23	-0.959902
201	0xc02b4a4d	-2.67641
202	0xc0b7ec03	-5.74756
203	0xbfc3c654	-1.52949
204	0xbec29f7b	-0.380123
205	0xbf91bb5a	-1.13853
206	0xbef802c1	-0.484396
207	0xbc942551	-0.0180842
208	0x3f9138ef	1.13455
209	0xc022f0ae	-2.54594
210	0xbfa56b12	-1.29233
211	0xbf6fd588	-0.936852
212	0xc02713be	-2.61058
213	0xbbffec1e	-0.00781013
214	0x3e369d73	0.178335
215	0x3d1336a9	0.0359408
216	0xbf01971c	-0.506212
217	0x3e344178	0.176031
218	0x3fa28e61	1.26997
219	0xbc228729	-0.00991992
220	0xbe8ef2c7	-0.279196
221	0xbd93ec46	-0.072228
222	0x3ebd48ed	0.369697
223	0xbe16aca8	-0.147143
224	0xc0b7b978	-5.74139
225	0xbeadcc64	-0.33945
226	0x3f991c6d	1.19618
227	0x3cb3987e	0.0219233
228	0xbf54a127	-0.830584
229	0x3bb4a0c7	0.00551233
230	0xbd31aecf	-0.0433796
231	0x3d745c28	0.0596582
232	0xbe61f42c	-0.220658
233	0xbfca67b6	-1.58129
234	0xc049de40	-3.15419
235	0xbe620fb2	-0.220763
236	0xbe3c0981	-0.18363
237	0x3da6e405	0.0814896
238	0xbffe0d45	-1.98478
239	0x3f3becab	0.73408
240	0xbfcf0ae5	-1.61752
241	0x3f4bf056	0.796636
242	0xbf351687	-0.707375
243	0x3f4a9df9	0.791473
244	0x3f16aa7e	0.588539
245	0x3f619d77	0.881309
246	0xc06eaa3b	-3.72914
247	0x3f839043	1.02784
248	0xbb9503de	-0.00454758
249	0xbf2f2c41	-0.684269
250	0xbdb55483	-0.0885401
251	0x3eb4f441	0.353426
252	0xc038dbb6	-2.88841
253	0x3e787fcc	0.242675
254	0xbe8d0332	-0.275415
255	0x3da08510	0.0783788

Operation_6_Add_B f4 [50]
0	0x3e5bacf7	0.214527
1	0xc0fba0a5	-7.86336
2	0x3d59ed7c	0.053205
3	0xbde0db27	-0.109793
4	0x3f8f0b39	1.11753
5	0xc08348fe	-4.10266
6	0xc0ffcb7d	-7.99359
7	0x3d174074	0.0369267
8	0xc0db639d	-6.85591
9	0xc0b9429a	-5.78938
10	0x3fe6f34d	1.8043
11	0x3f12e947	0.573872
12	0x40ca66ba	6.32504
13	0xc0e6594b	-7.1984
14	0xbf885879	-1.0652
15	0xc07165d4	-3.77184
16	0xc00d40a3	-2.20707
17	0x3ef2af9b	0.473996
18	0xbf67fe8f	-0.906228
19	0xc0c97050	-6.29496
20	0x3f4691c9	0.775662
21	0xc0492229	-3.14271
22	0xc0f20d06	-7.56409
23	0x3f2d06ee	0.675887
24	0x407589b5	3.83653
25	0xc10a0404	-8.62598
26	0xc0e033c6	-7.00632
27	0x3e20403a	0.156495
28	0xc0dd48e9	-6.91515
29	0x3df2ead9	0.118612
30	0x3f9c0d1b	1.21915
31	0xbe3f0846	-0.186555
32	0x3f8f3722	1.11887
33	0xc0de8ab1	-6.95443
34	0x40238ab1	2.55534
35	0xc0ded3c3	-6.96335
36	0xc0e1628d	-7.04328
37	0xbf6c4674	-0.92295
38	0xbdbf383f	-0.093369
39	0xc0d0b44e	-6.52201
40	0xbfab074a	-1.33616
41	0xbf76511a	-0.962175
42	0xc103feef	-8.24974
43	0xc053598a	-3.30234
44	0xc0d4f49d	-6.65486
45	0xc0cac9da	-6.33714
46	0x40ca7c07	6.32764
47	0xc115de89	-9.36683
48	0x3fa634ec	1.29849
49	0xbf137d85	-0.576134
