networks/onnx/ACASXU_run2a_3_5_batch_2000.onnx (onnx, 55914 bytes, 15 tensors)

input_AvgImg f4 [1, 1, 5]
000000 00 00 00 00 00 00 00 00 00 00 00 00 00 00 00 00
       0.0 0.0 0.0 0.0
000010 00 00 00 00
       0.0

Operation_1_MatMul_W f4 [5, 50]
000000 46 71 d8 3c a3 79 40 be fc 37 ef bd a9 5d dd 3b
       0.0264212 -0.187964 -0.116806 0.00675555
000010 c8 cc aa 3c 8b 28 37 bc ed 18 8d bc 44 38 a1 3d
       0.0208496 -0.0111791 -0.0172238 0.0787206
000020 7c 0e 54 3f 06 6f 02 bb 69 46 b0 bd 4e 9d c7 3d
       0.828346 -0.00199026 -0.0860718 0.097468
000030 c9 e9 5b 3e c8 d1 cc be 82 f1 42 3c e8 88 37 bd
       0.214759 -0.400038 0.0118984 -0.0448083
000040 cc 0b a8 bf f1 62 81 be 08 a9 20 3d 96 1b 56 3c
       -1.31286 -0.252708 0.0392237 0.0130681
000050 dd 5e 26 c0 62 0f cd 3d 0c 78 01 bf 0f 85 47 bb
       -2.59954 0.100127 -0.505738 -0.00304443
000060 f9 69 30 3f 9b de ea 3c a7 ea 5e 3d 7f 3f 46 3c
       0.689117 0.0286706 0.054423 0.0121001
000070 fd 9a 31 bd 6c 05 59 3f 55 a0 8b 3d 4e 52 cb ba
       -0.0433607 0.847739 0.0681769 -0.00155122
000080 e8 1c 00 b9 80 ae 87 3c 9f e3 e3 bc 22 88 1b bf
       -0.000122178 0.0165627 -0.0278185 -0.607546
000090 d2 6f d7 be 06 ef 50 3d 72 dc 8e 3d eb 73 59 bf
       -0.420775 0.0510092 0.0697564 -0.849425
0000a0 6b d2 4d bf 37 19 cc b9 79 b1 30 bd 48 08 c5 3c
       -0.803992 -0.000389287 -0.043138 0.0240518
0000b0 d9 de b8 bc 6e 6e 90 bf 30 7c a7 3b 76 37 4f bd
       -0.0225672 -1.12837 0.00511124 -0.05059
0000c0 10 8e dd 3b ee 07 dc 3d 52 ee 7e 3e 63 b4 b6 3e
       0.00676132 0.107437 0.248956 0.356845
0000d0 9a 7d de 3d 46 79 26 be 5b 28 5d 3f ee 5f 69 bf
       0.108638 -0.162572 0.863897 -0.91162
0000e0 89 d0 14 3f 5d 16 e7 bf 1b 9d 53 3e cc 0d 46 3e
       0.581307 -1.80537 0.206654 0.193412
0000f0 85 43 c7 be 97 a8 06 c0 7d b5 1e bd 64 b5 f5 3b
       -0.389187 -2.10404 -0.0387473 0.00749843
000100 2e 56 c4 bd 35 61 0b 3e 05 db b8 3e bc 7f a2 3c
       -0.0958675 0.136113 0.361046 0.0198363
000110 f5 76 95 3d 72 f9 1d 40 bd 95 80 3c af 08 a6 3f
       0.0729808 2.46835 0.0156964 1.29714
000120 44 a3 3b bd e7 24 ad 3b 07 d0 43 bf 4a d9 7d 3c
       -0.04581 0.00528394 -0.764893 0.0154937
000130 41 d4 99 3f 3e 94 a6 bb f5 b5 73 3d fb 21 f6 bc
       1.20179 -0.00508359 0.0594997 -0.0300455
000140 43 02 12 3f f7 3b 84 3e 32 68 83 39 07 b6 1a c0
       0.570347 0.25827 0.000250639 -2.41736
000150 ee 3f 32 3e e4 1e a1 bd 27 33 0e 3e c0 b1 27 bd
       0.174072 -0.0786722 0.138867 -0.040941
000160 09 4f 50 bf ea 3c af bd f2 b6 12 bd c7 e0 c1 b9
       -0.813706 -0.0855654 -0.035819 -0.000369793
000170 88 82 29 3f c7 4c 6a bf d2 fc 71 3e 37 6e 31 3e
       0.662148 -0.915234 0.236316 0.173272
000180 90 d7 0f 3f 9d f3 9b be 03 85 50 3d 5b 99 84 3f
       0.561883 -0.304593 0.0509081 1.03593
000190 0a bd 5e be f8 c4 2a be ff 04 63 3f d6 90 18 be
       -0.217518 -0.166767 0.886795 -0.14899
0001a0 0e dc 65 bf b9 c7 82 bf 36 93 0e 3c b3 07 22 40
       -0.897889 -1.02172 0.00870209 2.53172
0001b0 d9 43 da bb a4 8b 4d be 20 60 3d 3e 64 62 8e 3c
       -0.00666092 -0.200728 0.184937 0.0173809
0001c0 b3 d1 f9 bd 26 c3 01 3e ac 00 27 bf e5 86 ba 3c
       -0.121982 0.126721 -0.652354 0.0227694
0001d0 d5 79 c4 be c2 f9 54 3c ce 4f 21 3e 74 f7 0f 3d
       -0.383742 0.012999 0.157531 0.0351481
0001e0 50 56 e7 3c 9b 1b 87 3f d8 9f 84 3d b2 9d 19 c0
       0.0282394 1.05553 0.064758 -2.40025
0001f0 a2 f6 95 ba 6b 2c 15 3f 89 41 90 bf 00 4c 5f 3a
       -0.00114413 0.582709 -1.127 0.00085181
000200 01 30 02 3f ca 60 7c ba 7b d8 93 3e 73 4a 70 be
       0.508545 -0.000962746 0.288761 -0.234659
000210 f8 00 38 bc 81 a3 2e 3c 97 c7 6a be 95 ca a5 3c
       -0.0112307 0.0106591 -0.229277 0.0202382
000220 10 61 37 bd 28 2c f5 3f 8e 1f 4e 3f 0b 46 60 3d
       -0.0447703 1.91541 0.805169 0.0547543
000230 2b ea c0 3b 48 9b b2 ba 2b f7 8a 3e a7 74 20 be
       0.00588729 -0.00136266 0.271417 -0.156695
000240 28 43 85 be d0 89 b1 3a e1 07 ff be ab af 0e 3e
       -0.260278 0.00135451 -0.498107 0.139342
000250 af c2 37 bd d9 5a 7b bf 50 c3 b7 be 3c 88 d5 bf
       -0.0448634 -0.981855 -0.358912 -1.66822
000260 1e b9 8f bd 65 e4 ec bd b8 08 a7 3d 57 b5 0c 3f
       -0.0701773 -0.11567 0.0815596 0.549642
000270 72 e1 e0 bd 74 b5 15 3e 26 fb 8c 3c 8d f0 1e 3f
       -0.109805 0.1462 0.0172096 0.620858
000280 c0 4a 74 bc d1 92 27 3e 9b e8 1f 3f 49 9c 65 be
       -0.0149104 0.163646 0.624643 -0.224229
000290 45 47 06 bf dc 12 49 be 82 e1 dc 3b 86 03 51 3e
       -0.524525 -0.196361 0.00674075 0.204115
0002a0 c9 3e 0c bf ca 1b e0 bd ef 8b b0 3c 3b fc 89 3f
       -0.547833 -0.109428 0.0215511 1.07801
0002b0 a5 43 b1 3c 4c 4f bd 3c 33 dc 00 bd 49 be 66 3f
       0.0216387 0.0231091 -0.03146 0.901341
0002c0 da 3b 43 3e f5 15 83 3b 3e ea bf be 6f 13 c9 3c
       0.190658 0.00400042 -0.374834 0.0245454
0002d0 9c 29 3e 3b ac 1d 95 3e 4a e2 04 3a e3 59 ad 3d
       0.00290165 0.291242 0.000506912 0.0846441
0002e0 52 9c 63 3f c0 b0 4c be f8 e2 07 bc 2f be 80 3e
       0.889104 -0.199893 -0.00829386 0.251451
0002f0 31 3f 37 bf f9 84 0c be 47 1f 13 3e b2 57 ce 3c
       -0.715808 -0.137226 0.143674 0.0251883
000300 53 95 86 be 66 4e c7 3e d6 c5 99 bf 99 2a 58 3d
       -0.262858 0.38927 -1.20135 0.052775
000310 e5 b0 a0 bd 28 b8 9c bf da 74 ac 3e 76 2c c0 bc
       -0.0784624 -1.22437 0.336829 -0.0234587
000320 99 2a 04 bf 30 12 c2 3e cc 2a 0c 3d ad ef 4b bb
       -0.516275 0.379045 0.0342205 -0.00311182
000330 e5 50 b5 3d c1 37 cd 3c 06 9e a7 bf 0a 43 29 bd
       0.0885332 0.025051 -1.30951 -0.0413237
000340 66 61 34 3d b6 2e dd 3e e8 82 ba bf f8 54 ce be
       0.0440382 0.431997 -1.45712 -0.402992
000350 ad 18 26 bf f6 ae a6 bc 08 93 ba 3e bc d0 37 3c
       -0.648814 -0.0203471 0.364403 0.0112192
000360 2c 9e 6a be f5 67 bf 3e e3 70 ce bf 3c c0 bb 3e
       -0.229119 0.37384 -1.61282 0.366701
000370 91 e5 6e bc b9 c1 c8 be 5e bb f4 3d e7 96 ad bb
       -0.0145811 -0.392103 0.119498 -0.00529753
000380 e3 38 70 bd 50 1c 70 bf 58 1f 0f be ea 3c 0d ba
       -0.058648 -0.937932 -0.139768 -0.00053878
000390 6f 0f ba 3e 7d 4c ca bd 84 22 e7 bc 95 2b c4 bf
       0.363399 -0.0987787 -0.0282147 -1.53258
0003a0 48 e9 a9 ba 18 5b 30 3f f7 06 a3 bf 46 26 60 3e
       -0.00129632 0.68889 -1.27365 0.218896
0003b0 ab 08 17 3e f0 45 b5 bd b9 51 38 3f 26 d0 36 bd
       0.147494 -0.0885123 0.719997 -0.0446321
0003c0 7a 1b 0b be f4 a4 10 3c 9c dd d2 3e 62 2d fe be
       -0.135847 0.00882839 0.411847 -0.49644
0003d0 93 3a c9 be 39 27 d6 bd c5 59 11 3e a6 7d 03 bf
       -0.393025 -0.104567 0.141944 -0.513636
0003e0 05 6e fd bd fa 29 ce 3d
       -0.123745 0.100666

Operation_1_Add_B f4 [50]
000000 7c cb 81 bc 25 90 e2 be 11 72 8e 3d cf b1 4d 3c
       -0.0158441 -0.442506 0.0695535 0.0125546
000010 ae f5 a5 be a9 c2 3f be 72 14 90 be 3e 92 06 bf
       -0.32414 -0.187266 -0.281406 -0.525669
000020 0f 63 62 be 22 4f 52 3e ff 5e aa be 68 40 3d be
       -0.221081 0.20538 -0.332756 -0.184816
000030 3e b2 09 3e 34 16 87 ba eb c6 4b 3e 6b 11 f1 3d
       0.134469 -0.00103063 0.199001 0.117709
000040 51 d9 90 be 1b 0d 00 3e 62 86 3a bf 6e 52 89 3e
       -0.282908 0.12505 -0.728613 0.268207
000050 8d b6 e2 be 89 45 c7 3d b3 0f 8d bd 94 63 b7 3d
       -0.442799 0.0973006 -0.0688776 0.0895454
000060 ce 71 8e be fe 98 96 3d c6 6d ac be 17 01 5f bc
       -0.278212 0.073534 -0.336775 -0.0136111
000070 10 ad 1a 3d 99 d3 95 3e bc 21 ed 3d 27 bd bf 3e
       0.0377627 0.29263 0.115787 0.37449
000080 01 c9 2a bc 0f 64 bd 3e ed 10 2f 3f e3 4f f4 bd
       -0.0104239 0.369904 0.683852 -0.119293
000090 fc d9 39 bd 40 08 c2 3d 90 15 5c 3e 19 04 06 be
       -0.0453739 0.0947423 0.214926 -0.130875
0000a0 90 15 1c be 48 13 94 bc 6b 6c ba 3d 63 9f 1b 3d
       -0.152426 -0.0180756 0.0910271 0.0379938
0000b0 5c c7 90 be e6 cc 36 bd 6d e6 90 3e 42 5f fa be
       -0.282771 -0.044629 0.283008 -0.489008
0000c0 bc 04 07 3e cb f4 ae 3a
       0.131854 0.00133481

Operation_2_MatMul_W f4 [50, 50]
000000 29 eb 3b 3f 4d 10 c1 3f ac ff 23 3e 48 c4 94 3c
       0.734057 1.50831 0.160155 0.01816
000010 a9 f9 d2 be 20 24 73 3f 6d 36 56 3f 94 be 40 be
       -0.412061 0.94977 0.836768 -0.188227
000020 a3 cb 4b be 13 99 25 3f b4 93 91 3f ad df 10 3f
       -0.199019 0.646867 1.13732 0.565913
000030 ed 61 af bc ba 32 68 be 22 8b e4 3e 66 f5 2a bf
       -0.021409 -0.226756 0.446374 -0.667807
000040 97 90 cf 3d 7a e4 6a 3c b1 c5 89 bc 7a de d5 be
       0.10135 0.0143367 -0.0168179 -0.417713
000050 1a 18 49 3e cc 65 5d bb aa 63 85 be ae 0a f9 bc
       0.196381 -0.00337826 -0.260526 -0.0304006
000060 1c 99 8b 3f 7b 33 62 3f d4 7c 8d 3e 6d c5 a2 3f
       1.09061 0.883598 0.276343 1.27165
000070 27 68 63 bf c4 1a 78 3c b2 64 e6 3e a7 5a 5f bf
       -0.888308 0.0151431 0.449987 -0.872477
000080 53 7b 11 be ab 1c 8f bd 67 0c cb 3e b2 0d 01 3d
       -0.142072 -0.0698789 0.396579 0.0315072
000090 75 64 1b bd f5 2b 71 3f 13 2c 86 3e b3 44 37 3f
       -0.0379376 0.942077 0.262055 0.715892
0000a0 94 fa 26 3f 56 9e 20 bd fa d5 f4 be 8b fd ed 3e
       0.652261 -0.0392135 -0.478195 0.464825
0000b0 4d bf 64 3f 51 1f 37 bc 4e 0c 4d 3f 24 0e 0d 3f
       0.893544 -0.0111769 0.800969 0.550997
0000c0 7b c7 9f 3c af 5e 51 3f fb 07 89 3e 16 a1 78 3f
       0.0195043 0.817851 0.267639 0.971208
0000d0 3a 3c 74 be b3 ab 35 bc 86 c6 5b 3f 63 b8 2e 3f
       -0.238511 -0.0110883 0.858498 0.682501
0000e0 e9 0f 35 3f e5 df ad bd 20 61 04 3f 22 35 15 bf
       0.707274 -0.0848997 0.517107 -0.582842
0000f0 40 31 2e 3f bc 90 0e 3f 9a 4f 8c bc f2 d2 dd 3e
       0.680439 0.556896 -0.0171278 0.43325
000100 c1 fe bb be 7e 74 ae 3f af 5f f0 bd e7 0c fb bc
       -0.367178 1.36293 -0.11737 -0.0306458
000110 04 2c 83 3c 81 c4 40 3c f3 ad df be d0 b8 84 bf
       0.0160122 0.0117656 -0.436874 -1.03689
000120 ec 12 dd be f9 09 8c bc 4c 52 79 3e b4 b0 03 3f
       -0.431785 -0.0170946 0.243478 0.514415
000130 e5 d4 02 bf 11 e0 34 3f 0d de 57 bf 0b cf 3b be
       -0.511061 0.706544 -0.843232 -0.183407
000140 ff 83 ae 3d 01 f9 e2 be c1 c5 da 3e e5 7e 77 3e
       0.0852127 -0.443306 0.42729 0.241695
000150 0d 18 74 be 06 6f 7e bc 0b 4b 17 bd 69 fc 36 3f
       -0.238373 -0.0155294 -0.0369368 0.714789
000160 ab ce ea 3d ba d8 54 3d 03 ea 45 bf 4e 3e 02 3d
       0.114652 0.0519645 -0.773102 0.0317977
000170 7d af c9 3e d7 88 6c 3f eb 54 1d bf cd 65 59 3c
       0.393917 0.923963 -0.614577 0.0132689
000180 a2 0d 28 bf 34 f4 bf bf 44 45 05 3c e2 e5 11 3f
       -0.656458 -1.49964 0.00813419 0.569914
000190 44 31 81 3e 6a 89 ed 3e 5e d8 3a 3f 95 ce 2c 3c
       0.252329 0.463939 0.729864 0.0105473
0001a0 41 f1 8b be cb 66 ce be 62 f7 e5 be ec 69 07 bf
       -0.273325 -0.403128 -0.449153 -0.52896
0001b0 c9 c9 5c 3f a7 79 c7 be 98 2f 87 3f d8 2d a2 3e
       0.862454 -0.3896 1.05614 0.316756
0001c0 dc 6c c7 bc c0 96 4b bf b6 c4 a5 3d 81 7a 23 3f
       -0.0243439 -0.795269 0.0809416 0.638588
0001d0 52 0d db be 58 4c 56 bd 17 5c d8 3c 12 a4 72 3e
       -0.427836 -0.0523189 0.0264111 0.236954
0001e0 fa b7 83 be c6 4e 10 bf b0 e3 1b bf 46 d3 99 3c
       -0.257263 -0.563702 -0.608943 0.0187775
0001f0 dd b5 98 3f 8b df dc be f5 93 bb 3d 67 f2 a5 bf
       1.19305 -0.431393 0.0915908 -1.29646
000200 1e fe aa 3f 1f f6 82 3e cc 40 8d bf f3 80 89 3b
       1.33588 0.255784 -1.10354 0.00419628
000210 7a c4 28 be ac c7 ad 3e 05 db f8 3e de 71 ab ba
       -0.164812 0.339414 0.486046 -0.00130802
000220 4a d0 5f 3c 29 b2 36 be 04 58 4c bf ca f9 e2 3d
       0.0136605 -0.178414 -0.798218 0.110828
000230 b5 19 07 3e 78 4c 83 bd 42 d0 01 3e 5c 03 9b bf
       0.131934 -0.0641107 0.126771 -1.21104
000240 d2 fc 31 3e 3d 53 1e 3d 02 9c 12 3f d9 5f de bf
       0.173816 0.0386536 0.572693 -1.7373
000250 32 99 25 bd ae 11 f1 3e 58 6f a4 3e df 33 8a 3e
       -0.0404293 0.470838 0.321162 0.269927
000260 01 f6 41 be 2e 7b 08 3d 0e 15 9f bf 5c 91 e0 3e
       -0.189415 0.0333206 -1.24283 0.438609
000270 f4 87 b6 be 79 3c 0d 3d 69 39 70 3f af 5f 80 3f
       -0.356506 0.0344815 0.938376 1.00292
000280 82 75 1c be da 3c 62 3f 8a 82 4f bd 32 aa e4 be
       -0.152792 0.883741 -0.0506616 -0.446611
000290 95 2a 51 bf 36 95 f5 3e f6 d2 24 3f 02 e7 14 bc
       -0.817056 0.479654 0.643844 -0.00908828
0002a0 9a 1e fb bb 63 87 27 bd 9e 42 d6 3e e3 52 9d 3e
       -0.00766356 -0.0409006 0.418477 0.307273
0002b0 3b 52 c5 be c8 e4 9e 3c d2 82 1f 3c 72 14 44 3f
       -0.385393 0.0193962 0.00973578 0.765937
0002c0 42 da 95 bd ef c6 92 be 67 61 9f 3f 49 a0 89 be
       -0.0731702 -0.286674 1.24516 -0.268801
0002d0 f5 0e 0b bf 89 b7 b6 3e a0 8a db 3d b9 18 03 be
       -0.543197 0.356869 0.107198 -0.128024
0002e0 c1 ca 41 3e b3 af e1 bc db a6 18 bd 92 79 ec 3f
       0.18925 -0.0275496 -0.0372685 1.84746
0002f0 7b 69 b2 be 6d 36 f6 3e ab 3d 3c be 30 62 df bc
       -0.348461 0.480884 -0.183829 -0.0272685
000300 e6 07 0e bf 4d 15 40 3f 08 05 cd 3e 7f 13 8a bc
       -0.554808 0.750325 0.400429 -0.016855
000310 2b 6e 6c be be 86 7c bf 30 b7 00 3d 74 23 9c 3e
       -0.230889 -0.986431 0.0314247 0.304958
000320 aa 7f 50 3e 0d e0 95 bf 8b a4 e5 3e c0 49 09 bd
       0.203612 -1.1709 0.448521 -0.0335176
000330 5f 48 01 3c 0b 0c 11 c0 3b ff 26 bf 7f da 88 3e
       0.00789079 -2.26636 -0.652332 0.267292
000340 15 91 99 3f 84 2a 8d bf 5f 7b 8a 3f 9c 16 9c bf
       1.19974 -1.10286 1.08189 -1.21944
000350 1d 93 40 bd c8 24 ff 3f 42 09 8b bf df e1 36 bd
       -0.0470153 1.99331 -1.08622 -0.044649
000360 04 56 02 40 76 ae 03 3d da b7 89 bc e3 a5 6b 40
       2.0365 0.0321488 -0.0168113 3.682
000370 b9 a6 44 3f 61 32 01 c0 8e 22 1f bf 7f 23 b0 bc
       0.768169 -2.0187 -0.621621 -0.0215013
000380 99 d9 17 be 4c 34 44 3f d0 b3 b5 bf b8 ac fa 3e
       -0.148291 0.766423 -1.41955 0.489599
000390 85 7c 91 c0 c9 e5 db 3f e7 fb c9 3f 7d 05 95 bf
       -4.54645 1.71795 1.578 -1.16423
0003a0 f3 39 43 bf 94 da 43 3f 9a d1 17 bf ba 3f a8 3c
       -0.762603 0.765054 -0.593042 0.0205382
0003b0 d9 cc 46 3c 01 f6 b9 c0 8a b0 89 40 53 97 b4 3e
       0.0121338 -5.81128 4.3028 0.352717
0003c0 92 96 82 3f af 82 8e bc 35 b5 e0 bf c1 ac f8 3e
       1.02022 -0.0173963 -1.75553 0.485693
0003d0 46 0a e5 be d6 0e b5 3c 14 ed aa bf 24 42 07 bf
       -0.447344 0.0221018 -1.33536 -0.528353
0003e0 7b 02 17 bd b7 ed fb 3e 59 19 e8 3c 38 fb de bc
       -0.0368676 0.492048 0.0283324 -0.0272194
0003f0 43 c8 81 3e 68 15 87 3c e7 6f e2 bf e5 b3 ac 3f
       0.253481 0.0164897 -1.76904 1.34924

Operation_2_Add_B f4 [50]
000000 94 f5 f3 be e1 97 96 3f c9 39 45 bf c5 2e 9b bc
       -0.476483 1.17651 -0.770413 -0.0189432
000010 6e be 41 bf cd 1d 55 3f 4e 60 5a bf b4 e3 4b 3d
       -0.756812 0.832486 -0.853032 0.0497777
000020 88 d5 ef be 4f eb 5e bf 77 10 9b bf 1f 2b 48 bf
       -0.468426 -0.870778 -1.21144 -0.781908
000030 c0 17 ae bb b5 33 cc be 07 7d b9 be ee 96 84 be
       -0.00531289 -0.398832 -0.362282 -0.258964
000040 ee 94 12 3f 25 1d 8a bb e3 c0 90 bc 4a 99 74 3e
       0.572585 -0.0042149 -0.0176701 0.238866
000050 82 ab 1c be e0 49 ab 3e af cc 80 3c ea 04 13 bc
       -0.152998 0.334548 0.0157226 -0.00897334
000060 db 16 99 bf 97 c5 10 3f 26 df c4 3e fb ae a4 bf
       -1.19601 0.565515 0.384515 -1.28659
000070 f5 2d 8f bf 75 55 10 3f cd cc 18 bf fc 64 96 3d
       -1.11859 0.563804 -0.596875 0.0734348
000080 f2 0a 20 bf a1 d6 34 be 55 17 20 be 48 85 56 bc
       -0.625167 -0.1766 -0.156339 -0.0130933
000090 4b 2b b4 bc 42 d2 6b 3f 29 b0 d8 be c5 74 19 bf
       -0.0219933 0.921177 -0.423219 -0.599438
0000a0 97 39 15 bf 90 66 51 bc 75 9b 86 bd bd fd 7d bf
       -0.58291 -0.0127808 -0.0657262 -0.992153
0000b0 66 49 14 bf 37 c9 0d bc 6e 32 4a 3e 31 99 aa be
       -0.579245 -0.00865393 0.197458 -0.3332
0000c0 ff f4 55 bc 88 85 b6 bf
       -0.0130589 -1.42595

Operation_3_MatMul_W f4 [50, 50]
000000 11 dd 58 bd 87 36 e0 bd 82 90 a0 bf 32 b5 80 bc
       -0.0529452 -0.109479 -1.25441 -0.0157114
000010 64 3b 11 40 1d 94 2c bf 12 a0 36 3f 83 16 aa 3e
       2.26925 -0.674135 0.71338 0.332203
000020 01 87 a8 be cb 67 29 3e b1 74 a9 3d 2b 6b 6b 3f
       -0.329155 0.165435 0.0827421 0.919604
000030 c0 19 66 3d 0e 66 7f 3f 4c 5c 5d bd f2 ee 18 3f
       0.0561769 0.997651 -0.0540431 0.597396
000040 47 54 88 be 2d 42 a9 3e 08 ac a4 3f 56 8e 5a 3b
       -0.266268 0.330583 1.2865 0.0033349
000050 f6 76 70 bd b7 9a cd 3e b8 b1 35 3f 4e 0a 7f 3f
       -0.0587072 0.401571 0.709743 0.996251
000060 c4 22 b6 3e 8c d6 91 3f 1c 99 f7 3e 93 00 5d c0
       0.355734 1.13936 0.48359 -3.45316
000070 15 55 4b 3f c1 70 ae be 91 7f 8e be 0e ca ea 3c
       0.794267 -0.340704 -0.278317 0.0286608
000080 a6 45 09 3f 8b 38 49 3f 23 6b a8 bc f0 8b 27 3f
       0.536219 0.786019 -0.0205589 0.654479
000090 be 17 6b bf 90 bd 0a 3f 8c c9 c1 bd 44 e3 22 3b
       -0.918331 0.541955 -0.0946227 0.00248547
0000a0 31 d3 b6 bf eb 53 2e bd 44 dd 8b 3f b6 e0 20 bd
       -1.42832 -0.0425605 1.09269 -0.0392768
0000b0 c2 4d 0a 3f b8 3b 41 c0 c2 18 29 3f 6d 53 5c be
       0.540249 -3.01927 0.660534 -0.215162
0000c0 02 81 f6 be a3 40 a7 3f 89 9b f3 3d 3b 48 79 bd
       -0.481453 1.30666 0.118949 -0.0608599
0000d0 60 c8 16 bf 6f 32 45 bd a9 a4 76 bf 63 62 a7 bf
       -0.588995 -0.0481438 -0.96345 -1.30769
0000e0 d6 ff 59 be 41 82 4e bf fa 9a 25 bd d3 a8 db bc
       -0.21289 -0.806675 -0.040431 -0.0268139
0000f0 4e 6b 89 3d 71 74 45 be f1 0e 30 3e 76 c3 26 be
       0.0670992 -0.192827 0.171932 -0.162855
000100 c3 34 22 bd 25 91 fd bd d0 64 97 3e b9 8e c1 be
       -0.0396011 -0.123812 0.295691 -0.378042
000110 47 ac 35 be 3b 3a 89 bc 98 86 01 3e 06 b9 cb be
       -0.177415 -0.0167514 0.12649 -0.397896
000120 01 eb 07 3d f4 87 ce be c6 6d 44 bf 7c 80 a6 be
       0.0331831 -0.403381 -0.7673 -0.325199
000130 ce fc 9a be 8c 48 cc be 56 83 80 3e 7e c5 7a 3e
       -0.30271 -0.398991 0.251002 0.244894
000140 b5 8d 2f 3e 1c d8 95 bd d2 91 b7 3d 2a c8 ff be
       0.171439 -0.0731661 0.0896336 -0.499574
000150 cd e8 77 bf 84 06 4c 3d c1 1a 43 3f 9a 26 94 be
       -0.968396 0.0498109 0.762127 -0.289357
000160 6a dd 06 be af ed 3d be 5c e8 6a 3f 79 07 18 bd
       -0.131704 -0.185477 0.917608 -0.0371165
000170 30 64 85 be cd c9 2b be fa 7c 24 be fd 68 14 bf
       -0.26053 -0.167762 -0.160633 -0.579727
000180 2b 6e 17 bd 08 3b 65 be 7d e9 4d be 46 94 f6 3c
       -0.0369703 -0.223858 -0.201086 0.0301
000190 c1 ec a4 3d a6 d0 e8 c0 ee af 7e be e7 f5 cc bc
       0.0805297 -7.27547 -0.248718 -0.0250196
0001a0 7b 4f c5 be 03 cf 91 3f 58 79 dd bc db dc 94 bf
       -0.385372 1.13913 -0.0270354 -1.16299
0001b0 fa 0a 0a c0 fe b7 f2 3d 8f c2 8d bf 8a e5 ea 3f
       -2.15692 0.118515 -1.1075 1.83513
0001c0 43 70 b4 3e 4d 67 d7 bf 9c 65 1b bd 0c b0 5f bf
       0.352419 -1.68284 -0.0379387 -0.87378
0001d0 da 8f d4 bd 68 96 38 3f fd bb 1a 3f 50 0f 59 3b
       -0.10379 0.721045 0.604431 0.00331207
0001e0 2c 9f dd be 28 0e 64 3f a2 45 fe 3f 3f 6f 3a 3e
       -0.432855 0.890841 1.9865 0.182065
0001f0 8d b3 e9 3d 4e 9c 26 c0 a1 d8 66 bf 0c 76 03 c0
       0.114112 -2.60329 -0.901743 -2.05408
000200 2c 7d ac 3f 99 7e 69 be c5 76 af 3e 30 0f 35 3f
       1.34757 -0.228022 0.342703 0.707263
000210 7b 66 81 bf 2c 2b 01 40 37 8e 94 3f 28 61 b2 bf
       -1.01094 2.01826 1.16059 -1.39359
000220 e6 ae 2a c1 5d 8a 3f 3f f0 fc 76 3f b7 ca 38 bc
       -10.6677 0.748205 0.964797 -0.0112788
000230 fe d7 3d 3f 5e 25 84 3c 14 ed 85 bd e2 3d 2f bf
       0.741577 0.0161311 -0.0653936 -0.684538
000240 9c 14 e6 be cd 84 55 3d d3 a3 6d 3f 43 ff 90 c0
       -0.449376 0.0521286 0.928281 -4.53116
000250 ad 6f 3b bc e4 14 41 c0 bd e2 a9 bb 1e ad 05 3d
       -0.0114402 -3.0169 -0.0051845 0.0326358
000260 14 20 0a bd f3 00 96 3c 0f 4d 8f bc e0 ae e8 3c
       -0.033722 0.018311 -0.0174928 0.0284037
000270 24 a4 24 3d 65 b4 e1 ba 3c dd 19 bd ed 10 bd 3a
       0.0401956 -0.00172199 -0.0375645 0.00144246
000280 75 fa 66 bc 4f ef 3d bc 88 a4 31 bd 26 04 c4 bb
       -0.0140978 -0.0115927 -0.0433698 -0.00598194
000290 9e 0f 0a 3d a8 7b d3 3c c2 76 a6 3c e5 2d f2 bc
       0.0337063 0.0258158 0.0203203 -0.0295629
0002a0 87 bb 1f 3d 1d 6c 3b 3d 08 94 28 3d 46 c7 bc 3b
       0.0389972 0.0457574 0.0411568 0.00576106
0002b0 d4 50 1b bc b9 e8 e0 ba e7 2f 39 3d 8a 92 90 3c
       -0.00947972 -0.00171592 0.0452117 0.017648
0002c0 dd d0 34 3d 2b 58 39 3d af e3 64 bc 20 6c a7 bc
       0.0441445 0.0452501 -0.0139703 -0.0204373
0002d0 eb 7f 6f 3c 5e 94 ea 3c 0f 76 33 3b dd 2e 0a 3d
       0.0146179 0.0286352 0.00273836 0.0337361
0002e0 dd b3 2e 3c f7 a3 72 3a 70 d9 37 3d dd 0a 61 3c
       0.010663 0.0009256 0.0448851 0.0137355
0002f0 3d ff 2c 3c 85 9c 92 bc 0f 56 ce ba 60 fe 2f bc
       0.0105589 -0.0178969 -0.00157422 -0.0107418
000300 2d 05 24 3d e1 70 ee bb 4d f9 ab 3c cd ae 7b 3c
       0.040044 -0.00727664 0.0209929 0.0153615
000310 29 51 02 3c 44 e9 c1 3c 95 6e 41 bd 7a 16 25 b9
       0.00795392 0.0236708 -0.0472246 -0.00015744
000320 e6 cc be be d7 2f 08 be 83 16 22 be 72 22 f0 3c
       -0.372657 -0.132995 -0.158289 0.0293133
000330 b6 49 65 bf 55 32 b8 3e fd a1 d9 3d 5e 65 ed bd
       -0.895656 0.359759 0.106266 -0.115916
000340 99 11 f6 3e 9f ca 59 3e dc 80 07 3f 38 a3 ae 3e
       0.480603 0.212687 0.52931 0.341089
000350 9e 25 00 3f 5e 63 67 be df a9 c0 bc 5a 63 40 3e
       0.500574 -0.225965 -0.0235185 0.187879
000360 0f 48 16 bf ae 0c 1a be 05 8b a3 bf 35 40 e9 3c
       -0.587037 -0.150439 -1.27768 0.028473
000370 67 9b b3 be bc 6b ca bd 49 2d 44 3e c8 78 74 be
       -0.350795 -0.0988383 0.191579 -0.238742
000380 62 86 7a bf fd 6c 5f 3d ea af b7 3e 82 8d eb bd
       -0.978613 0.0545473 0.358764 -0.115016
000390 ee d0 a0 be 0f b4 a2 3e 6d ee 5e 3d c3 48 5f 3e
       -0.314094 0.31778 0.0544266 0.218051
0003a0 36 b0 21 3f b3 ea 0b 3f 4c a7 8d 3e 78 d4 14 3f
       0.631595 0.54655 0.276667 0.581367
0003b0 00 00 42 40 9a b6 db 3f f2 5d 2a bf 8b e0 7f 3c
       3.03125 1.71651 -0.665496 0.0156175
0003c0 f0 6d 92 be 0f 54 f8 3b ab 95 81 3f e6 24 54 3e
       -0.285995 0.00757838 1.01238 0.207172
0003d0 71 3d 82 be 87 8a 45 3f 01 a3 fb 3e 0b 5f 53 bf
       -0.254375 0.771645 0.491478 -0.825669
0003e0 21 05 0f bf d5 3e 9d bf a4 c7 1f 3e 87 89 2a 3f
       -0.558672 -1.22848 0.156035 0.666161
0003f0 eb e6 1a 3f 2f 12 20 3c 7b 49 ab bf 90 4e e9 bf
       0.605086 0.00976996 -1.33818 -1.82271

Operation_3_Add_B f4 [50]
000000 68 40 dd 3d 2c a0 70 be 11 ab 23 bf bd 49 ba bb
       0.108033 -0.234986 -0.639329 -0.00568506
000010 85 3e d8 3d fe d3 a5 be 10 23 a0 3f c8 b5 c9 bf
       0.105588 -0.323883 1.25107 -1.57586
000020 06 9d f0 3d e9 2b e4 bf 7d 25 4b 3d 41 0e e2 3f
       0.117487 -1.78259 0.0495963 1.76606
000030 65 a7 2f be e4 4b 38 be 23 58 cb bc f3 76 c8 bf
       -0.171537 -0.179977 -0.0248223 -1.56613
000040 2e 8d 1f 3f 83 69 98 3e ae f0 06 c0 72 ed 95 bc
       0.623248 0.29768 -2.10844 -0.0183017
000050 2e aa a5 be f3 76 22 c0 78 b9 9c bf 86 20 ff be
       -0.323564 -2.53851 -1.22441 -0.498295
000060 65 55 34 be 2b a6 02 bf 10 ae d0 be 34 5d 39 bd
       -0.176107 -0.510348 -0.407578 -0.0452549
000070 e1 3b 76 3d e4 4e b5 bf 3c f2 0c bd 07 eb 87 bf
       0.0601157 -1.41647 -0.0344107 -1.06186
000080 2e 1b 8d 3e 18 cf c8 bf d5 e9 40 be 72 33 30 c0
       0.275598 -1.56882 -0.188392 -2.75314
000090 34 2e ec 3f a2 97 b9 be 2f db b3 bd 39 0c e6 bd
       1.84516 -0.362485 -0.0878204 -0.112328
0000a0 f6 97 85 3f bc 00 41 bb f9 2c d7 bf cd e9 26 bf
       1.0437 -0.00294499 -1.68106 -0.652005
0000b0 18 09 89 3f 18 b5 a3 be 94 f6 36 be 91 f2 a3 bf
       1.07059 -0.319741 -0.178675 -1.28084
0000c0 f9 82 22 bf 78 9c c2 bf
       -0.634811 -1.5204

Operation_4_MatMul_W f4 [50, 50]
000000 eb 01 f3 3d f1 80 7e 3f 31 cd 8c 3e b7 cf 3e bf
       0.118656 0.994155 0.275003 -0.745357
000010 ed ba 27 be 00 8c fb bf b0 ff 22 bf 23 4a 4b be
       -0.163799 -1.96521 -0.636714 -0.198525
000020 d4 f1 81 c0 39 0b 2b be 26 00 e7 be be d8 4b be
       -4.06077 -0.167035 -0.451173 -0.199069
000030 54 1c 07 be 9e 4b bc 3d 2a 1d 5c be 9d d7 18 be
       -0.131944 0.0919411 -0.214955 -0.14926
000040 09 34 b8 3d ee ec 7b be d7 4f ff bc 7f f8 e1 be
       0.089943 -0.246021 -0.031166 -0.441349
000050 c8 41 e1 3f 43 e7 89 bf f7 c8 8e be fb bc 98 bd
       1.75982 -1.07737 -0.278877 -0.0745792
000060 61 b0 31 bd c9 c9 c4 be 20 d0 29 bf 8e 1e c3 bf
       -0.0433811 -0.384352 -0.663332 -1.52437
000070 e0 b9 67 be e3 ff 8e 3b 39 2a b7 be 07 7c 8a 3f
       -0.226295 0.004364 -0.357744 1.08191
000080 0a 3c b1 3d b1 f9 84 3f 95 d5 04 3e 68 ea 9d 3e
       0.0865403 1.03887 0.129721 0.308429
000090 2b c3 a8 3e e9 0f a5 be 20 b9 d0 3c c4 aa 2b bd
       0.329614 -0.322387 0.0254789 -0.0419109
0000a0 f8 36 55 bf 1d 72 fb bf 55 c0 d5 3e 54 ac da bd
       -0.83287 -1.96442 0.417483 -0.106774
0000b0 39 d6 89 bf 5f b5 9a bf a1 d6 90 3f 62 65 18 bf
       -1.07685 -1.20866 1.13155 -0.595297
0000c0 72 88 98 bd 5b 95 74 be 19 1c a1 3f c9 1f e4 bf
       -0.074479 -0.238851 1.25867 -1.78222
0000d0 ab 76 39 3f b1 52 6d 3f f0 fc ca 3e 29 b3 0b c0
       0.724467 0.927043 0.396461 -2.18281
0000e0 a6 d5 e8 3e 13 2c c2 3f 1f 80 3a 40 b9 16 21 bf
       0.454755 1.51697 2.91407 -0.629253
0000f0 40 c3 2b 3f 80 65 9d 3e b9 72 66 3e 19 ff fe bf
       0.670948 0.307415 0.225047 -1.99216
000100 03 5d a3 be 1a 6f eb 3e fa 5e 0f 3f c1 1b 8a be
       -0.319069 0.459832 0.560043 -0.269743
000110 1e 89 37 3e 6c 09 d5 3f b9 55 e0 3e 55 13 ac 3e
       0.179234 1.66435 0.438154 0.336085
000120 87 c3 12 3e a9 28 e8 3c 41 b5 a6 3c 07 08 82 3f
       0.143324 0.0283397 0.0203501 1.01587
000130 3b 01 63 c0 56 0b f4 3e e3 e1 d5 be 67 46 3f 3f
       -3.54695 0.476649 -0.417739 0.747168
000140 29 a1 8a 3d 47 77 c4 bf 6d 1a 93 3e eb 37 5b 3f
       0.0676902 -1.53489 0.287311 0.856322
000150 0a 12 c3 3e de e7 48 bf 8c 4a 34 c0 fa 7a 1e be
       0.380997 -0.784788 -2.81705 -0.154766
000160 13 47 3e 3f 6d 75 35 ba 8e 75 a9 3f 79 cc 98 bf
       0.743272 -0.00069221 1.3239 -1.19374
000170 7d b3 fd 3f ac 79 a9 bc 4d bf 24 3e 38 f3 63 bf
       1.98204 -0.0206879 0.160886 -0.89043
000180 fd 30 8e 3f b9 38 e2 be 80 b6 d5 3a eb e2 1e 3f
       1.11087 -0.441839 0.0016305 0.62065
000190 aa d2 16 bf a1 b9 b2 bf 54 0a 90 bd 3f a3 89 3d
       -0.589152 -1.39629 -0.0703322 0.0672059
0001a0 de e7 00 3f 1c 97 a9 be 94 bd b5 be 7a 8e a0 3e
       0.503538 -0.331231 -0.354962 0.313587
0001b0 06 12 ac 3f d6 c9 69 3e 6c 24 f9 3e 9e 98 05 be
       1.3443 0.228309 0.486606 -0.130465
0001c0 c4 c9 85 bb 6a 6d ca be 88 4a 47 bf f4 a6 8a be
       -0.00408289 -0.395366 -0.778481 -0.270805
0001d0 9d 0d 39 3e ad a1 74 3d 8a 73 04 be db 16 85 3f
       0.180716 0.0597245 -0.129347 1.03976
0001e0 05 f9 89 3e bd ab d6 3e a7 3c f2 3e fb 96 74 bd
       0.269478 0.419279 0.473119 -0.0597143
0001f0 f3 d1 98 3c 3d ba 99 3e de 59 35 c0 c0 79 21 be
       0.0186548 0.300249 -2.83361 -0.157691
000200 9e b3 b5 be fa b7 6b be 1f c9 7b 3d f2 d2 2d 3e
       -0.354886 -0.230194 0.0614711 0.16975
000210 5e 0e db 3d e4 82 1f bf 9a ea 09 be a7 af e7 3d
       0.106961 -0.623091 -0.134684 0.113128
000220 e6 3f 80 bf fd 13 fc 3e e5 7b a6 be e3 32 a3 bd
       -1.00195 0.49234 -0.325164 -0.0796869
000230 ff 24 86 be bf 46 a2 3e 49 66 05 bf ad ce bb bd
       -0.262001 0.316946 -0.521092 -0.0917028
000240 1a a4 d8 3e 25 42 7e bc 16 6e a9 be 11 01 8b 3f
       0.423127 -0.0155187 -0.330918 1.08597
000250 6c 65 38 bd d1 3e ce 3e ae 43 5a bc 2d f3 b1 3b
       -0.0450186 0.402823 -0.0133218 0.0054306
000260 85 3e fd bc 15 2b 14 bd 85 c5 47 b9 9b 49 45 3d
       -0.0309136 -0.0361739 -0.000190517 0.0481659
000270 66 2d 2a bc 1c 8c 02 3d a7 80 0a bd 08 f4 38 3d
       -0.0103868 0.0318719 -0.0338141 0.0451546
000280 b5 fc 80 3c a1 f8 f1 3c a9 ab 96 bc 13 a3 c2 3c
       0.0157455 0.0295375 -0.0183924 0.0237594
000290 9e f2 c3 3c 45 ef f9 3c 93 a3 a5 bc 9d 14 81 3c
       0.0239194 0.0305096 -0.0202196 0.0157569
0002a0 b7 79 c8 3c bd b8 1e 3d 8b 25 1b 3d 4e 7c 7c 39
       0.0244721 0.0387504 0.0378776 0.000240789
0002b0 b8 61 2f bd 39 1f e8 bb fb 4b 81 bc 3a 7d 58 3d
       -0.0428178 -0.0070838 -0.0157833 0.0528538
0002c0 64 fb 7b bb d3 7b f4 3c 4c 56 3c 3a 33 12 46 bc
       -0.00384494 0.0298442 0.000718449 -0.0120893
0002d0 8e 88 f3 bc c7 89 4a bd 54 3b 23 bd c1 b3 13 bd
       -0.0297282 -0.0494478 -0.0398515 -0.0360601
0002e0 f7 49 24 3d d0 ff 1f 3c de e0 0f bb 60 33 73 3a
       0.0401096 0.00976558 -0.00219541 0.000927737
0002f0 ae fb 5d 3d bb 8b 06 bd 42 29 b5 3c 4e 22 07 3d
       0.0541951 -0.0328481 0.0221144 0.0329917
000300 85 bb 8e 3c 81 1a 88 bc 66 a4 3e bd 8f bc d8 bc
       0.0174234 -0.0166142 -0.0465435 -0.0264571
000310 11 60 27 bd 76 9f 48 bd b3 c1 f8 3c eb 7d 1b 3c
       -0.0408631 -0.0489802 0.0303658 0.00949047
000320 a4 df 9e be 38 db f0 3f 38 a2 4b 3e 1b 0f c6 be
       -0.3103 1.88169 0.198861 -0.386834
000330 bb 0d 0e 3f 68 07 0c bf ac e0 0f 3f 79 cc 8b c0
       0.554897 -0.546988 0.562022 -4.36871
000340 90 c3 bb bc 8c b6 2f 3d 84 14 a7 3d b6 81 8b bd
       -0.0229204 0.0428987 0.0815821 -0.0681185
000350 e2 58 1b 3f 91 d5 4d 3f a6 6c b7 3d b9 6c 94 be
       0.606825 0.80404 0.0895627 -0.289892
000360 cd b0 01 3f f5 0f 06 3f ff 08 23 be 7a c7 59 3f
       0.506604 0.523681 -0.159214 0.8507
000370 1e e1 f4 bd bc cd db bd 4e e6 94 3d fe 38 0a 3b
       -0.11957 -0.107326 0.0727049 0.00210911
000380 cc c3 d3 3b 04 3d 64 3e bb 26 34 3f 12 a3 17 3f
       0.00646255 0.222889 0.703716 0.592332
000390 eb c4 aa 3d 8e ea 54 3e e7 72 23 be 03 5f d1 3e
       0.0833834 0.207926 -0.159618 0.408928
0003a0 ab e7 f4 be 36 3a 5b 3f e2 74 7e bf 1b ba 29 3f
       -0.47833 0.856357 -0.993971 0.662996
0003b0 02 9f 6f be 6c 66 63 bd de 5a 56 3e 1c 37 46 3c
       -0.234005 -0.0555176 0.209331 0.0120981
0003c0 b0 f7 6c 3d f2 ef af bf cb 69 e7 be 00 eb 8c 3d
       0.0578534 -1.37451 -0.451979 0.0688076
0003d0 8a 94 d6 be 5c 12 a1 3d 6d e4 2a 3f fa d3 66 3e
       -0.419102 0.0786483 0.667548 0.225418
0003e0 29 2c 27 3d 20 f0 c0 be 40 bf 8f 3e 65 aa 2c bf
       0.0408136 -0.376832 0.280756 -0.674475
0003f0 a5 f5 47 3e 76 e0 08 3f af 71 02 3d f6 5d 8d 3f
       0.195273 0.534675 0.0318467 1.10443

Operation_4_Add_B f4 [50]
000000 d5 60 15 bd da c9 00 c0 e2 1e ef bf 31 cf 56 3f
       -0.0364693 -2.01232 -1.86813 0.839099
000010 d8 81 0b bf e3 1b 82 3e ac ab 7e bf e8 bf 67 be
       -0.54495 0.254119 -0.994807 -0.226318
000020 72 7c be 3d 05 c5 d7 bf a3 ac af 3e 20 46 0a 40
       0.0930108 -1.6857 0.343114 2.16053
000030 40 34 63 bf 2b 87 d6 bf cf 9f 5e bf d4 60 be bf
       -0.887516 -1.676 -0.869626 -1.48733
000040 c0 cf e4 3f 5b 3f 8d 3e 71 73 32 bf 0f 9d 86 be
       1.78759 0.275874 -0.697074 -0.262917
000050 25 21 01 bf 69 53 35 3f 21 e8 6c 3f cf 66 05 be
       -0.504412 0.708304 0.925417 -0.130275
000060 0e d0 87 bc 1d 5a dc 3e 35 07 e0 3f cf 4e aa 3f
       -0.0165787 0.430375 1.75022 1.33053
000070 23 66 06 3f 7e 8c d9 3d 9d 11 a5 3f fe 60 88 bf
       0.524996 0.106225 1.2896 -1.06546
000080 a3 e9 30 bf 3a 08 22 bf f8 fd fb 3d 84 f0 a4 bf
       -0.691065 -0.632938 0.123043 -1.28859
000090 cd 0c f6 bc 5f ce ec bd 2d 60 be bf af 60 fb bd
       -0.0300354 -0.115628 -1.48731 -0.122743
0000a0 fd 33 7e bd f0 fa 5c 3f 0a ba 8d bf f5 f3 06 be
       -0.0620613 0.863204 -1.10724 -0.13179
0000b0 4c a6 04 c0 ce 8e cc be 95 ef 51 3f 3b 70 9a bf
       -2.07265 -0.399527 0.820062 -1.20655
0000c0 64 ad 01 be 58 1c 8a 3f
       -0.126638 1.07899

Operation_5_MatMul_W f4 [50, 50]
000000 0f 35 60 bd 59 9d b1 bd 85 5f 3a 3e c9 ac 36 3f
       -0.0547381 -0.0867259 0.182005 0.713574
000010 62 db 5a c0 66 6a a2 bd ac aa c7 be df e0 9f 3f
       -3.41964 -0.0793045 -0.389974 1.24905
000020 66 f8 c7 3e 07 5d 02 3e 8e 20 f5 bd 6f 95 71 3d
       0.390567 0.127308 -0.119691 0.0589804
000030 a0 fa e7 be 3b 1e 8e bd f2 cf 4c be fb 5d d8 3d
       -0.453084 -0.0693936 -0.200012 0.105648
000040 85 0c 3f bc 0b 11 8b bc 00 ab 43 3e dd b6 ef bd
       -0.0116607 -0.0169759 0.191082 -0.117048
000050 90 cf 85 3d 9b 1b d7 bf fd ee 47 3d 6a 33 0e 3e
       0.0653373 -1.68053 0.0488119 0.138868
000060 a9 c0 e9 bd 0f 27 00 be 91 30 97 bd 38 db b0 3f
       -0.114137 -0.125149 -0.0738231 1.38169
000070 0e be 04 c0 f7 e9 ec 3f 0a 9d c2 c0 5c e8 22 3f
       -2.0741 1.85089 -6.08167 0.636358
000080 43 ab d3 3d 5b 7c 1c c0 5e 67 db be 9f e5 0f 40
       0.103354 -2.44509 -0.428523 2.24839
000090 09 6f ef bd 12 a2 3c be 5b b2 16 3f 97 e2 8a be
       -0.116911 -0.184212 0.588659 -0.27126
0000a0 27 68 33 be 5e 84 a9 be cd 1a b1 bd 6d 3b 5d 3e
       -0.175202 -0.331088 -0.0864769 0.216047
0000b0 5d df 67 be ce 2c f0 3b fa b8 06 3e 64 3f 07 3f
       -0.226438 0.00732956 0.131565 0.528311
0000c0 7e 57 84 bf 67 7b d4 3d 4e 98 14 3f 87 6b 85 bd
       -1.03392 0.103751 0.580449 -0.0651465
0000d0 51 4c de be 69 6f e0 3f 0c 74 9d 3e 19 90 7d bd
       -0.434176 1.7534 0.307526 -0.061905
0000e0 37 66 23 3d 6f 2b 8d be c8 9f 43 bd 55 16 c5 3d
       0.0398924 -0.275722 -0.0477598 0.096234
0000f0 a3 dc 97 bd d6 59 88 bd a5 87 71 be c7 2b 28 bf
       -0.0741513 -0.0665776 -0.235869 -0.656918
000100 23 fb bb bc 02 75 74 bd 9c e9 94 3c 13 19 0c bd
       -0.0229469 -0.0596819 0.0181778 -0.0342036
000110 f7 61 53 bd 23 16 11 3e b3 c0 6d bd 9c 18 92 bc
       -0.0516071 0.141686 -0.0580451 -0.017834
000120 d9 ef 05 bc 45 9f 1f be b5 66 50 bd ac c6 3e bf
       -0.00817486 -0.155881 -0.0508792 -0.745219
000130 88 5e 0b 3d 5c 1d e0 be 56 d5 5f bf 6e df 8b be
       0.0340257 -0.437724 -0.874349 -0.273189
000140 01 5a 99 3d 1a 5c 09 3d 5e 2b 91 3d 75 57 f6 3d
       0.0748787 0.0335351 0.0708835 0.120284
000150 a6 3e a5 bd 50 4b 78 3d 1a 1a 4a bd 20 6f b3 bd
       -0.0806859 0.0606187 -0.0493413 -0.0876143
000160 fe 65 17 be 4d 8c 40 3c fc c3 96 bd 49 03 49 bd
       -0.14785 0.0117522 -0.073616 -0.0490754
000170 53 97 bc be d9 a4 81 3d 19 74 c2 3e a9 25 67 bc
       -0.368342 0.0633027 0.379792 -0.0141081
000180 3d 6a 87 bd bb 05 b7 3c b0 59 8e bd 05 1a 8c bd
       -0.0661206 0.0223416 -0.069507 -0.068409
000190 b4 73 82 3e 4a 8a 99 3c 71 c8 1e bf e3 aa 8e bf
       0.254789 0.0187427 -0.620246 -1.11459
0001a0 6d 8c 85 be 2c 48 13 bf d0 49 ca 3c 70 7c 99 bf
       -0.260837 -0.57532 0.0246934 -1.19911
0001b0 4d 85 c0 be be 4b 05 bf 92 74 5d be b4 3d c2 be
       -0.376017 -0.520687 -0.216265 -0.379377
0001c0 e7 aa 49 be 96 07 19 bf 9a 5b e1 3c 0f ef 29 be
       -0.196941 -0.597772 0.0275095 -0.165951
0001d0 f5 f4 09 bf 2c d8 06 be 8e a3 05 3c 07 3f f1 be
       -0.538894 -0.131684 0.00815667 -0.471184
0001e0 2b 4b 04 be c6 0f 8a bd 23 a4 8e be b5 4f 87 be
       -0.129193 -0.0674129 -0.278596 -0.26428
0001f0 47 90 5a be 48 18 66 be 1a 8a 4b be a6 b8 02 bf
       -0.213441 -0.224702 -0.198769 -0.51063
000200 53 96 53 40 5a 47 35 c0 67 f1 22 3e 0c e7 4a bf
       3.30605 -2.83248 0.159124 -0.792588
000210 11 bc e7 bb 38 c7 4f bd 12 e4 56 bc fb 3d a9 be
       -0.00707198 -0.0507271 -0.0131159 -0.330551
000220 4b b0 58 3e fc 34 3e be 75 3c ae 3e a8 54 e9 3d
       0.21161 -0.185749 0.340305 0.113931
000230 21 56 ff bd 3c 13 0a be bd a7 2e bf 79 59 db be
       -0.124676 -0.134839 -0.682247 -0.428417
000240 ea e7 ad 3f 57 24 06 3d 54 8c d3 3d 94 86 26 bf
       1.35864 0.0327495 0.103295 -0.650491
000250 f4 d0 28 3d 08 b0 0c bf 18 b0 14 bf 46 5c 40 be
       0.0412149 -0.549561 -0.580812 -0.187852
000260 f2 40 e4 bd ca fb 38 3e 4e 9c 30 c0 67 0e 39 3e
       -0.111452 0.180648 -2.75954 0.180719
000270 bf 2a 97 3e 57 e8 cb be 6f 0f a2 bd 58 ab f6 bd
       0.295248 -0.398257 -0.079131 -0.120444
000280 a7 af bf be d2 31 6f 3b c4 99 9f 3e 9e b2 fa be
       -0.374387 0.00364982 0.31172 -0.489644
000290 4f b1 4a be 58 52 93 bc 6f b9 1a be 48 f9 79 be
       -0.197942 -0.0179836 -0.151098 -0.244115
0002a0 4d ec 6b bd 30 d9 a0 3e 3d 4a 60 3d df c2 9a 3e
       -0.0575984 0.314157 0.0547583 0.302268
0002b0 1e 1d 32 3c 29 36 90 3d 15 c7 21 be b5 15 07 bf
       0.0108712 0.0704158 -0.157986 -0.527675
0002c0 bc 3c 5d be 2a e2 0c bf 15 74 e3 be f4 c3 f4 bf
       -0.216052 -0.550326 -0.444245 -1.91223
0002d0 48 1b 17 3e 23 93 42 bd 09 6d d9 bd 89 ea 5d be
       0.147565 -0.0475036 -0.106165 -0.216715
0002e0 4f 3f e8 bd ce e2 b5 be 71 92 c6 be c3 45 ce be
       -0.113402 -0.355246 -0.387836 -0.402876
0002f0 4f 74 0d be 52 23 c9 bd b9 53 ea be 20 0c 9c be
       -0.138139 -0.0982119 -0.45767 -0.30478
000300 98 a4 f2 bd 73 fb 40 bd 70 11 33 bd 34 0c 84 3c
       -0.118478 -0.0471148 -0.0437178 0.0161191
000310 7b 84 92 be 56 9f 4b 3e 6b 65 2a bf 35 63 11 3d
       -0.286167 0.19885 -0.66561 0.035495
000320 f6 28 1c c0 d2 18 cd 3f a7 ca 07 3f 82 e7 a6 bf
       -2.44 1.60232 0.530436 -1.30394
000330 77 d6 4e c0 6e 6b 07 bf 6a 14 62 3f 80 48 28 c1
       -3.23184 -0.528983 0.883124 -10.5177
000340 7a a9 88 be 8a 02 e1 bf 32 48 80 3d e5 7f 02 3e
       -0.266918 -1.75789 0.0626377 0.127441
000350 29 ce 99 be 74 40 62 3e 58 90 46 be 2d 7b 02 3e
       -0.300401 0.220949 -0.19391 0.127423
000360 99 bc e1 be d9 5f 5e 3f cc d0 d0 3e a0 c5 02 bf
       -0.440892 0.86865 0.407843 -0.510828
000370 b4 56 04 3f 4d a3 05 bf 87 f8 77 3e a5 84 58 3f
       0.516948 -0.522023 0.242159 0.845774
000380 ad 16 78 bf 7a 53 a1 bf 05 a3 b2 3d 79 cc ce c0
       -0.969096 -1.26036 0.087225 -6.46246
000390 27 bd c3 bf 96 3e db c0 b8 73 79 3f 76 1a a1 3f
       -1.52921 -6.85139 0.974422 1.25862
0003a0 15 57 d5 bd 53 22 5f c0 89 45 44 bf 2b 87 50 40
       -0.10417 -3.48647 -0.766686 3.25825
0003b0 36 75 06 3f 08 cc 2f bf 05 c5 ef bd 67 f2 91 bf
       0.525226 -0.686707 -0.117075 -1.14021
0003c0 aa d2 86 be a3 67 49 bd e9 64 81 be 1c eb 64 c0
       -0.263326 -0.0491711 -0.252723 -3.57685
0003d0 bd c7 69 3f c9 75 73 be 75 ca 03 be f0 6d 92 3f
       0.913204 -0.237754 -0.128702 1.14398
0003e0 4c ff 52 3e 1d d5 7f 3d 3d b8 73 bf 28 82 5c bf
       0.206052 0.0624591 -0.95203 -0.861361
0003f0 1c 23 69 be 16 4d 4d c0 f5 84 c9 bf fb 00 66 3b
       -0.227673 -3.20783 -1.57437 0.00350958

Operation_5_Add_B f4 [50]
000000 c8 07 ad 3f 7a 19 b5 bf 8c 4c d8 3e c5 e3 8a be
       1.3518 -1.41484 0.422459 -0.271269
000010 b6 2f 18 bf 2d 21 b3 bf db 6d d7 bf da fe 2b 40
       -0.594478 -1.39945 -1.68304 2.68743
000020 df fc de 3e d5 09 d0 bf 57 cf c1 bf 55 a6 80 3e
       0.435523 -1.6253 -1.51414 0.251269
000030 82 55 85 be 1c 0b 5a 3e 74 ed ab 3e b7 79 5b 3f
       -0.260418 0.212933 0.335796 0.857326
000040 b2 11 f8 3f a4 6c a1 be 64 e6 2e bf 9c 19 2d 3f
       1.93804 -0.315282 -0.683203 0.676172
000050 4b 93 8e 3f d2 00 4e c0 7c 64 db 3e 1b bd 36 3f
       1.11387 -3.2188 0.428501 0.713823
000060 5a d5 22 be 80 d4 b2 3f 8c d6 ad 3f 33 dc fc bf
       -0.159017 1.39711 1.35811 -1.97547
000070 4a d3 b0 be 51 f7 1f 40 13 0a 13 40 43 aa a0 3e
       -0.345362 2.49947 2.29749 0.313799
000080 5f 62 5c 3f 2c b8 03 3f df dd 02 3f e1 7e 40 3f
       0.860876 0.514529 0.511198 0.751936
000090 51 30 13 be 81 07 16 3e e6 ae b1 bf 03 eb 98 3e
       -0.143739 0.146513 -1.38815 0.298668
0000a0 bb 25 39 be 46 f4 86 bc d9 3d 25 bf 05 a8 f1 bf
       -0.180808 -0.0164739 -0.645475 -1.88794
0000b0 18 ec 42 bf 56 0e 59 3f ae bb 01 3f ba 10 17 bf
       -0.761415 0.847875 0.50677 -0.590099
0000c0 91 ed c0 bf 93 52 b0 3f
       -1.50725 1.37752

Operation_6_MatMul_W f4 [50, 50]
000000 e1 b6 f6 bd 31 cb b3 bd 29 98 a1 3e 2a 8c 2d bc
       -0.120466 -0.0877899 0.315614 -0.0105925
000010 f1 92 07 bc c8 11 b1 bd 22 79 fc bb bb e9 79 bb
       -0.00827478 -0.0864597 -0.00770487 -0.00381337
000020 32 39 09 bf 01 a3 ab 3d 68 75 52 3e 2b 40 8a bc
       -0.536029 0.083807 0.205526 -0.0168763
000030 9d 04 20 bd 7b e0 fc bb 31 4a 2b 3c 72 18 0e 3c
       -0.0390669 -0.00771719 0.0104547 0.00867282
000040 a9 9a 95 bd d0 0d 4d bc 78 03 b1 bc 78 85 84 bd
       -0.0730489 -0.0125155 -0.0216081 -0.0647077
000050 a6 40 9b bd f1 b8 08 bd ad 4f 19 3d b4 db 38 bd
       -0.0758069 -0.0333795 0.0374295 -0.0451314
000060 98 51 2c bd e1 97 fa bd 5c af a9 bd 9a b6 8c c0
       -0.04207 -0.12236 -0.082854 -4.39729
000070 41 67 b1 bb f9 a8 9a bc 82 a5 7f bd 8e e7 b3 3c
       -0.00541392 -0.0188794 -0.0624137 0.021961
000080 19 58 e7 bd 21 3f 83 be 8a e9 c2 be 99 12 99 be
       -0.112961 -0.256341 -0.380688 -0.29897
000090 88 cb 3b 3d 35 f1 7a bf b6 4c 8e 3e 29 dc 3c bd
       0.0458484 -0.980243 0.277929 -0.0461084
0000a0 07 d1 82 be 9e ea 90 3c c7 29 8a bd a9 bd a8 bd
       -0.255501 0.01769 -0.0674625 -0.082393
0000b0 cd c8 a0 bc 93 5b ee bc ba 2c 8a 3f e8 32 d6 bb
       -0.019627 -0.0290964 1.07949 -0.00653683
0000c0 2f a8 cf c0 66 6b bd bd e9 d4 c9 3f 5b ea f8 3e
       -6.48928 -0.09249 1.57681 0.486163
0000d0 ea 79 7f 3f ec cf 11 bc 4e 5d 5e 3d 2d 08 e5 bc
       0.997954 -0.00889967 0.0542882 -0.027958
0000e0 94 83 d9 3d 73 f2 b2 be f8 71 d4 3d fe 0b 04 be
       0.106208 -0.349506 0.103733 -0.128952
0000f0 ad 86 a8 3f 0d c5 5d 3d 43 46 86 bd 09 f9 e0 bd
       1.31661 0.054143 -0.0655637 -0.10985
000100 81 de 65 3c cd 1e 28 3e ae 48 4c 3e 60 0f 5c 3d
       0.0140301 0.16418 0.199496 0.0537256
000110 b2 55 a8 3d cb c3 5d 3d dd d2 aa bc ce e9 09 3c
       0.0821947 0.0541418 -0.0208525 0.00841756
000120 83 31 b2 be 4a 16 46 bd 27 bd 0f 3e dc 2c 9e 3e
       -0.348034 -0.0483611 0.14037 0.308936
000130 54 1e 8d bd b6 67 be bf ac 68 ad 3d 78 47 66 3d
       -0.0689055 -1.48754 0.0846723 0.0562205
000140 67 44 85 3f 4a 5f b0 be 89 95 21 be 16 6a d9 3f
       1.04115 -0.344477 -0.157797 1.69855
000150 11 55 28 bf a4 8d 41 c0 f8 92 e1 bc 20 b5 13 c0
       -0.657548 -3.02427 -0.0275359 -2.30793
000160 a4 38 9f be 39 9d 04 3d d7 2c 1c bd 98 dd 9b 3e
       -0.310979 0.0323765 -0.0381287 0.304425
000170 c3 b7 d0 bd 9b ca 72 be 15 b0 f8 3c 96 94 0f 3f
       -0.101913 -0.237101 0.0303574 0.560861
000180 ea cd a0 be 1d da 91 bd 14 24 52 3f dd 98 0e be
       -0.314071 -0.0712168 0.820863 -0.139255
000190 4d 11 90 be 0e a1 4a 3e 29 79 8d 3f b1 20 03 bd
       -0.281382 0.19788 1.10526 -0.0320136
0001a0 45 95 86 3c 26 0c f9 3c f2 ab 03 bc 17 62 05 be
       0.0164286 0.0304013 -0.0080366 -0.130257
0001b0 78 ee 1d 3f 3a 3b f1 bf d0 df 8a 3d 2b ae 01 3c
       0.61692 -1.88462 0.0678097 0.00791506
0001c0 bd bc aa bd 57 63 44 3d eb 80 35 3c 49 14 92 be
       -0.0833678 0.0479463 0.0110781 -0.285311
0001d0 20 0b 31 be a8 80 c5 bc 74 c7 ea bb 30 13 85 bc
       -0.172894 -0.0241092 -0.00716489 -0.0162445
0001e0 a0 ba 83 bc b1 c5 09 bd c5 71 58 3f ec 89 89 3d
       -0.0160802 -0.0336358 0.845486 0.0671576
0001f0 65 8b e4 bd a4 c6 8c be 23 82 31 be 47 c9 e7 bf
       -0.111594 -0.274953 -0.173348 -1.81083
000200 91 0e 4f bd 5b 84 c8 3d 19 c5 f2 3d f9 a2 3d bc
       -0.050551 0.0979087 0.11854 -0.0115745
000210 8a 04 0f bf a5 11 3f 3f 79 75 1e 40 07 41 a7 3d
       -0.558663 0.746363 2.47592 0.081667
000220 a9 c7 91 bb ed 63 dd be 09 88 99 3d c3 6c 9d bc
       -0.00444885 -0.432403 0.0749665 -0.0192169
000230 bd 82 fe bc b4 5d bc 3d bc 5c 04 be 7b 83 2b bf
       -0.0310682 0.0919756 -0.12926 -0.669975
000240 4b 7f c5 bd 9e ed d9 3e ee 7c 87 3f 05 9f 2b bd
       -0.0964342 0.425641 1.0585 -0.0418997
000250 5b d0 a3 3e 5f 7a bb be fd a4 42 bf 15 ac d9 be
       0.319949 -0.366168 -0.76033 -0.425141
000260 bc 59 7f bf 10 42 fe bb 19 37 35 bd eb fd 86 bc
       -0.997463 -0.00775934 -0.044242 -0.0164785
000270 d9 28 46 3c 89 89 1b 3b e7 34 4b 3e a5 d9 1c 3e
       0.0120947 0.00237331 0.198444 0.153174
000280 5d c3 7c 3e 6a ab 28 bd 31 4e f2 bc 42 90 e6 ba
       0.246839 -0.0411791 -0.0295783 -0.00175906
000290 d1 5d 52 3d 59 e9 b4 bd 24 6b 63 bd a1 67 73 3d
       0.051359 -0.0883357 -0.0555221 0.059425
0002a0 2b 46 82 bc 0a ff 58 3c 73 7d 21 bc 9a b0 7d bc
       -0.0159026 0.0132444 -0.00985657 -0.015484
0002b0 d4 b9 82 be 9e 2c 0e bc 26 92 63 bd 4d 6a b3 bd
       -0.255324 -0.00867763 -0.0555593 -0.0876051
0002c0 f5 db 97 bd 87 16 99 bf 4a f4 6d 3d 34 aa 02 3c
       -0.07415 -1.196 0.0580943 0.00797515
0002d0 e8 bb b3 3e 7b c5 2e 3c 85 42 c4 bc bc 61 86 bd
       0.351043 0.0106672 -0.0239575 -0.0656161
0002e0 20 0a 32 3f 70 ce 88 3c 78 44 05 3e 61 89 27 be
       0.695467 0.0167 0.130144 -0.16361
0002f0 2c 82 3b c0 2e d5 fb bc 21 4b d5 ba 77 b4 d6 3c
       -2.92982 -0.0307413 -0.0016273 0.0262091
000300 69 e1 d2 bd 69 03 0f 3c 5e b9 5e 3c 85 a5 cb 3d
       -0.102969 0.00872884 0.013594 0.0994368
000310 ed d5 6b bf a1 83 ae 3b 61 fd 07 c0 73 81 4b 3c
       -0.921233 0.00532575 -2.12484 0.012421
000320 01 69 0f 3e 87 a2 1e c0 83 24 7d 3c db 85 66 bb
       0.140049 -2.47867 0.0154506 -0.0035175
000330 61 9a 53 bd b2 17 02 bc 5e 82 53 3c ae ae a4 bd
       -0.0516609 -0.00794022 0.0129095 -0.0804113
000340 e7 fc 14 3e 34 10 8b bd 27 bc 24 3e f4 b5 b8 bc
       0.145496 -0.067902 0.160874 -0.0225477
000350 69 b4 8b bb c3 f7 99 bc 87 28 10 bd 66 75 41 bd
       -0.00426345 -0.0187949 -0.0351949 -0.0472311
000360 e7 1a 66 bd 33 a7 77 bf 2c ad 90 bd 34 81 42 3d
       -0.056178 -0.967395 -0.0706428 0.0474865
000370 99 42 8c 3c 44 e0 b8 3d 69 e3 dc bf 86 ee 8a 3b
       0.0171216 0.0902715 -1.72569 0.00423986
000380 38 c5 fe bc 64 26 bc bd 8d ee a8 c0 46 d1 37 bf
       -0.0310999 -0.0918701 -5.27912 -0.718037
000390 ee ba 6d bc 73 fe 1c 3d b4 94 9c be 3a 40 30 be
       -0.0145099 0.0383286 -0.305822 -0.17212
0003a0 3c 4b 94 bb 42 5a 9b 3e 0e 10 58 c0 fb eb 75 3d
       -0.00452557 0.303423 -3.37598 0.0600395
0003b0 f5 da 3c be 2b 86 37 bf eb 39 9d bf fa 1d 34 bd
       -0.184429 -0.716891 -1.22833 -0.0439739
0003c0 25 17 ed bc b9 67 22 3d d3 b1 94 bc 19 e8 9a bc
       -0.0289417 0.0396497 -0.0181512 -0.0189095
0003d0 31 a4 f5 3b c3 9d 2b be f0 8b 4b be 6b 76 8f bb
       0.00749638 -0.167594 -0.198776 -0.00437813
0003e0 da 90 c7 be ac e2 0d 3e 82 73 d6 bf 11 19 f6 bf
       -0.389777 0.13856 -1.6754 -1.92264
0003f0 e6 b2 a9 be 6c f8 cc bc da 8e b1 3e 8d 7c 2e be
       -0.331443 -0.0250208 0.346793 -0.170397

Operation_6_Add_B f4 [50]
000000 39 0b 21 c0 85 eb 41 bf 0f b4 99 c0 d2 1c 09 3e
       -2.51631 -0.7575 -4.80323 0.133899
000010 5f 0a 1b bf f0 de 4d bf d4 62 74 bf cc 26 00 bf
       -0.605627 -0.804183 -0.954633 -0.500592
000020 f8 c2 e8 bf 68 79 c2 bf 7f 6a 9c bf 02 7f d8 bd
       -1.81845 -1.51933 -1.222 -0.105711
000030 8d 0b e7 bd 54 54 3d be 28 48 4c bf 95 ae aa bd
       -0.112815 -0.184892 -0.797976 -0.0833408
000040 1c 29 86 bd 74 96 81 be a5 4d a5 be 8d 98 29 be
       -0.0655081 -0.253101 -0.322858 -0.165621
000050 fa 72 b0 3c bf 0f 17 bf 13 d5 ab bf 61 c4 fe 3d
       0.0215392 -0.590084 -1.34244 0.124398
000060 61 37 7c 3e 2f 30 83 3e 23 2f 6f bf 1a 34 ec be
       0.246305 0.256227 -0.934313 -0.461335
000070 22 70 3c bf 23 bc dd be f5 be 01 c0 bb a6 56 3d
       -0.736086 -0.433076 -2.02728 0.0524051
000080 03 fe 3a 3d 4c c3 a8 c0 7e e3 51 c0 bf 09 ba 3d
       0.0456524 -5.27384 -3.27951 0.0908389
000090 7c d3 ac be ab e9 5a 3e 50 01 58 c0 37 39 84 be
       -0.337551 0.213782 -3.37508 -0.258249
0000a0 f0 87 df 3d 38 f6 e4 be 09 c5 f6 bd 4a 7a f8 bd
       0.109146 -0.447191 -0.120493 -0.121327
0000b0 87 17 14 3e 05 86 8c bf 69 6f cc c0 75 b2 0f bd
       0.144621 -1.09784 -6.3886 -0.0350823
0000c0 0e 84 84 bf 11 a7 2b bf
       -1.03528 -0.670518
