networks/onnx/ACASXU_run2a_3_1_batch_2000.onnx (onnx, 55914 bytes, 15 tensors)

input_AvgImg f4 [1, 1, 5]
000000 00 00 00 00 00 00 00 00 00 00 00 00 00 00 00 00
       0.0 0.0 0.0 0.0
000010 00 00 00 00
       0.0

Operation_1_MatMul_W f4 [5, 50]
000000 ab 09 c6 bf 90 f7 22 bf 74 02 1f 3d 1f 5b 60 3c
       -1.54717 -0.63659 0.0388207 0.0136936
000010 ca c4 5d bf c1 5a 50 bd 45 f5 56 bb 27 82 1d bd
       -0.866284 -0.0508678 -0.00328 -0.0384542
000020 7f c1 ba bf 45 64 38 3e c5 76 37 3d 63 7f 09 c0
       -1.45903 0.18007 0.044791 -2.1484
000030 a8 13 55 3d 63 08 20 bd 5c 8d 0c be b0 20 07 c0
       0.0520207 -0.0390705 -0.137258 -2.11137
000040 bd 19 95 be 03 d1 d1 bb 51 16 76 3f d2 e3 f3 bf
       -0.291212 -0.00640309 0.961278 -1.90539
000050 f3 c9 0a be ec fb d0 be 4c 2d 25 bd 30 da 4f bf
       -0.135536 -0.408172 -0.0403264 -0.811923
000060 31 5c dd bc 5f 62 50 bf 1b da ab bd 9a 23 6b 3d
       -0.0270215 -0.814001 -0.0839121 0.057407
000070 75 5c 68 bc 91 d5 cd 3d 61 90 4f bc 64 1e e9 bf
       -0.0141822 0.100505 -0.0126687 -1.82124
000080 44 8b 87 3d b0 55 08 c0 25 69 c8 3c 99 f0 8f bf
       0.0661836 -2.13023 0.0244642 -1.12453
000090 a0 10 e3 b9 1e 18 90 3e 50 f1 89 bd 47 72 91 bf
       -0.000433092 0.281434 -0.0673548 -1.1363
0000a0 6d c3 cd ba 17 11 7d bf 2d 83 00 bd b6 25 1b 3a
       -0.00156985 -0.988542 -0.0313751 0.00059184
0000b0 f1 42 5f 3d 15 7a d8 bc 8a 55 a8 3c 7a 7c b1 bc
       0.0545072 -0.0264254 0.0205486 -0.0216658
0000c0 71 f8 ee b8 de e5 3a bf 5d 34 10 bf a5 2d ae 3c
       -0.00011395 -0.73007 -0.563299 0.021262
0000d0 f2 0c 82 3f 53 93 70 be 06 84 32 3f 05 8a a0 3e
       1.01602 -0.234937 0.697327 0.313553
0000e0 4d d6 f0 3e 9d f7 27 3f 33 4d 3d bd e8 13 ad 3f
       0.470385 0.656122 -0.0462162 1.35217
0000f0 7c 2c bd 3d 77 53 00 3d ba bd 94 3f 6a da 85 3c
       0.09237 0.0313296 1.16204 0.0163395
000100 d7 93 af ba 5c 1f 36 3d fb 90 6f bf f2 31 6d 3b
       -0.00133955 0.0444635 -0.935806 0.00361931
000110 73 82 f6 bd 73 ba 1c 3e 60 16 20 3b ee 91 b2 3d
       -0.120366 0.153055 0.00244274 0.0871924
000120 75 7f 2b bc e5 42 05 bd 48 36 d7 3d f7 8e a2 3e
       -0.0104674 -0.0325345 0.105084 0.317497
000130 d3 de 80 3f 94 f7 25 3f ea 92 b1 3e 4a 5e 9d 3e
       1.0068 0.648309 0.346824 0.30736
000140 16 86 68 be b6 95 a8 3c f5 84 dd 3f d6 d8 4f bd
       -0.227074 0.0205792 1.73062 -0.0507439
000150 7d ae 06 3e 2d 94 ec 3d d3 12 7b be c1 1c a5 bf
       0.131525 0.115517 -0.245189 -1.28994
000160 50 53 ab 3f de ca a2 3e b5 d7 a7 bc 8a 4b 00 3c
       1.33848 0.317954 -0.0204886 0.00783051
000170 85 5f 1a be 25 1f 23 bf a7 25 3e 3f 9e ad 28 3c
       -0.150755 -0.637194 0.742762 0.0102953
000180 c5 b5 b1 3a 75 c9 19 3c 68 59 b9 bb cf 83 f3 3e
       0.00135582 0.00938641 -0.00565641 0.475615
000190 62 30 3f be a5 90 6f b9 59 da e9 3c 3b 1d 88 3e
       -0.186708 -0.000228467 0.0285465 0.265848
0001a0 0c bf a5 3c 6e 85 00 bf 05 c2 2e bf 6c 23 2a bf
       0.0202327 -0.502036 -0.682648 -0.664603
0001b0 91 dc 50 3d 61 1a a3 bb 09 50 97 3f e3 31 28 bc
       0.0509916 -0.00497751 1.18213 -0.0102658
0001c0 54 e4 d0 3d 3a 15 7c b9 c5 47 aa 39 49 8c 16 bc
       0.101998 -0.000240405 0.000324784 -0.00918872
0001d0 a4 fc a0 3f 2c 74 10 bb 78 a2 1f 3d a0 0a 8e bd
       1.25771 -0.00220419 0.0389733 -0.0693562
0001e0 05 81 06 ba 47 c6 8f bc e9 2c 3b bf c7 12 12 3f
       -0.000513092 -0.0175506 -0.731154 0.570599
0001f0 ee e1 5c 3c 59 e2 bc bd bb 44 15 3e 77 a2 b4 3e
       0.0134816 -0.0922286 0.14577 0.352802
000200 db a2 00 bf 36 e5 9a 3f a4 fd 77 3f 07 15 49 bb
       -0.502485 1.21012 0.968714 -0.00306827
000210 04 73 e0 bf d3 df a6 3b 11 e0 c4 bd 8b 1b 07 be
       -1.75351 0.0050926 -0.0961305 -0.131941
000220 e6 c9 d5 3e f1 b7 21 3f a7 af e7 3d d2 6f 5f bf
       0.417556 0.631713 0.113128 -0.8728
000230 d3 51 2b bb e4 95 35 bc 8f 25 22 bd a5 49 a9 bf
       -0.00261413 -0.0110831 -0.0395866 -1.32256
000240 7f a5 db 3e 89 84 25 3c 55 8a 3d bf e1 2e d2 3b
       0.428997 0.0101024 -0.740392 0.00641428
000250 a8 e1 9d 3b 2e 8c 34 3e b0 ad ff bd 98 17 88 bf
       0.00481816 0.176316 -0.124843 -1.06322
000260 01 87 d0 3e c9 02 c2 bf b0 5d 15 3d 43 ab 13 3f
       0.40728 -1.51571 0.0364663 0.576832
000270 d9 79 cb 3d 78 ed c2 be 5c 00 7a be 3e bb 72 bd
       0.0993535 -0.380718 -0.244142 -0.0592606
000280 dc 82 e5 3d 03 71 98 bd c7 bd f9 bd fa 61 9c bf
       0.112066 -0.0744343 -0.121944 -1.22174
000290 51 2e cd bc 17 d4 96 3b 3e 76 07 3e da 7a 70 3a
       -0.0250465 0.00460292 0.132287 0.000917358
0002a0 8e 6a 05 3c d1 46 26 bb 13 ee 1a bd 8f 17 d2 3d
       0.00814308 -0.00253718 -0.0378247 0.102584
0002b0 51 69 48 bf d8 fe 64 bd 3f ab 0c bf 3d 63 2f 3e
       -0.782857 -0.0559071 -0.549488 0.171277
0002c0 7f 69 11 be 23 86 cd 3e 2e 39 6e be 7c ba 4a 3e
       -0.142004 0.401414 -0.23264 0.197977
0002d0 a0 c4 bf be db 6c 2c 3c 05 03 80 bb 17 66 e1 3d
       -0.374547 0.010524 -0.00390661 0.110058
0002e0 49 80 d6 bf ae 65 f2 bd a9 58 ab 3c 31 5c 8d be
       -1.67579 -0.118358 0.0209163 -0.276094
0002f0 8e 73 8b be 0a eb d0 3c 08 f0 ed ba a6 0a 52 bf
       -0.272366 0.0255027 -0.00181532 -0.820475
000300 36 c9 63 bf 15 56 92 3e 42 97 a0 be 07 08 92 bf
       -0.889789 0.285813 -0.313654 -1.14087
000310 76 17 04 bf ad 16 08 bf 91 d0 d6 bf b0 7a 1b 3d
       -0.515983 -0.531596 -1.67824 0.0379588
000320 8d b4 f4 3d 4a 41 0b bf 69 52 ba be 49 0e e0 be
       0.119485 -0.543965 -0.36391 -0.437609
000330 b2 f4 b9 be cf f5 79 bf 94 85 a7 be 81 3e b5 3f
       -0.363195 -0.976407 -0.327191 1.41597
000340 7c 7e 08 3e 90 10 25 3e 4c eb 85 3d 27 f6 50 bc
       0.133295 0.161196 0.0653902 -0.012754
000350 13 d1 74 bd f9 15 43 3f d4 76 5d bc 34 2e bc 3d
       -0.0597697 0.762054 -0.0135171 0.091885
000360 ae 4a 06 bf f6 86 b1 3c 77 67 d9 bf 08 f5 3e bc
       -0.524577 0.0216708 -1.69847 -0.0116551
000370 e9 f5 82 bc b5 a8 c7 3e 79 5a 16 3f 24 d2 56 3e
       -0.0159864 0.389959 0.587318 0.209786
000380 7a 70 77 3f 2c 27 06 3d 2e 39 4e be a5 13 09 be
       0.96656 0.0327522 -0.20139 -0.133864
000390 cf 14 da bf 5a 7e a0 3c f1 d4 a3 3e 00 67 13 bd
       -1.70376 0.0195915 0.319984 -0.0359869
0003a0 c4 40 af 3e 60 42 80 bd ec 4e 13 bf cc d9 56 3d
       0.342291 -0.0626266 -0.575423 0.0524538
0003b0 e7 1d f3 bf 64 d2 aa 3d 04 58 24 3e a5 ad 90 3d
       -1.89935 0.0834091 0.160492 0.0706437
0003c0 1a e8 94 bb 5a 2d d0 bd a4 8d d7 bf 4a 7b 33 be
       -0.00454427 -0.101649 -1.68401 -0.175275
0003d0 5c ff ee 3d d5 3c 2b 3f a9 84 77 3e e5 29 0f bf
       0.116698 0.668897 0.241717 -0.559233
0003e0 11 c5 04 bf 08 8b 82 38
       -0.518632 6.22478e-05

Operation_1_Add_B f4 [50]
000000 6d 55 22 bf 43 e4 5c bf 34 fb d7 3c ea 24 47 bf
       -0.634116 -0.862858 0.0263649 -0.777907
000010 47 92 30 be 7c ea ad 3d 81 b2 59 3e 9a 2e 8a bd
       -0.172433 0.0849199 0.212595 -0.0674717
000020 27 db c0 be 2c a0 50 3e 03 44 01 3e fb 57 0e bf
       -0.376672 0.203736 0.126236 -0.55603
000030 b9 fd ea be b7 f0 9c be d2 27 88 bd 9e b7 09 bf
       -0.458967 -0.306524 -0.0664822 -0.537958
000040 84 f3 b1 3e 7a 90 b9 bc af 7c c6 be f7 e5 10 bf
       0.347561 -0.0226519 -0.38767 -0.566009
000050 48 05 94 bd ec 15 46 3e 64 04 24 3e 6c 41 ef bd
       -0.0722757 0.193443 0.160173 -0.116824
000060 a8 0f ae 3d 81 8d 90 bc 24 29 49 be a2 45 46 3e
       0.0849908 -0.0176456 -0.196446 0.193625
000070 cc cf 2d bf 7b 0c 3b bd d6 52 30 3e 2b dc ba be
       -0.678952 -0.0456662 0.172191 -0.364961
000080 e8 11 b3 be 67 5f 11 bf 65 35 45 bf bc 58 d8 bd
       -0.349746 -0.567862 -0.770346 -0.105638
000090 86 ab 53 bf c7 4b 0b 3f 33 54 0d 3f f9 f6 8e be
       -0.826836 0.544125 0.552066 -0.279228
0000a0 28 f9 c7 bc 42 40 26 bf 8b fa 2c bf ac 03 5b bd
       -0.0244108 -0.649418 -0.675698 -0.0534703
0000b0 18 36 34 3d ca fd ce bd e7 54 d2 3d 9c 34 c5 3e
       0.0439969 -0.10107 0.102701 0.385167
0000c0 63 97 24 bf 8d f4 bd bc
       -0.642935 -0.0231879

Operation_2_MatMul_W f4 [50, 50]
000000 33 a7 e3 3f 08 39 7f be aa 61 1f be 24 80 a3 3e
       1.77854 -0.249241 -0.155646 0.319337
000010 d1 bc 32 bd ad 6e 97 c0 cd 1e f0 3f ca 16 d9 3e
       -0.0436371 -4.73226 1.87594 0.424002
000020 f2 e1 a3 bc 00 74 08 3f 9e 41 a3 3f 96 08 b4 be
       -0.0200052 0.53302 1.27544 -0.351628
000030 83 db 7a bf 63 0b 1d 3f 57 7b 18 3e 97 e5 4b bd
       -0.979912 0.613455 0.148908 -0.0497795
000040 0c 68 98 bc a3 75 dc bf 90 bd be 3f eb ff d0 bf
       -0.0186043 -1.72234 1.49016 -1.63281
000050 1d e6 ab 3e 80 28 38 3d c6 4d 35 3f 4d 15 2c c0
       0.33574 0.0449605 0.708218 -2.6888
000060 d0 0e a8 be 3a 2a f1 bb 07 5f 9c 3f 67 ed 82 3f
       -0.328238 -0.00735977 1.22165 1.02287
000070 c8 b5 6b c0 21 20 cf 3e 0b 00 bf 3d 57 ea 51 bf
       -3.68297 0.404542 0.0932618 -0.819982
000080 7d 7c 9d bc 46 94 ae 3f bb 61 7b bf 7f 84 51 be
       -0.0192244 1.3639 -0.98196 -0.204607
000090 d5 95 ff 3f d6 39 8e bf 2b 35 87 3f 88 fa 18 3d
       1.99676 -1.11114 1.05631 0.0373483
0000a0 8f 36 a2 bf 44 c0 3d c0 5d de 04 3f 1e fd 5f be
       -1.26729 -2.96486 0.519018 -0.218739
0000b0 da 37 67 be 87 35 59 3f 84 9c d7 3d bf 0b 23 3f
       -0.225799 0.848473 0.105279 0.636898
0000c0 92 59 75 3f a8 ec 09 3c 96 cf 1a 40 f2 d8 ca bd
       0.958398 0.00841824 2.41892 -0.0990466
0000d0 24 28 ce 3f 2e e6 3f bf 93 8a 67 bb b7 98 a7 be
       1.6106 -0.749606 -0.00353304 -0.327337
0000e0 eb 1d ce 3e cd 3b 2a 40 a7 47 49 bd fe 26 64 3f
       0.402572 2.6599 -0.0491406 0.89122
0000f0 e0 84 d2 bf 7e 57 f0 3f c0 97 52 3e 37 39 64 3f
       -1.64468 1.87767 0.205657 0.891498
000100 62 f8 a0 3f bf 70 19 3c 86 c3 b7 bc 6b 65 32 bf
       1.25758 0.00936526 -0.0224321 -0.69686
000110 b1 30 b4 3e b6 b9 e9 3f 9c a4 79 3e 90 d7 9b 3e
       0.351934 1.82598 0.243792 0.304379
000120 ae 7f 37 be 2e d5 fb bc 2b 84 79 3f c1 c5 76 40
       -0.179198 -0.0307413 0.974673 3.85582
000130 44 8a 7d 3f ad 15 0d 3f e0 10 76 bf 9b 92 ac 3e
       0.990391 0.551112 -0.961195 0.337056
000140 ae f0 ce 3e 98 c1 90 be cc 24 ea bc 4f 57 1f 3f
       0.40418 -0.282727 -0.028582 0.622426
000150 55 00 e7 bb f6 ee ff 3f ec a3 13 be 37 8a 60 3f
       -0.0070496 1.99948 -0.14418 0.877109
000160 bb 80 8f be 8c a8 bf 3c 99 8f 35 3c 55 d9 ab bf
       -0.280279 0.0233958 0.0110816 -1.34257
000170 dc b7 ca 3e 8f a5 af bf 1b 12 c7 3f ab ec b3 3f
       0.395934 -1.37224 1.55524 1.40566
000180 df 6c 03 c0 10 94 27 3f 0f 0b a1 3f 7f bc 1f bf
       -2.05352 0.654603 1.25815 -0.62397
000190 fb c9 04 3f 77 4d 48 be 65 19 c2 be 45 10 27 3e
       0.518707 -0.195608 -0.3791 0.163148
0001a0 2b b6 33 bd 04 5a c2 be f2 61 9e 3e 93 38 c3 be
       -0.0438749 -0.379593 0.309341 -0.381291
0001b0 dc e0 59 3b 63 b9 00 3d 34 1a b4 bd 22 60 be bd
       0.00332456 0.0314268 -0.0879406 -0.0929568
0001c0 67 f2 e5 be df f8 2a 3e 2f a4 63 be c1 a4 9d bc
       -0.449115 0.166965 -0.222306 -0.0192436
0001d0 ea 54 9e 3c 20 26 a9 3e 00 57 b2 be 91 f3 fe be
       0.0193276 0.330369 -0.34832 -0.497952
0001e0 65 5c a7 3d 62 2c cb be 65 a5 f1 be 6f f1 88 3e
       0.0817192 -0.396823 -0.471965 0.267467
0001f0 bc ad 64 bf 2f 08 3b bd e7 1b 91 be 41 6f 01 3c
       -0.893276 -0.0456621 -0.283416 0.00790006
000200 d4 60 ba bf c8 07 d5 be 7f 95 bd bd ee 5f 29 be
       -1.45608 -0.416075 -0.0925703 -0.165405
000210 e2 3e 39 b9 27 86 04 3e 89 7a 4d bf d5 76 03 bf
       -0.000176664 0.129418 -0.802651 -0.513532
000220 70 79 00 3f 57 d1 ff bd 22 37 87 3f 79 ad c4 bc
       0.501853 -0.124911 1.05637 -0.0240085
000230 7c 44 94 be 30 d8 09 3f 8c dc 23 bf 4a ef 9b bf
       -0.289585 0.538455 -0.640084 -1.21824
000240 36 91 29 3f c0 b0 a4 be ad bd 03 bf ce fa f4 bd
       0.662372 -0.321661 -0.514613 -0.119619
000250 5f d4 ae be 0f d1 88 be d2 00 2e be 88 ba db bf
       -0.341464 -0.26722 -0.169925 -1.71663
000260 f6 5e 9c 3e 98 8a a5 3e 54 09 45 bd 00 57 9a bf
       0.305412 0.323323 -0.0481046 -1.20578
000270 bf 45 ff 3e 47 1e 40 3f bc 2f 99 bb 31 89 94 3d
       0.498579 0.750462 -0.00467488 0.0725273
000280 6f 81 80 bf 5e 0e cb be 5c 90 5d 3f 88 d7 e5 bf
       -1.00395 -0.396594 0.865484 -1.79564
000290 77 f5 26 bf 27 d9 ee 3b 19 c4 0c bd 14 3f 92 3f
       -0.652183 0.00728907 -0.0343667 1.14255
0002a0 cb 9c 08 40 ee 5b 61 bf 83 da cf bd 0a 4f a3 bd
       2.13457 -0.880309 -0.101491 -0.0797406
0002b0 32 5a d7 bf d3 e5 e2 3b 51 a0 13 40 a5 15 bf be
       -1.68244 0.00692437 2.30666 -0.373212
0002c0 49 83 9b 3e 41 0c 70 bf ed 2d 31 3f 64 23 88 3e
       0.303736 -0.937687 0.692107 0.265895
0002d0 3b 19 30 3f b1 f8 f5 3e 1f 2b 9d bc 4e 7f 8e bf
       0.687885 0.480413 -0.0191856 -1.11326
0002e0 81 cd b1 3e 8d ed 0d bf fc 6f 85 bf f7 ae d1 3e
       0.347271 -0.554406 -1.04248 0.409538
0002f0 c9 8e ad 3f 2c 62 18 3c 26 aa ab 3f bc 90 4a 3f
       1.35592 0.00930075 1.34113 0.791271
000300 18 43 b5 3f 9b e8 13 bf 1c b6 c1 bf b3 24 c8 be
       1.41611 -0.577768 -1.51337 -0.390905
000310 ac 6f 50 3f 9d 11 b5 bf 94 67 ee be 4e d4 02 3f
       0.814204 -1.4146 -0.465634 0.511052
000320 22 1e 64 bc 33 5d 7e bd 3d f0 29 3f cb f2 c5 be
       -0.0139232 -0.0621006 0.663822 -0.386618
000330 24 1a 0e bd 04 a1 96 3d 0b 7d e0 3e 83 8e 81 3d
       -0.0346929 0.0735493 0.438454 0.0632601
000340 16 3f 3c bd e6 0f bc bd 31 97 0c 3f 51 f7 11 be
       -0.0459586 -0.0918272 0.549182 -0.142545
000350 1f ba b0 be c8 b3 0b be d3 f8 15 3f 93 6b 0f 3d
       -0.34517 -0.136428 0.585828 0.0350147
000360 55 70 d3 3c 71 ac bc c0 35 40 19 be 5a 66 61 bf
       0.0258104 -5.89605 -0.149659 -0.880468
000370 d9 af 9b bd 85 95 2e 3f 71 ab f8 3e ae c1 d6 3c
       -0.076019 0.681969 0.485683 0.0262154
000380 26 81 c7 bd 59 c2 aa be f7 39 6e 3e a9 4a 13 bf
       -0.0974143 -0.333514 0.232643 -0.575358
000390 60 e9 fc 3d 3c a2 76 bf 0a db 23 bf 8b 4e 52 bf
       0.123492 -0.963413 -0.640061 -0.821511
0003a0 e7 f0 9a 3c 98 6c d4 be 27 66 85 3f f8 c6 d0 3d
       0.0189137 -0.414891 1.04218 0.101942
0003b0 a4 33 70 3e a4 c8 75 3d 33 19 c6 3e d0 1d 0e bd
       0.234572 0.0600058 0.386911 -0.0346964
0003c0 55 c1 1c bf 8e 91 ac be 03 eb 48 be 35 28 4e bf
       -0.612325 -0.337048 -0.196209 -0.805301
0003d0 33 31 ed be a4 8c 68 3e e5 61 8d bf bc 02 01 3e
       -0.463266 0.227099 -1.10455 0.125987
0003e0 2e 1c a8 3e 0b 7b b2 3e 50 c3 27 be 6a d9 8a be
       0.32834 0.348595 -0.163831 -0.27119
0003f0 b6 90 f6 3c c7 f5 f7 be 09 59 f1 3c f4 8c 3d 3e
       0.0300983 -0.484297 0.0294614 0.185108

Operation_2_Add_B f4 [50]
000000 da ab d7 be 1f db 12 3e 8d 41 7f bf c9 1e c1 3e
       -0.421233 0.143414 -0.997094 0.377188
000010 71 b5 29 bc 85 27 38 bf 74 28 ab be 13 ee 45 bf
       -0.0103582 -0.719353 -0.334293 -0.773164
000020 3c 2c 75 bb 14 9f 71 bd 2c 7e b3 be 62 68 69 bf
       -0.00374104 -0.0589896 -0.350572 -0.911749
000030 22 e1 13 bf ce 70 87 bf 33 a8 8e 3e 95 d2 18 bc
       -0.577654 -1.05813 0.278627 -0.00932755
000040 d9 5b 4a bc 37 fc ce be 8f 39 3f bf 35 f1 a9 bd
       -0.012351 -0.404268 -0.746972 -0.0829796
000050 e1 62 95 bf 60 90 04 bf cb 47 2e 3f bb 0e 55 be
       -1.16708 -0.517828 0.680783 -0.208064
000060 e9 d1 4c bf b7 f4 67 38 78 b9 48 be 69 c3 19 3f
       -0.800078 5.53026e-05 -0.19602 0.600638
000070 e2 3c 94 3e d6 54 f6 3e a7 80 ea 3c f1 d9 82 3e
       0.289527 0.481116 0.0286258 0.255569
000080 13 f0 ca bb 62 f3 3d bf e0 a2 13 be 01 89 0e bf
       -0.00619317 -0.741995 -0.144176 -0.556778
000090 af 25 84 be 51 d9 90 be f9 2c f7 be c0 fe 94 bb
       -0.2581 -0.282908 -0.482765 -0.00454697
0000a0 2b c1 9a 3e 5d 34 28 bf 1f 2c 13 bf da 03 a1 3f
       0.302255 -0.657049 -0.574892 1.25793
0000b0 2a 58 63 3e 82 ca ac 3f fd dc d8 be 7b 13 db be
       0.222016 1.34993 -0.423561 -0.427883
0000c0 1f 14 9c 3e c9 e8 e0 bd
       0.304841 -0.109819

Operation_3_MatMul_W f4 [50, 50]
000000 02 49 f0 3e 68 24 d2 be d1 c9 f2 be 52 0d ab be
       0.469307 -0.410434 -0.474196 -0.334086
000010 b1 86 fb be 86 73 8d 3e f2 b5 08 bc d8 45 3d 3f
       -0.491262 0.276272 -0.00834416 0.739347
000020 1c 95 5b be de 38 e1 be 9c 16 ec bf 30 46 74 be
       -0.214436 -0.439887 -1.84444 -0.238549
000030 97 e6 d6 3e 93 ac 9b 3e c2 c2 59 3e b7 ee 36 3e
       0.419728 0.304051 0.212657 0.178645
000040 0d 6c ba 3c 04 1b 77 3e 04 91 d5 3e e5 c5 93 3c
       0.0227566 0.241314 0.417122 0.0180387
000050 de 8e 8c bf c8 5e f7 bf ae b6 92 bf 05 16 00 3f
       -1.09811 -1.93258 -1.1462 0.500336
000060 2a 72 b8 be 2e f1 b6 3c 0b f0 1d bd 75 c8 b5 3e
       -0.360246 0.0223318 -0.038559 0.355045
000070 04 1f 33 3e 72 8a a6 3e be 4a 7e be e0 65 56 be
       0.174923 0.325275 -0.248332 -0.209373
000080 e6 24 bf 3d 4b 22 1b 3e 14 eb fc 3e a0 fd 70 3f
       0.0933321 0.151498 0.493981 0.94137
000090 7d 08 9a be c7 7f c9 be e3 c1 e6 be 5c f4 94 3d
       -0.300846 -0.393553 -0.450698 0.0727317
0000a0 dd cd f3 3d a0 8b 56 bf 32 29 a4 3d 2f 6e 3f c0
       0.119045 -0.838068 0.0801567 -2.9911
0000b0 f8 fa b2 be 1d c9 91 bf cc 29 25 bf d4 c3 06 3c
       -0.349571 -1.13895 -0.645169 0.0082254
0000c0 ce 6f 48 bf 6e 69 05 3e f9 bc 42 bf f2 b5 cf be
       -0.782956 0.130285 -0.760696 -0.405685
0000d0 e1 3a a0 3d ba 66 ba bf d7 86 a6 bf e0 b9 8b bf
       0.0782373 -1.45626 -1.30099 -1.09161
0000e0 bf dc 22 bd 4d f7 5a 3f 5c 3c 7c be 53 58 39 bf
       -0.0397613 0.855336 -0.246324 -0.724004
0000f0 2d 7b 2e 3f 49 9d 94 3f 7a 54 3c 3e 02 bb 1a 3f
       0.681567 1.16105 0.183916 0.604416
000100 49 f7 43 be 25 1c af 3d d7 c5 c8 3c 75 f5 c9 3d
       -0.191373 0.0855029 0.0245084 0.0986127
000110 24 ad 02 bd a4 54 92 3e 5e 14 5d be 9c 4e 66 bf
       -0.0319034 0.285802 -0.215898 -0.899637
000120 0f 44 6e 3f 95 b9 01 3f 0c 3b 54 bf ef e1 7c c0
       0.930726 0.506738 -0.829026 -3.95129
000130 c2 1e 89 3c 96 cd 24 bf 2e 37 88 be 6f 91 85 bc
       0.0167383 -0.643762 -0.266046 -0.0163047
000140 9d 80 82 bf 43 38 d6 3e d9 5a ff 3d 79 22 98 be
       -1.01955 0.418398 0.124685 -0.297138
000150 54 8b c0 3e 88 4b 0e 3f a5 cd b2 3d 28 61 92 3f
       0.376063 0.55584 0.0873063 1.14359
000160 8b 1c 3d 3d 79 74 33 3f bc 57 3d 3e 88 b3 07 3d
       0.0461698 0.700996 0.184905 0.0331302
000170 b0 02 84 3e 35 40 05 bf eb 96 83 3d 08 ad 17 be
       0.257833 -0.520511 0.0642527 -0.148121
000180 99 9c 7a bf e0 1a ce 3c c0 ea 58 3e ca 78 0a bc
       -0.978952 0.0251593 0.211833 -0.00845165
000190 91 9b e4 c0 40 30 49 c0 f6 5d c9 3f cd 02 31 bf
       -7.14399 -3.14357 1.57318 -0.691449
0001a0 9a 95 ed bc 40 b7 bc 3c c6 8f 0c 3d 3b 39 63 3d
       -0.029002 0.0230366 0.0343168 0.0554745
0001b0 3b 53 f8 be 90 82 37 bf d4 0e af 3f f6 b3 30 3f
       -0.48501 -0.716836 1.36764 0.690246
0001c0 91 2c 28 3f 0f b5 41 3f 99 12 19 3e fd dd 93 3e
       0.65693 0.756669 0.149485 0.288803
0001d0 56 d2 2f bd 0d e0 91 3f fe 98 06 bf 83 db 12 3f
       -0.0429252 1.13965 -0.525772 0.573662
0001e0 c0 22 03 3f 8e 01 e5 3f 52 29 b6 3e 32 45 ef bc
       0.512249 1.78911 0.355784 -0.0292078
0001f0 19 ff ea bf 8a ab 78 c0 d2 8f c6 bc 3f c7 07 be
       -1.83591 -3.88547 -0.0242385 -0.132596
000200 7e 00 b6 bf 97 aa 28 bf 07 b6 3c 40 d9 b1 01 3e
       -1.42189 -0.658853 2.94861 0.126655
000210 f8 fe 16 bf 0d 1c 40 3f 4d dc ea 3d 02 45 4c be
       -0.589828 0.750428 0.114678 -0.199482
000220 33 8a a1 3f 89 07 a0 3f 18 ec ba 3f 47 72 47 c0
       1.26203 1.25023 1.46033 -3.11635
000230 f4 c3 bc bf 94 bd 21 3f 40 c1 85 3f db c4 89 3f
       -1.47473 0.631799 1.04496 1.07632
000240 f2 77 3f 3e ec c0 9e c0 0a 12 4b be a3 3b eb 3b
       0.186981 -4.96105 -0.198311 0.00717874
000250 04 9d 8f bd e2 e4 ca bf 42 93 1c bf c3 f0 85 3f
       -0.0701237 -1.58511 -0.611622 1.04641
000260 5c a5 00 bd 66 15 26 be d4 9c d4 3e f9 2c 8f bf
       -0.0314077 -0.162191 0.415259 -1.11856
000270 97 ac 4a bd 15 8c 82 bf 25 b0 65 3f e4 a8 a7 3d
       -0.049481 -1.0199 0.897219 0.0818651
000280 8e b1 4b 3f a7 06 fa 3d 8e c9 b2 3e 8d 45 ff bf
       0.795678 0.122083 0.349194 -1.99431
000290 fe 20 87 3d 27 f8 26 be 39 ab 91 3b 9f ac 98 be
       0.0659809 -0.163056 0.00444546 -0.298192
0002a0 66 88 63 3e 1e 88 94 be 1e f7 a2 3d 05 6e 7d 3e
       0.2222 -0.290101 0.0795729 0.24749
0002b0 32 01 7b 3f 3d 9d 23 bf 69 18 23 bd 1c ef 06 3f
       0.980487 -0.639118 -0.0398182 0.527086
0002c0 be 33 b5 3c 64 02 2e bf ae f2 f4 be 89 b7 16 bf
       0.0221194 -0.679724 -0.478414 -0.588738
0002d0 f1 63 b0 3f 2d 05 e4 bd fd a0 3e 3e e4 f6 27 bf
       1.37805 -0.111338 0.186161 -0.656111
0002e0 2f 7d 18 3c 00 1b f8 be bb 62 36 be 69 8d 35 3f
       0.00930719 -0.484581 -0.178111 0.709189
0002f0 91 47 88 be 0a 83 72 bf 7c b4 f0 3e ba dc 60 be
       -0.266171 -0.947312 0.470127 -0.219592
000300 9b 73 d0 bd c9 93 0c 3f c6 a3 c4 3e a2 ed a8 3e
       -0.101783 0.54913 0.384062 0.329938
000310 d4 38 ba 3d ef 8c 5b bc 26 fe 58 3e 11 aa 44 3e
       0.0909287 -0.0134003 0.211907 0.192055
000320 48 c8 fa 3b 50 77 58 bb f5 6f 12 3d 1e 4e 25 3d
       0.00765327 -0.00330301 0.0357513 0.0403577
000330 be 33 da 3c a1 7e bc bc a1 b9 ce 3c a6 23 a5 3c
       0.026636 -0.0230096 0.025235 0.0201586
000340 af ee 18 3d 5d 4d 83 bc c2 f7 1e bd 78 ac 43 bd
       0.037337 -0.0160281 -0.0388105 -0.0477719
000350 85 a5 2b bd 62 b6 c9 bc c8 26 f9 bc 77 8e 17 3d
       -0.0419059 -0.0246231 -0.030414 0.0370011
000360 38 f8 c2 b9 71 54 13 3d fd f7 60 bb 1d 8d 48 bd
       -0.000371875 0.0359692 -0.00343275 -0.0489627
000370 04 a8 8e 3c 60 fb d3 3c 16 55 3a 3d 0f 2d cd 3c
       0.0174141 0.0258767 0.0454913 0.0250459
000380 56 2d c4 bc 74 29 0e bd 0e 8a 03 bc 35 71 fc 3c
       -0.0239474 -0.0347075 -0.00802852 0.0308157
000390 e2 79 c4 3c 2f 5a b6 bc 42 16 b3 bb 21 f7 1d 3c
       0.0239839 -0.0222598 -0.0054653 0.00964144
0003a0 8a d2 94 3c 5e 41 01 3b 28 6c 15 3d c7 58 f9 3b
       0.0181668 0.00197228 0.0364801 0.00760946
0003b0 88 c9 0a 3d 62 85 9b bc e4 43 9a bc 1c a1 95 bc
       0.0338836 -0.0189845 -0.0188312 -0.0182653
0003c0 3f d5 b6 3b 34 74 a2 3c 22 63 1f bd 4b 68 9e bb
       0.00557962 0.0198308 -0.0389129 -0.00483421
0003d0 55 ff 3b 3d 43 49 12 3d 5a a0 5d bc 8c 1f d9 3c
       0.0458978 0.0357144 -0.013527 0.0265043
0003e0 7d 6e 32 3d 6f ed 29 3d 3b a7 21 3f b8 5b f2 bd
       0.0435624 0.0414862 0.631458 -0.118339
0003f0 8e ac fc bd ab ea 71 bf 8a 11 53 bd 4a 27 fa 3e
       -0.123376 -0.944987 -0.0515304 0.488581

Operation_3_Add_B f4 [50]
000000 e7 1d 87 3f 66 66 ba bf 8b 89 b5 3e f6 d0 be be
       1.0556 -1.45625 0.354565 -0.372688
000010 21 cd f8 3f 0c 75 f8 3e 67 f0 f7 bc b1 a8 18 3e
       1.94376 0.485268 -0.030266 0.149081
000020 83 69 d4 bf a9 13 98 3f ab 5b a5 bf 6f 0e 87 be
       -1.65947 1.1881 -1.29186 -0.263782
000030 25 b1 3c bf d0 ed 59 bf e2 90 ed 3d 0c 79 7f bd
       -0.737078 -0.851285 0.115999 -0.0623713
000040 31 db 04 bd ea d0 89 3e d2 1a 13 be 55 18 4b 3e
       -0.0324356 0.269172 -0.143657 0.198335
000050 a2 ee df bf 61 17 85 be 75 91 2a bf 51 bf 2b 3e
       -1.74947 -0.259944 -0.666282 0.167722
000060 c7 f4 cc be 4f 22 16 bf 6e 19 4b bc c1 1f 8e be
       -0.400305 -0.586461 -0.0123962 -0.277586
000070 ce 38 a5 3e eb 1f 94 3e b5 5e 82 bd c2 0b 9c 3d
       0.322699 0.289306 -0.0636572 0.0761943
000080 a2 d2 88 be 56 10 63 bf d8 cf 97 3d e5 60 1a bf
       -0.267232 -0.886968 0.0741269 -0.603041
000090 28 f2 bc bf ce 89 7d bf 85 95 92 3e 4d 25 8d 3c
       -1.47614 -0.990384 0.286297 0.0172297
0000a0 27 3b ec bc 47 75 0e 3f 60 57 b3 3e 8a 8e 06 c0
       -0.0288368 0.556477 0.350276 -2.10245
0000b0 22 48 ef bc 6f 2c 68 3d 0f 5f 46 bf 12 a2 fc bc
       -0.0292092 0.056683 -0.774888 -0.030839
0000c0 20 9b bc be f4 11 7d bd
       -0.368371 -0.0617847

Operation_4_MatMul_W f4 [50, 50]
000000 22 55 2c bf 8c 48 34 3e 01 32 bc 3e 76 de 9e 3e
       -0.673174 0.176058 0.367569 0.310291
000010 e0 64 1b be 05 f9 a1 3e 0d 71 94 3f f1 bc ac be
       -0.151752 0.316353 1.1597 -0.337379
000020 75 e6 2e bf bc e6 d5 3d ed 2b 9f be 64 79 a7 3e
       -0.683204 0.104444 -0.310882 0.327098
000030 29 94 25 3e 29 96 9b be 04 1b 97 be d1 ce b9 3e
       0.161698 -0.30388 -0.295128 0.362906
000040 67 70 0a bd ea ec b0 3f ce 34 91 3e 80 0d 28 be
       -0.0337986 1.38223 0.283606 -0.164114
000050 04 8e 34 be 52 0c 00 bf 91 0f 9a 3f b7 b5 75 3e
       -0.176323 -0.500188 1.2036 0.239951
000060 c5 53 cf 3e 3a ea 2c bf fb 24 17 3f b6 d8 a5 be
       0.404936 -0.675449 0.590408 -0.323919
000070 a1 49 6a 3f 29 e1 6e 3d ad 2f be 3f 08 72 c4 3f
       0.915186 0.0583202 1.48583 1.53473
000080 58 92 10 3f b4 c8 be be ab 05 16 bf 2c 45 0a 3f
       0.564733 -0.372625 -0.586024 0.540118
000090 1f a1 ce be a5 3c b9 3d 49 db 68 be 41 28 b7 3e
       -0.403573 0.0904477 -0.227399 0.357729
0000a0 f3 e8 be 3e 78 6c 1a 3d f9 4c 06 3f cc 26 40 3f
       0.372871 0.0377011 0.524612 0.750592
0000b0 87 a7 8f bf 23 65 4b 3e b7 d2 2f 3f f6 ce 28 bf
       -1.1223 0.198628 0.686809 -0.659408
0000c0 c0 69 c0 3d 3c f9 48 bf 24 31 c7 3d 53 58 79 3e
       0.0939517 -0.785053 0.0972617 0.243501
0000d0 59 fb 5b bf 39 5f 04 3f d1 91 84 bf 85 f7 0b bd
       -0.859304 0.517078 -1.0357 -0.0341716
0000e0 9f 59 ce bf 91 5f bf 3e c5 ac 90 c0 b0 e8 11 3d
       -1.61211 0.373776 -4.52109 0.0356223
0000f0 9d 4b 7d c0 41 0e f2 bf ef e5 56 bf 22 54 99 3f
       -3.95774 -1.89106 -0.839446 1.19788
000100 d6 e5 a4 3e a5 10 78 be 7a 6e 71 be da e1 e3 bf
       0.322066 -0.242251 -0.235773 -1.78033
000110 2f e0 69 3f 6d 1e 73 3f 44 a3 ff 3f ea 09 f3 3e
       0.913577 0.949683 1.99717 0.474685
000120 9f 3c b8 3f 61 53 27 3f b1 a5 97 be cd e9 8a 3f
       1.43935 0.653616 -0.296186 1.08526
000130 8a 93 9b 3f ad c0 a4 3f 03 95 3d 40 a2 f0 61 bf
       1.21544 1.28713 2.96222 -0.882578
000140 bf 60 f3 3f f6 97 0b c0 93 37 f8 be f6 60 72 bd
       1.90139 -2.18115 -0.484799 -0.0591745
000150 60 92 6a be ab ec cf bf f1 4a d2 bd 76 e0 1c 3e
       -0.229074 -1.62441 -0.102682 0.1532
000160 c0 ce 59 3f a2 9b 5d 3f 5e 4c 17 3f 1b 0f 52 bf
       0.850811 0.865656 0.591009 -0.820543
000170 6c cc eb bd 3b c7 ac 3f 00 90 5f 3f 5c 55 ce be
       -0.115136 1.34983 0.873291 -0.402995
000180 e8 9f 14 c0 bf 65 5c 40 fd 30 4c c0 1c ce b4 3f
       -2.32226 3.44371 -3.19049 1.41254
000190 a9 f8 2f be 02 25 2a bb 8f 70 ba 3f 94 68 59 be
       -0.171847 -0.0025962 1.45656 -0.212313
0001a0 b7 eb 45 3e be a5 5c 3e 3d f3 ba be 9f 22 e7 3d
       0.193282 0.215476 -0.365137 0.112859
0001b0 63 97 f0 3e 89 ce 2e 3f 68 cb 81 be 53 ec a0 be
       0.469905 0.682839 -0.253505 -0.314303
0001c0 95 ee 4e 3e 74 b3 3f 3e e1 eb 50 3d e2 22 9f 3e
       0.202082 0.187208 0.0510062 0.310813
0001d0 72 34 57 be d1 91 9c 3f 44 de 32 3f dc f4 37 3e
       -0.210161 1.2232 0.698704 0.179645
0001e0 8b c5 4f 3e 01 57 09 bb a0 4e 2d 3f 65 0e a3 3d
       0.202902 -0.00209564 0.676981 0.0796173
0001f0 3a 91 70 be 06 da 78 3d 5e 64 32 3f 6c 05 3d 3e
       -0.234929 0.0607548 0.696844 0.184591
000200 07 ee 28 bf 2e 1e 6e be 19 71 01 3f b4 03 ae 3e
       -0.659882 -0.232537 0.505632 0.339872
000210 7a 6e c1 be 4a 27 d2 3d c1 e0 9a be 81 06 47 bf
       -0.377796 0.102614 -0.302496 -0.777443
000220 f4 6b fb be a4 fe 92 be 1a 35 0b 3f a4 89 03 bf
       -0.491058 -0.287099 0.543779 -0.513819
000230 be 69 52 3f 2e cb 27 be 5b b6 56 3f ea 3c 4a be
       0.821926 -0.163861 0.83872 -0.197498
000240 ac be 84 3d b5 89 33 3e 78 4e 8a 3b ca e1 13 be
       0.0648168 0.17533 0.00422078 -0.144416
000250 fa ef 0d 3f a6 29 1a 3f d3 bc a3 3e d7 a6 31 3e
       0.554443 0.602198 0.3198 0.173488
000260 b0 c7 04 bd fa 5f fe be 2f 41 7c bd db 6a 06 be
       -0.032417 -0.496826 -0.0615856 -0.131267
000270 60 ab 84 3e db b3 78 bd 5a 68 27 3e 6c 05 29 3f
       0.25912 -0.0607184 0.163484 0.660239
000280 2d 41 ae 3e a0 fc a5 be d1 4f a3 bb c9 c7 02 3f
       0.340341 -0.324193 -0.00498388 0.510861
000290 11 95 61 3d 0c 74 b5 be 84 ea 2b 3d 4f 94 e4 be
       0.0550738 -0.354401 0.0419717 -0.446444
0002a0 2c 81 64 be 8c 13 97 3e 8b c6 b2 3e 83 e0 f1 bd
       -0.223149 0.295071 0.349171 -0.118104
0002b0 88 85 86 bf c2 33 51 be 7a c0 61 3d 4b 06 00 3e
       -1.05095 -0.204299 0.0551152 0.125024
0002c0 0c cd 85 be 42 5b 9e be 33 15 e2 bd 72 6e 83 3e
       -0.26133 -0.30929 -0.110392 0.256702
0002d0 20 d4 75 3e 58 e5 f2 be 2b fd df 3a d6 4f a4 ba
       0.240067 -0.474406 0.0017089 -0.0012536
0002e0 b9 88 b7 3e 8a 47 98 3d 1a 6c 2a be e7 a4 bc bd
       0.358465 0.0743552 -0.166428 -0.0921114
0002f0 59 c2 1a 3e 22 fa 45 3e bb 9a 3c 3e d8 83 19 be
       0.151132 0.193337 0.184184 -0.149917
000300 76 60 4a bc 51 db 46 3e 97 8b 08 3e 49 80 ca 3e
       -0.0123521 0.194196 0.133345 0.39551
000310 56 62 0e 3f 83 52 2c bf 0e 10 98 bf f3 2d 3d 3c
       0.556188 -0.673134 -1.18799 0.0115466
000320 ab 62 25 3d ca 6b ad be 5c 92 23 bf 30 9c 83 be
       0.0403773 -0.338713 -0.638952 -0.257051
000330 19 e5 d9 bd 5d 1a 4f bf e6 cb b3 bf dc d7 99 be
       -0.106394 -0.808996 -1.40466 -0.300475
000340 d1 a7 fa 3c 2b 41 10 3b 39 80 02 3f 00 7e 3c bd
       0.0305976 0.00220115 0.509769 -0.0460186
000350 2f e1 88 be ae 67 d0 be 65 c2 8f be 3e 21 9b 3e
       -0.267343 -0.407041 -0.28078 0.302988
000360 5d 28 2a bc a0 e2 50 3f 51 d3 53 3c f8 0a c1 bb
       -0.0103856 0.815958 0.0129288 -0.0058912
000370 b6 4d d1 3d c6 fb 99 be 31 ce 83 bf 7c 0c d6 bd
       0.102199 -0.300749 -1.02973 -0.104516
000380 51 a0 af 3e 8c a2 17 3e 24 0c e3 be a7 74 98 be
       0.34302 0.148081 -0.443452 -0.297765
000390 18 5c 23 be 37 36 7b be 60 ea 8f bf ee b5 58 bf
       -0.159531 -0.245324 -1.12434 -0.846526
0003a0 8c 85 89 be 2d af 24 bf a2 f0 39 be d6 fc 80 3e
       -0.268597 -0.643298 -0.181582 0.251929
0003b0 76 6b c1 be 4a b7 e5 bc 20 2a 0d bf c9 c7 0e bf
       -0.377773 -0.0280415 -0.551424 -0.557736
0003c0 87 6c 10 3e 93 73 62 bd f1 d9 2a be f3 04 12 bf
       0.141039 -0.055286 -0.166847 -0.570388
0003d0 8d ec f2 be be 4a 5e bd 99 83 10 3e 5a a1 98 3e
       -0.474461 -0.0542705 0.141127 0.298106
0003e0 94 4c e6 3e 3c 68 f6 3d 0f ed e3 3c 57 96 68 be
       0.449803 0.120316 0.027823 -0.227136
0003f0 4a ec 9a be 27 c1 d3 3e 58 1d 35 bf 8f 51 1e 3e
       -0.302584 0.413583 -0.707479 0.154608

Operation_4_Add_B f4 [50]
000000 79 40 49 3e da 38 ca be d5 36 aa 3d 15 1e 50 bf
       0.196535 -0.394965 0.0831124 -0.812959
000010 9a ef 88 be b9 71 1f bf 1e a5 06 bf c8 5c 29 3e
       -0.267453 -0.622829 -0.525957 0.165393
000020 e7 e3 ba bf ba f7 06 40 3e ea 37 bf 2e 53 ab 3e
       -1.46008 2.10887 -0.718418 0.334619
000030 3d bd ed bc 0a 2e b6 bf 94 4a 48 3e ef ca 4e 3e
       -0.0290209 -1.42328 0.195597 0.201946
000040 f6 45 92 bf 2b 30 1c 40 13 4f ac bd 8b c3 81 bf
       -1.14276 2.44044 -0.0841352 -1.01378
000050 60 76 6b 3f 09 16 ab bf 9e 29 30 c0 35 ef d8 bd
       0.919775 -1.33661 -2.75254 -0.105925
000060 ba 4b 7a bf 62 c0 ba 3e e6 3e 75 3f 76 37 ef be
       -0.977718 0.364749 0.957991 -0.46722
000070 c2 b9 bb 3d 07 42 b6 bf b2 68 e6 bf 83 df 72 3f
       0.0916629 -1.42389 -1.80007 0.948723
000080 14 cf 49 be f7 78 31 3f 6a d9 9a bf a7 cb 9e bf
       -0.197079 0.693252 -1.20976 -1.24059
000090 bf 9a 23 bf 0c a1 94 3c 66 82 61 be 32 20 eb bf
       -0.63908 0.0181432 -0.220224 -1.83692
0000a0 94 c1 39 40 7f 14 85 3e 6f d7 3f 3f 06 27 07 3d
       2.90244 0.259922 0.749381 0.0329962
0000b0 f0 dd 66 3d d2 a9 ff bf 23 db c1 be 42 40 12 3f
       0.056364 -1.99737 -0.378625 0.571293
0000c0 c0 04 fe 3f 19 c5 ca 3e
       1.98452 0.396035

Operation_5_MatMul_W f4 [50, 50]
000000 ef ff 43 3e ab 97 1f be b4 fd 0e 3c f7 59 0d 3f
       0.191406 -0.155852 0.00872748 0.552154
000010 91 cd 3a 3d 72 22 b0 3d 8c ee 85 bd 89 25 cd 3e
       0.0456062 0.0860032 -0.0653964 0.400677
000020 09 87 9e 3e 2e c6 18 bf 00 3a 1c 3e 70 61 dd 3d
       0.309624 -0.596774 0.152565 0.108096
000030 c7 d9 ac 3e e8 be 94 be be 6b 54 bf 94 15 83 be
       0.337599 -0.290519 -0.829769 -0.256024
000040 9b dc 84 3d 09 a6 0a be 2d cf 83 3c f2 98 91 bf
       0.0648739 -0.135399 0.01609 -1.13748
000050 db bf d2 be 16 fc d1 3c c5 1e 8a 3d fb 96 9d 3f
       -0.41162 0.0256329 0.0674415 1.23117
000060 34 0f 90 be ac ff 47 bf e5 f1 d4 3d e8 e3 35 bc
       -0.281366 -0.781245 0.103977 -0.0111017
000070 e5 7a 8b be 20 a9 8f bd bd d4 7e 3d 64 40 a1 bd
       -0.272422 -0.0701468 0.0622146 -0.0787361
000080 83 ac 21 3c 2b a6 12 3e be 2d 04 3f 12 aa bf bd
       0.00986779 0.143212 0.516323 -0.0935861
000090 a5 30 c7 be 9c c4 88 3e 15 72 55 3e da 9d 24 3d
       -0.389043 0.267125 0.208443 0.0401896
0000a0 c3 0c 3d be 79 95 10 bd e4 f7 36 3e 8a 3c 49 be
       -0.184619 -0.0352988 0.17868 -0.19652
0000b0 50 71 2c 3e 16 4b 61 bf 13 46 93 3e 07 50 02 bd
       0.168401 -0.880052 0.287644 -0.0318146
0000c0 80 11 f4 bd da 91 b2 be 99 d4 c0 be 07 ea 84 be
       -0.119174 -0.348769 -0.376622 -0.259598
0000d0 bb 80 6b bf 21 93 ec bf 60 f0 9f 3d 53 e9 27 be
       -0.919933 -1.84824 0.0780952 -0.163976
0000e0 ee d1 5b 3f 73 9d 04 c0 c6 6e 4f 3e 61 8a 2a 3f
       0.858672 -2.07211 0.202571 0.666174
0000f0 fd 6a 86 bf a1 db 8b 3f 7a c7 41 3f 73 e9 29 bd
       -1.05014 1.09264 0.75695 -0.0414824
000100 4a 98 99 be 4e 97 cd bf c3 0a 58 3b de 77 dc 3e
       -0.29999 -1.60618 0.00329654 0.430602
000110 f9 82 36 be b5 8b 29 3e ba db 95 3e 2c c5 84 3c
       -0.178234 0.165572 0.292692 0.0162073
000120 de 76 61 be 1a dd a8 c0 85 d0 01 be 25 92 32 c0
       -0.22018 -5.27699 -0.126772 -2.79017
000130 e7 02 b2 bc 70 95 1b 3f f1 7e 3c 3d dc 2a 4c 3f
       -0.0217299 0.607749 0.0460195 0.797529
000140 2c ba b5 3e 4b 69 09 bb eb 3a 68 bf d3 87 8a 3f
       0.354936 -0.00209673 -0.907149 1.08227
000150 fa 61 f8 3f de 73 e0 bb dc f4 c3 bf f9 9d 66 be
       1.94049 -0.00684975 -1.53091 -0.225212
000160 2d 3e 15 bf c9 5d 1f bd 37 8e 28 3e 05 a7 2e 3e
       -0.58298 -0.0389078 0.164605 0.170559
000170 55 d1 69 3d 1d 20 cc bf e6 91 9f bf 15 07 bb bd
       0.0570844 -1.59473 -1.24664 -0.0913221
000180 39 99 7c bf 2a 1e e7 be 71 ab 30 be ae 67 78 3f
       -0.986713 -0.451402 -0.172529 0.970332
000190 9e 44 44 3e a3 3a 4d 3e 5f 82 9e bd 8c f8 a6 be
       0.191668 0.200419 -0.0773971 -0.326115
0001a0 f7 36 e2 bc a4 00 09 bf ce a5 28 be 85 83 c3 bd
       -0.0276141 -0.535166 -0.164695 -0.0954657
0001b0 b1 0f 57 3d 0e 14 b8 3e cd ec ce bc c0 41 77 bb
       0.0525052 0.359528 -0.0252594 -0.00377284
0001c0 4d 82 77 be ab 20 ee 3e f6 9a 6e be f7 a4 9d bc
       -0.241708 0.465093 -0.233013 -0.0192437
0001d0 fe ba 2e 3c ff af 4a 3e 59 42 28 bd cc b7 a6 be
       0.0106647 0.197937 -0.0410789 -0.325621
0001e0 61 17 15 be 3c 2d 0f be cd 3a 63 3d f7 91 fb 3d
       -0.145597 -0.139821 0.055476 0.122837
0001f0 c0 e8 f2 3d f7 05 dc 3e d3 4e 2d bf 90 68 22 be
       0.118608 0.429733 -0.676984 -0.158602
000200 e7 eb 28 3d 0c 1f 91 3e ba 3d 92 3c fe 0e e5 3d
       0.0412406 0.28344 0.0178517 0.111845
000210 f3 1f 32 3e 67 04 c5 3d 05 89 95 be fe 7b c5 3d
       0.17395 0.0961998 -0.292061 0.0964279
000220 90 4f b0 3e 1c 01 96 bd c6 c1 c5 bd 03 dd bd bd
       0.344357 -0.0732443 -0.096561 -0.0927067
000230 77 bb 1e 3e 82 dd 95 bc 83 51 91 3e 86 91 4e be
       0.155012 -0.0182941 0.283825 -0.201727
000240 b0 e6 c8 3e d1 5a f1 bd 34 bd 44 3e fa 05 60 3d
       0.392385 -0.117849 0.192128 0.0546932
000250 85 5d 14 3d 37 6e e1 be 5b 99 a0 be 17 9a eb bd
       0.036222 -0.440294 -0.31367 -0.11504
000260 4f 0d aa 3d a4 a5 02 3e 06 75 ab bd f1 3d 0d bd
       0.0830332 0.127585 -0.0837193 -0.0344829
000270 6c 8d ad bd 2b dc 62 be d0 d6 91 3d 31 f0 57 bd
       -0.0847424 -0.221543 0.0712105 -0.0527193
000280 f9 be f8 be 59 fa 84 bf 1f 6a 0b be 36 05 12 be
       -0.485832 -1.03889 -0.136147 -0.142598
000290 4f eb 06 be b1 c2 d5 be 7b 4e 9a be 40 c1 85 be
       -0.131757 -0.417501 -0.30138 -0.26124
0002a0 ea c6 80 3d 31 26 1d 3e d5 5a 08 3e 4d 13 56 bf
       0.0628794 0.153466 0.133159 -0.836232
0002b0 ea b4 ae bc 3e 78 25 bf 83 84 ad bd 13 a5 b3 3c
       -0.0213265 -0.646366 -0.0847254 0.0219293
0002c0 68 5a 26 bf 50 bb e9 3c b0 c6 09 3e 64 40 22 bf
       -0.649817 0.0285317 0.134547 -0.633795
0002d0 eb a6 39 bd 4e 62 a8 be 95 38 81 bd 3e ce 30 bf
       -0.0453252 -0.328875 -0.0630962 -0.690647
0002e0 c0 e9 05 bf 7f a4 88 3d 6c 05 ed 3d 6d 53 fc be
       -0.523098 0.06672 0.115733 -0.492824
0002f0 83 6c 19 be 8c 64 8f 3c 0c 00 fa 3c 0e 10 4c 3c
       -0.149828 0.017504 0.0305176 0.012455
000300 e5 0a 6f be f6 44 97 be 9e ea 40 be 2d 42 c1 3e
       -0.23344 -0.295448 -0.188395 0.377458
000310 b2 67 63 bf 8c 81 f5 bd 40 6d 20 bf e3 6e 20 3e
       -0.888301 -0.119876 -0.626667 0.156673
000320 0e 97 46 bd 2f c2 04 3e 93 8a b6 3e d6 52 10 3f
       -0.0484839 0.129647 0.356526 0.563764
000330 6b 7d 01 3e 2b 13 9e 3e 80 1c 7e bd a5 a4 b7 be
       0.126455 0.30874 -0.0620389 -0.358678
000340 37 19 85 be 8f 37 79 be c5 8d bb 3e 65 8f 9b bd
       -0.259958 -0.243376 0.366316 -0.0759571
000350 cf 86 2c 3f 2b 8a 17 3e 09 54 63 3f 82 00 91 3e
       0.673932 0.147988 0.888001 0.283207
000360 f5 28 81 bd 96 42 a0 3e 47 1e 88 bb e1 ce dd 3e
       -0.0630664 0.313008 -0.004154 0.433219
000370 a3 3b 40 3f 53 08 9c 3e 25 af ce bd f5 66 14 3e
       0.75091 0.304751 -0.10092 0.144924
000380 d4 80 c9 3e c9 55 ec 3e 53 5e bb 3e 6b 62 0d bf
       0.393561 0.461592 0.365954 -0.552283
000390 94 83 49 3e 39 d4 ef be c6 3b bb bd ab 3e 57 3e
       0.196791 -0.468416 -0.0914226 0.2102
0003a0 3e ed d0 bd d0 97 3e 3e e2 93 56 3f 04 e6 81 3d
       -0.102015 0.186126 0.838194 0.063427
0003b0 58 50 7d bd eb e2 96 be 6e 50 4b be 66 a4 2e 3e
       -0.0618442 -0.2947 -0.198549 0.170549
0003c0 55 bf 82 be d3 13 d6 3d de 1c 0e 3d de b0 a5 bf
       -0.255366 0.10453 0.0346955 -1.29446
0003d0 f8 50 52 be 87 a6 ec 3d 07 d2 ed be df f0 0c 3d
       -0.205387 0.115552 -0.464493 0.0344094
0003e0 27 15 8d bd e7 e0 91 be d5 e8 bd 3e 29 10 2c 3d
       -0.068888 -0.284919 0.370917 0.0420076
0003f0 d1 ae a2 3e fe 2a a0 3e ea bf 7d 3d a5 a0 6b 3e
       0.31774 0.312828 0.0619506 0.230105

Operation_5_Add_B f4 [50]
000000 53 cd f4 3e 54 e1 03 3f 00 75 d3 3e ad 50 20 bf
       0.478129 0.515157 0.413002 -0.626231
000010 13 e7 72 bd 7d ec ce bd e8 6a 07 c0 ed 0e 09 3f
       -0.0593024 -0.101037 -2.1159 0.535384
000020 8d 61 1e 3f 1d 72 df 3f 9a d0 84 3e df 89 b1 3f
       0.618676 1.74567 0.259404 1.38702
000030 c5 72 e3 bf 90 bb b8 3e 0c e6 6b bf cf 83 87 bf
       -1.77694 0.360806 -0.921479 -1.05871
000040 58 ca 2d bd 98 c3 ce 3e f0 86 cc 3e af f9 a7 3d
       -0.0424293 0.403836 0.399467 0.0820192
000050 c9 e8 58 bf bb 0f 88 be e7 52 ec 3e 4f 58 ba 3f
       -0.847302 -0.265745 0.46157 1.45582
000060 76 c3 8a 3f 36 76 b9 bf 16 a1 30 bf 1f 80 e4 3e
       1.08409 -1.44892 -0.689958 0.44629
000070 b0 91 7c 3f dd cd 93 be ce 70 6f 3f 2c 48 9b 3f
       0.986598 -0.28868 0.935315 1.21314
000080 50 1c e0 be 53 ae 90 3f b7 b5 95 bd 20 5f 82 be
       -0.437716 1.13032 -0.0731005 -0.254632
000090 56 9d d5 be 12 33 6b 3e 15 56 4a 3e 7e ab 45 3f
       -0.417216 0.229687 0.197594 0.772148
0000a0 d5 05 fc bd 56 bc 95 3f 3c be c5 3e 18 7b 7f be
       -0.123058 1.16981 0.386217 -0.249493
0000b0 22 a5 1d bf 73 63 d6 bf 09 c4 db 3f 8e 23 96 3f
       -0.615801 -1.67491 1.71692 1.17296
0000c0 e5 47 dc 3e c3 7e 23 bf
       0.430236 -0.638653

Operation_6_MatMul_W f4 [50, 50]
000000 96 b1 d9 be c9 1d 52 bf 4d d6 cd bc 0c 3d 42 3e
       -0.425183 -0.820767 -0.0251266 0.189686
000010 7d 75 f5 3d 00 8f 48 3e d8 d4 39 bf c1 ac 60 be
       0.119853 0.195858 -0.725904 -0.219409
000020 29 ae 6a bd 26 70 ab be c9 cf 91 bd fe 95 ba 3c
       -0.057295 -0.33484 -0.0711971 0.0227766
000030 c6 26 c3 3c 73 1b 03 bd b4 76 cb bd 28 9b d2 bd
       0.0238222 -0.0320086 -0.0993475 -0.102835
000040 37 fd 39 3e 49 9e 1b 3e 6c 05 1d 3e 6e 1f 0b bc
       0.18163 0.151971 0.153341 -0.00849138
000050 38 a1 00 bf ab 92 78 be 41 45 c5 bd a4 fa 7e 3e
       -0.50246 -0.242747 -0.0963235 0.249003
000060 b9 33 98 3d 4a 44 c0 3e c4 7d 5f bd c9 00 50 3e
       0.0743174 0.375521 -0.0545633 0.203128
000070 3b cc 12 3d ac e4 43 3e 9c 14 c6 3d b4 02 63 c0
       0.0358393 0.191302 0.096719 -3.54704
000080 6e 41 b5 3d 6e c0 ff be 1b 97 9a 3b 31 b6 30 be
       0.0885037 -0.499515 0.00471772 -0.17257
000090 4e f0 1d 3e d4 d7 23 3e 3a 2a bd 3d c0 92 cb be
       0.154237 0.160003 0.0923657 -0.397604
0000a0 19 3c f4 3e 9a b5 24 3e 0e 4a 80 be cf bd df 3e
       0.477021 0.160849 -0.250565 0.436995
0000b0 33 6f cd 3e 83 4d 1d 3e 0f d2 ab be d4 d7 03 3e
       0.401239 0.153616 -0.335587 0.128753
0000c0 be 16 b4 3c d6 19 1f be f8 19 d7 bd c3 62 dc be
       0.0219835 -0.155372 -0.10503 -0.430441
0000d0 4a d3 e0 3d 1b f4 05 3e be 66 69 3e ad c8 43 bc
       0.109778 0.130814 0.227931 -0.0119497
0000e0 45 9f 6f bd 91 17 88 bc dd f6 d6 bb 86 f1 29 3d
       -0.0585015 -0.0166128 -0.00656019 0.0414901
0000f0 e0 8b 6a bd dd ea 99 3e 12 a0 b6 bd f2 5f 30 be
       -0.0572623 0.30062 -0.0891725 -0.172241
000100 22 82 5b 3d be a6 a2 bd d0 ae 47 3d b1 df eb 3e
       0.0535909 -0.0794196 0.0487507 0.460691
000110 80 0f fe 3d 1f f8 38 3e a7 2e 8f bc 5a df ab 3d
       0.124053 0.180634 -0.0174783 0.0839221
000120 ad 3b cc 3c 62 c0 12 3e 10 5c 05 3e cb 10 27 be
       0.0249308 0.143312 0.130234 -0.16315
000130 4b 19 5d bc 91 3c 91 3d f5 ba 45 be d9 62 12 bd
       -0.0134948 0.0709163 -0.193096 -0.0357388
000140 5c ff 2e 3e 14 76 71 3e 8b 06 1f 3d 38 bb f5 3e
       0.170896 0.235802 0.0388246 0.479944
000150 56 9b 4f be b2 8a 0d 3d ef 70 db bd d5 79 a4 be
       -0.202741 0.0345561 -0.107149 -0.321242
000160 80 80 55 bd b8 23 97 bd fe ce cb 3d bc 94 9a 3e
       -0.0521245 -0.0737986 0.0995159 0.301916
000170 bc 93 5f 3e 63 97 90 be 51 a1 ca 3e 0f 94 40 bd
       0.218337 -0.282405 0.395762 -0.0470162
000180 4a 09 01 3e 96 7b 51 3e 6b ef 9b 3e b0 1e d7 3d
       0.126012 0.204573 0.304561 0.105039
000190 0e ae 6f 3c 92 59 45 bf 0d c2 1c bd 07 8e 95 3d
       0.0146289 -0.770898 -0.038271 0.0730248
0001a0 87 8d 8d 3d f4 6a 08 bf d2 e2 44 3f 63 0a ae be
       0.0691176 -0.532882 0.769086 -0.339923
0001b0 9f 77 bb be dc bb de 3e b2 bd 66 be 03 9f 7a bd
       -0.366147 0.435027 -0.225333 -0.0611868
0001c0 95 b5 95 be 43 e2 5e be 8b 9c 0f 3d b2 9f 15 3e
       -0.292401 -0.21766 0.0350614 0.146117
0001d0 00 6f e1 be 18 4b 97 bd 01 a3 f3 3e 03 7c 9f 3e
       -0.4403 -0.0738737 0.475853 0.311493
0001e0 39 d1 e4 c0 5b 5d 2e be 71 fb ab 3a d3 4c f7 bd
       -7.15054 -0.170278 0.00131212 -0.120752
0001f0 90 a1 e3 3c f9 a2 29 bf 8d 28 d9 bf b7 60 09 be
       0.027787 -0.662643 -1.69655 -0.134158
000200 c6 51 09 be a1 68 de bd cf 67 e0 bd 90 4a 71 bf
       -0.134101 -0.108598 -0.109573 -0.942544
000210 0c f6 80 bd 95 b7 a7 3f 3c a9 0a 3c ad 30 cd be
       -0.0629693 1.31029 0.0084632 -0.400762
000220 6f 49 de 3e 05 86 0c bf 5e 4d 3e be 46 e7 21 3d
       0.434154 -0.54892 -0.185842 0.0395272
000230 7f 89 80 be 85 5e 7f 3c f0 b9 a8 3d 6b 16 93 bd
       -0.251049 0.0155865 0.0823859 -0.0718201
000240 cd ae 3b be ac 98 40 bd 54 e6 46 3e 14 78 a7 bc
       -0.183284 -0.0470206 0.194238 -0.020443
000250 db 34 de 3e 7d cb dc bd e7 3a b1 bf 76 38 4a 3e
       0.433997 -0.10781 -1.38461 0.197481
000260 56 a5 c8 bc 9d 1b b9 3d cf d7 1c be 02 f2 55 be
       -0.0244929 0.0903847 -0.153167 -0.208931
000270 91 47 a0 be a2 46 21 be 1f ba 88 3e 4a 7d 31 bf
       -0.313046 -0.157496 0.267045 -0.693318
000280 0a 9e 8a 3e da fe 9d 3e 5c 2d 01 bd 1f 9f 20 3e
       0.270737 0.308585 -0.0315374 0.156857
000290 14 87 20 bc 37 e1 1e be 9b 72 9d be 80 82 5b 3e
       -0.00979783 -0.155156 -0.307515 0.214365
0002a0 a5 4b 8f be 81 07 46 3e e2 8f fa 3e 43 3b 07 3e
       -0.279874 0.193388 0.489379 0.132062
0002b0 47 8c b3 3d d5 68 a8 bc 1e fc 84 bc ff e8 1b 3e
       0.0876699 -0.0205578 -0.0162335 0.152256
0002c0 09 f9 28 bf ac 8e 0c 3e 55 14 2f be 72 1a 62 3e
       -0.66005 0.137263 -0.170976 0.220804
0002d0 72 97 8e bd 8d 46 0a bf 6a 30 e9 bf af 08 42 c0
       -0.0696248 -0.540139 -1.82179 -3.03178
0002e0 74 18 7d bd 4e ec 91 3e 84 c0 a5 3c 4b 57 0c bf
       -0.0617909 0.285006 0.0202334 -0.548207
0002f0 90 87 de 3d 81 d0 3a be 76 2d 8b bd ca eb 37 3d
       0.108657 -0.182436 -0.0679578 0.0449026
000300 87 6c 30 3e d3 b6 6b bd 51 da 3b c0 56 d3 d5 bd
       0.172289 -0.0575474 -2.9352 -0.104407
000310 1e 17 3d bf 77 c3 91 3c ed f4 23 3e cd 35 f1 bc
       -0.738634 0.0177934 0.160114 -0.0294446
000320 9b 40 4c bd 8c 1e ee bc 85 b4 06 3d 42 64 0c 3d
       -0.0498663 -0.0290673 0.032887 0.0342753
000330 0f 5e 80 bd 06 2a 33 3e 7c 9a d3 bc 6d 37 41 be
       -0.0626794 0.174965 -0.0258305 -0.188688
000340 43 01 fb 3d 5b 93 83 bd a6 44 22 be 6c 24 a9 bd
       0.122561 -0.0642459 -0.158465 -0.082589
000350 a6 ba 00 bd 4d f6 ef bd 0d 5a 63 3d 04 43 31 3c
       -0.031428 -0.117169 0.0555058 0.0108192
000360 75 0f ff bc 9e d3 ec bd e6 5a 8c 3e 28 41 7e ba
       -0.0311353 -0.115638 0.274131 -0.000969904
000370 74 0c e8 bd 41 d8 09 3e 3c 3c 3a 3d e1 7a 24 be
       -0.113305 0.134614 0.0454676 -0.160625
000380 8f 17 f2 3d 40 02 f5 bc 67 7c c2 3b a4 c7 3f be
       0.118209 -0.0299083 0.00593524 -0.187285
000390 6a c5 92 bd 3c f6 23 3e f6 09 e0 bc 23 39 11 bc
       -0.0716656 0.160119 -0.0273485 -0.00886372
0003a0 52 52 96 3c e2 d0 b6 bc b2 96 8c 3c 76 6b 09 be
       0.0183498 -0.0223164 0.0171617 -0.134199
0003b0 17 b8 bc bc 60 93 55 bd 3d 4f 72 3d 63 35 ac bd
       -0.023037 -0.0521425 0.0591576 -0.0840862
0003c0 3c ba 36 bd 0b 58 97 3c 7e 70 fe 3d 16 f8 6d bb
       -0.0446112 0.0184746 0.124238 -0.00363112
0003d0 ce e3 70 3e 1a f0 23 bd be dd 02 3e 8b fa 34 be
       0.235244 -0.0400239 0.127799 -0.176737
0003e0 41 1b af bc cf 32 e6 bc 4b 59 02 3f 8b e1 12 bf
       -0.0213753 -0.0281004 0.509175 -0.573754
0003f0 36 ce ae 3e 81 2e d0 bc c4 93 a5 3e d0 61 82 bf
       0.341417 -0.0254128 0.323393 -1.01861

Operation_6_Add_B f4 [50]
000000 bc cb 9d be 2d 3f 04 bf d8 4b ae bc f5 00 cc bd
       -0.308195 -0.516589 -0.0212764 -0.0996112
000010 fd 16 dd bd 0c 5e 4f 3c 84 f4 74 bf 76 71 9b bd
       -0.107954 0.0126567 -0.956856 -0.0759
000020 75 e4 c8 be 7f f7 0e bf 9b 56 ba bd 19 e8 72 bf
       -0.392368 -0.558464 -0.0909855 -0.948854
000030 cf 2f 2a be 9a 0b 0c be 2e 54 82 bb 9f 85 4e bc
       -0.166198 -0.136763 -0.00397732 -0.0126051
000040 27 cd 95 bc 15 3a 53 bf 3d 9f 1c 3d 42 5e 87 be
       -0.0182863 -0.825105 0.0382378 -0.264391
000050 a1 e2 8e bd 15 02 39 3c ca 0a 8f bc 99 3c 50 bb
       -0.0697682 0.011292 -0.0174612 -0.00317744
000060 54 3a 90 be 1b f1 1c bf 54 01 ff 3e ab c5 51 bd
       -0.281695 -0.613054 0.498057 -0.0512139
000070 09 ff 42 bd 72 43 18 ba d6 53 72 ba 61 b0 81 bd
       -0.0476065 -0.000580839 -0.000924406 -0.0633247
000080 a8 b0 8d bd fc 6e fa bd 65 52 47 bf 1e 7f d4 ba
       -0.0691846 -0.122282 -0.778601 -0.00162122
000090 d8 10 dc 3d c2 4b 98 be 68 23 1b 3f 5c 16 8d 3d
       0.107454 -0.297453 0.606009 0.0688903
0000a0 24 44 19 bf 6a c2 66 be 29 97 81 3d 8b 71 86 be
       -0.598696 -0.225351 0.0632766 -0.262585
0000b0 59 19 55 bf 6d 8f e6 be 02 d7 05 bf f2 95 20 be
       -0.832418 -0.450313 -0.522812 -0.156822
0000c0 bf 65 9a bf c6 0d e8 ba
       -1.20623 -0.00177043
