networks/onnx/ACASXU_run2a_3_2_batch_2000.onnx (onnx, 55914 bytes, 15 tensors)

input_AvgImg f4 [1, 1, 5]
00000000: 0000 0000 0000 0000 0000 0000 0000 0000
00000010: 0000 0000
0.0 0.0 0.0 0.0 0.0

Operation_1_MatMul_W f4 [5, 50]
00000000: 67a0 0f3c d59f f3bc 7e16 b03c d388 b4bc
00000010: 59d5 973d e8aa b43d 1980 7cbc 6fd3 87bf
00000020: 03e2 3fbc 2861 d2bf b83e 0b3b 7844 05bd
00000030: 8659 f0be be05 683d dd96 063c d656 bcbf
00000040: 66a0 bebf 789a 1cbf a377 eabc 1b67 e3be
00000050: fe81 52bf efcb 09be 4aca c2bc 2d66 5a3d
00000060: c6aa 7cbd f4a6 7abf 72f8 44bf 0d8e d03b
00000070: d341 0bbc a6ed 0fbe 3f03 65bd e50a c3bf
00000080: 1100 fcbd a7ad 713d 5070 99be e2c8 3f3f
00000090: d891 343c 9598 4cbd fdc1 dcbf 5d6d 85bf
000000a0: 9752 7a3b d7e2 be3d a417 15be 64bb 0e3c
000000b0: f313 1abc dee8 43bd 8594 f3bf 9908 00bd
000000c0: 834d fd3d 8fc2 c53e 058a 48be 66bf 5e3f
000000d0: 63f0 a0bd 103f afbd 4d4a bdbf b801 9b3f
000000e0: fc1a a93e e20a c3bc 55fb bcbe 7ea1 6cbc
000000f0: b8fd b83a 31ce 933f fa62 afbd 029a 8c3f
00000100: 8cb9 0bbe f646 6d3d 3e97 843d 7027 213e
00000110: 7a51 6fbf 4581 a1bb 6746 5f3e ca1b 50be
00000120: 682d 5bbd dd24 9abf 1b10 193f b070 e23e
00000130: 11c8 75be c5e4 85be 7cb5 b33e 8c4a f23f
00000140: 81f0 7c3c c00e a7bd bc5b 613f fc7d b5bc
00000150: 0519 69bf 262a 65bc f3e5 a13f d7c0 be3f
00000160: 60c3 c83d 971c 97be 6f2d 573f d881 cb3f
00000170: 5659 b5bd a62a 9d3e 91ef f2bd e5b7 083d
00000180: adf1 63bc ff96 d83e fa27 1cc0 ea22 853a
00000190: d2a8 44bf 84b8 72be 91d6 f83d 7784 d33d
000001a0: d6c5 0dbe 596e b1bf 7cd5 4abe 5c09 17bc
000001b0: 49d7 703f 0a2a 8f3c 1f97 f439 1190 6b3f
000001c0: 66a3 333e 30d8 8dbf 79e9 dabf c85c aebd
000001d0: 695d 9ebd 7ea8 24bf 0074 8cbf 3237 84bc
000001e0: ab78 13be cc7e b53e 5c1b fabe d044 c03f
000001f0: 3c14 21bf 5561 7d3c 5c3a 163e 4f79 643e
00000200: bd70 bfbe ce36 d3bf 5cad 573f 4265 a23d
00000210: 2a52 85bf 145b 5d3f 0074 803f c0ab ca3c
00000220: a5bd adbf 9e07 3c3d 7e38 c8bc 0fba a43e
00000230: 3a93 5ebf 9f5f 6fbc f66e a2bd 5b4c a23d
00000240: 6808 073e 3373 bb3a 76e1 453b c781 d73d
00000250: 62f8 683f 68d6 8c3b e929 a2be f99d cebe
00000260: 581f 4b3f 156f 243f adda 9d3e 1362 8e3e
00000270: 3cf7 a2bf feb5 94be a4f3 6b3d d786 4abd
00000280: 7e08 bf3b d34f 303f d449 d6bd b79a f53c
00000290: 2e06 09bc 2bd9 963c c3cc 283d 84a0 e3be
000002a0: 7099 2b3f 3316 65bf 17c2 c03d 0797 cebe
000002b0: b7d3 b63e c6e8 bfbd 1058 d9bd 4d48 6bbe
000002c0: fef5 e53c b3d2 8cbf 7b49 93bf 6b53 6b3d
000002d0: 8ff1 12bd e424 bdbb 57ec 0f3d 3cc2 443d
000002e0: 3c74 70bd 6dc6 913e ab9d bc3d cb48 6d3e
000002f0: df87 e83c ce8e f43d 3e83 cc3d d3a5 1f3e
00000300: d0f0 423f dba6 d8be 1b2c 3cbf 14ea 79be
00000310: 382b c3bb 0a80 bdbf 22a0 973d 0af2 53bf
00000320: 0115 5e3e 7990 debe a114 6dbf abea 25bf
00000330: 9f77 0bbf 19ff bebe 4d86 4bbf cf84 053c
00000340: ff21 19bf 15df c53d cc2c 1339 9fb0 00bf
00000350: 6955 6bbe 2905 b5bf 6c33 23bc 5d2e e63b
00000360: 7766 42be 2eab b03e e5d1 9dbe 8884 efbe
00000370: 2dd0 0fbc c6a2 85bf cf87 5bbf ba12 153f
00000380: 020e bdbf e965 38bf 3aa5 0d3d a75d 203f
00000390: c58f 51bf c68b a53e 6a3e 3d3d 3034 91bb
000003a0: 36ca 1ebf 70a0 c6bd 5584 83be 5a81 1dbf
000003b0: 5cf0 c83d ae32 cfbb 8f3c 4bbd cd0e 27bc
000003c0: 720e 68bc 66a4 7ebe ea3e 603e 0fdc c73d
000003d0: 98c1 08be 6d73 efbf 83f8 403c 406a 433e
000003e0: d2c4 a3be 77a1 95bf
0.00876627 -0.0297393 0.0214951 -0.0220379 0.0741374 0.0882166 -0.0154114 -1.06114
-0.0117116 -1.64359 0.00212471 -0.032536 -0.469433 0.0566461 0.00821468 -1.4714
-1.48927 -0.611732 -0.0286215 -0.444146 -0.822296 -0.134567 -0.0237781 0.0533201
-0.0616863 -0.97911 -0.769416 0.00636459 -0.00849958 -0.140555 -0.0559113 -1.52377
-0.123047 0.0590035 -0.299685 0.749159 0.0110211 -0.0499502 -1.72467 -1.0424
0.00381962 0.0932061 -0.145598 0.00871167 -0.00940417 -0.0478295 -1.90297 -0.0312582
0.123683 0.38625 -0.195839 0.870108 -0.0785835 -0.0855695 -1.47883 1.21099
0.330284 -0.0238089 -0.369105 -0.0144428 0.00141137 1.15473 -0.085638 1.09845
-0.13645 0.057929 0.0647416 0.157377 -0.934837 -0.00492874 0.218042 -0.203231
-0.0535101 -1.20425 0.597902 0.442266 -0.240021 -0.261511 0.350994 1.8929
0.0154382 -0.0815711 0.880306 -0.0221548 -0.910538 -0.0139871 1.26483 1.49026
0.0980289 -0.29514 0.840537 1.5899 -0.0885493 0.306966 -0.118621 0.0333785
-0.0139126 0.423027 -2.43994 0.00101575 -0.768201 -0.237032 0.121503 0.10328
-0.13845 -1.38618 -0.19808 -0.00921854 0.940785 0.0174761 0.000466519 0.920167
0.175428 -1.10816 -1.71025 -0.0851379 -0.0773266 -0.643196 -1.09729 -0.0161396
-0.144015 0.354483 -0.48849 1.5021 -0.629215 0.0154651 0.146707 0.223119
-0.373907 -1.65011 0.842489 0.0792947 -1.04157 0.864671 1.00354 0.0247401
-1.35735 0.0459057 -0.024441 0.321732 -0.869434 -0.0146102 -0.0793132 0.0792472
0.131868 0.00143013 0.00301942 0.105228 0.91004 0.00429802 -0.316726 -0.403549
0.793447 0.64232 0.308309 0.278092 -1.27317 -0.290451 0.0576054 -0.049445
0.00582987 0.688718 -0.104633 0.029981 -0.00836329 0.0184141 0.0412109 -0.444584
0.67031 -0.89487 0.0941202 -0.403496 0.357084 -0.0937057 -0.106125 -0.229768
0.0280714 -1.10018 -1.15068 0.0574526 -0.0358749 -0.00577222 0.0351375 0.0480368
-0.0587046 0.284717 0.0920976 0.231723 0.0283851 0.119413 0.0998597 0.155906
0.761487 -0.423148 -0.735048 -0.244057 -0.00595608 -1.48047 0.0740359 -0.827912
0.216877 -0.434696 -0.926096 -0.648112 -0.544794 -0.37304 -0.795018 0.00814934
-0.598175 0.0966169 0.000140357 -0.502695 -0.229818 -1.41422 -0.00996099 0.00702457
-0.189844 0.345056 -0.308242 -0.467808 -0.00877766 -1.04403 -0.857541 0.582317
-1.47699 -0.720305 0.0345814 0.626429 -0.8186 0.323332 0.0462021 -0.00443127
-0.620273 -0.0969857 -0.256869 -0.615255 0.0981147 -0.00632318 -0.0496183 -0.0101964
-0.0141636 -0.248674 0.21899 0.0975877 -0.133551 -1.87071 0.011778 0.190835
-0.319861 -1.16899

Operation_1_Add_B f4 [50]
00000000: 3ada e73c 3f1e 9abe 0ea2 f53d 8d28 6d3e
00000010: 88f2 e5bd 6ced d5be a704 28bf 7906 4dbe
00000020: d5eb c6be 923e f5be 1ed7 abbc 5efb 1fbc
00000030: 4e30 92bc 3bc5 1abe bc57 cd3d 4d0f 92be
00000040: 1c7a 9bbe effe 48be a870 e4bd 23d8 30bf
00000050: e7a3 b1bc 1af8 09bf c4ec 753e aa49 f0be
00000060: 4d12 e3be 9549 29bf 1c1b 4bbc fc00 24be
00000070: dfa5 84be b733 023d 4e3e e23a d254 97be
00000080: 3be0 1a3e 1fdb 923d dfb8 563c a1a1 ff3d
00000090: cf2c f9be 5af1 0d3e 92ce f8be c45b 37be
000000a0: ca32 ec3e 36d2 2dbc e8bd e93e 586a c73d
000000b0: 4d4c 373e 8f39 5bbf cefc 06bf 041d 31bf
000000c0: cc97 47be 8a73 24bf
0.0283023 -0.301012 0.119938 0.2316 -0.112279 -0.417827 -0.656321 -0.20022
-0.388518 -0.478993 -0.0209766 -0.00976452 -0.0178453 -0.151143 0.100265 -0.285273
-0.303666 -0.196285 -0.111543 -0.690798 -0.0216846 -0.538942 0.240161 -0.469312
-0.443499 -0.661279 -0.0123966 -0.16016 -0.259078 0.0317876 0.0017261 -0.295569
0.151246 0.071707 0.0131056 0.12482 -0.48667 0.138616 -0.485951 -0.179061
0.461325 -0.0106092 0.456527 0.0973708 0.179002 -0.856347 -0.527295 -0.691849
-0.194915 -0.642388

Operation_2_MatMul_W f4 [50, 50]
00000000: 6406 8e3f 5e0e 5bbf 7f4b 2c3f d829 46bf
00000010: 5f2b bc3c bd1d bd3f 3560 683f 938c 043f
00000020: 9faa c2be a6d1 44be 9d0d 89be b0e3 dfbd
00000030: 6a4b 1dbd 2194 77be 7995 553e a819 32bd
00000040: a108 b33d e11b d4bc 912b 75be 7a1c 46bf
00000050: a5bf ef3e 518c a83b c12d 8a3a 4417 8c3e
00000060: 3194 13be f063 71bc d8ef 39be f3ff 9abd
00000070: 351d cb3d 49d8 47be e09a 203d 9240 93be
00000080: 43d3 88bc d57b 3abe 39d6 b9bf 842a 85bf
00000090: b5e0 75bf 433c 323e 473a 83be 3674 37bf
000000a0: 7007 22bf ea40 223f 6572 2ebf 7006 ff3d
000000b0: f184 7ebe ca4f 12bf 7e54 67bf c5c6 0cbe
000000c0: 1f86 d23b 787d 323f 809f e13e e2e4 823f
000000d0: 8d08 66be be15 5dbf aae2 1cbd 38a0 793f
000000e0: 1d56 2c3f cbd9 bbbe c0ce adbe d82c f73d
000000f0: c190 79bf 6d54 e7bd d595 a7bf 76c3 8ebf
00000100: 024b 5e3f bac6 9d3c c4ee abbe 1347 0e3f
00000110: 7d77 83be b85a 37be 01fb 643f e8ee 84bd
00000120: e64e 3abd 0c02 03bf 0fed 9b3e 5145 37bb
00000130: 7aaa 833f 588d 113f 0803 df3e 3541 9c3e
00000140: d9b5 5d3e 5229 06be 2667 72bc fb3b 0b3e
00000150: 2cef 4a3e 7db1 ff3e d0b8 9cbf 029b 13be
00000160: 78d1 9fbf ea95 aabe e597 0dbf 726e f3bd
00000170: c11b 4a3f 89b7 ca3b 3d29 a3be 8a57 493e
00000180: 02d9 6b3e c878 8c3e 35b7 023d 5801 063f
00000190: 965a e73e 618e 8e3f 297a 44bf 1328 2e3f
000001a0: bbf2 34bc 86ab 73bf 4f92 cabf f2e4 a4bd
000001b0: 2dea 13be cb12 cd3e 081c a1be 5bd1 663e
000001c0: 2006 1f3c ea07 f53e 4817 133f c172 04be
000001d0: 529a 113f 9136 c43b fd69 033f e86d e8bb
000001e0: 10be c1bd 7803 a63d 2c10 bdbc d376 82bd
000001f0: e317 7e3e 47a8 3e3c 2730 3d3e baa2 c4be
00000200: 7102 67bf 59bf 79bd b726 31bf 7bfe 9f3d
00000210: 6869 1d3c 3736 2b3e fd4d e83f 8b8c 22bf
00000220: a375 80bf f966 09c0 925d 69be d8d2 23bf
00000230: 6b84 593d a697 38be 2099 763f a261 21be
00000240: 9015 acbe 008e 79bf 26e2 293f 5743 0e3f
00000250: 31e1 04bc 9b8f 93bf 683f a2bf 9bc6 0a3f
00000260: 8e93 3ebf 8b4b 9a3d f473 1ebd 91d0 8ebf
00000270: 6ea2 26bf cf2c 99bf b77a e63f a510 2cbf
00000280: cc42 7b3e f986 32be 295d 6abe 4f78 393e
00000290: fe99 11bf 4f56 313d ffe7 a83f 234d 2c3e
000002a0: 6344 b23e c85d 043e ecc0 b93f e678 85be
000002b0: 16c0 143d 2e58 b2be 7e38 90be 60a8 e8bc
000002c0: 982f 3f3e 82c6 243f 35ad 9ebc 164d c3bf
000002d0: 4414 133e d21d c83f a1b9 b33c c7d5 c83e
000002e0: b803 553e a52f 643e 29e8 a6bf e5b3 983f
000002f0: f17e 8c3e 6cb5 53bf af79 693f 49dd 99bd
00000300: 39b9 8f3f 167b b93d 012f d33d 786b 2fbd
00000310: 0cef 2dbd aa7e 353e f0f3 24bd 1613 bb3f
00000320: de74 e33e d9af 5b3e 7381 173f f8fc 90be
00000330: 5f6e e6bc 0dde 673e 2d24 c03e d8d3 ee3d
00000340: 9fe6 34be 30d6 633f 5299 623e fd31 1d3e
00000350: b8cb 523f 6abe 163f 20d2 b73e fd5f 5f3d
00000360: cbd6 82bf 1fec aebd 02d5 c7be db15 0e3f
00000370: a418 703e 71e8 5dbe 0fd3 febc a233 9f3c
00000380: c5e7 aebe 6c61 71bd c34f 94bb 75f7 ca3c
00000390: 36ab 0e3e ddee 093f 8fe4 da3e 3143 6fbf
000003a0: 8f5c 4dbd 1695 03bd 1215 aabd 31cd 64be
000003b0: 8ee9 a13f 1d3b 083e 96e6 1c3c 64b2 48bf
000003c0: 8718 2fbd f211 8cbd d53c 9cbd 746a 1b3c
000003d0: 9548 323f 30d5 ccbd 1f64 09be 2f88 4cbf
000003e0: 85b3 9bbc d04b 40bd 1c34 aabc 130d 7e3f
000003f0: 9548 fabf fc8f 44bf 5d51 0a3d 289b 2ebf
1.10957 -0.855688 0.673027 -0.774076 0.0229699 1.47747 0.907718 0.51777
-0.380208 -0.192206 -0.267682 -0.109321 -0.038402 -0.241776 0.208578 -0.0434815
0.0874188 -0.0258922 -0.239424 -0.773872 0.468259 0.00514368 0.00105422 0.273615
-0.14412 -0.0147333 -0.181579 -0.0756835 0.0991768 -0.195161 0.0392102 -0.287602
-0.0167023 -0.182113 -1.45185 -1.04036 -0.96046 0.174058 -0.256304 -0.716617
-0.632926 0.633803 -0.681433 0.124524 -0.248554 -0.57153 -0.903633 -0.137477
0.00642468 0.697227 0.44067 1.02261 -0.224642 -0.863613 -0.0383021 0.975101
0.673189 -0.366896 -0.339468 0.120691 -0.974865 -0.112954 -1.30926 -1.11534
0.868332 0.0192598 -0.335806 0.555772 -0.256771 -0.179057 0.894455 -0.0649088
-0.0454854 -0.51175 0.304543 -0.00279649 1.02864 0.568563 0.43557 0.305185
0.216514 -0.131017 -0.0147951 0.135971 0.198178 0.499401 -1.22439 -0.144146
-1.24858 -0.333175 -0.553099 -0.118863 0.789486 0.00618643 -0.318674 0.196623
0.23032 0.274359 0.031913 0.523458 0.451863 1.11372 -0.767489 0.680299
-0.0110442 -0.951836 -1.58259 -0.0805148 -0.144448 0.400534 -0.314667 0.225408
0.00970605 0.478576 0.574574 -0.129344 0.568761 0.00598795 0.513336 -0.00709318
-0.0946008 0.0810613 -0.023079 -0.0637032 0.248138 0.0116368 0.184754 -0.384054
-0.902381 -0.0609735 -0.691997 0.0781221 0.00960765 0.167199 1.81488 -0.634957
-1.00359 -2.14691 -0.227896 -0.639936 0.0531048 -0.180266 0.963274 -0.157599
-0.336102 -0.974823 0.663607 0.555715 -0.00811033 -1.15282 -1.26756 0.542093
-0.744439 0.0753394 -0.0386848 -1.11574 -0.650916 -1.19668 1.80062 -0.672129
0.245372 -0.174343 -0.228871 0.181123 -0.568756 0.0432952 1.31958 0.168263
0.348178 0.129264 1.4512 -0.260688 0.036316 -0.348329 -0.281681 -0.0284006
0.186705 0.643654 -0.0193697 -1.52579 0.143632 1.56341 0.0219391 0.392256
0.208022 0.222838 -1.30396 1.19299 0.274406 -0.826987 0.912013 -0.0751291
1.12284 0.0905668 0.103117 -0.0428271 -0.0424643 0.177241 -0.0402717 1.46152
0.444251 0.214538 0.591819 -0.28318 -0.0281288 0.226433 0.375276 0.116615
-0.176661 0.889987 0.221288 0.153511 0.823421 0.588843 0.359025 0.0545349
-1.02218 -0.0854113 -0.390297 0.555021 0.234469 -0.216707 -0.0311065 0.0194338
-0.341612 -0.0589308 -0.00452611 0.0247762 0.139325 0.538801 0.427525 -0.934619
-0.0501371 -0.0321246 -0.083048 -0.223439 1.26494 0.133038 0.00957646 -0.783972
-0.042748 -0.0683936 -0.0762879 0.00948583 0.69642 -0.100016 -0.134171 -0.798953
-0.0190065 -0.0469473 -0.0207768 0.992387 -1.95534 -0.767822 0.033769 -0.682055

Operation_2_Add_B f4 [50]
00000000: 61fd 13bf d057 ca3d 4b90 05bf b56c 2dbf
00000010: ca51 80bc 5d50 8f3f 7cf0 a23e 2bfc 053f
00000020: 3cbc af3e 2506 b93f 6d2e c83c 66bb 56bf
00000030: 4f2a b3bb cd57 593e e46a 08bf feee 8dbd
00000040: 15e3 8cbf 44c0 81bf 1d56 48be 47e9 a23d
00000050: 821e 2a3f 36e4 afbe 95f1 6fbc 3b8e 1f3f
00000060: 9a08 2f3f 2753 a0bc 4c03 cabd f355 e23e
00000070: 57ea 81be 5f7f e23e 3ab1 e7bd cea5 04bf
00000080: f934 c2bc cbb9 543e 4fe7 32bf d768 f93d
00000090: 5e4d 7abf 0135 81bf 4a28 31bf b476 773f
000000a0: 986a 72bf 9949 543e 41ef cdbd 1d3c 8bbe
000000b0: 8620 133f 309d f6be 5eca 2f3d 34be f73e
000000c0: 7551 d9bc 541c 97be
-0.578085 0.0988003 -0.521733 -0.67744 -0.015664 1.11964 0.318241 0.523379
0.343233 1.4455 0.0244362 -0.838797 -0.00546769 0.212249 -0.532881 -0.0693035
-1.10068 -1.01368 -0.195641 0.0795465 0.664528 -0.343538 -0.014645 0.623264
0.683725 -0.0195709 -0.0986391 0.442062 -0.253741 0.442378 -0.113131 -0.518155
-0.0237069 0.20774 -0.698842 0.121782 -0.977743 -1.00943 -0.692021 0.966655
-0.946939 0.207312 -0.100554 -0.271943 0.574715 -0.481668 0.0429176 0.483873
-0.0265281 -0.295138

Operation_3_MatMul_W f4 [50, 50]
00000000: 0439 98bd 793c 113f 63c4 8f3c aa65 8f3f
00000010: efac 25c0 f168 57bf 4295 76bf 3a6f a93b
00000020: 639c 8b3f a81e 69be a86f 81bf 2db2 c53e
00000030: 1139 95be e0be 92bf 6463 d4bc e3aa 9ebf
00000040: 8ebd 4dbd de29 733d 15c9 7f3f c01d adbd
00000050: e8f4 103f 714e b63c 09a9 0fbf 274e ee3e
00000060: e1ee ecbf 37a6 f73f 39d0 b3be 9222 2a3f
00000070: 7c65 2e3e 0fdb 313d 5742 273e b491 cbbe
00000080: 4ed1 b1c0 d2a9 2fbf 2063 823f b804 703f
00000090: 6d9b a8bd 276b 50c0 37a6 7bbf ae30 b8bd
000000a0: 7b2f 9ebe 8924 f63f dbf9 aebe 4fcd d5be
000000b0: 30d5 bcbd bb25 a1be 9621 563f 8c28 323d
000000c0: 931a 5e3f adf6 20be 6a13 273e 2f6a 13bf
000000d0: 07b7 d03c 45f3 18bf 34bf 5abe 4b92 373f
000000e0: 01a5 c93e 005e 5abd ab04 c7bf e4dd 6c3d
000000f0: 2ea9 6abe d0d0 7f3e a27e 2b3f b1df 33bf
00000100: 8369 a83e 92cd 353f e78f e9bd 4833 a63e
00000110: 8e1e 1fbf fdaa c7bd f645 72be 9119 1ebd
00000120: d68d df3e 8328 ca3b a94d 8ec0 2f8b 0f40
00000130: 8ac1 98bd 1de9 1c3f bf46 523e 491a 92bc
00000140: 1023 fac0 5709 a6bf 5737 08bd 1b9e 52bf
00000150: d0d3 d8be b24a 213f 406a 17bf 0b96 1a3e
00000160: e411 0c3e 876b 45be 40fc fcbc 7bd9 d6bd
00000170: df50 f83d 8b89 0dbf 939d c83c e350 2f3e
00000180: 8f4f 4dbd 6d03 1f3f fd4d 58be 4dd6 a83d
00000190: 4b5c a73e 15bc a2bd 5ad5 a2bd 8c84 d6bd
000001a0: 041b 873e cb2d 85bf e0d9 0e3e 213d 853c
000001b0: bcb3 a23f 939d 48bb 085b 5c3e a69b 343e
000001c0: dee8 83be 931a 6abe 809d dbbd 08e5 c5be
000001d0: bafb b73c 376c a73f eec0 ba3d cb85 eabd
000001e0: 645d acbf 6f8f afbc 4cdf 0bbe 3529 053e
000001f0: 8d5f 20bf 4dd9 353f 0b5d 29bf 7310 343e
00000200: b24a 193e c711 ab3c c7f5 233f d2e5 1dbf
00000210: 45d7 853e e0a3 a9bd fca5 e53d ee24 cabe
00000220: 6952 bebf d5b4 dbbe 36b0 d53d 4c99 0abc
00000230: 6f1b 7cbc 7cb9 2fbe 0311 fd3c 8b50 483f
00000240: f7a4 1d3d fe62 86be 376d 163e b24b 0c3f
00000250: 255b 8d3e c28f 853d 1cb7 733d e3dd e13e
00000260: f0f7 b03c dee3 783f b797 34be d218 ad3e
00000270: 4d65 413e 9678 e03d 7f14 ddbe addc 1b3e
00000280: 2f88 083e 1214 6fbf a987 a4bf 9678 94bf
00000290: 6a4c f03e 2254 99bf 7bbc 10be 4c29 893d
000002a0: 66b2 c93d 4bca fdbe 302f 343f 09cd 683b
000002b0: ae12 20bf f3c7 1cbf dc4a 533f d9cf 12bf
000002c0: 7dec 2e3f b6ca 1d3d 1b12 b7be f338 0c3e
000002d0: 6de3 97be 37ff efbd 8257 cb3d d55b 5b3f
000002e0: 3eca 083f 95f1 6fbe a0fc edbe c688 94be
000002f0: 6f2a 023f 0c07 4cc0 e753 07be 5f5e d0be
00000300: 62da 3b3f 7b93 70bc 37dd 323e 2b4d 6a3e
00000310: 0e2f a83e 2063 4abf 40f6 d23f 26e5 9e3e
00000320: fa06 4bbc 5428 21bd dae2 3abd a9a8 95bc
00000330: 1f1f a33c c48c 3abd dfa1 8dbc a9c6 26bc
00000340: a569 50bd 25ab 30ba 0f63 52bc a72e 4ab9
00000350: e22c 5b3c f0b3 3bbd ac30 47bc f58b 0d3d
00000360: db8b 28bd 6042 a0bc cbd7 453d 5322 09bd
00000370: 8dd9 2d3d 93eb c1bc f8be 3dbd f015 dd3c
00000380: 389e 143d c87f 203c 2be2 0f3d 6317 3bbd
00000390: b7f5 4ebd c0bf 373d 5e27 1a3d be20 983c
000003a0: 6c66 033d eb64 fabc 9474 c33c abf4 c939
000003b0: 1ad4 08bc eea2 3e3d 8aa3 7e3b 17d6 8dbc
000003c0: 2b23 3fbc 5439 0cbc 9cb0 f1bb 820d 1e3d
000003d0: ab00 04bd b297 d23c 93a7 113d 65ca e2bc
000003e0: 71e8 edbc 0d2e c23c f12d 4c3e c763 cebe
000003f0: 4b60 8ebc 9318 24bf 3084 943e f354 dfbf
-0.0743275 0.567329 0.0175497 1.12029 -2.58868 -0.841445 -0.963215 0.00517073
1.09071 -0.227656 -1.01122 0.386125 -0.291451 -1.14645 -0.0259263 -1.23959
-0.0502296 0.0593661 0.999162 -0.0845294 0.566237 0.0222542 -0.561173 0.46544
-1.85104 1.93476 -0.351198 0.66459 0.170309 0.0434218 0.163339 -0.397596
-5.5568 -0.686185 1.01865 0.937572 -0.0823277 -3.25654 -0.983005 -0.0899366
-0.308956 1.92299 -0.34175 -0.417582 -0.0922035 -0.314741 0.83645 0.0434957
0.867593 -0.157191 0.16316 -0.575839 0.0254779 -0.597462 -0.21362 0.717076
0.393837 -0.0533123 -1.55483 0.0578288 -0.229161 0.24982 0.669901 -0.702632
0.32893 0.710168 -0.114044 0.32461 -0.62156 -0.0974941 -0.236595 -0.0385986
0.436629 0.00616938 -4.44698 2.24287 -0.0745879 0.612932 0.205348 -0.0178348
-7.81678 -1.29716 -0.0332559 -0.822725 -0.423491 0.630046 -0.591465 0.150963
0.136787 -0.192793 -0.030882 -0.104907 0.121248 -0.55288 0.0244892 0.171207
-0.0501247 0.621146 -0.211235 0.08244 0.326876 -0.0794603 -0.0795085 -0.104745
0.263878 -1.04046 0.139503 0.0162645 1.27111 -0.00306115 0.215191 0.176375
-0.257636 -0.228617 -0.107234 -0.386513 0.0224589 1.30799 0.0911883 -0.114513
-1.3466 -0.0214307 -0.136594 0.13004 -0.626458 0.710347 -0.661576 0.175844
0.149699 0.0208825 0.640469 -0.616788 0.261408 -0.0828321 0.112133 -0.394813
-1.48689 -0.429114 0.10434 -0.0084594 -0.0153874 -0.171606 0.0308919 0.782479
0.0384874 -0.262474 0.146901 0.54803 0.276086 0.0652156 0.0595008 0.441146
0.0216026 0.972227 -0.17636 0.33808 0.188863 0.109605 -0.431797 0.152209
0.133332 -0.9339 -1.28539 -1.15993 0.469333 -1.19788 -0.141344 0.0669733
0.0984848 -0.495684 0.703845 0.00355226 -0.625285 -0.612426 0.825361 -0.573484
0.683296 0.0385234 -0.35756 0.136936 -0.296657 -0.117186 0.099288 0.85687
0.534336 -0.23432 -0.464818 -0.290106 0.50846 -3.18793 -0.132156 -0.40697
0.733801 -0.0146836 0.174672 0.22881 0.328484 -0.790575 1.64814 0.310342
-0.0123918 -0.0393451 -0.0456265 -0.0182689 0.0199123 -0.0455444 -0.0172891 -0.0101792
-0.050882 -0.000673937 -0.012841 -0.000192816 0.0133774 -0.0458259 -0.0121576 0.0345573
-0.041149 -0.0195629 0.0483015 -0.03348 0.0424438 -0.0236719 -0.0463247 0.026988
0.0362837 0.00979609 0.0351278 -0.0456766 -0.0505273 0.0448606 0.0376352 0.0185703
0.0320801 -0.0305657 0.0238593 0.0003852 -0.00835135 0.0465421 0.00388548 -0.017314
-0.0116661 -0.00855859 -0.00737579 0.0385871 -0.0322272 0.0257071 0.0355602 -0.0276844
-0.0290415 0.0237036 0.199394 -0.403105 -0.0173799 -0.641 0.290071 -1.74478

Operation_3_Add_B f4 [50]
00000000: 73d8 6d3e 5bcf 083f 0d54 06bd 8bfa 64be
00000010: f8fc 84bf cff9 31bf aa27 633e 711e 1ebe
00000020: 31cf dabe 298e a83b b4e4 653f a358 a6be
00000030: 38a4 11be 5fb5 9e3f ab21 81bd cf1e 9ebd
00000040: fdc1 b83f 3a06 f0bf cb9c 5e3e 4e9c dc3d
00000050: b343 bc3e f384 6fbc 5ce6 58bf 3597 47bf
00000060: e10a b8be f2d2 753f aec6 08bd efe2 8d3e
00000070: e57b 2ebf c3f1 1cbe b667 0440 e6ae 0d40
00000080: 9850 6dbf 6b62 21be 61c4 963e 363c c1bf
00000090: 1d5b 7fbf 384a a6bf 4df6 4f3d 112f 743c
000000a0: c7d6 333e 425b b6be f209 99be 9d2c 653e
000000b0: 3106 723f d7c2 183f 42d2 873e 702e 743d
000000c0: c7b8 fa3e 740c 18bf
0.232271 0.534414 -0.032795 -0.223612 -1.03897 -0.695218 0.221831 -0.154413
-0.427362 0.0051439 0.898021 -0.324895 -0.142228 1.23991 -0.0630525 -0.0772072
1.44342 -1.87519 0.217395 0.10772 0.367704 -0.0146191 -0.847265 -0.779651
-0.359458 0.96025 -0.0333926 0.277122 -0.681578 -0.153266 2.06883 2.2138
-0.927011 -0.157602 0.294467 -1.50965 -0.997484 -1.29914 0.050772 0.0149038
0.175624 -0.356165 -0.298904 0.223803 0.945407 0.596723 0.265276 0.0596146
0.489691 -0.59394

Operation_4_MatMul_W f4 [50, 50]
00000000: df89 81be 2420 9b3d 3fa8 0bbf 5873 303e
00000010: 3598 86bf a3ce 0cbe 6152 e43e 5846 593d
00000020: 02d6 12bf b823 bc3e 87de 0a3f aea6 013d
00000030: af88 803d 268b 7b3e 7217 913e 494d fbbc
00000040: 6d18 2a3c 11e3 8d3e ed4f 183a 8702 913d
00000050: e264 113d 1bbb b83f 8463 563e 0400 473e
00000060: f5a2 ce3e 569c 0abe eb39 adbf 7158 d23e
00000070: 7400 9ebd 4d6a 1c3f 7042 813f 9a43 52bd
00000080: 0ebd f53e aa61 3fbe 71e3 563e f4a3 913e
00000090: ad78 59bc 79ae dfbe 3221 063e b9c3 063f
000000a0: c173 5fbe 4cfb f63e 8d74 903d 89dd 9dbd
000000b0: 871f f73c d4fc b73d eb49 cabd d68d 8fbe
000000c0: 7e57 70bf ccd1 9f3f b43e e5be 7c9d f43d
000000d0: 69e5 0abf e36b 0f3f 9f22 17be 376e 813e
000000e0: c7bb 573f fdad c5b9 7c78 7b3d 4f8c 71bd
000000f0: 6552 63be bf0d 21be 2eaa bdbe fbaf 473f
00000100: eb52 633f 14b4 593e 51fa 023e bb7b 50be
00000110: 73f5 abbe 6341 013e 0dff 61bf 63b8 3abe
00000120: 65c3 fabe a65e bfbe 2e8f 053e 0fc0 5c3d
00000130: 978b 8cbf dc2a 803e 2e59 35be 69c4 4cbe
00000140: 514a 083e 2609 f8bc 4293 e53b ee7e b0bc
00000150: 420a aebe 9430 dbbe 0acd 3f3c 5ebd 1abe
00000160: 68cb 39be 6ea2 463e b1e1 a13e e9b5 d9bd
00000170: 1992 23be c837 85bd 5280 903e f344 c63c
00000180: b329 92bd 00f2 2f3d 3832 d3bf 4ca7 49bf
00000190: 7644 0f3d a8e4 fb3b 482a 1dbd fe54 263d
000001a0: fc7a 14bd 106f a7bc b5ed 453b 79fd ee3c
000001b0: 3622 77b9 d697 df3b 4270 46bd f654 583d
000001c0: 3898 323d fd2e ec3c a9d7 52bc 68e2 423c
000001d0: 238d 04bc 12f3 31bd 9d5e 4e3c 6df8 44bb
000001e0: 389a ab3b 5266 7e3d ddbe fdbb fda4 f53c
000001f0: 5153 263c 4871 69bc d448 4b3c 3aeb 0e3d
00000200: edb6 0fbb 29db b63c 5c9b fcbc 0e39 ec3c
00000210: 8c46 a3bc 836b 4d3b dd37 483d 8c11 09bd
00000220: b414 9abc 08fd 713c e9f8 43bd e487 253c
00000230: 71b6 6fbd 9be3 1c3d a8a6 49bc 1311 bc3b
00000240: 175b cebb ef79 d9bc bb46 cb3c b4b4 2e3d
00000250: 7a21 f8bc 6ab6 193c d2aa e63e 9370 f9be
00000260: e57e 47bd f984 683f a9f6 59be 0f62 9f3e
00000270: cfa9 9a3d 7364 e53e bcb3 5ebf b951 9cbe
00000280: 1080 0ebd d7c3 97be bfb7 f1be a59f 40be
00000290: f78f e53e 6bb7 ddbe f52c 80be 6555 2cbf
000002a0: 82e3 2ebf 22e0 403e d1ad d7bd 64b0 163f
000002b0: bb7c 4bbe 9643 3b3e e57a 7b3e 6679 e83c
000002c0: 6ea8 353b 4c6c 863e c494 90be 8525 de3f
000002d0: 7364 bd3e 018b 973c 68cc 143e 1d56 b8bc
000002e0: ab5a b23e 3659 3fbf f845 53bc ca2f a8bd
000002f0: ae82 b0be 0038 063e 811c 19bd 0054 a1be
00000300: 38c0 f43e f009 a3bc 9f5b 80be f3e4 4abe
00000310: 2f34 07bf e89f 903e e467 073f a9c2 773f
00000320: 19cb a4be deab 8ebe 6469 02c1 08cb 64bf
00000330: be13 a73f c0cd 4a3f bfb9 37bf 419a 9dbf
00000340: c328 e8bd 473d e0bf d4d3 333f 7b68 9fbc
00000350: e482 6b3f 9300 993f 7d05 79be 14cd ab3e
00000360: 51f6 623f f4e0 aec0 499e eb3d dcb8 d53e
00000370: 543a 18bf b48d 043d e887 993f b074 a6be
00000380: 3529 9dbf 34bc 01bf fbcb f6bf 2fbf 8bbe
00000390: 779f 4f3f f510 3bc0 aa60 98bf 4806 0f3d
000003a0: 700a 4b3f 5a83 17be c3f5 94bf 268d 91be
000003b0: f88c 213c 53eb 0dbf cd92 e0bf 5243 2bbf
000003c0: 6ac0 303e 8d9c 013f b762 e7bf 33b4 b0bc
000003d0: cfdc 37bf 53d0 a5bf 49a2 45c0 ab76 25bf
000003e0: a6f2 eebe f9f1 3cbc b472 9f3e 2872 d2bc
000003f0: aa9d d93e 8849 64bf 1153 12c0 0eda 57bf
-0.253005 0.0757449 -0.545536 0.172315 -1.05152 -0.137507 0.445941 0.0530456
-0.573578 0.36746 0.542458 0.0316531 0.0627607 0.245648 0.283382 -0.0306765
0.0103818 0.277123 0.000581025 0.0708056 0.0354966 1.44321 0.209364 0.194336
0.403587 -0.135362 -1.35333 0.410831 -0.0771493 0.610997 1.00984 -0.051334
0.479958 -0.186896 0.209852 0.284454 -0.0132734 -0.436878 0.130986 0.526424
-0.218215 0.482386 0.0705348 -0.0770827 0.0301664 0.0898377 -0.0987738 -0.280379
-0.938835 1.24859 -0.447744 0.119441 -0.542563 0.56024 -0.147593 0.252794
0.842709 -0.000377044 0.0613942 -0.0589717 -0.221994 -0.157279 -0.370439 0.780029
0.887984 0.212601 0.127908 -0.203597 -0.335857 0.126226 -0.882798 -0.182344
-0.489772 -0.373769 0.130429 0.0538941 -1.09801 0.250327 -0.177098 -0.199968
0.133096 -0.0302778 0.00700608 -0.0215449 -0.339922 -0.428105 0.0117066 -0.151113
-0.18144 0.193979 0.316175 -0.106304 -0.159737 -0.0650478 0.282229 0.0242028
-0.0713686 0.0429554 -1.64997 -0.787709 0.0349774 0.00768717 -0.0383704 0.0406084
-0.0362501 -0.0204387 0.00302015 0.0291736 -0.000235685 0.00682352 -0.0484469 0.0528154
0.0436022 0.028831 -0.0128688 0.0118948 -0.00809029 -0.0434447 0.0125958 -0.00300553
0.00523689 0.0621093 -0.0077437 0.0299859 0.0101517 -0.0142482 0.0124075 0.0348923
-0.00219291 0.0223213 -0.0308358 0.0288358 -0.0199311 0.00313446 0.0488814 -0.033464
-0.0188087 0.0147698 -0.0478448 0.0101032 -0.0585236 0.038303 -0.0123078 0.00573934
-0.00629748 -0.0265474 0.024814 0.0426528 -0.0302894 0.00938187 0.450522 -0.487187
-0.048705 0.908279 -0.212855 0.311295 0.0755192 0.448032 -0.86993 -0.305311
-0.0347901 -0.296416 -0.472105 -0.188109 0.448364 -0.43304 -0.250343 -0.673178
-0.683159 0.188355 -0.105312 0.588629 -0.198718 0.182875 0.245586 0.0283782
0.00277188 0.262545 -0.282385 1.73552 0.369907 0.0184989 0.145311 -0.022502
0.348348 -0.747455 -0.0128951 -0.0821224 -0.344747 0.131073 -0.0373807 -0.315094
0.478029 -0.0199022 -0.250699 -0.198139 -0.52814 0.28247 0.528929 0.967814
-0.321862 -0.278655 -8.15073 -0.893723 1.30529 0.792202 -0.717678 -1.23127
-0.113359 -1.75187 0.702451 -0.019459 0.919966 1.19533 -0.243185 0.335549
0.886571 -5.46496 0.115048 0.417426 -0.59464 0.0323617 1.19946 -0.325109
-1.22782 -0.506778 -1.9281 -0.272943 0.811027 -2.92291 -1.19045 0.0349181
0.793128 -0.147962 -1.16375 -0.28428 0.00986027 -0.554372 -1.75448 -0.668996
0.172609 0.506295 -1.8077 -0.0215703 -0.718213 -1.29542 -3.08803 -0.646342
-0.466695 -0.0115323 0.311422 -0.0256892 0.425031 -0.891747 -2.28632 -0.843171

Operation_4_Add_B f4 [50]
00000000: 7008 1dbf b96d 4fbe 6af6 503e 9f21 e43e
00000010: bf10 fabe b58b 093f 249c 82bf 1e6c 213e
00000020: eace 23bf f0a4 393f c6dd 50be f81b 4dbe
00000030: f8aa d5be 9c86 783f b0c8 6fbd 5d36 923e
00000040: b972 eebe 0bd2 3c3e a94c d1bd 36af 5a3f
00000050: df8b 4fbe 7689 c2bf 5ef4 adbf b37c 1dbf
00000060: b5a6 c5bf 5c3d 033f 7e35 37be 438d 723e
00000070: deb0 e5bf 0dfd b3bf 3690 aebe af3c adbc
00000080: f9d7 1abf e38a eb3d 2b13 a6bf 7cb7 e13e
00000090: ed28 b3bc ea5b b63f aeb9 433e d25f 3ebd
000000a0: 0664 5f3e ba39 bbbd 16d1 a0bd 924e aebc
000000b0: d99c 5ebc 4059 473d c4eb fabf 245e 863e
000000c0: baf4 033f ff09 44c0
-0.61341 -0.202567 0.204065 0.445569 -0.488409 0.537288 -1.02039 0.157639
-0.639876 0.725173 -0.203971 -0.200302 -0.41732 0.970804 -0.058541 0.285571
-0.465719 0.184395 -0.102197 0.854236 -0.202682 -1.51982 -1.35902 -0.615184
-1.54415 0.512655 -0.178915 0.236867 -1.79446 -1.40616 -0.340944 -0.0211471
-0.604858 0.115011 -1.29746 0.440853 -0.0218701 1.42468 0.191138 -0.0464781
0.218155 -0.0914187 -0.0785238 -0.0212777 -0.0135872 0.0486691 -1.96032 0.262437
0.515453 -3.06311

Operation_5_MatMul_W f4 [50, 50]
00000000: 425f 3e3f 616e 473f 28a9 c2bc 7db2 c23e
00000010: dba2 2c3d 6440 563f 2595 e1be 9ed2 e9be
00000020: aed4 d43b 4738 69bf b289 973d 10ea 72be
00000030: e438 e6bc 7441 a5bf 6d39 873f 9d1d 09c1
00000040: 7632 a83f 856c 2a3d 6a97 23bc fe3f f3bc
00000050: 8ba9 34be 9961 4bbf ab75 e23d 2cd4 f23e
00000060: 3cbc 3fbf 5860 7ebc 7a6f 7cbe 6ca1 8abd
00000070: bdaa 33be 7270 39bf d0d5 263e 8313 71be
00000080: 2195 42be d65b 9e3c 43ab 633e 5111 1b3f
00000090: db34 223f b438 03be 515f 20bd 50b2 abbd
000000a0: 1617 e73d f04e 0abf b98b 003e 683f 823d
000000b0: 3a6b c1bd 5721 35be 77ed f73c 98db 85be
000000c0: c367 ebbc 12a5 c1bf d39f cdbf 22c3 0ac0
000000d0: 308a f9bc 3620 0abf 3393 e2bb 1821 80bf
000000e0: 529d 6e3e 6ddb 8cbd 4d1a fe3a a774 803e
000000f0: 083c b0be 7f68 063f 936f d6bd 1c23 093f
00000100: ecdb 59bf 0725 a03f 6e4c 7f3e f914 e03d
00000110: 4c80 2bbc 9f59 9a3e f9dc 293e 791f bfbe
00000120: f2ae 8fbd a0a7 a93e f8fb e53d e99e 0dbf
00000130: b8e6 4e3e bfd4 6b3f 2060 09bf 3c2e a2be
00000140: 8198 443e b630 a33e 2cf0 953e f7e6 873e
00000150: 73a1 56bf a871 efbd 20df 843d f851 0dbe
00000160: 1d34 20bd 4758 dcbe 6552 133e 297e 473d
00000170: 4ef1 483e 2a52 e13d 6116 da3e d787 8d3e
00000180: 0d9c bd3d 87f8 77be 1c23 1e3d 5f0c 953e
00000190: b515 11c0 a4c1 cd3e 59f3 29bb 84d4 3d3e
000001a0: 0c97 b0bc 9f8e 47c0 4a27 d23d 94a1 0a3f
000001b0: e151 59bd cc42 833e 33c0 adbe cac0 413e
000001c0: f627 213e 1d56 98be cc97 57c0 5bd8 49bd
000001d0: 556b 01be 96e5 b0bd 80b9 c63d db0e 92bd
000001e0: 873f 79bc adeb 463d 3b51 a23d 9ad2 8a3e
000001f0: 86f1 c93c 76a6 383f cc5d 9b3e 6daa eebe
00000200: 0c93 993f a81c a33e e668 5f3d b5e0 05bf
00000210: 5fd4 ce3d 0f63 a23e d523 1dbe 1cce c0bf
00000220: 904b 243f 7fba 263c 845e 833b bb01 303d
00000230: 97aa 343c efae d3bd 34bb 0ebe 5342 b0bc
00000240: e2e7 8fbe 3736 0bbe 898a 47bd 9f3e 423f
00000250: 5666 c53d 0e4c febe 3df2 5dc0 37fc eebd
00000260: 86a7 99ba 7b4f 053e 8271 30bd e99b 143f
00000270: bceb 84be 1151 b4be 1477 bcbc 73f6 4e3e
00000280: 23bc d5be dee7 a0be ba83 b8bd 3220 3b3d
00000290: f834 773f 74b5 9d3f d00a 003f c590 ccbd
000002a0: 2d4f 31bc 8eda 4e3d 0745 aebd d36b 73be
000002b0: b86d 89bd a723 983e f4e1 79be 9c69 72be
000002c0: 5b18 733d 5cac 04bf e500 2bbd d80d 1fbf
000002d0: 8f93 8dbd cd67 4fbd e0bb 3dbe 1213 34be
000002e0: 8cb9 533f 3081 a33e 25e9 fa3d 9f75 8d3d
000002f0: 5aca 433c f399 97bd be6c 96bc 5497 823c
00000300: b1a4 2c3e b0f3 25bc 54ea 4dbd 90dc 4abe
00000310: fa9b 70be 35cf 313e 555b 80bd 206b 9c3d
00000320: 50df 30c0 b691 913d 5469 15bd 1ff3 893e
00000330: 7055 e33c 1821 90bf 8cd6 c13d 127c 9dbd
00000340: 9663 8d3c fb21 f6be 0438 3d3d 5a0d e9bd
00000350: a7b3 23be 7363 38c0 1685 39bf 807d 2ac0
00000360: 1303 9e3d 4e20 91bc 59bb d43b 4f78 89be
00000370: 1fce 8d3d 5fb2 a93e d965 2ebc 0adc 5a3d
00000380: 9204 45bf efa3 b43d fe29 d5bc b91b 48bf
00000390: 5859 eb3e c1a7 09be 4992 f3bb ee02 0a3d
000003a0: 35f0 e3be e90f cdbd 419f 98be 71cc 023e
000003b0: d784 c4bd c5c9 0dc0 7a49 4dbd c6bf 8fbf
000003c0: 1855 d0bc 6b61 463e 07ce 89bf 4ac3 be3b
000003d0: dffd a9be 4a4a 153d 9574 3ebd 2570 30bd
000003e0: d67f 073d 2a1f 023e 85e9 8b3e c7d9 a4be
000003f0: aa17 323c 834d 3dbe 0a5a f1bb b1a8 7c3f
0.743641 0.779028 -0.0237623 0.380268 0.0421475 0.83692 -0.440591 -0.456685
0.00649508 -0.911015 0.0739931 -0.237221 -0.0281033 -1.29106 1.05644 -8.56973
1.31404 0.0416074 -0.00998483 -0.0296936 -0.176428 -0.794458 0.110576 0.474275
-0.748966 -0.0155259 -0.246519 -0.0676907 -0.175456 -0.724372 0.162925 -0.235426
-0.190022 0.0193309 0.222333 0.605733 0.633619 -0.128146 -0.0391534 -0.0838362
0.112837 -0.540267 0.125533 0.0635975 -0.0944428 -0.176885 0.0302646 -0.261441
-0.028736 -1.51285 -1.60644 -2.16816 -0.0304614 -0.539554 -0.00691452 -1.00101
0.233022 -0.0687779 0.00193865 0.25089 -0.344208 0.525032 -0.104705 0.535692
-0.851012 1.25113 0.249315 0.109415 -0.0104676 0.301465 0.165882 -0.373287
-0.0701579 0.331357 0.112297 -0.553206 0.202052 0.921215 -0.536623 -0.316759
0.191988 0.318731 0.292848 0.265434 -0.838401 -0.116916 0.0648787 -0.138008
-0.0391122 -0.430361 0.143869 0.0487043 0.196233 0.11002 0.425952 0.276427
0.0925828 -0.242159 0.0386077 0.29111 -2.26695 0.401868 -0.00259324 0.185381
-0.0215564 -3.11808 0.102614 0.541528 -0.0530566 0.256369 -0.339357 0.189212
0.157379 -0.297532 -3.36864 -0.0492786 -0.126386 -0.0863754 0.0970335 -0.0713174
-0.0152129 0.0485646 0.0792565 0.271138 0.0246513 0.72129 0.30345 -0.466144
1.1998 0.318578 0.0545434 -0.52296 0.100991 0.317162 -0.153457 -1.50629
0.641778 0.0101763 0.00400907 0.0429704 0.011027 -0.103361 -0.139386 -0.021516
-0.281066 -0.135949 -0.0487161 0.758768 0.0963866 -0.496674 -3.46791 -0.116692
-0.00117229 0.130186 -0.043077 0.580504 -0.259611 -0.352181 -0.023006 0.202112
-0.417451 -0.314269 -0.090095 0.045685 0.965652 1.2321 0.500165 -0.0998855
-0.0108221 0.0505014 -0.0850926 -0.237716 -0.0671038 0.297147 -0.244026 -0.236731
0.0593494 -0.518255 -0.0417489 -0.621305 -0.0691291 -0.0506361 -0.185287 -0.175854
0.82705 0.319345 0.122515 0.069072 0.0119501 -0.0740241 -0.0183624 0.0159413
0.168597 -0.0101289 -0.0502723 -0.198107 -0.23497 0.173642 -0.0626742 0.0763762
-2.76363 0.0710787 -0.0364774 0.269433 0.0277507 -1.12601 0.0946475 -0.0768968
0.0172594 -0.480728 0.046196 -0.113795 -0.159865 -2.88107 -0.724687 -2.66391
0.0771543 -0.0177156 0.00649206 -0.268496 0.0692408 0.331439 -0.0106444 0.0534325
-0.769601 0.0882033 -0.026021 -0.781673 0.459666 -0.134429 -0.00743321 0.0336942
-0.445192 -0.100128 -0.29809 0.127733 -0.0959565 -2.21544 -0.0501189 -1.12304
-0.0254312 0.193731 -1.0766 0.00582162 -0.332015 0.0364478 -0.0464979 -0.0430757
0.0330809 0.127072 0.273266 -0.321974 0.0108699 -0.184866 -0.00736547 0.986949

Operation_5_Add_B f4 [50]
00000000: b6a1 82be 802b 91bf ea99 f9bc 64d5 b63d
00000010: b9a7 ebbc ada3 a2bf 317b f13e c4b0 ebbe
00000020: ea57 9fbc 069e 3bbf f436 2ebf d6a7 28bf
00000030: f086 54be cfa0 21c0 a628 07be 679b 0b3e
00000040: a226 223f c87a eabd 077e d43e 749a 3d3f
00000050: fe2a 30be 8e05 65bf 3c86 b7be cfa1 34bf
00000060: 365a b6be 19c5 eabf 8a1c 32be 7176 c33e
00000070: 6e51 82bf 2bc2 ed3d 147b 1c3f baf8 733f
00000080: bfba 2a3e 1101 cb3f 637a d2bf 12a0 1cc0
00000090: efc6 4ebf d2a9 b3be e241 8ebc 629f 003e
000000a0: 08cb 38bf 09e2 3cbf 4815 193f 139d 313f
000000b0: d6c7 db3e a8e2 febe c5e5 e03e d6c4 6ebf
000000c0: 7112 74bd 82ff 39bf
-0.25514 -1.13414 -0.0304689 0.0892742 -0.0287665 -1.27062 0.471643 -0.460333
-0.0194511 -0.73288 -0.680526 -0.658811 -0.207546 -2.52544 -0.131991 0.136335
0.633402 -0.114492 0.415024 0.740638 -0.172039 -0.894616 -0.358446 -0.705594
-0.356157 -1.83414 -0.173937 0.381763 -1.01811 0.116093 0.611253 0.953014
0.166728 1.58597 -1.64436 -2.44727 -0.807723 -0.350905 -0.0173654 0.125608
-0.721848 -0.737824 0.597981 0.693803 0.429259 -0.497823 0.439253 -0.932691
-0.0595879 -0.726555

Operation_6_MatMul_W f4 [50, 50]
00000000: 006a 93bb 13b6 ff3d d1e6 983e 0e0a 543d
00000010: 6171 c83e 7ae1 8ebe eb52 a33d 724d e9be
00000020: bee4 3a3d 5af5 c7b7 0f42 30be fb3c 063d
00000030: 8e8f febe 1f84 00be 0cca 24be 865a c3bf
00000040: 8cba 56be 30df 30bc e82d de3d 78b9 5ec0
00000050: 1ff5 27be da56 433e d1e9 493e 5a11 d53d
00000060: 323b eb3d c383 963e bac1 0bbd 0abb 14bf
00000070: fcce 053d 54ff 003d 518a 81ba 80bb a43e
00000080: c1a7 6dbf 4b02 80bf 6d27 c03c e09e 27be
00000090: b329 b7bd b5cd 23bd 88b9 cc3e e0ba 023d
000000a0: c520 38c0 6ae8 75bd 2d1d 983d 200c 78c0
000000b0: 2208 26bd 3ba9 0f3e de3c 553e 61df b63e
000000c0: 7f6f 8e3d 6e6e 0cbe 56b8 35be 70b1 063f
000000d0: 6a48 813d 49bd 57be c137 adbe 0a2d 83be
000000e0: e258 1b3f e657 233e d3a5 afbe 672b cfbd
000000f0: 1f8c 4ebd 2b16 2fbe e485 2c3f 2768 53be
00000100: c284 613e 664f 8abe 51f9 973d d942 d83e
00000110: 740c c03e bfbb 053e f888 14c0 73f5 e33d
00000120: 0072 223e 7e51 a23e 0d52 683f 6f46 35bf
00000130: 7a70 133f bb09 1e3e d3d8 23bd b1de 243f
00000140: 352a 703e 6133 08bf 59db e43e 3fa8 03bf
00000150: 0a41 18bd 9b37 83bd bd3f c93d a9c8 173d
00000160: cbd3 8ebd 5bb0 143e ccb4 95bf 4023 623d
00000170: f20c babe 316a adbc f25b 74be eb8b 84bf
00000180: 4b1f 823f 8962 f23e a215 aebd addf 20bf
00000190: 0959 713c 8253 043d e1de eb3b 4557 33bc
000001a0: 84e2 7dbc f8a9 eabc b13e 94bc 2244 283d
000001b0: 5564 d93c ba93 be3c 8da6 093d 3f88 cb3b
000001c0: 3e1b debc ca0c e53c 435f 10bd 2071 39bd
000001d0: c75b 18bd 569f 263d e265 1c3d 35e8 f03c
000001e0: a01f 1fbc 61b0 91bc 9475 0e3d 2fdd 24bd
000001f0: c75c 023c 7e84 86bc d094 213c c253 23bc
00000200: 6a72 ccbc f5c5 14bd 1bd0 17bd 4f71 413d
00000210: c0a7 23bd e30f 10bd dd6e d3bc d35e 8ebc
00000220: 2207 723a e0a2 6ebc 690d ef3c 8ba8 49bd
00000230: 824d 273d 13cc c13b 23b3 84bc 6623 84bb
00000240: 0289 9cbc c460 393d 20cb e7bc 3d4c 963c
00000250: 169d 913c 3ac6 1b3c a9d7 72bd 12b4 93bd
00000260: 89ef 64be 3545 30be 59de 25be 24d4 6cbe
00000270: dcd7 41be be17 0fbe 38c0 b4be 806c 98bd
00000280: 097e c5bd 2302 04bc 58e2 a5bf 33dd ebbd
00000290: 7f89 18be 1f0f 8dbe 8028 58be de02 1dbf
000002a0: 2d42 21be bccc 20be 9069 b5be 0a50 eebc
000002b0: 7841 093d 6057 13be 52d5 fcbf 8c64 7bbf
000002c0: c7bd 91be ac1f db3d 7ebc a1bd 5ad4 4bbf
000002d0: 5b39 65bd 1af8 3dbf f087 8fbe 7dff 4bbd
000002e0: 3d6e 9ebd 999a a4bd 67ad b2bd 064c 203e
000002f0: 4e62 60be 715d bcbd 545a aa3d 38da f1bd
00000300: b587 3dbe 056e 4dbe e6b1 9ebe d5eb d63d
00000310: 93e4 69bf 75e4 e8be 479e 85bd 29e9 51be
00000320: 74e2 dd3b ea4c d0bc 3f0c c2bb a53f 05bd
00000330: 77db 453d 2b4c 5a3a 107d 523c a9e1 78bb
00000340: e662 42bd 5556 ae3c d9d8 1b3d 4abe c83b
00000350: c734 2ebd 8580 f43b 69cf c03c f447 223d
00000360: 2ce9 8dbc 3db9 e63c ae5c f9bc 5f58 02bb
00000370: 352a 703c 50d9 d5bc 4f1c e5bc 6baa 38bc
00000380: d86a 0b3b 1cea 3c3d c31e 04bd b4c7 f0bc
00000390: c44f 903a a00b f6bb 1f4d 503c c783 2d3c
000003a0: a5b5 b33c a02e 56bb b2ca 58bb 5b24 0dbd
000003b0: ca4d 793c ad69 5e3c 7ab1 2bbd dce7 82bc
000003c0: f847 c6bb 18d2 fc3c e0a8 0bbd 7466 16bd
000003d0: 73ab 353b de2a 3e3d 4d17 bd3c f420 983c
000003e0: 8202 6f3c 0674 103d 60e1 0bbc b20e 09bb
000003f0: f6a0 1bbd 2def 05bd c3ef 9e3e 055a c0bd
-0.00449872 0.124859 0.298636 0.0517674 0.39149 -0.279064 0.079748 -0.455669
0.0456283 -2.38369e-05 -0.172127 0.032773 -0.497189 -0.125504 -0.160927 -1.5262
-0.209696 -0.0107954 0.108486 -3.48007 -0.164021 0.190761 0.197181 0.104037
0.114859 0.293974 -0.0341203 -0.580979 0.0326681 0.0314935 -0.000988314 0.321743
-0.928341 -1.00007 0.0234563 -0.163692 -0.089435 -0.0399911 0.399853 0.0319165
-2.877 -0.0600361 0.0742744 -3.87574 -0.0405351 0.140294 0.20824 0.357173
0.0695486 -0.13714 -0.177461 0.526145 0.0631264 -0.210683 -0.338316 -0.256203
0.606825 0.159515 -0.343062 -0.101157 -0.0504266 -0.170983 0.673918 -0.206452
0.220233 -0.270137 0.074206 0.422385 0.375095 0.130599 -2.32086 0.111308
0.158638 0.317028 0.907502 -0.708106 0.575935 0.154334 -0.0400017 0.644023
0.234536 -0.532034 0.446986 -0.514286 -0.0371714 -0.0640709 0.0982661 0.0370566
-0.0697399 0.145204 -1.16958 0.0552094 -0.36338 -0.0211688 -0.238632 -1.03552
1.01658 0.473408 -0.0850022 -0.628413 0.0147307 0.0323062 0.0071982 -0.0109461
-0.0154959 -0.0286455 -0.0180963 0.0410806 0.0265371 0.0232638 0.0336061 0.00621131
-0.0271126 0.0279602 -0.0352471 -0.0452739 -0.0371969 0.0406793 0.0381831 0.0294076
-0.00971213 -0.0177843 0.0347801 -0.04025 0.00795669 -0.0164206 0.00986214 -0.0099687
-0.0249569 -0.0363216 -0.0370637 0.0472272 -0.0399549 -0.0351714 -0.0258097 -0.0173792
0.000923263 -0.0145652 0.0291812 -0.049233 0.0408454 0.00591422 -0.0161987 -0.00403254
-0.0191083 0.0452583 -0.0282951 0.0183469 0.0177751 0.00950771 -0.0592877 -0.0721208
-0.22357 -0.172139 -0.161981 -0.231278 -0.1893 -0.139739 -0.353029 -0.0744257
-0.0964318 -0.00805715 -1.29597 -0.115168 -0.148962 -0.275506 -0.211092 -0.613325
-0.157479 -0.157031 -0.354321 -0.0290909 0.0335097 -0.143888 -1.97526 -0.982003
-0.284651 0.106994 -0.0789728 -0.796209 -0.0559629 -0.742067 -0.280334 -0.0498042
-0.0773587 -0.080373 -0.0872448 0.15654 -0.219125 -0.0919751 0.0831801 -0.118092
-0.185088 -0.200615 -0.309951 0.104942 -0.913644 -0.454868 -0.0652433 -0.204991
0.00677138 -0.0254273 -0.00592187 -0.0325314 0.048305 0.000832739 0.0128472 -0.00379763
-0.0474576 0.0212814 0.0380486 0.0061262 -0.0425308 0.00746161 0.0235364 0.0396194
-0.0173231 0.0281645 -0.0304397 -0.00198891 0.0146585 -0.0261046 -0.0279676 -0.0112711
0.00212734 0.0461217 -0.0322559 -0.0293921 0.00110101 -0.00750871 0.0127137 0.0105905
0.0219372 -0.00326816 -0.00330798 -0.0344585 0.0152163 0.013575 -0.0419173 -0.0159797
-0.00605106 0.0308619 -0.0340966 -0.0367188 0.00277206 0.0464276 0.0230824 0.0185704
0.014588 0.0352669 -0.00853762 -0.00209133 -0.0379953 -0.0326988 0.310423 -0.0939217

Operation_6_Add_B f4 [50]
00000000: 9fb0 ec3e d5ce 803e c364 96bf 7c7f 433e
00000010: 10e8 7c3e 16fb f33e dd27 b73e 40fc 3c3f
00000020: d97c 843e 1328 523e 15ab 023f 4144 4a3e
00000030: c477 863f bb63 a93e 342b 6b3e 0c94 303f
00000040: c11f fe3e d751 25be 806c 28bd 999d 75bf
00000050: e833 c03e 5cfb a73d 4a61 36bf a374 813e
00000060: 1074 083f 8a1f c7bf 60c9 1d3f cb10 cfbf
00000070: 9fcc 8f3e cce0 3d3b 0909 243b 2d0b 5ebf
00000080: 6cfb b83d 5a64 8b3e 0d36 453e 82e3 523e
00000090: 4757 913e 1a6e 90bf 5fb2 69bf 6a88 a23e
000000a0: e8c0 92be ddea e13e bf44 5d3b 77a3 cf3d
000000b0: d3a4 d0bf 52b9 b9be 7990 de3d 04e5 86be
000000c0: 70d2 443e 38bc 503e
0.462285 0.251578 -1.17495 0.190916 0.246979 0.476525 0.357726 0.738224
0.258765 0.205231 0.510423 0.197526 1.05053 0.330839 0.229657 0.689759
0.496336 -0.161445 -0.0411191 -0.959436 0.375396 0.0820224 -0.712422 0.252843
0.533021 -1.55565 0.616354 -1.6177 0.280858 0.00289731 0.00250298 -0.867358
0.0903233 0.27225 0.192589 0.205946 0.283869 -1.12836 -0.912878 0.317447
-0.286628 0.441245 0.00337629 0.101386 -1.63003 -0.362742 0.108674 -0.263466
0.192209 0.203843

linear_7_MatMul_W f4 [50, 5]
00000000: 313f b73c 83b2 ba3c 8fa6 d93b a3c8 bf3c
00000010: 40cf b03c a98a 243d 1e6d 8c3d 45c3 d83c
00000020: 54f7 bd3d 8228 cebc 50ea 963d 6320 743c
00000030: e6fd 243d ae5b 49bd d39a cb3d 041c e3bb
00000040: 169a f53c 924c 1d3d c9b8 d83c 1ba0 343d
00000050: f779 e73c 3137 293c be2d 1d3d 751c 64bc
00000060: a2a7 173d 9120 e43b 3b91 3bbc 0769 7c3c
00000070: 7d4c 1abd 4677 35bc 6638 d43c ec33 63bb
00000080: ed39 9f3c 7011 2ebd 4796 473d 5d93 87bb
00000090: ecf7 44bc b279 663c 209e 20bd ca23 0e3d
000000a0: 8a9b 093d 73b1 533d b81e 053d 0aeb 803d
000000b0: 51dc f1bc 0a9f 2dbc b815 6b3b b70a e23c
000000c0: 083e c43b 0335 463c c310 f93d 7990 94b9
000000d0: ea4e 03bc 8fe0 883a efce b5bb 7cef ef3c
000000e0: 6a0f 003d c6e8 af3c b250 063d cfe7 d23c
000000f0: dcf0 3bbc 141c 83bc ffc2 bcbc d7c2 acbc
00000100: 3e5d 9dbc f21c 1b3d d2c6 713d 16f6 343c
00000110: 9f3e 823d bac6 be3b 4c77 b2bc 5045 dcbb
00000120: bbf6 e0bc 2546 89bb 98e7 773c cce6 753b
00000130: 6150 263b 68a0 053b 4738 b13a ac58 fcbc
00000140: 1014 ae3c 646b c73c 9d50 033d 7533 cc3a
00000150: 31d4 bcba 853b bcbc 4f0d 0abd b076 f3bb
00000160: 9731 2abd ead8 56bb 0381 093d d033 ec3c
00000170: bdc1 fc3c 6fab cf3c 21c7 fb3c 3b6c c73d
00000180: 5262 d73d f98b 743d f475 8f3d 6093 753d
00000190: e5e8 d6bc 268e bcbc 5f26 e9bb 0413 c9bc
000001a0: ab71 babb 0a0c be3c 92ec 913c 1feb 133d
000001b0: ae72 323c de95 38bc 9fc2 363d 5f96 563d
000001c0: c0a8 293d 9c47 6f3d 35bf 303d 2cca 363c
000001d0: 5b2a 4a3c 4eed 8c3c 724b 8ebb f115 583d
000001e0: 31ef 71bc 70d4 a5bc 11f8 68bc e1ac 12bd
000001f0: f8a1 183c ab09 9e3b 786a 643c c540 f23c
00000200: 5ac2 313b d504 113d c5f0 c73c a1cd 3b3d
00000210: 47d4 7a3c 92d2 473d 6858 b1bc 65e2 863d
00000220: 91b6 813d eb11 943d 0ed0 873d 0e34 7a3d
00000230: 7a36 6dbb b87e 103d 554c 25bc 461a 263d
00000240: 9ee1 973b ccba 9cbb 9f38 213c a81b 45bb
00000250: 32bb f83c cd82 3fbd 2bd1 e13b b673 503c
00000260: 3d7a a83c 01ca 193c 2e0d 723d c078 043c
00000270: de9e 563c 3869 073a 47b2 e23c bc63 8cbc
00000280: 4111 c63d 59be ee3d b664 d53d 2f89 f33d
00000290: 7266 903d e52a 863d cc8a 823d 9dd4 8c3d
000002a0: 7604 6b3d 0b03 7b3d be74 2cbb eef0 11bc
000002b0: e892 203d a87d 693d 08a7 ea3c 1ea5 f2bd
000002c0: f5a1 093c b26e d73c 092b be3b dcd8 09ba
000002d0: d496 9fbc 7ea4 2dbc cf2f 4a3c 4a3d f0bc
000002e0: 0a94 1e3d 0c74 6d3c bfca ab3c d685 443c
000002f0: bdb1 7b3c 5c10 9b3c 40c8 cdbc 7d5e f1bc
00000300: aa0a f2bc c698 05bd 5dd7 54bc 5264 ad3b
00000310: 591d 14bb 9419 cabc de7e 2fbb b410 d33c
00000320: 6e65 aebc 1fe9 9dbc 05f0 e0bc ec04 49bb
00000330: e8bd 313c 3c48 943d 0466 9f3d c44b 963d
00000340: aed7 943d c12a 2d3d 8d12 cf3c b4a8 b43c
00000350: bc00 003d b550 b23c e0d3 813c fe6a c43d
00000360: 6fdf b93d 4687 b63d 0e6e b63d fa80 e03d
00000370: 4b18 f2bc c0fd a93a e604 afba 5ba8 4fba
00000380: 59e3 26bb 44be cbbc d629 c1ba 80af 32bd
00000390: cc60 8c3c 094c 8cbd 4d2a ffbc 178a eabc
000003a0: d514 12bd 763c 41bc 9bb6 15bd 603d 0e3d
000003b0: 2a02 9c3c 7cf6 fe39 fc6f a53c b6d8 8e3b
000003c0: 49c6 403d 8d2d 1f3d 3d60 833d c1d4 253d
000003d0: 387d 623d 7e0b e1bc baba 03bd f044 dabc
000003e0: 88c9 e5bc c2c8 a6bc
0.022369 0.0227902 0.00664217 0.0234111 0.0215832 0.0401713 0.0685675 0.0264603
0.0927569 -0.0251658 0.0736891 0.0149003 0.0402812 -0.0491597 0.0994164 -0.00693083
0.0299807 0.0384031 0.0264553 0.044098 0.0282564 0.0103281 0.0383737 -0.0139228
0.0370251 0.00696189 -0.0114482 0.0154059 -0.0376706 -0.0110758 0.0259058 -0.00346684
0.0194368 -0.0424971 0.0487273 -0.00413744 -0.012022 0.0140671 -0.0392133 0.0347021
0.0335956 0.0516829 0.0325 0.0629483 -0.029524 -0.010597 0.00358711 0.027593
0.00598884 0.0120976 0.121614 -0.000283364 -0.00801442 0.00104429 -0.00554835 0.029289
0.0312647 0.0214733 0.0327918 0.0257453 -0.011471 -0.0160046 -0.0230422 -0.021089
-0.0192095 0.0378694 0.0590275 0.011045 0.063596 0.00582203 -0.0217854 -0.00672213
-0.0274614 -0.00418927 0.0151309 0.00375216 0.00253775 0.00203898 0.00135208 -0.030804
0.0212498 0.0243432 0.0320593 0.00155793 -0.00144065 -0.0229776 -0.0337041 -0.00742992
-0.0415512 -0.00327831 0.0335703 0.0288333 0.0308541 0.0253503 0.0307346 0.0973744
0.105168 0.0597038 0.0700492 0.059955 -0.0262341 -0.023017 -0.00711517 -0.0245452
-0.00568982 0.0231991 0.017813 0.0361129 0.0108916 -0.0112662 0.0446192 0.0523895
0.0414207 0.0584179 0.0431511 0.0111566 0.0123392 0.017203 -0.00434249 0.0527553
-0.0147665 -0.0202429 -0.0142193 -0.0358094 0.00931596 0.00482293 0.0139414 0.0295719
0.00271239 0.035405 0.0244068 0.0458504 0.0153094 0.0487848 -0.0216486 0.0658615
0.0633365 0.0722998 0.0663148 0.0610848 -0.00361958 0.0352771 -0.010089 0.0405524
0.00463505 -0.00478301 0.00984016 -0.00300763 0.0303627 -0.0467556 0.00689139 0.0127229
0.0205661 0.00938654 0.0590946 0.00808543 0.0130994 0.000516552 0.0276729 -0.0171374
0.0967126 0.116574 0.104196 0.118914 0.0705079 0.0655115 0.0637413 0.0687649
0.0573773 0.0612822 -0.00263147 -0.00890754 0.0392026 0.0570046 0.0286441 -0.118479
0.00840043 0.0262979 0.00580347 -0.000525845 -0.0194811 -0.0105983 0.0123405 -0.0293261
0.0387154 0.014493 0.0209707 0.0119948 0.0153622 0.0189287 -0.0251199 -0.029464
-0.0295461 -0.0326164 -0.0129908 0.0052915 -0.00226005 -0.0246704 -0.00267785 0.0257648
-0.0212886 -0.0192762 -0.0274582 -0.00306731 0.0108485 0.0724034 0.0778313 0.0733867
0.072677 0.0422771 0.0252774 0.0220531 0.0312507 0.021767 0.0158481 0.0959072
0.0907582 0.0891252 0.0890771 0.109621 -0.0295526 0.00129693 -0.00133529 -0.000792151
-0.00254651 -0.024871 -0.00147372 -0.0436244 0.017136 -0.0685044 -0.0311481 -0.0286303
-0.0356644 -0.0117942 -0.0365511 0.0347265 0.019044 0.000486303 0.020195 0.00435933
0.0470641 0.0388618 0.0641484 0.0404861 0.0552952 -0.0274713 -0.0321605 -0.0266442
-0.0280502 -0.0203594

linear_7_Add_B f4 [5]
00000000: 0917 b2bc ad32 933c 7574 9cbc d674 983c
00000010: 1c32 94bc
-0.0217395 0.0179685 -0.0190985 0.0186104 -0.0180903
