networks/onnx/ACASXU_run2a_1_5_batch_2000.onnx (onnx, 55914 bytes, 15 tensors)

input_AvgImg f4 [1, 1, 5]
00000000: 0000 0000 0000 0000 0000 0000 0000 0000
00000010: 0000 0000
0.0 0.0 0.0 0.0 0.0

Operation_1_MatMul_W f4 [5, 50]
00000000: d444 573f d15b 08bf 9dc6 ecbc 7ee5 213e
00000010: dbe5 f6bc 73bc 42be a52c e33d 54eb 133d
00000020: 93e4 0d3f 5640 96bd 452f 33bf c9c6 37bf
00000030: e180 763a 7d6e 823d 3677 ccbe 1c56 ddbc
00000040: e1b5 cb3e e84e 20be bc96 6b3c 54e3 89bf
00000050: a203 17bd 2a6f 07be e655 713a 557e 033d
00000060: 5d70 2a3f c0a9 99bc 2c0f 023e 20b4 de3c
00000070: e9c6 053d c6a5 ba3e 7e1d b83e 239f 1b3f
00000080: 7320 183b 83d6 683d 11c6 113b 2cf9 b33c
00000090: b6b9 11be 863a 303f d84d 643d 7ee6 67bd
000000a0: 1d8d 983d dc0a 08bc 664f 9fbb e15e f9bd
000000b0: f9b4 4fbd 4357 623e de93 a2bd a73f 0bbe
000000c0: f8a2 623c 29cd 76bf 09b1 e9bc ee62 d43b
000000d0: 254c e63b 807e 4f3f 6780 dbbe 495a fdbb
000000e0: 7dd0 f3bd 5e4a 9d3e f1bd 4f3e bfd1 3e3e
000000f0: 848b 2bbd ac3b 963c e5a1 c6bb ae46 5abf
00000100: c171 893e 82e1 20bf 3e69 173d 40be 44bd
00000110: b881 31bd ef1a 193c d42c 303e ae60 1dbc
00000120: e3a3 6a3c eecf 393f 227a 683d 226c 183e
00000130: f65d b93f f88b 513f 2385 3a3f bcd0 82ba
00000140: a83a ffbc 430c 0d3b 5b43 51bf f3ae a2be
00000150: 1f78 463a 17d4 1fbf e0ba 923d 8cc9 0f3b
00000160: 2e8f 983b ac45 8abd d76d 60bf 6aa6 9b3e
00000170: f2b7 f7bb d905 5b3f e757 8ebd e0f3 433d
00000180: 3a57 14bd 928b d6bc 6cb2 9ebf 1ba7 373d
00000190: d35a 273d 2633 ff3b 94fa 533b eece 8abd
000001a0: f837 d03e beee df3a 5114 a0be 54ff d03e
000001b0: ddd0 443e 46d3 09be b324 40bd 2733 b9bb
000001c0: 78a6 86ba b0dc 57bd 98f0 d53c e5d5 593f
000001d0: 8bb6 f4bc ae8c bebb ee25 8dbc 90d2 36bb
000001e0: a4d2 be3d 21e9 233e e0e9 213c 460c a3be
000001f0: e287 a43d d366 20bf 7cac 2abd dec9 67bf
00000200: 317b 3dbf 973a 863b 9c68 acbd 7539 883a
00000210: 67d4 543f 8066 c8be 9ff6 043b ba2e 203f
00000220: 9c19 0d3e 30e7 8eb9 5c1e 8cba 9c15 11be
00000230: 8ecb 543f d2c2 8d3e 8796 2b3c 03cd 7f3f
00000240: 494a 3a3e f184 5e3e 2d09 c43f 00c6 b7bf
00000250: 7a00 8b3c 89e4 153d 5515 9abe e0bb 1dbe
00000260: 7e3a fdb9 ee87 093d 8d3b 8cbb 5663 493e
00000270: f33a 723e fa46 24be 3c13 6a3e 596c 733e
00000280: 11fd fa3d 74e2 bc3c 82a9 873a 3a5c 6b3e
00000290: aa7f f03d 910d e43d b741 cd3d c026 eb3e
000002a0: d713 15bf b6b3 793c baf7 d8be 7bf9 c5be
000002b0: c1ad 8b3e 08ad 673e 54ba 65bd de77 0c3e
000002c0: a61a ac3c 3f5e be3d 7f55 293d 4bc9 b23e
000002d0: cc5d eb3d 80d8 8d3d cee9 8d3c 8d28 2dbe
000002e0: b475 403e c9cb 0a3e 2978 823e efda af3c
000002f0: 0197 133c 1a86 3bbf 363a e73d 156f 24be
00000300: e8ed 783b 0ddf f23e ecf7 143e e719 f33e
00000310: 1bfc f33c 5513 e4bd 9419 ca3a 1cff 0f3d
00000320: 7236 11bf 344d d83d 3e33 f33a 9ea0 68bd
00000330: 9142 39be 7d93 463e 7afe f43d fbe5 33bd
00000340: 6329 223e 9510 acbe 172e 7b3e 1e34 abbe
00000350: 7d01 623c faed 7bbe 84d6 e33d fd2d 91be
00000360: f871 30bf c903 b9be 045a eabe 9acc 3a3b
00000370: 9ed3 fcbe cc25 ed3e 878a 51be 402f 2cbe
00000380: 4128 cfbd f756 94be 6936 cfbd 33fd d23d
00000390: 2296 c33d 8fc6 61be f627 41be 6986 9abb
000003a0: 9fe5 f93d 90a3 293e 8916 8a39 4b02 143e
000003b0: d762 613d 873e 103c 0bb3 5cbf 0d6e 2bbe
000003c0: bec8 fa3c d637 103e b78d 923b 5087 3abc
000003d0: 3a07 5fbe 7db3 2dbf 86ae 40bb 4cc7 4c3e
000003e0: e6bd 173a e5d3 03bd
0.840894 -0.532651 -0.0289033 0.158102 -0.0301389 -0.190172 0.110925 0.0361131
0.554269 -0.0733649 -0.69994 -0.717877 0.000940336 0.0636873 -0.399347 -0.0270186
0.397872 -0.156551 0.0143792 -1.07725 -0.0368687 -0.13226 0.000920622 0.0321029
0.665777 -0.0187577 0.127011 0.0271855 0.0326604 0.364546 0.3596 0.607897
0.00232127 0.0568452 0.00222433 0.0219694 -0.14231 0.688393 0.0557383 -0.0566163
0.0744879 -0.00830337 -0.00486176 -0.121763 -0.0507097 0.221036 -0.0793836 -0.135985
0.0138328 -0.964068 -0.0285268 0.00648152 0.00702812 0.810524 -0.428714 -0.00773171
-0.11905 0.307208 0.202873 0.186347 -0.0418811 0.018339 -0.00606178 -0.852641
0.268446 -0.628441 0.0369656 -0.048033 -0.0433366 0.0093448 0.172046 -0.00960557
0.0143213 0.725829 0.0567571 0.14885 1.44818 0.818542 0.728594 -0.000998042
-0.0311559 0.00215222 -0.817434 -0.317741 0.0007571 -0.62433 0.0716455 0.00219402
0.00465574 -0.0675157 -0.876676 0.304004 -0.00755977 0.855558 -0.0695036 0.04784
-0.036216 -0.0261896 -1.23982 0.0448371 0.0408581 0.00778808 0.00323454 -0.0677775
0.406677 0.00170847 -0.312655 0.408198 0.192203 -0.134595 -0.04691 -0.00565185
-0.0010273 -0.0527007 0.0261157 0.85092 -0.0298722 -0.00581511 -0.01723 -0.00278965
0.0931752 0.160069 0.00988242 -0.318453 0.0803373 -0.626569 -0.0416684 -0.905424
-0.740161 0.00409634 -0.0841839 0.00103931 0.831366 -0.391407 0.00202886 0.625713
0.137793 -0.000272566 -0.00106902 -0.141684 0.831231 0.276877 0.0104729 0.999222
0.181924 0.217304 1.53153 -1.43573 0.016968 0.0365949 -0.300944 -0.154037
-0.000482995 0.0335769 -0.00427956 0.196668 0.236553 -0.160427 0.228589 0.237718
0.122553 0.0230572 0.00103502 0.229844 0.117431 0.111354 0.100223 0.45928
-0.582334 0.0152406 -0.423765 -0.386669 0.27281 0.226246 -0.0560859 0.137176
0.0210088 0.0929532 0.0413413 0.349192 0.114925 0.0692606 0.0173234 -0.1691
0.187949 0.135543 0.254823 0.0214667 0.00900817 -0.732515 0.112904 -0.16058
0.00379836 0.474358 0.145477 0.474807 0.0297833 -0.111365 0.0015419 0.0351554
-0.567237 0.105616 0.00185547 -0.0567938 -0.180918 0.193922 0.119626 -0.0439205
0.158361 -0.336064 0.245293 -0.334382 0.0137943 -0.246025 0.111249 -0.283554
-0.689239 -0.361357 -0.457718 0.00285033 -0.493802 0.463179 -0.20463 -0.168149
-0.101151 -0.289726 -0.101178 0.103022 0.0955012 -0.220484 -0.188629 -0.00471573
0.12202 0.165663 0.000263382 0.14454 0.0550259 0.00880397 -0.862107 -0.167412
0.0306133 0.140838 0.00447246 -0.0113848 -0.217801 -0.67852 -0.00294009 0.199979
0.000578849 -0.0321845

Operation_1_Add_B f4 [50]
00000000: 3d53 de3c ff2f 6dbd 5c4b 92bc 87b9 b93d
00000010: fecc 05bc f225 d43d 311f b5bc 640d 123d
00000020: a824 c1bd 101a 663c bd51 503c 4f94 9cbe
00000030: f089 75bc 4e65 2c3c a81d bebc b4e6 37be
00000040: f660 d2bd c427 0d3e 0a48 cbbe a4a6 1dbe
00000050: 2a8d d0be e1de 883b 34be af3c e2c8 e3bd
00000060: 9131 d23c bd6e d13d bb31 183d e883 75be
00000070: d767 8ebe a1ba 393e ffd7 4f3d 4a43 6d3e
00000080: e3e1 a5be e958 0f3d 6468 bb3d bcae dfbd
00000090: 7bcf d2bc 3239 753e dbc0 9dbe 9eb1 8fbe
000000a0: 3f3a 85be 56c5 ca3c 21d0 74bc fc38 0abe
000000b0: 0ab4 a03c d025 dc3d 8bf8 133d f8aa 953c
000000c0: 4e1f a6bb 397f 63be
0.0271393 -0.0579071 -0.0178582 0.0906859 -0.00816655 0.103588 -0.0221096 0.0356573
-0.0943082 0.0140443 0.0127148 -0.305819 -0.0149865 0.0105222 -0.0232075 -0.179591
-0.102724 0.137847 -0.397034 -0.153956 -0.407327 0.00417696 0.021453 -0.111223
0.0256584 0.102262 0.0371568 -0.239761 -0.278136 0.181376 0.0507431 0.231702
-0.323989 0.0349969 0.0915077 -0.10922 -0.0257337 0.239476 -0.308112 -0.280652
-0.26021 0.0247523 -0.0149422 -0.134983 0.0196171 0.107494 0.0361257 0.01827
-0.00506965 -0.222165

Operation_2_MatMul_W f4 [50, 50]
00000000: 9e7a 54be b48f 8dbe 9d11 55be 459d 09be
00000010: da7d fd3c ef58 0cbe 1e1a 1ebf 37c7 c93e
00000020: 25a6 a5bd ad68 13bd 4f0c 24bc 0abf d43d
00000030: 1d92 1abe b109 9a3d 052d 49bd 3889 acbd
00000040: 1508 a13d 6f56 733d f668 853c 961f 9dbd
00000050: 1d91 df3e 8d62 d9bd c011 13bd 6990 aa3e
00000060: 56bb 763e 80d5 b1bd 645d 1a3c c2e8 98bd
00000070: f679 943e aba3 54bd ed81 063e 808e a0bd
00000080: 13e8 b8bc 62f5 8fbe e8bb 83be cf12 443e
00000090: ea76 763e 355a b33a 3106 9e3e ae9e a7bf
000000a0: fed7 29be 598b b73e 5270 e7bb 4b74 163e
000000b0: e497 2bbd fed2 0a3f 7c9b 463f dd3f 963e
000000c0: 27ac 033d e735 86bf 4757 e1be b623 a63d
000000d0: dc49 343e 58c5 4b3e 0fef e13e d2e2 843e
000000e0: aaa3 fe3c 4a9b 6abe 7347 dfbd 26e1 62be
000000f0: 8451 a4bc 8046 1d3f 73f5 033e 1b5e 95bd
00000100: 26a1 fcba 56a2 7bba 49d8 df3e db4f 46be
00000110: c6b3 f83b 3824 5f3d fdf4 dfbe 6a17 073f
00000120: c0ef 1a3d 8b6f d0be f964 dd3e 8052 633d
00000130: cec1 58bc 4111 b63d 223c 753d 4f1d d0bc
00000140: 4f20 c43e 60af 503e 5342 a83e 82e6 233e
00000150: 7693 ce3c 9066 2cbe b23e af3d 32b0 cebc
00000160: 4e27 39be 4ef6 8a3d 5126 7f3c 6d3c d8bd
00000170: ca6f a9be 24c3 20bd 3132 f7bc 9f3a f6bd
00000180: 0322 04bf 083a 5abe 361f a7bf 22df 153e
00000190: e695 eb3c b9d6 483d d343 5ebd 0a92 c8bc
000001a0: 86d1 873c c11f 19bd 7e29 32bd 9f4d d83c
000001b0: ad8b 36bc e9e2 213c bf3d 193d a93f 2cbd
000001c0: 09d2 36bd 2173 8a3c cab4 2c3d f86b f23c
000001d0: 8b6b fcbc 2f43 ed3c ac1e 30bc 7c45 373c
000001e0: f8cb 223d d460 1abc 23b9 21bd be39 16bc
000001f0: bf80 203c 7e74 493b ecc5 0b3d fb47 f3b9
00000200: 4bf1 52ba d888 40ba 9f3b 21bd 4742 363c
00000210: 2d56 f93c 5af6 e4bc 0e2f 883c d956 18bd
00000220: bfdf 9e3c ac3c 5cbd 1c66 033d 5bad b8bc
00000230: 1b5e 35bd 8880 433c 294c 0ebd a5b5 33bc
00000240: 5b81 1c3d df6a 9d3c baa5 10bd e9a7 0e3d
00000250: 1d1c 0cbd 6abc 363b 3ed2 bbbc 3f89 b43c
00000260: 1ff7 edbd 8124 9c3e 015d 253d 3198 dfbd
00000270: 397f 2b3f 8ecc 733e d48d 963d 95d2 c83d
00000280: 7236 ba3a 8afa 9e3d ab07 0c3e a7ec ec3e
00000290: be7a 46bd b037 b13e 425d 643e 6be9 963d
000002a0: 88a4 71bc 6006 63bf ea24 1bbd 6afb 1fbf
000002b0: 3470 16bd 810a 8f3e 3b53 14bf 5644 ad3e
000002c0: 7b54 573c cae9 21bd 28d9 a5bd 648b 09bd
000002d0: 60af 143f da8c 8b3e 9930 f5bb 0e15 bf3f
000002e0: b3d2 243c c077 cb3d 58ae 57be ac30 e2bc
000002f0: 6c24 09be 3544 953e 4791 053f 5de5 b43d
00000300: 3eca 083e 3f8f f9be 5f88 78ba e9ca 7d3a
00000310: 5a83 07be 9164 563e 18ed 213e c2f7 e63e
00000320: b0c6 f1be 2a70 023e 62dc 1dbe 9263 c63c
00000330: fda2 443e 7a17 7fbe ec88 5f3f 17f0 723e
00000340: 4b36 233d a80e 83bc 5427 b9ba 3199 ca3f
00000350: 4b93 60c0 8acd 2f3f 991e 1e3d 5a63 703e
00000360: 6d37 19bf f202 a13d b601 8ebc 7d34 06bd
00000370: 043d d4bd 0399 fdbe b9a2 563b 0490 6abe
00000380: 05de a1be a0c2 013f 9060 2fbd 3a92 d33e
00000390: fd6c 84be 4548 9dbc efc8 1c3f f2ed 11bf
000003a0: aa10 cf3d b2a0 d0bd 6912 46bd 55a3 c73e
000003b0: eaea 863e 6153 07be 41f3 f93d 75b1 053f
000003c0: 1285 0a3f 71c8 46be 7c5f 70bf 1880 a1bd
000003d0: c82e 0c3d 4feb 3a3f 7806 923d a034 bcbe
000003e0: d46f b5bd 0af3 4ebe 8752 8bbe 22e3 31be
000003f0: 7b49 dbbe c79d 1a3f 3ecb 63be 6fd4 ea3d
-0.207499 -0.276487 -0.208075 -0.134389 0.0309438 -0.137058 -0.617586 0.394098
-0.0808833 -0.0359885 -0.0100127 0.10388 -0.150948 0.0752138 -0.0491152 -0.0842461
0.0786287 0.0594086 0.0162854 -0.0767204 0.436654 -0.106145 -0.0359056 0.333133
0.240949 -0.086833 0.00942168 -0.0746627 0.289993 -0.0519139 0.131355 -0.0783968
-0.0225716 -0.281169 -0.257293 0.191478 0.240688 0.00136835 0.308641 -1.30953
-0.165863 0.358485 -0.00706295 0.146928 -0.0418929 0.542282 0.77581 0.293456
0.0321466 -1.04852 -0.440119 0.0811228 0.176063 0.198995 0.441277 0.259543
0.0310839 -0.229108 -0.109023 -0.221562 -0.0200584 0.614357 0.128866 -0.0729334
-0.00192741 -0.000959908 0.437197 -0.193664 0.00758979 0.0544779 -0.437416 0.527701
0.0378263 -0.407101 0.432411 0.0554986 -0.0132298 0.0889001 0.0598718 -0.0254046
0.383059 0.203794 0.328631 0.160059 0.0252168 -0.16836 0.0855688 -0.0252305
-0.180814 0.0678526 0.0155731 -0.105584 -0.330931 -0.0392486 -0.0301753 -0.120229
-0.516144 -0.213112 -1.30564 0.146359 0.028758 0.0490329 -0.0542639 -0.0244837
0.0165794 -0.0373838 -0.0434966 0.0264042 -0.0111417 0.00988076 0.0374124 -0.0420529
-0.0446339 0.0169006 0.0421646 0.0295925 -0.030813 0.0289627 -0.0107495 0.011186
0.0397453 -0.0094225 -0.0394832 -0.00916904 0.00979632 0.00307396 0.0341243 -0.000464022
-0.000804682 -0.000734461 -0.0393635 0.0111242 0.0304366 -0.0279495 0.016624 -0.0371922
0.0193938 -0.0537688 0.0320798 -0.0225436 -0.0442792 0.0119325 -0.0347406 -0.0109686
0.0382093 0.019216 -0.0353143 0.0348281 -0.0342065 0.00278833 -0.0229274 0.0220381
-0.116194 0.304966 0.0403719 -0.109177 0.66991 0.238085 0.0735127 0.0980579
0.00142069 0.0776263 0.136748 0.462743 -0.0484569 0.346128 0.223012 0.0736874
-0.0147487 -0.886816 -0.037877 -0.62493 -0.0367281 0.279377 -0.579395 0.338412
0.0131427 -0.0395296 -0.0809806 -0.0335802 0.580801 0.272559 -0.0074826 1.49283
0.01006 0.0993495 -0.210626 -0.0276111 -0.133928 0.291536 0.521748 0.0883281
0.133584 -0.487421 -0.000948077 0.000968142 -0.132337 0.209368 0.158131 0.451109
-0.472219 0.127381 -0.154161 0.0242174 0.192028 -0.249113 0.873183 0.237244
0.0398467 -0.0159982 -0.00141261 1.5828 -3.50899 0.68673 0.0386034 0.234754
-0.598502 0.0786189 -0.0173348 -0.0327649 -0.103632 -0.495308 0.00327508 -0.229065
-0.316147 0.506876 -0.0428167 0.413225 -0.258644 -0.0191995 0.612441 -0.570037
0.101106 -0.101869 -0.0483574 0.389918 0.263511 -0.132154 0.122046 0.522239
0.541093 -0.194124 -0.938957 -0.0788576 0.0342243 0.730153 0.0713014 -0.367589
-0.0885922 -0.202099 -0.272114 -0.173718 -0.428295 0.60397 -0.222455 0.114663

Operation_2_Add_B f4 [50]
00000000: 6c97 ce3e 2546 ca3d c173 cf3d 0394 cebe
00000010: c43e 91be 1553 69bc aa60 b4be e9cc 02bd
00000020: a73b 0f3e 605b 4fbe 81e2 91bc 01a1 f53d
00000030: 8066 003e 6760 ecbe 43f6 acbb 7217 e9be
00000040: 5188 883e 620f 8d3e 94b2 b5bb ef19 8dbb
00000050: 0010 c13c 473a fb3e 6346 b6bb cff5 2dbe
00000060: f88e f53c 8044 cbbe 4edd 0dbc e3dd a93e
00000070: d865 083e 1aa1 c4bc 6cf7 c1bd 8445 85be
00000080: efc9 83bd afee 483e 19c5 87bd d93d f9bd
00000090: 2c2c 78be 6ee2 22bb a0c2 11be c6cf 35bc
000000a0: 3811 ddbd 46cd 673e 9e23 f23e db36 9c3e
000000b0: 82f8 a5bc f1d8 cfbd 7827 4fbe 3e06 9b3e
000000c0: c22c 59bc 4b97 a93d
0.403499 0.0987666 0.101295 -0.403473 -0.283682 -0.014241 -0.3523 -0.0319337
0.139876 -0.202497 -0.0178082 0.119936 0.125391 -0.461673 -0.00527838 -0.455257
0.266665 0.275508 -0.00554497 -0.00430607 0.0235672 0.490679 -0.00556259 -0.169883
0.0299754 -0.397007 -0.00865872 0.331771 0.133201 -0.0240026 -0.0947102 -0.260296
-0.06435 0.196223 -0.0662939 -0.1217 -0.242356 -0.00248542 -0.142344 -0.0110969
-0.107943 0.226369 0.472928 0.305106 -0.0202601 -0.101488 -0.202299 0.302782
-0.0132553 0.0828081

Operation_3_MatMul_W f4 [50, 50]
00000000: 774e c3be daaa 303f 3370 903e b647 d4bc
00000010: a0a9 073e 2a64 88bd 118f 743e 3161 8f3c
00000020: 24b9 88bf feb8 7dbe 25ad 783e e4db d33e
00000030: 3387 343e d786 d23e cc0d 563e 98a4 ea3e
00000040: 5d32 06bf d2c2 55be 3815 893e d0d0 0fbe
00000050: 5d00 143c ff77 083f 166d eebd 2233 d7bd
00000060: 7444 8ebe cb0e 713e 6d34 45bd 6a4c 483e
00000070: b611 0f3e 2cd2 a9bd 2bf9 903e cdb0 31be
00000080: fd2c 3bbd 5bcf 60be f8c1 793e 31f3 883d
00000090: 1496 883e fc8d ae3e 3f8c 403e faf7 74bc
000000a0: 527d 37be 0228 36be b85a 27be e54b 433d
000000b0: 501c a8be 45b9 f43e 83f1 78bc 5373 be3d
000000c0: 8202 b7be 28bb 053f 9640 da3e 4817 6bbf
000000d0: 58e2 f9be 880a babc 81a3 8e3d 5d32 06bf
000000e0: f1ba 86bf 400d 293d d978 203e 552f 4f3e
000000f0: 1687 0f3f c902 ae3e 6c95 10be c3d4 be3e
00000100: ce8d d93e 105b ba3e 0856 453f c0cc 8fbe
00000110: 0fb6 883e 8f70 8abe 7922 803e 83a1 0abf
00000120: ee05 463e 558a b8bd a662 13be 68b1 dc3e
00000130: 902f c9be b2d4 6abe 0266 b63e 3a96 b73e
00000140: de92 9c3e a2ee 0bbf 3997 623e 02b8 f93e
00000150: fb75 173e 10b1 d13e be84 cabe 38ec 68bd
00000160: 8197 693e 7490 3cbd 3141 5dbe bd00 7bbf
00000170: b2d4 3e3f 058b a3bd d40c 553f 56bb de3e
00000180: 6de1 79bd 9163 3b3e 1cea d73d 36c9 973e
00000190: 9f8f d23d f86b aa3e ad18 6e3e 55a6 133d
000001a0: ffca aa3d 0fb8 8ebe 26e4 2fbf c2bd 173d
000001b0: cf2f 7abe a6ee 06bf f624 703e 2ffd 4bbe
000001c0: 5ccb 043e 33c1 d0bd 9888 17be 5bc2 4bbd
000001d0: 8913 ce3c aa65 1bbe 16bd b3be 986c e43e
000001e0: 51fa 82be ca52 8b3e e04d 17be 8f53 ecbe
000001f0: e57e 47bf 66bf 0e3e f224 e93d 2bb3 12bd
00000200: 50e0 1dbd a12b c93e c655 c0bc 2252 ebbe
00000210: 0379 36be ffd7 0f3d 1040 923e b141 c03d
00000220: 4696 b43e 6d03 ff3e def3 723d 341e 3bbd
00000230: 0f48 22be 1441 dcbd 8f8c ad3e a931 413e
00000240: de3a f7be c427 0d3e 33af 8ebd 9621 3ebe
00000250: 2579 1e3e fcc2 6bbe 31d3 8ec0 01ef be3d
00000260: 3cf6 5b3f 7344 23bd 289b a2bf e17f 8fbf
00000270: 268f 57be 5fb0 803c ae48 94be d07b 1f3f
00000280: be06 0ebd d523 ed3d 7de0 b4bc a75d 8c3d
00000290: a629 923e ad68 03be c39c 983e cb67 853f
000002a0: a4aa 05c0 0130 96bf cd3e efbd d6e3 963e
000002b0: ff1f a7be a81d 0abf b8c8 d53e de76 c9bf
000002c0: ee41 703f 6efe 7a3d 7460 29be 0e12 0a3f
000002d0: c729 a23e decb 853e 0558 5a3d 2bf9 d83d
000002e0: 9d64 ab3c 98fb a4bd 747b b53f 728c 64be
000002f0: cec3 e1be 295c 8f3c 5b7a 17bb fce3 bdbe
00000300: 63b3 fbbe 3c69 61bc 253b 923f 7940 29be
00000310: a5ee afbc 685c 383e 122e c4be d977 b53f
00000320: ee75 b73c ccb2 033f 39f2 88be e77f 43bd
00000330: b890 0f3f 1136 ecbe e38d b8bf ad46 803c
00000340: efcb c9be 93e3 0ebf 4b92 1f3f f915 133f
00000350: 36ac 79be c80a 9e3e 04e2 f5bd 2ac4 bbbe
00000360: 27d8 5fbe 58ce 393d 32ab d7be 4222 85be
00000370: e61e d23d a94c 613e 9fb0 743e eb6e 0a3f
00000380: ce4f 71bc 0de8 00bd f756 24be 22e9 bebd
00000390: 80ba 11bf 4d0f a2be 247f f83e 05c0 b0be
000003a0: 5e28 25bd 47d2 c9bd e6fd a43c 7382 f6be
000003b0: d6e2 8bbf b75e 533e f930 9b3e 85de 2cbc
000003c0: a165 8dbe 60e6 7bbe 5b85 a3bd 47e2 0abd
000003d0: 00fe 093e 2a19 043f 0ef0 c93c d464 863e
000003e0: 7b82 243e 2522 60bf e3dd 093f c427 adbe
000003f0: 475a 323f 3f10 aabc 6f81 503f dc9c 1a3e
-0.381458 0.690107 0.282106 -0.0259131 0.132483 -0.0665973 0.238827 0.0175024
-1.06815 -0.247776 0.242848 0.413787 0.176297 0.411185 0.209037 0.458287
-0.524206 -0.208751 0.26774 -0.140445 0.00903329 0.533081 -0.116419 -0.105078
-0.277866 0.235408 -0.0481457 0.195604 0.139716 -0.0829204 0.283151 -0.173526
-0.0456972 -0.219541 0.243904 0.0668701 0.26677 0.340927 0.188035 -0.0149517
-0.179189 -0.177887 -0.163432 0.0476798 -0.328341 0.477976 -0.0151943 0.0929934
-0.357441 0.522387 0.426274 -0.918324 -0.488055 -0.0227101 0.0696478 -0.524206
-1.05258 0.0412724 0.156711 0.202329 0.560655 0.339865 -0.141195 0.372717
0.42491 0.363976 0.770844 -0.280859 0.267014 -0.27039 0.250263 -0.541527
0.193382 -0.0901076 -0.143931 0.431041 -0.392941 -0.229327 0.356247 0.358568
0.305808 -0.54661 0.22128 0.487732 0.147911 0.409554 -0.395544 -0.0568659
0.228117 -0.0460362 -0.216069 -0.98048 0.745433 -0.079855 0.832227 0.435023
-0.061006 0.182997 0.105427 0.296457 0.102813 0.332855 0.232516 0.0360473
0.083395 -0.278748 -0.687075 0.0370462 -0.244323 -0.527079 0.234516 -0.199208
0.129682 -0.101931 -0.147982 -0.0497459 0.0251558 -0.151755 -0.351052 0.446141
-0.255816 0.272116 -0.147758 -0.461575 -0.77928 0.139402 0.11384 -0.0358154
-0.038544 0.392911 -0.0234784 -0.459611 -0.178196 0.0351181 0.285645 0.0938753
0.352709 0.498073 0.0593146 -0.0456831 -0.158478 -0.107546 0.338963 0.188666
-0.482871 0.137847 -0.0696701 -0.185675 0.154759 -0.230236 -4.46328 0.0932293
0.859226 -0.0398602 -1.27036 -1.12109 -0.210507 0.0157091 -0.289617 0.622983
-0.0346744 0.115791 -0.0220797 0.068538 0.285474 -0.128329 0.298071 1.04223
-2.08854 -1.17334 -0.116819 0.294707 -0.326416 -0.539515 0.417547 -1.57394
0.938506 0.0612778 -0.165407 0.539338 0.316725 0.261321 0.0533066 0.105944
0.020922 -0.080558 1.41783 -0.223192 -0.440947 0.0175 -0.00231137 -0.37088
-0.491603 -0.013758 1.14243 -0.165285 -0.0214761 0.18004 -0.383164 1.41772
0.0223951 0.514447 -0.267473 -0.0477294 0.560802 -0.46135 -1.44183 0.0156587
-0.394134 -0.55816 0.623326 0.574554 -0.243821 0.308676 -0.12006 -0.366731
-0.218598 0.0453628 -0.421228 -0.260027 0.102598 0.220019 0.238955 0.540755
-0.0147285 -0.0314713 -0.160488 -0.0932181 -0.569252 -0.316523 0.485345 -0.345215
-0.0403217 -0.0985456 0.0201406 -0.481464 -1.09286 0.206416 0.303108 -0.0105511
-0.276166 -0.245996 -0.0798442 -0.0339072 0.134758 0.516009 0.0246506 0.262488
0.160654 -0.875521 0.538542 -0.338194 0.69669 -0.0207597 0.814475 0.150989

Operation_3_Add_B f4 [50]
00000000: 1685 d5be a29a 523d 14d0 44be 55ab cabc
00000010: 8acc a43e 76c1 603d 4889 0d3e 0089 0dbc
00000020: 363e 633e 0e11 8f3e 75e9 ffbd 2250 cdbe
00000030: c496 bfbb b570 49be 8e93 e2bd 58e7 00bf
00000040: 2579 8ebe 6a6c a7be 7f50 d7be 9be4 ffbe
00000050: 4615 34bb 7d76 18bf cfbf 7dbe 212e 4abd
00000060: 33f9 96be f733 a13c 8849 68be a986 a53e
00000070: babd 243e 4d1a 1ebd 8d7f 5fbe 73f7 893e
00000080: 3d7c 193e 5530 aabe be2d 783e 6b1c 9bbd
00000090: 9e96 2f3e 2c67 afbd fa9b 00be 3360 9abc
000000a0: 6ee0 0ebe c30c 953e d5c9 1ebd c477 a23e
000000b0: 41a5 253d 41d5 d0be b309 30bd 6282 da3d
000000c0: 1cee 233e 7c44 9c3d
-0.417031 0.051417 -0.1922 -0.0247399 0.321873 0.054872 0.138219 -0.00863862
0.221917 0.279427 -0.124957 -0.401002 -0.00584683 -0.196719 -0.110633 -0.50353
-0.278268 -0.326999 -0.420536 -0.499791 -0.00274785 -0.595558 -0.247802 -0.0493604
-0.29487 0.0196781 -0.226843 0.323293 0.16088 -0.0385993 -0.21826 0.269466
0.149888 -0.3324 0.242362 -0.0757378 0.171473 -0.085646 -0.125595 -0.0188447
-0.139528 0.291113 -0.0387667 0.31732 0.0404408 -0.407877 -0.042978 0.106694
0.160088 0.0763025

Operation_4_MatMul_W f4 [50, 50]
00000000: 46ce 8ebf 849f f8bd 11c7 823e 6840 fdbe
00000010: 3947 fdbd 60df 333d dee7 48be 2979 05be
00000020: b39c afbd bb98 963e ad39 cb3d e1eb ad3b
00000030: e0a0 ad3e 65c6 2b3f 0c78 a13e 2709 d33c
00000040: f915 8bbd 2009 abbd 7192 363e c974 08be
00000050: 59a3 7e3e af27 2abe e142 bebe 4fc0 603d
00000060: 94ce 31bd 6397 d03e edd7 1d3e 8693 d4bd
00000070: 2dd0 a63e 8270 95be de4b 8b3d 5af1 85be
00000080: 9cc4 003e 7e00 22be df02 22bc 96ce 37be
00000090: 2b4b 64be c0ed 493e e78b fd3c f550 363c
000000a0: da71 63be e0d7 68be 849b 58bf 2df9 a93d
000000b0: a3ef b93d 6dab 793e 1ddd adbd d82e 2dbe
000000c0: 0a48 1bbf 80ef 12bf 2899 6cbf 1478 cfbe
000000d0: 90dd b5be 719d b53d 1e2d 733d 9e61 ea3e
000000e0: 467b f4be 3279 9e3d 83df e63d ebfd 1abf
000000f0: 8f38 dcbe f379 00bd 303e 963c b41f b9be
00000100: 7094 843e b822 d13d b05c 0abd 965b 8abe
00000110: 0319 9b3d 7c0b a33e cadc 3c3e 72a4 433e
00000120: b5fd 0bbe e8fa 89bd f7e7 b23e 6b9e 033f
00000130: ad49 5cbc 47c4 a9bd c2c3 74be 9b6a a73d
00000140: 0952 29be c37d d4be 0daa 5d3e 1267 653e
00000150: 69e9 45bd 75f6 3fbd 62a2 993e 818a 84bd
00000160: 8c6e 98bb a5f3 513e 2680 9cbd 145e 92be
00000170: 711d 033f 01a3 2bbe 6423 0cbf d6c5 a5be
00000180: 25cd ffbd 0e30 233e 506b 7fbd 1a86 a73e
00000190: 8197 05bf 8a21 793e 7278 773c b6da 633e
000001a0: ffb1 603e 62a1 cebe e8a5 523f 18eb f3be
000001b0: 2a52 a13f 67b8 a1bf 8812 cd3e 85b6 b73c
000001c0: e3aa fabe 41bc 2ebe b9ff 983e fe55 91bc
000001d0: 399b 9ebe 4cc2 953e 6f84 193f b856 dbbe
000001e0: 5f98 28bf 7a71 9abe a27d 68bf 1f68 753e
000001f0: 19ca 89bf 6ff0 bdbe 5c39 1b3e 76ec a6bd
00000200: 3b18 89be 3b90 503d 3a5b 183f 12e9 c83c
00000210: 8b54 8cbf f4c1 eabe f3d0 52bc 6076 efbd
00000220: 698d 21be e737 0ebc 1d10 363b 8a75 7abe
00000230: a3ad 5abe 622d 963e 5e48 3fbf d74d b13e
00000240: 27a4 053e 6b46 e6bd 8a59 5fbe 9885 463e
00000250: fe7d 063f 3c85 2c3e 45a0 ba3c ca26 efbc
00000260: f13b fa3b a54b debb 9ccf fd39 57a0 2cbd
00000270: 043b ddbb 388c 9bbb 27b0 0fbd 8871 ed3a
00000280: 8c31 b0bc 3042 ddbc 65b8 2bbd 8eaa 4bbc
00000290: 7414 16bd b890 0bbc 714f fc3b be88 563d
000002a0: 8b15 3a3d b636 c33c b9bb d8bc 62e4 febb
000002b0: 8830 febc 5474 013c 5958 26bd 7dc3 8ebc
000002c0: 0ca2 bf3c 86b5 0c3c a7a2 673c fc18 b3bc
000002d0: 7686 6bbb b5e8 933c 582f 503c 17d8 433d
000002e0: d25f 9e3c dacc 5c3d 7704 213d 5beb cb3c
000002f0: 2f8a 9e3c d33a 40bd bee6 0bbd 414f debc
00000300: 458f cebc 6dc6 0a3c eb1e 593c 35dc d73b
00000310: e39f 3e3c f696 f23c 1f53 2dbc f4ee d93c
00000320: 8092 9c3d a8c5 58bf 41d6 53bd c8ea 763e
00000330: fe2b 4b3e 0aa0 54bf 2733 963e 75c8 adbe
00000340: 5a83 e7be 60cd 613e db15 3abe cef9 6ebd
00000350: 9a79 f2be 76e3 8d3d c900 20be 2320 b5bd
00000360: bc08 fbbe be9b b3bd 1a87 7abe 3195 963e
00000370: ea75 43bf f75b cbbe 477e 33bc b213 debd
00000380: bd19 35be e693 15be eed1 3b3e 92ab 1aba
00000390: b9c5 dcbd b87e 353d 00e2 6e3e 04a4 223d
000003a0: bca7 573d 8e3e be3e 19aa 42bd 5c76 3c3f
000003b0: 543a 80be 4a96 d33d 62b1 d7bc 5e64 523e
000003c0: 198d 8c3e 3108 ccbe f88c a4be de3d 503e
000003d0: f669 9b3d 7fd3 60bc 0c73 9a3e e293 b6be
000003e0: 72df 063f 7802 9bbd 0806 50be 562d 59bf
000003f0: 53b3 cfbf 616f 323e e196 2fbe d157 a8be
-1.11567 -0.121398 0.255425 -0.494632 -0.123671 0.0439142 -0.196197 -0.130345
-0.0857481 0.294134 0.0992311 0.00530766 0.339118 0.670996 0.315369 0.0257612
-0.067913 -0.0835135 0.178293 -0.133258 0.24867 -0.166167 -0.371604 0.0548709
-0.0434099 0.407405 0.154144 -0.103797 0.325807 -0.291874 0.0680158 -0.261607
0.12575 -0.158205 -0.00988838 -0.179499 -0.222943 0.197196 0.0309505 0.0111277
-0.222114 -0.227386 -0.846123 0.0829948 0.0907891 0.243818 -0.0848944 -0.169124
-0.606568 -0.573967 -0.924212 -0.405213 -0.355206 0.0886792 0.0593692 0.457776
-0.477503 0.0773796 0.112731 -0.605437 -0.430119 -0.0313663 0.0183402 -0.36157
0.258945 0.102117 -0.0337798 -0.27023 0.0757313 0.318447 0.184436 0.191057
-0.13671 -0.0673731 0.349426 0.514136 -0.0134453 -0.0828939 -0.239028 0.0817463
-0.165352 -0.415022 0.216469 0.224026 -0.0483183 -0.0468659 0.300067 -0.0647173
-0.00465185 0.205031 -0.0764163 -0.285874 0.512168 -0.167614 -0.547415 -0.323775
-0.124903 0.159363 -0.0623582 0.327195 -0.521843 0.243292 0.0151044 0.222514
0.219429 -0.403575 0.822844 -0.476403 1.26032 -1.26344 0.400532 0.0224259
-0.489585 -0.17064 0.298826 -0.0177412 -0.309778 0.292498 0.599677 -0.428396
-0.658575 -0.301647 -0.908167 0.239655 -1.07648 -0.370975 0.151586 -0.0815057
-0.267763 0.0509188 0.595142 0.0245252 -1.09633 -0.458511 -0.0128672 -0.116925
-0.157766 -0.00868032 0.00277806 -0.244589 -0.213553 0.293315 -0.747198 0.346297
0.130509 -0.112439 -0.218115 0.193869 0.52536 0.168477 0.0227815 -0.0291933
0.00763654 -0.00678392 0.000484106 -0.0421451 -0.00675142 -0.00474694 -0.0350801 0.00181155
-0.021508 -0.0270091 -0.0419239 -0.0124308 -0.0366406 -0.00851839 0.0076999 0.0523765
0.0454307 0.0238298 -0.0264567 -0.00777869 -0.031029 0.00790127 -0.0406116 -0.0174272
0.0233927 0.0085882 0.0141379 -0.0218625 -0.00359383 0.0180553 0.0127066 0.0478135
0.0193328 0.0539063 0.0393109 0.0248925 0.019353 -0.0469311 -0.0341556 -0.0271374
-0.0252148 0.00847016 0.013252 0.00658753 0.0116348 0.029613 -0.0105789 0.0266032
0.0764513 -0.846766 -0.051718 0.24113 0.19841 -0.830567 0.293359 -0.33942
-0.452174 0.22051 -0.181724 -0.0583437 -0.473584 0.0692815 -0.156253 -0.0884402
-0.490301 -0.0876994 -0.244656 0.294107 -0.763518 -0.397186 -0.0109554 -0.108436
-0.176856 -0.146072 0.183418 -0.00059002 -0.107799 0.0443103 0.233284 0.0397072
0.0526502 0.371571 -0.0475255 0.736181 -0.250445 0.103314 -0.0263297 0.205461
0.274514 -0.3985 -0.321388 0.203361 0.0758857 -0.0137223 0.301659 -0.356597
0.526847 -0.0756883 -0.203148 -0.848348 -1.62266 0.174253 -0.171474 -0.328795

Operation_4_Add_B f4 [50]
00000000: f2ec c2be b7ec 443f 234e e73d 0116 99be
00000010: a8ff 0cbe 7d5e 61be 74ca 88bd 8f1d d4bd
00000020: f75a e0be 7cd2 49be 63fb bfbc 2dbe 57bc
00000030: ac74 973e 90bc 533e 0b5f 53bf 618c 18be
00000040: 344d f8bd 14b1 28be ba2f 07bf 1100 7c3e
00000050: 0760 e33d 5095 b53d 221a e53e 8699 4c3d
00000060: b9aa f43e c6a4 2fbe 4512 ad3e f8fa a2be
00000070: b820 9bbe 9f42 993d 0dd2 92bd c633 30bf
00000080: d68d df3e 556c 7cbf 062d e6bb f9f8 2cbf
00000090: 1710 f2be 793d 443f 6f17 75bc db46 4dbc
000000a0: dd95 adbe ca6d 0b3e fdf5 9a3e 6284 a8be
000000b0: 9c42 9dbc 6420 cf3d 77a4 97ba 058a a03e
000000c0: 1d3d 92bf 23f3 883e
-0.380714 0.769237 0.112942 -0.298996 -0.137694 -0.220087 -0.0667924 -0.103572
-0.438194 -0.197092 -0.0234353 -0.0131679 0.295812 0.206774 -0.825669 -0.148973
-0.121241 -0.164738 -0.528072 0.246094 0.111023 0.0886637 0.447465 0.0499511
0.477865 -0.171527 0.33803 -0.318321 -0.302984 0.0748341 -0.0716897 -0.68829
0.436629 -0.986028 -0.00702441 -0.675674 -0.472779 0.766563 -0.0149592 -0.0125291
-0.339034 0.136161 0.302658 -0.329135 -0.0191968 0.101136 -0.00115694 0.313553
-1.14249 0.26748

Operation_5_MatMul_W f4 [50, 50]
00000000: 2904 cabe 9f39 2bbe 15f9 1a3b 9b69 ad3b
00000010: aafa abbd 6761 cbbf c85d 203f e65d d53d
00000020: 143e 373f 25c4 a6bc 8f1c b13e b1fb 4e3e
00000030: 7a1d 35bf 6bfe cebc baea cbbc 9d91 92bd
00000040: 20ec fc3e bf0b 6b3e 16da a13e e5b7 483e
00000050: 925e efbc 1d6f 57bd 50df 773d 8f36 863e
00000060: 15b3 94bd 5226 f53d aaad a23c 1618 0ec0
00000070: b79f 87bd a793 2c3e 9baa 1cbc f163 a43f
00000080: e6e9 a4be 95f4 983e c300 d7bb eb39 693e
00000090: 0b45 1a3e 906b e33d eb70 043e 05a0 963d
000000a0: d9b4 2a3f d8b6 683e c748 563e 2dce 28be
000000b0: bda9 a83e 2cf4 013e ca32 843e 4bdb c038
000000c0: fcfb 343f 520b d53e 0a01 8fbd 994a 6f3e
000000d0: 4fdb 923b 7c42 963e 9cb4 1bbc a800 083e
000000e0: 29cf 1cbe 27fb 42bc afcd cebe 007f 873d
000000f0: 2f18 843e 522a 113e fd14 c73c fd2e 0cbe
00000100: b1dc d2bc 3849 b3be 25c9 23be 294e bf3c
00000110: d9cc 41be b22c f8bd a8bb 5c3d 7aff af3d
00000120: a7e7 4dbe bc9a c73d 33a6 f8be 016c 30be
00000130: 5d52 d5bd d877 8f3d d634 a4bd 3eeb 0abe
00000140: b367 c53c c843 2f3e fb74 5c3e 4b32 5c3d
00000150: bf47 ddbd 28ad 89bd 3e20 b53d 4569 8a3c
00000160: 674b d23b 91d6 833d 3c2e ea3d be83 873e
00000170: 6bc7 633d 249b 833e a5f5 27be ed44 9ebd
00000180: ccf0 8f3e f274 733d 3273 013e 3d0a 57be
00000190: 240e 91be c494 f8be 7e8c 093e e514 a83d
000001a0: 6b72 a73c 1f4a bc3e eb90 bb3f 3dc9 b7bd
000001b0: 67ed 8a3f b8af 233f dfc0 14bf 17d9 9e3f
000001c0: 1ff4 18bf 6d96 26bc 5dea 96bc 9016 873e
000001d0: ba6b 853f 11e5 233f e717 29bf 7ff9 583f
000001e0: baf4 4f3e 6cec 863f 6345 613f 9564 61bf
000001f0: 90a0 8c3f 9068 223f 61fa 3e3f 7a17 4b3f
00000200: 5019 07bf 43ca 833f 2c88 3cbd 87c4 9dbf
00000210: d6c8 1ebe f166 61bf 2098 97bf 6075 043f
00000220: 105d 8c3f 53eb dcbb 7d3d f73e 471f a33e
00000230: 40a0 2b3f 3946 fa3e d39f d53f 0a85 d03f
00000240: 7369 a4be 2de9 0c3f 2ae0 d63e 5f41 aebf
00000250: ec31 593f 0283 303f 19fe 73be 1fe7 6c3d
00000260: ff97 4b3e a915 1ebf fa00 aebd e867 6a3e
00000270: 96d1 a0be a305 48be 0457 09be d0cf b9bc
00000280: d5ea 6b3e 4791 193f e30d 9abd caa7 673e
00000290: 6f67 9f3c 745d b83e e7fc f43d 6c5f e0bd
000002a0: 9ab6 9f3e 55a6 58be 36f6 6a39 f7e4 99be
000002b0: 9187 c93d bae0 273d d956 883d 7097 fd3d
000002c0: 6ccb 403e 8313 013f dd28 8abe 82e6 fbbe
000002d0: fe15 2dbd f4bb c5bd 3e99 9a3c 2198 ae3d
000002e0: 17d3 0cbe 1df4 bbbd 4782 3f3d 9a66 35bd
000002f0: 6893 3bbf af5e 953e 01fc b33d 9cc4 d0be
00000300: e690 8cbe e411 74bf 2d7a 57be 317c 943f
00000310: f146 aebf b476 3bbe 764c 023d e76d acbd
00000320: d3a4 64be 0707 a3be a036 1abe e28f ea3e
00000330: fb38 013c 6ce9 a93e 6d6f ccbd 6a85 05bf
00000340: d7f8 203f 056c 073f c9ac 2e3e ba4d 283e
00000350: e8dd 903e 5ed9 c53e 7ae6 a3ba a4df da3f
00000360: cf82 403e e89f 903e 191d 7cbf f949 ed3f
00000370: 5322 39be 6b81 293f 1d71 803e 3bc2 0dc0
00000380: 3ee8 f53f f4c4 d3be 5a46 2a3d 6760 40bf
00000390: 5c8f 5cc0 9a5e f23e 03a0 403d 3962 99bf
000003a0: 158c 4abf b9a8 56be 5b5f 50c0 9277 e63e
000003b0: 309e 8d3f 3480 d73e 262e 11bd 1b54 d13a
000003c0: 9869 05c0 1635 143f 8a21 513f 07b6 c63f
000003d0: a6d4 193f f777 6ebf cfa0 2dc0 4b1f 9abe
000003e0: 889d b13f 5f24 8c3f a54e 50be 7026 123f
000003f0: 863d ed3d b8a3 a8bb 6bf1 19be 53ce 9fbe
-0.394563 -0.167212 0.0023647 0.00529213 -0.0839742 -1.58891 0.626431 0.104183
0.715791 -0.0203572 0.345921 0.202132 -0.707481 -0.0252678 -0.0248922 -0.0715668
0.493989 0.229537 0.316117 0.196014 -0.0292199 -0.0525962 0.0605157 0.262135
-0.0726072 0.119702 0.0198582 -2.22022 -0.0662226 0.168532 -0.00956216 1.2843
-0.322097 0.298741 -0.00656137 0.22776 0.150654 0.111045 0.129337 0.0735474
0.666822 0.22726 0.209262 -0.164849 0.32942 0.126908 0.2582 9.19612e-05
0.70697 0.416102 -0.0698262 0.233683 0.00448171 0.293476 -0.00950351 0.132815
-0.153134 -0.0119007 -0.403913 0.0661602 0.257997 0.141763 0.024302 -0.136898
-0.02574 -0.350168 -0.159947 0.0233527 -0.189258 -0.121179 0.0538899 0.0859365
-0.201079 0.0974631 -0.485643 -0.172287 -0.104161 0.0700528 -0.0801789 -0.135663
0.0240973 0.171157 0.21529 0.0537589 -0.108047 -0.0672248 0.0884404 0.0168959
0.00641768 0.0643741 0.114346 0.264677 0.0556101 0.257043 -0.164023 -0.0772799
0.281134 0.0594377 0.126416 -0.21 -0.283311 -0.48551 0.134325 0.0820711
0.0204403 0.367753 1.46536 -0.0897393 1.08537 0.6394 -0.581068 1.241
-0.597475 -0.0101677 -0.0184223 0.263844 1.04235 0.640214 -0.660521 0.847557
0.203082 1.05409 0.879965 -0.880441 1.09865 0.634408 0.746008 0.793327
-0.52773 1.02961 -0.0460283 -1.23256 -0.155063 -0.880477 -1.18433 0.517416
1.09659 -0.00674192 0.482891 0.318598 0.670414 0.488817 1.66894 1.62906
-0.321117 0.550433 0.419679 -1.36137 0.848418 0.689499 -0.238274 0.0578376
0.198822 -0.617518 -0.0849628 0.228912 -0.314099 -0.195334 -0.134121 -0.0226821
0.230388 0.599873 -0.0752218 0.226226 0.0194585 0.360088 0.119623 -0.109557
0.31194 -0.211572 0.000224077 -0.300575 0.0984031 0.0409858 0.0665719 0.123824
0.188276 0.504204 -0.269843 -0.491993 -0.0422573 -0.0965499 0.0188719 0.0852511
-0.137524 -0.0917742 0.0467551 -0.0442873 -0.732718 0.291738 0.087883 -0.40775
-0.274543 -0.953398 -0.210427 1.16004 -1.36154 -0.18307 0.0318112 -0.084194
-0.223285 -0.318413 -0.150599 0.458129 0.00788712 0.331859 -0.0998219 -0.521567
0.628797 0.528992 0.170581 0.164359 0.282943 0.386424 -0.00125046 1.70995
0.187999 0.28247 -0.984819 1.85382 -0.180795 0.662131 0.250863 -2.21498
1.92115 -0.413612 0.041571 -0.751471 -3.44625 0.473378 0.0470276 -1.19831
-0.7912 -0.209628 -3.25582 0.450131 1.10639 0.4209 -0.0354444 0.00159705
-2.08457 0.578935 0.816918 1.55243 0.600901 -0.931518 -2.71294 -0.30102
1.38762 1.09486 -0.203425 0.570899 0.11584 -0.00514647 -0.150335 -0.312121

Operation_5_Add_B f4 [50]
00000000: f0f9 61bd acff d3be 0847 c13a 74b4 8a3e
00000010: e55e 883e 7ba0 ad3e c5e6 8bbf 4ed1 f1bd
00000020: 5a2f a63e bd36 b33e 3cdc debe 9241 a6be
00000030: f31f f23d fc52 ffbd c816 38bc 2843 cd3e
00000040: 05ec 99bd 310c d83d 9486 2a3e d7fa e6bf
00000050: 28d3 783e 3256 7f3f 2847 213e 59c2 9abe
00000060: 1f69 a0be 5b5d 4e3e 99d3 b13f d5ed 1cbe
00000070: bad7 19be 34db 55be ae01 dbbc b306 373f
00000080: e5f1 f43c e40e b03d 0b09 383e 2396 5e3d
00000090: 1502 213f 0a2e b63e d601 303d 1361 03be
000000a0: 151e fcbe 6325 363f 46c6 c4bd f646 b53e
000000b0: 0a85 983e 30ea 64bd aebb 253f a1e8 bb3d
000000c0: 1c0b 0abe 664f eabe
-0.05517 -0.41406 0.00147459 0.270908 0.266349 0.339115 -1.09298 -0.118075
0.32458 0.350027 -0.435274 -0.324719 0.118225 -0.12467 -0.0112359 0.400903
-0.0751572 0.105492 0.166529 -1.80453 0.242993 0.997409 0.157498 -0.302264
-0.313302 0.201528 1.38927 -0.153251 -0.150237 -0.208844 -0.0267342 0.714946
0.0299005 0.0859659 0.179722 0.0543424 0.628938 0.35582 0.0429705 -0.1283
-0.492417 0.711508 -0.0960813 0.354057 0.29789 -0.0558874 0.647395 0.0917523
-0.134808 -0.457637

Operation_6_MatMul_W f4 [50, 50]
00000000: 6a6a 993f 7b84 4abf 76cb 09bd bfd2 513f
00000010: 84f2 4ebf 397f 1540 344c 8d3e a54b 2fbe
00000020: 5166 233f b32e a4bd 8e3b 25be 3545 00be
00000030: fd13 803f 1e87 25bf 1250 813d 63c2 3e3d
00000040: 2ae3 e33f deaf 9dbc df2c 8abc c424 1cbe
00000050: c1ac 2c3f 91af a9bc 1a6e a03e 7784 773f
00000060: 97e1 ff3d a94a fbbd 3a48 1ebd 8ec8 6f3f
00000070: e048 00be 9baf 22be c6e1 2c3e 34a0 1e3e
00000080: 1360 a8be 202c febc 67b7 6e3f f4f1 1abd
00000090: b64d 2d3f 0ebe 0440 32e6 123f bd35 0040
000000a0: a0a6 4abf ac73 183f b4ae 89be 3dbf 033d
000000b0: 925b 8bbe 6821 553f d2c6 0d3f 1138 323d
000000c0: 64e5 873e 433a 583f 55c1 a8c0 3b74 55bd
000000d0: 3d4e c93b 5dfb e2be ee08 8fbf 9c53 4dbf
000000e0: 2122 05be d7cc 903c d6c7 633d b537 533c
000000f0: e5f2 41b9 813f c4be 6344 e23d 478d b9be
00000100: ffa2 193b e4d5 ff3b a8fe 4dbf d386 43bd
00000110: d2bd d8bc 61dd 803e a2ea 7cbd 19e5 19be
00000120: 8c6a acbc 6c26 94c0 f8af 87bc 2c81 04be
00000130: 3a74 1fbd 8ab0 153f d49c 8cbe 0ee3 c5bb
00000140: f35d 85bd 1790 47bd 5530 a2bf 66dc 143d
00000150: c077 cbbe 0cc9 493e 1808 2ebf 1f4a 60bf
00000160: 185d 3a3f 410b 893e cce5 6dbb 122f efbd
00000170: 8d97 7e3e 8ad2 39bd 3c66 d8bf baa0 3e3e
00000180: e449 00c0 d038 3ebd c688 643e a036 d2be
00000190: 5b08 a63f 7381 4bbc 56f5 52be 234b 66bf
000001a0: 36cb c43b 371b 7b3f 221a 153f d925 a23e
000001b0: 382f ee3d 878a d1bd 44a8 9abf 1974 463f
000001c0: 594b b63d e066 e93e 1acc c53d 12d7 16bd
000001d0: 99f3 5c3e f52c 683f f207 03bd 670b d8be
000001e0: 923e 853e e796 2c3d 1139 313f 12da ae3f
000001f0: 8924 9ebf d705 52bd 9eef 043c adfc 12be
00000200: 9f1d 90be 1bf5 a8bf 06f4 e23e 68c0 aa3d
00000210: 6dae 6a3e ae9a e7bb 5644 8d3e c040 d0bd
00000220: f9f8 c4be a626 053f 221c 8e3c 1f67 aabe
00000230: df89 693e 8192 9abe d8d4 a13e 890b 21bc
00000240: bf61 62be c780 0040 3c14 e13f e45b a9bc
00000250: 3f02 dfbd 8d7c debd 2d21 e7bf 6c41 47bf
00000260: 4932 c6bd 2bf6 80c0 1d00 c1bd 4ca8 58bf
00000270: 4567 893e 5939 0f3d ff3e 433e 152a ae3c
00000280: cb84 9bbf bfd5 dabd b6da 533e c004 52c0
00000290: 89f6 6c3d a24f da3c be31 1cbf 302c 1fbe
000002a0: 8aa3 1c3d b51b 6d3e 4012 d63d 6adb d0bd
000002b0: c1ad fbbd b329 23c0 287e a4bf 7425 e2bd
000002c0: 9a19 07bc 9ab5 f43e 72f8 54be fc17 983e
000002d0: 766b 59bd 2540 cdbd 5de2 24bf 8f60 193d
000002e0: 207a aabe 6266 9fbe 1002 1a3f 7b88 5ac0
000002f0: bf7c 663f 1805 613e 449b edbc 5b41 d33d
00000300: 5456 573f f77d 2ebd 24fe 97bc abea 253e
00000310: 65fc 6fc0 0d11 01bb fb90 373e e2cb 54be
00000320: 0af8 2d3f a5f8 903e dcf3 0c3e 1d8f 813f
00000330: e657 afbf 1349 c83f b308 35be 986d e73d
00000340: 75b1 c13e a917 7cbc 3eaf 68be 8ec9 123e
00000350: d05f 283f 7f68 223f 6907 873d 8c10 0ebe
00000360: df37 9a3f 6556 f73e d2e3 17bd 1441 203f
00000370: e195 743e d07f 6f3e 83b1 143d bcb3 0440
00000380: 3277 85bf 9c87 a3be d8ac a33b 62f3 5540
00000390: 77a2 843e 7bf4 8ebe 410e ca3e 5fd4 4ebe
000003a0: 4b00 4e3e 1d77 4a3c d63b 5c3f 7bc0 1c3e
000003b0: ba31 293f 878b 04bf aa60 0640 6059 593e
000003c0: 77e3 733d 7e39 4b3f 4627 8bbe 8070 343d
000003d0: 878a b13e 739f 20bf 3c83 fe3f bacf 3bbd
000003e0: 8ae3 c03e 5930 71bf 3958 a43c 5f43 103e
000003f0: f701 083e 0a80 b1be f4a8 583e 8658 51bf
1.19856 -0.791084 -0.0336413 0.819622 -0.808388 2.33589 0.275972 -0.171187
0.63828 -0.0801672 -0.16136 -0.125264 1.00061 -0.646593 0.063141 0.0465721
1.78037 -0.0192489 -0.0168671 -0.152484 0.674511 -0.0207136 0.31334 0.966865
0.124942 -0.122701 -0.0386431 0.936654 -0.125278 -0.158873 0.16883 0.154908
-0.328858 -0.0310269 0.932486 -0.0378284 0.676967 2.0741 0.573825 2.00328
-0.791605 0.595515 -0.268911 0.0321648 -0.272183 0.832541 0.553815 0.0435105
0.265422 0.844639 -5.2736 -0.0521128 0.00614336 -0.443324 -1.11746 -0.802057
-0.130013 0.0176758 0.0556105 0.0128917 -0.000184964 -0.383297 0.110482 -0.362406
0.00234431 0.00780748 -0.804667 -0.047736 -0.0264577 0.251689 -0.0617472 -0.150288
-0.0210469 -4.62969 -0.0165634 -0.129399 -0.0389292 0.584725 -0.274634 -0.00603903
-0.0651206 -0.0487214 -1.2671 0.036343 -0.397398 0.197056 -0.679811 -0.876131
0.727983 0.267664 -0.00363003 -0.116789 0.248625 -0.0453668 -1.69062 0.18616
-2.00451 -0.0464409 0.223178 -0.410573 1.29713 -0.012421 -0.206014 -0.899584
0.00600567 0.980884 0.58243 0.316695 0.116301 -0.102315 -1.20826 0.775209
0.0890109 0.455863 0.0965807 -0.0368262 0.215773 0.906936 -0.03199 -0.421962
0.260243 0.0421361 0.692277 1.36603 -1.23549 -0.0512751 0.00811377 -0.143542
-0.281476 -1.31998 0.443268 0.0833748 0.229181 -0.007068 0.275912 -0.101686
-0.384712 0.520121 0.0173474 -0.332818 0.228065 -0.301899 0.316077 -0.00982941
-0.221076 2.00786 1.75843 -0.0206737 -0.108891 -0.108636 -1.8057 -0.778342
-0.0967756 -4.03005 -0.0942385 -0.846318 0.268366 0.0349668 0.19067 0.0212603
-1.21499 -0.106853 0.206889 -3.28154 0.0578523 0.0266493 -0.610134 -0.155442
0.0382419 0.231551 0.104527 -0.101981 -0.12289 -2.54942 -1.2851 -0.110423
-0.00824585 0.477948 -0.207979 0.297058 -0.053081 -0.10022 -0.644079 0.0374456
-0.332963 -0.311328 0.601594 -3.41458 0.900341 0.219746 -0.0290047 0.103152
0.841161 -0.0426006 -0.0185538 0.162028 -3.74978 -0.0019694 0.179264 -0.207809
0.679566 0.283147 0.137649 1.01218 -1.36987 1.56473 -0.176791 0.113002
0.378307 -0.0153865 -0.227231 0.143347 0.657712 0.634407 0.0659321 -0.138735
1.20483 0.483081 -0.0370825 0.625993 0.238853 0.233886 0.0363021 2.07347
-1.0427 -0.319394 0.00499497 3.34298 0.259052 -0.279209 0.39464 -0.201982
0.201173 0.0123575 0.860288 0.153078 0.660915 -0.517754 2.09965 0.212255
0.0595431 0.793846 -0.271784 0.0440526 0.34676 -0.627433 1.98838 -0.0458524
0.376736 -0.942144 0.0200616 0.140882 0.13282 -0.34668 0.211582 -0.817757

Operation_6_Add_B f4 [50]
00000000: 3e03 5abe 494d 3b3e c2c1 963e 4f95 d73e
00000010: c8b7 72bd 1bbc 77bf af07 93bc 459e 043f
00000020: 35b6 b73d 2c0d 7c3d e9b7 9f3e 2190 d3be
00000030: ef38 ad3e 69fe f8be d09d 503e e02c 25bd
00000040: 6d71 9dbe ee65 863d 6ce2 0ebd 7904 af3e
00000050: 64a7 65bb f9d9 c83c 5070 293f 5089 1fbf
00000060: 1633 e2bd a93f 6cbd 658e 05bd 0af5 14be
00000070: bbec a7be 90f9 503e 2f46 aebc 3ca5 c33e
00000080: 2653 15be cc3d 49bc 54fd 02bf f8ff 71be
00000090: 4fd0 c1bc 54fc 13bf 319e 5cbd 1349 a43f
000000a0: 1cd3 73be 68ca cebc 2750 24be 47c5 24bc
000000b0: 4c89 a4be d9b1 71bf 16da 11bf 3c10 bebc
000000c0: 6af6 003f 6745 dc3e
-0.212903 0.182912 0.294447 0.421061 -0.0592573 -0.967714 -0.017948 0.51804
0.089703 0.061536 0.31195 -0.413209 0.338325 -0.486316 0.203727 -0.040326
-0.307506 0.0656241 -0.0348839 0.341831 -0.00350424 0.024518 0.66187 -0.623189
-0.110449 -0.0576779 -0.0326065 -0.145466 -0.327978 0.204077 -0.0212737 0.38212
-0.145825 -0.0122828 -0.511678 -0.236328 -0.0236589 -0.578069 -0.0538618 1.28348
-0.23811 -0.025243 -0.160462 -0.0100568 -0.32136 -0.94412 -0.569734 -0.0232011
0.50376 0.430217

linear_7_MatMul_W f4 [50, 5]
00000000: 8e11 ff3c c3b3 093d 76f1 083d 128e 8f3c
00000010: d9e4 553d 72c0 ae3c 8945 073d 854b bdbc
00000020: 9824 203d c9b5 373d 493e 803c 5fc8 b43c
00000030: ae31 81bb e4c4 f23c 0846 143c 23b8 f63c
00000040: dc1f 393c 778d 0c3c 816f 043d 3551 5a3d
00000050: 6927 19bd d0d1 2a3c ea03 293d 3206 813d
00000060: 30ee 8b3d bc66 6a3a dcb0 b73a c73d 273c
00000070: 1694 14bc 9324 a33c d9e6 9b3d a38e 933d
00000080: b4a7 893d 205d 8c3d 493c 9a3d 072c 943c
00000090: 2376 f73c 1dc0 2c3d e881 b43c b182 843c
000000a0: ebd6 3cbd 459b 88bd 02dd 72bd 0942 e83b
000000b0: 38e7 373b 4f2b 3bbc 1db0 2bbc 665d 6dbc
000000c0: e362 96bc 517b dbbc 36c8 49bd 0874 643b
000000d0: 7627 8e3b 108b de3a 8659 853b 4258 f0bb
000000e0: a962 70bb ab11 f0bc f93a 803b b784 37bd
000000f0: 0837 fe3c 9b75 463d dd19 573d 3b58 da3b
00000100: 0db2 9fba 9c43 633c d475 12bd aa80 fb3c
00000110: 4ba0 d63b 4e37 3a3d 9909 0b3d 5cc9 ce3c
00000120: 27f0 f33c 9aad a13c 7136 823c 122e a43d
00000130: 873c b8bc 2228 08bd cd5a 4a3e 1e6f 523e
00000140: 2aa3 233a a8c4 3739 f351 4b3d 2164 cd3a
00000150: f047 563d 8aa1 453b 12b5 7e3c de69 193c
00000160: df35 a8bc 4ec6 023d 44f9 22bd 4fee 12bd
00000170: 010d db3c 8e9b 903c 27d1 5c3b 4a5f 883b
00000180: 0cee 823d f231 8ebb 9118 f33c 37e5 a73a
00000190: 347b 453c d4d9 a43c 7e0f 87bb 59b5 35bc
000001a0: eaa7 493c 7d13 f9ba 3325 443a a010 063d
000001b0: 124a a1ba 722b 293d dd82 803d eadd 893d
000001c0: 8eb0 983d 0aec 363d 3b33 07bb a9a5 143c
000001d0: 675f 1a3b 5324 5f3c bc4d 8bbb 9c69 e73c
000001e0: 8ca4 583d e38a cbbc 1580 903d fc6e da3d
000001f0: b1e7 b13d 7de8 223e 6c5f 103e 772c 163e
00000200: da72 ee3d 187a 143e da9d 243d 61fb 29bd
00000210: 0389 b7bc 7867 88bc 78d1 023a cdbc 07bb
00000220: 2a47 92bc 5eda 1b39 f673 efbc f245 353b
00000230: 44dd 473e 5073 623e 6ec0 673e a0ff ce3e
00000240: 15e5 623e 6dd1 183d ec6b 1dbc 53b9 3fbc
00000250: 505c 69bc f0ed a7bc 245d 183c 1525 19bc
00000260: afb1 0b3d 940e de38 3f0a 0d3d 95f2 8a3d
00000270: f534 7b3d ef1e 903d 7952 6b3d be2b 873d
00000280: 35f0 8b3e 30f5 833e ef75 623e 30a0 073f
00000290: 8637 f33e 6b23 053b 2f2b de3c 2a03 62bc
000002a0: afdf bc3b 211b cc3b 1765 36bc 3a51 233a
000002b0: 0f50 c0bd bbca 01bc ffd0 b7bd 8cc6 903c
000002c0: 9a06 453c d15f 433c 1763 a03c 8851 6b3c
000002d0: 76ca 1dbc 38a1 b0bd e3cd 90bc 5071 3cbd
000002e0: 6bb1 1fbc 7622 1a3c 2a1d 2c3c 3481 a23b
000002f0: 30ce a9bc 803d 103d f5ac 56bb 8a89 973c
00000300: 1b98 013b 0fb7 233d bc87 78bb 2712 34ba
00000310: 8e42 ed3c 8f31 2aba 933a 213d 0248 afba
00000320: c0a1 26bc 777f a33a 976c 9fbb 4d49 96bc
00000330: b48e 8fbc fcd9 d93c 63c3 2a3a 60b1 063d
00000340: 1b47 6ebb 129d a7ba 4bb8 463d 654a 553d
00000350: f12a 6b3d d84a 933d 983d 7f3d f354 2c3c
00000360: 8e48 4abc 2a20 48bc 3928 02bc 0cd6 2e3d
00000370: fd72 7c3d 9cbc 6d3d b22f 393d 209b 843d
00000380: cc8d 533d 5efb 9dbd 94db d6bd 8d1e b9bd
00000390: 9c7d afbd 9a27 52bd 2cc0 d23b f549 6e3c
000003a0: 0db7 4f3b 72bc e73c 9083 92bc 9c0d a23b
000003b0: 5f3d 333d 972d 433d 06f7 033d 6e0a f5bc
000003c0: 1d86 203b df9c 1b3d 1637 87ba df2a 393d
000003d0: a259 1dbc a113 623e dbc0 0d3e 789a 0c3e
000003e0: 0e13 2d3e deaf e23d
0.0311363 0.0336187 0.0334334 0.0175238 0.0522202 0.021332 0.0330253 -0.0231073
0.0390974 0.0448511 0.0156547 0.0220682 -0.00394269 0.0296349 0.0090499 0.0301171
0.0112991 0.00857865 0.0323329 0.0533001 -0.0373911 0.010426 0.0412635 0.0630001
0.0683254 0.00089417 0.00140145 0.0102076 -0.00906851 0.0199149 0.0761239 0.0720494
0.0672144 0.068537 0.0753103 0.0180874 0.0302077 0.0421754 0.0220346 0.0161756
-0.0461034 -0.0667024 -0.0592928 0.00708795 0.00280614 -0.0114239 -0.010479 -0.0144876
-0.0183577 -0.0267922 -0.0492632 0.00348592 0.0043382 0.00169787 0.00406951 -0.00733474
-0.00366799 -0.0293053 0.00391328 -0.0448043 0.0310321 0.048452 0.0525149 0.00666335
-0.00121838 0.0138711 -0.0357569 0.030701 0.00654987 0.0454629 0.0339447 0.0252425
0.0297776 0.0197361 0.0158951 0.080166 -0.0224898 -0.0332414 0.197612 0.205502
0.000624227 0.000175255 0.0496387 0.00156701 0.0523147 0.00301561 0.0155461 0.00936362
-0.0205335 0.0319274 -0.0397885 -0.0358718 0.0267396 0.0176523 0.0033694 0.00416175
0.0639306 -0.00433945 0.0296748 0.00128094 0.0120533 0.0201234 -0.00412172 -0.0110906
0.0123081 -0.0019003 0.000748235 0.0327307 -0.00123054 0.0413012 0.0627496 0.0673178
0.0745555 0.0446587 -0.00206299 0.0090727 0.00235554 0.0136195 -0.00425121 0.0282486
0.0528913 -0.0248465 0.0705568 0.106657 0.0868677 0.15909 0.140989 0.146654
0.11643 0.144997 0.0401896 -0.0414995 -0.0224042 -0.0166509 0.000499032 -0.00207119
-0.0178562 0.000148633 -0.0292301 0.00276601 0.19518 0.221143 0.22632 0.404294
0.221577 0.0373091 -0.00960825 -0.0117019 -0.0142432 -0.0204992 0.00929955 -0.00934722
0.034105 0.000105885 0.0344336 0.0678455 0.0613298 0.0703715 0.0574517 0.0660014
0.273317 0.25773 0.221153 0.529788 0.475033 0.00203153 0.0271202 -0.0137947
0.00576397 0.00622882 -0.0111325 0.000623006 -0.0939027 -0.00792187 -0.0897541 0.0176728
0.0120255 0.0119247 0.0195785 0.0143627 -0.00963079 -0.086245 -0.0176763 -0.0460065
-0.00974689 0.00940763 0.010505 0.00495925 -0.0207282 0.0352149 -0.00327569 0.0184982
0.00197745 0.0399695 -0.00379227 -0.000686916 0.0289624 -0.000649237 0.0393625 -0.00133729
-0.0101704 0.00124739 -0.00486524 -0.0183455 -0.0175241 0.0265932 0.00065141 0.032884
-0.00363583 -0.00127879 0.0485156 0.0520729 0.057414 0.0719201 0.0623146 0.0105183
-0.0123464 -0.0122147 -0.00794416 0.0426846 0.0616331 0.0580412 0.0452115 0.064749
0.0516489 -0.0771396 -0.104911 -0.0903903 -0.0856888 -0.0513073 0.0064316 0.014544
0.00316948 0.0282881 -0.017885 0.00494547 0.0437597 0.0476509 0.032218 -0.0299122
0.0024494 0.0379914 -0.00103161 0.0452069 -0.00960389 0.220778 0.138431 0.137308
0.169018 0.110687

linear_7_Add_B f4 [5]
00000000: 72e1 40bc 7916 8ebc 210e 88bc 1020 83bc
00000010: 265d 69bc
-0.0117725 -0.0173447 -0.0166083 -0.0160065 -0.0142434
