networks/onnx/ACASXU_run2a_1_2_batch_2000.onnx (onnx, 55914 bytes, 15 tensors)

input_AvgImg f4 [1, 1, 5]
000000 00 00 00 00 00 00 00 00 00 00 00 00 00 00 00 00
       0.0 0.0 0.0 0.0
000010 00 00 00 00
       0.0

Operation_1_MatMul_W f4 [5, 50]
000000 07 27 9a be 47 c9 a7 bf 98 45 92 3d 26 00 c7 3e
       -0.301079 -1.31083 0.0714218 0.388673
000010 b6 14 04 bf e6 58 5e 3c ff 3e bb bf 1a 6e 34 3f
       -0.515941 0.013571 -1.46286 0.704805
000020 ba 4c cd 3d 40 36 e4 3c ee 3e 97 3d 83 c2 e0 bd
       0.100244 0.0278579 0.0738505 -0.109746
000030 2d 0b 4a 3f e4 bd 9a 3e 05 aa ca bd e7 8e 2e 3e
       0.789233 0.30223 -0.0989571 0.170467
000040 0e 15 e3 3d fc 1a 09 3e 6c b2 82 bf 61 c3 77 bf
       0.11088 0.133892 -1.02107 -0.967825
000050 00 74 18 be 76 ba 3d bc c7 08 cd 3c 04 54 98 be
       -0.14888 -0.0115801 0.0250286 -0.297516
000060 94 fb 1d 3d 18 ab 12 bd ff 03 34 3f 2a 37 71 3e
       0.03857 -0.0358077 0.703186 0.235562
000070 d0 0f ab bf 07 f6 8e 3d b4 7b 4d 3c 1e 49 ee bc
       -1.33642 0.0698052 0.0125417 -0.0290876
000080 f5 11 28 be 88 47 2e 3f 6e a3 99 3f a9 31 35 bf
       -0.164131 0.680779 1.2003 -0.707789
000090 44 c1 cc bc 27 a5 34 bf 8a 06 65 bf 8d 45 13 3d
       -0.0249945 -0.705645 -0.894631 0.035955
0000a0 93 57 67 be ce e0 03 3f f4 e7 76 bd 57 04 1f be
       -0.22592 0.515149 -0.0602798 -0.15529
0000b0 4b 58 6b 3e 59 fa ac bf 1a 8b b2 bf 17 5e d1 3b
       0.229829 -1.35139 -1.39487 0.00638939
0000c0 18 0a 78 be 85 94 bf bf 56 d2 ed 3b ca cf 8c 3d
       -0.242226 -1.49672 0.00725774 0.0687557
0000d0 78 28 be 3f b6 ba 48 3f 84 2b a0 3c b9 07 d7 3a
       1.48561 0.784099 0.019552 0.00164055
0000e0 38 ca c0 bd 50 6a d4 3c 9a 25 9d 3f 01 87 3c 40
       -0.0941357 0.0259296 1.22771 2.94574
0000f0 1c 42 ed 3f 95 bb 0f 3f d6 cb 4a 3c ce 19 c9 3e
       1.85358 0.561456 0.0123777 0.392775
000100 79 62 9c bd 12 32 60 be 8e 4c 91 bc 9c 33 86 bf
       -0.0763597 -0.218941 -0.0177367 -1.04845
000110 77 bd d4 3d 1a 68 83 3d 84 64 99 be a0 8c 61 be
       0.103877 0.0641634 -0.299595 -0.220263
000120 ab ea 85 be 39 ac ca bd 9d 49 83 be 6e a5 67 3f
       -0.261556 -0.0989613 -0.256421 0.904868
000130 4a 12 9f bc ca 19 0a bf ae b9 53 be f4 37 15 c0
       -0.0194179 -0.539456 -0.206763 -2.33154
000140 5e 5e 95 bd c7 f6 ca 3e 1e 8e 09 3d d2 c8 a7 3c
       -0.0729339 0.396414 0.0335828 0.0204815
000150 e3 e4 59 3a b8 cd f4 3d 99 d3 aa 3d dd 45 28 be
       0.0008312 0.119533 0.0834114 -0.164329
000160 2e 1d d3 3d 83 17 19 c0 b1 ae a0 bd 6d 73 29 40
       0.103083 -2.39206 -0.0784582 2.64767
000170 cf a1 a4 3e 97 51 51 bd d7 c0 9e 3f bf c6 e4 3c
       0.321547 -0.0511032 1.24026 0.0279268
000180 89 ae f0 3c f2 c3 92 3c 62 bc e6 3d 70 e3 e0 bb
       0.0293801 0.0179157 0.112664 -0.00686305
000190 bf e7 8f bb f6 95 77 3e f9 4d 61 3e 2c bb 48 bf
       -0.00439164 0.241783 0.220024 -0.784106
0001a0 9a 05 bd 3b bf 05 e3 3c 91 29 21 3c c0 92 ab be
       0.00576849 0.0277127 0.00983657 -0.335104
0001b0 f1 84 e6 3e 5f f2 ba 3d 30 0d e7 bf b6 f3 e5 bf
       0.450233 0.0912826 -1.80509 -1.7965
0001c0 3e 13 6d bb 63 d0 19 be 37 a2 20 bd 1b f5 bc 3f
       -0.00361748 -0.150209 -0.0392172 1.47623
0001d0 96 7a 16 bd 91 0a 87 3f e7 fe 4a be 2a 01 41 be
       -0.036738 1.05501 -0.198238 -0.188481
0001e0 ab ea c5 be a9 da 5e 3e 12 c2 7e 3c bf 2b 96 bf
       -0.386556 0.217631 0.0155492 -1.17321
0001f0 30 11 cf 3e 6c 96 0b 3e bf 6e c7 3d d2 8b 42 3f
       0.404428 0.136316 0.0973792 0.759946
000200 6c ea 3c 3e dc f6 1d 3e 62 67 14 c0 88 66 1a bf
       0.184488 0.154262 -2.31881 -0.603127
000210 fc 8f 48 3b 47 16 35 3d b1 eb 36 3a ae c1 86 3d
       0.00306034 0.0442107 0.000697787 0.0657991
000220 c8 0c e0 3f 6b 4a 02 bf b1 dd 35 3f 86 fb 8d bd
       1.75039 -0.508948 0.710414 -0.0693274
000230 1d 93 e5 3e 09 c0 a7 be ba 9e 00 bf ed 97 b4 3c
       0.448388 -0.327637 -0.502422 0.0220451
000240 4c 35 33 bd 28 22 2f 3a 18 42 ce 3d e0 69 f2 bd
       -0.043752 0.000668081 0.100712 -0.118366
000250 2f f9 cf be ac 47 da 37 35 07 90 bf 70 79 3c be
       -0.406198 2.6021e-05 -1.12522 -0.184057
000260 d2 e0 c6 3e eb ff bc be 3d b8 6b 3e 23 9e d4 be
       0.388434 -0.36914 0.230195 -0.415269
000270 36 5d 2a bc 21 ea 99 bd 31 0c a8 3e a9 a1 cd 3d
       -0.0103982 -0.0751536 0.328218 0.100406
000280 ad 4b 1d 3e 02 ea 87 3d 74 5c 2d 3e f8 17 91 3e
       0.153609 0.0663643 0.169298 0.283386
000290 3a c9 9e be 07 f8 04 bd fe 16 15 bc 87 a8 e2 bd
       -0.310129 -0.0324631 -0.00909972 -0.110673
0002a0 08 e6 c7 3b dd d0 34 be be b6 e3 3c 61 8a 1e bf
       0.00610042 -0.176578 0.0277971 -0.619299
0002b0 0b 41 5e be a2 e6 55 3d 43 02 56 be ba d9 9f be
       -0.217045 0.0522219 -0.208993 -0.312208
0002c0 42 41 05 3f ae 9f 7e 3e 87 75 99 3c 62 db d2 3e
       0.520527 0.248656 0.0187328 0.41183
0002d0 98 51 87 3c 36 6a 2f bd 1c ce 6c 3e 10 75 8f bf
       0.0165184 -0.0428259 0.231255 -1.12076
0002e0 ac 42 76 3a 47 fb 84 3c 18 24 5d 3d 2f 14 70 be
       0.000939409 0.0162331 0.0539895 -0.234452
0002f0 03 0a f5 be 4e 62 80 3e 33 19 b6 3e bf f0 4a bd
       -0.478592 0.25075 0.355661 -0.049546
000300 83 33 0c bf 32 8f 24 bf e6 02 cf 3e 21 6d 40 ba
       -0.547661 -0.64281 0.404319 -0.000734048
000310 bf fd 6f 3c 27 88 f2 be 8f 35 73 3e d3 10 d9 3a
       0.0146479 -0.473695 0.237509 0.00165608
000320 5a 2c b5 be 4b 77 87 be 6a c0 00 be 24 28 86 3e
       -0.353854 -0.264582 -0.125734 0.262025
000330 23 4a e3 be 8d 98 d9 be 9c 94 b8 3b 23 85 02 be
       -0.443925 -0.424992 0.00563295 -0.127461
000340 48 e2 45 be dc 80 13 bf b3 3f 10 bd b4 1d f3 be
       -0.193246 -0.576185 -0.035217 -0.474836
000350 cf 86 8c be 36 57 e5 3e d3 de 0e c0 f1 68 ab 3e
       -0.274466 0.447931 -2.23235 0.334785
000360 8a 3c 55 3f ed 20 80 3d 37 8d ed 3c be 2d 18 be
       0.832955 0.0625628 0.028998 -0.148612
000370 36 72 1d be 09 0f 64 bd 0a a3 59 3d 72 ca 52 3d
       -0.153756 -0.0556784 0.053134 0.0514626
000380 1d cc e6 3d 6c a3 b0 3d 0d 1a 8a bf 89 ef bc bf
       0.112694 0.0862492 -1.07892 -1.47606
000390 f4 04 1b bc 87 19 62 bf 51 e3 f2 38 44 80 bd 3d
       -0.00946163 -0.883202 0.000115818 0.0925298
0003a0 a1 f5 50 3e 04 8d 49 3f f7 22 98 ba 5a 07 51 3d
       0.204062 0.787308 -0.00116071 0.0510324
0003b0 68 23 57 bb 94 4a 28 3e f0 50 54 3e 3c 4c db 3d
       -0.00328275 0.164347 0.20734 0.107079
0003c0 6f 9e 22 bf e2 d5 b8 3d b0 50 30 bd 16 a6 2f 3f
       -0.63523 0.0902517 -0.0430457 0.686128
0003d0 88 4c 61 bf 33 b4 8b 3c fc 12 56 bd 5c 39 1c bc
       -0.880074 0.0170537 -0.0522642 -0.00953516
0003e0 17 f1 ed be a0 7e 02 bb
       -0.46473 -0.00199119

Operation_1_Add_B f4 [50]
000000 f9 13 15 bf b3 60 a2 be 69 c3 11 3e d6 74 c5 3e
       -0.582336 -0.317144 0.142347 0.385657
000010 f9 3f 81 bd cf 31 e0 bd 7a a9 c8 be 2d 32 ab 3d
       -0.0631103 -0.10947 -0.391918 0.0835918
000020 0d 6c 5a bd af 43 45 be 1b da 14 bf e5 9d a3 be
       -0.0533257 -0.192641 -0.581453 -0.319564
000030 0d c2 94 3e c2 dc be bd 31 41 6d bf 6a 17 53 3d
       0.290543 -0.0931945 -0.926776 0.051536
000040 fa 2b 54 be 97 1d 06 3f c2 fc 65 be a5 14 34 be
       -0.207199 0.523889 -0.224597 -0.17586
000050 b4 35 87 3d eb fd 46 be d4 97 4a 3d b2 8c 03 bd
       0.0660204 -0.194328 0.0494612 -0.0321166
000060 38 82 04 3e 20 44 12 3e bb ed 12 3e dc da f2 be
       0.129403 0.142838 0.143485 -0.474326
000070 6c 3d 8b be e5 b5 62 be d4 71 06 3d a7 40 96 3e
       -0.271953 -0.221397 0.0328234 0.293462
000080 43 e2 fe 3d ac ed 3c bd 7e 72 c4 3e 4f e7 0a be
       0.124455 -0.0461251 0.383686 -0.135648
000090 dc 0d c7 3c e8 dd 28 be 8a b0 71 be 7e 8a 43 3e
       0.0242986 -0.164909 -0.236025 0.190958
0000a0 59 30 d6 3c 83 a1 32 3f 35 66 ad bc c1 28 37 3d
       0.0261461 0.697777 -0.0211669 0.0447166
0000b0 af cc 0b be b5 87 4d be e2 94 c1 be b9 72 06 3e
       -0.136523 -0.200713 -0.378089 0.131297
0000c0 d5 3e fc 3b e8 c1 d5 be
       0.00769792 -0.417495

Operation_2_MatMul_W f4 [50, 50]
000000 46 ef 04 3e 19 c7 a7 3b c1 1d 18 3f 36 b0 35 3e
       0.129819 0.00512017 0.594204 0.17743
000010 b0 00 d6 3e c6 16 c6 bf e3 37 0d 3f 74 30 b1 bd
       0.417974 -1.54757 0.551634 -0.0865182
000020 65 8e d5 be 96 59 cc 3e e3 4f 24 3e d8 18 12 39
       -0.417102 0.399121 0.160461 0.000139329
000030 f4 36 5e bf e6 75 78 3f ec 18 bf be cb ba 1f be
       -0.868026 0.970549 -0.373237 -0.155986
000040 a9 f7 54 3f 3a 6f c8 3c 08 1c 89 bc 17 19 91 bb
       0.831904 0.0244671 -0.016737 -0.00442804
000050 b2 66 dc 3e f8 69 c1 bc d8 d3 06 40 95 9a 39 bf
       0.430471 -0.0236101 2.10668 -0.725015
000060 fe 9e b0 be 6f 64 de 3c 4d e1 1c 3d 80 a3 18 bd
       -0.344963 0.0271475 0.0383008 -0.0372653
000070 28 ef 23 3e e1 39 a5 3c a9 4d fc 3f 8d ee 84 3f
       0.160092 0.0201692 1.97112 1.03853
000080 bb ef 98 3e 06 66 e4 bb 16 ac 47 3d 05 6a b9 3e
       0.298704 -0.00697017 0.0487481 0.362137
000090 4a 25 0c 3e b4 74 75 be 46 94 62 bf 88 68 84 3f
       0.136861 -0.239703 -0.885075 1.03444
0000a0 3b 53 bc 3f 1a 8b c6 3f 45 80 ab 3e b0 1d 78 bf
       1.47129 1.55112 0.334963 -0.969203
0000b0 25 e0 41 bd e1 62 15 3f cf 87 a2 3d d7 4e 48 bf
       -0.0473329 0.58354 0.0793606 -0.782453
0000c0 02 d7 13 3c 67 6b 58 bd 30 af 6d bd 9e 9e 90 ba
       0.00902343 -0.0528368 -0.0580284 -0.00110336
0000d0 96 5b da bc b8 3f b7 3d de e5 12 be 4f 24 34 bf
       -0.026655 0.089477 -0.143455 -0.703679
0000e0 18 90 82 3d 6c b0 b8 3e e2 af 91 be 4b 5c c2 bd
       0.0637514 0.360721 -0.284545 -0.0949026
0000f0 6f 85 4b 3d 2f b9 97 bb 51 2e 4d 3f 43 92 41 3f
       0.0496878 -0.00463023 0.801488 0.756138
000100 8a 13 29 bc 24 5e ae be db c1 28 3e 7c f3 7b bd
       -0.0103196 -0.340562 0.164802 -0.0615115
000110 4f 5a 78 be 35 18 59 3c 26 18 52 bf 5f aa 04 3c
       -0.242532 0.0132504 -0.820681 0.00809726
000120 df 5b 07 bd 52 9c b3 be 02 d4 8c be a6 b4 a6 be
       -0.0330466 -0.350802 -0.275055 -0.325597
000130 9d bb 95 be 3b 36 62 3e c8 0b 89 3d ef 41 a3 3c
       -0.292447 0.22091 0.066917 0.0199289
000140 c7 bb f3 be b0 67 a9 bd 20 d3 ba bd 43 59 13 bd
       -0.476042 -0.0827173 -0.091223 -0.0359738
000150 69 38 8d 3e f9 65 c0 3e 5d fb e2 be 1a 1a cf bd
       0.275821 0.375778 -0.443324 -0.101124
000160 7a 51 a3 be 34 12 35 bf b6 4a f0 be 5b 5b 68 3f
       -0.318981 -0.707309 -0.46932 0.907644
000170 c0 7a 94 3e 48 19 99 3e b8 0f af bc bc 79 ba be
       0.289999 0.299021 -0.0213698 -0.36421
000180 9f ab 41 3f bb b6 77 be ef 23 d0 3b 23 70 5a bc
       0.756525 -0.241908 0.00635194 -0.0133324
000190 43 3a 1c be 9d ed 19 3c 41 9d 82 3d 37 6d 26 bf
       -0.152566 0.00939503 0.0637765 -0.650104
0001a0 64 e6 2e 3f 16 f6 a8 3f 2f 6e 03 be 60 76 0b bf
       0.683203 1.32001 -0.12835 -0.544775
0001b0 b2 00 1c 3d 54 8e 81 be af 7c 36 3f 1e 03 cd bc
       0.0380866 -0.253039 0.71284 -0.0250259
0001c0 66 a0 aa be ec be 8b 3e ee 78 83 3e 1e fd 1f be
       -0.333255 0.272941 0.256782 -0.156239
0001d0 39 2b 22 be e8 d9 8c 3e b4 73 ba 3e 3e 11 7a bc
       -0.158368 0.2751 0.364164 -0.0152629
0001e0 7d 03 43 be 33 2b 95 bd 50 df 42 3f 06 10 9e be
       -0.190443 -0.0728363 0.76122 -0.308716
0001f0 11 19 56 3e 6d 3a 56 3f 2f 14 50 be 09 d7 ad bd
       0.20908 0.836829 -0.203202 -0.0848828
000200 15 5b 3c 3d 45 24 d4 3c 41 44 92 3e b3 71 4e bd
       0.0459853 0.0258962 0.285677 -0.0504014
000210 86 5a ab 3e 22 fb 00 bd 29 cc 9b be 0b 0c 85 3f
       0.334675 -0.0314895 -0.304292 1.03943
000220 9f 66 82 3d ea ce 53 3e 88 85 5a be cf 67 20 be
       0.0636723 0.206844 -0.2134 -0.156646
000230 0b d3 a7 bd 3b a7 91 be 81 22 1e 3f 9f ab 81 bf
       -0.0819455 -0.284479 0.617714 -1.01305
000240 2f 5e 62 3c 63 7a 92 be 94 33 8c be fe d2 fa 3e
       0.0138164 -0.28609 -0.273831 0.489891
000250 ad c1 9c 3b b8 ad ad 3c 6b 7f a7 3e 4a a8 0a bd
       0.00478383 0.021201 0.327144 -0.0338519
000260 f0 8b 2b bf 2b 6e 74 bf cd 77 04 3f 28 b9 9b be
       -0.670104 -0.954806 0.517453 -0.304147
000270 f2 d0 d7 be c4 94 98 bf 6d 1c 55 3f ad a2 73 bf
       -0.421516 -1.19204 0.832465 -0.951701
000280 d0 0f 87 3f 60 34 15 bd f2 9a 67 3e 58 3c 05 bf
       1.05517 -0.0364269 0.226177 -0.520452
000290 58 1d b9 3e 61 d2 ce bc 5e 67 cb be 2b 18 31 bf
       0.361552 -0.0252468 -0.397273 -0.691775
0002a0 7b 7d b5 bb 50 50 6d 39 e8 13 9d 3f f3 a4 11 bd
       -0.00553864 0.00022632 1.22717 -0.0355577
0002b0 f7 b1 a2 be a4 a8 f3 3d aa 5f 9e 3d 81 40 ef 3e
       -0.317764 0.118974 0.0773309 0.467289
0002c0 79 93 1f 3e 82 1f 15 3e 31 f2 ad bd 5f ee 73 bd
       0.155836 0.145628 -0.0849346 -0.0595535
0002d0 a2 0b 5a 3e 73 30 47 bf 4f cf 83 3e 16 4e b1 3a
       0.212935 -0.778083 0.257441 0.00135273
0002e0 f4 1a db 3d 87 35 25 be 0c 23 0d 3e 3c 84 99 3e
       0.106985 -0.161337 0.137829 0.299837
0002f0 52 0e 46 3e f9 ba 0c 3f fc 71 07 3f 78 f2 19 3e
       0.193414 0.549728 0.529083 0.150339
000300 7a fb 83 be c9 c8 8d bf be 28 46 bd 79 ad 04 3f
       -0.257778 -1.10769 -0.0483787 0.518272
000310 d0 27 8a be 1e 52 fc be 2c 90 0b bc 15 1c 5e 3c
       -0.269835 -0.492814 -0.00851826 0.0135565
000320 9a 42 e7 bd cf bd 27 bd e2 93 06 bf 6b 81 8d be
       -0.11292 -0.0409525 -0.525694 -0.276378
000330 43 91 a6 3e 7c b9 7f 3e 8c 2e 4f 3e b9 55 a0 be
       0.325327 0.249731 0.202326 -0.313154
000340 f9 20 d5 3c 9f d8 c4 3d b5 de ef 3d df cd c9 bc
       0.0260167 0.0961163 0.117124 -0.0246343
000350 55 bf 12 be fd 4d d0 be d4 64 16 3e be 69 ea 3e
       -0.143308 -0.406845 0.146869 0.457838
000360 9a b2 33 3d c3 2a a6 3f 79 cd 3f bf c3 f9 0f bd
       0.0438715 1.29818 -0.749229 -0.0351503
000370 4e 7c a5 3e 91 df ae bb 8c 69 76 be d3 c4 b6 bd
       0.323214 -0.00533671 -0.240637 -0.0892426
000380 2e ae 99 be ce fa 64 bf 08 39 bf 3e be e1 99 bc
       -0.300157 -0.894452 0.373482 -0.0187844
000390 ce e0 af bc 3a ca 21 bd ab 41 f8 bd b7 0b 81 3f
       -0.0214695 -0.0394995 -0.121219 1.00817
0003a0 80 29 1b bf a8 d8 02 bd 3e 3e b1 be 2c 80 7d bf
       -0.606102 -0.0319449 -0.346178 -0.990237
0003b0 c5 8d eb 3e 04 e6 a1 3e 7b 4e 5e 3f 83 6b 5e 3e
       0.460066 0.316208 0.868385 0.217207
0003c0 fa 44 de bf 16 4c 18 bf 32 02 2a be 61 aa 15 3f
       -1.73648 -0.594911 -0.166024 0.584631
0003d0 33 2d 16 bc 2f 1e 99 bd ac a9 7c 3e e2 91 d8 be
       -0.00916605 -0.0747646 0.246741 -0.422988
0003e0 44 db 31 3c 59 7f d5 bc 18 06 4c be 61 b6 2e bd
       0.0108555 -0.0260617 -0.199242 -0.0426544
0003f0 ba 31 99 3f 79 92 84 be 32 00 8c be 2e c5 a5 3f
       1.19683 -0.25893 -0.273439 1.29508

Operation_2_Add_B f4 [50]
000000 de a9 a5 bc 2f 5b a1 bc 2c 65 8d bf 71 03 ae bf
       -0.0202226 -0.0196968 -1.10465 -1.35948
000010 48 a7 66 bf ea 92 f9 be af 22 53 3f 4f 24 d8 3c
       -0.90099 -0.487449 0.824748 0.0263845
000020 87 8a d1 bf a8 6f 91 bf a3 e9 9c bf d3 e3 90 bb
       -1.63704 -1.13622 -1.22588 -0.00442169
000030 c5 48 04 3c de 16 b4 bb cb a1 45 3e d9 93 a8 3e
       0.00807399 -0.00549589 0.193 0.329253
000040 1a 6f 7b be 2b 12 7b 3f 29 7a 64 3f e1 ea 84 bb
       -0.245541 0.980746 0.892489 -0.00405632
000050 e7 39 ba be e3 65 d7 bc d1 cc 47 bf c4 b1 9e 3e
       -0.363723 -0.0262937 -0.780469 0.30995
000060 f1 82 e8 3d b7 7a 2e be 70 40 1b be e4 56 b7 bd
       0.113531 -0.17039 -0.151613 -0.0895212
000070 b2 f3 d6 bd bc 28 55 bc bd 00 8f bf 8e 04 0a 3e
       -0.104957 -0.0130102 -1.11721 0.134783
000080 ff 25 c1 be 86 ff d9 bc 26 01 0e 3f 23 13 24 3f
       -0.377243 -0.0266111 0.554705 0.640917
000090 11 18 eb be f4 4d da 3d 05 a6 53 3e 7f f8 d9 3e
       -0.459168 0.106594 0.206688 0.425724
0000a0 4a 27 62 3f 2e 1f 45 bf 96 20 83 3e 56 7d 8a bf
       0.883412 -0.770007 0.256108 -1.08195
0000b0 de c8 1f bc 3b a9 3b bf 39 25 30 3e b8 c8 b2 bd
       -0.00975248 -0.733051 0.172017 -0.0872969
0000c0 cb b9 39 bc 20 38 78 bc
       -0.0113358 -0.0151501

Operation_3_MatMul_W f4 [50, 50]
000000 8e ac 08 3f 68 b1 54 bd 6d 48 0e bc 4c 1c a9 3e
       0.533883 -0.051927 -0.00868426 0.330294
000010 4f cc da 3d bf f1 bd bf 95 53 f1 bc d0 26 27 3e
       0.106835 -1.48394 -0.0294588 0.163234
000020 2c 48 ab bf 6b 10 c6 be 93 13 b7 bc 70 7d c0 be
       -1.33814 -0.386844 -0.0223482 -0.375957
000030 97 72 fe bd 92 5c 2e bf 3c f6 b3 3e c2 bd b2 bc
       -0.124242 -0.6811 0.351488 -0.021819
000040 66 f7 40 bf d1 70 af bc ad c1 0b 3f de c8 24 bf
       -0.753775 -0.0214161 0.545924 -0.64369
000050 44 c0 65 3f c4 27 b5 3e 19 ff 00 c0 58 a9 50 3e
       0.897465 0.353819 -2.01557 0.203771
000060 34 81 7e 3f 4f 40 73 3e a9 6a 92 bf 5d fe 73 be
       0.994159 0.23755 -1.14388 -0.238275
000070 58 57 79 bf 6f 23 2f bc 3e e8 b1 3e b1 30 1c 3f
       -0.973989 -0.0106896 0.347475 0.610118
000080 74 d2 fb bd c9 ef 63 bd 21 36 1d bd a2 2a 8e 3e
       -0.12296 -0.0556486 -0.0383817 0.277669
000090 df a9 24 3f 53 79 93 3e 86 32 79 bd 44 dc 2c be
       0.643217 0.288035 -0.0608392 -0.168809
0000a0 af 60 1b bf 06 95 92 3d dd 22 30 3e 57 77 c4 3e
       -0.606944 0.0715733 0.172008 0.383723
0000b0 86 3b cf be 5f b8 73 3d 2b 69 35 3f e3 33 fe 3c
       -0.404751 0.059502 0.708636 0.0310306
0000c0 d6 b8 ad 3c 6d e5 ad be a9 da 2e 3d 44 ab 6e 3c
       0.0212063 -0.339641 0.042689 0.0145672
0000d0 93 44 65 3c a4 62 0d 3d 6e 3a dd bc 81 0f 34 bd
       0.0139934 0.0345179 -0.0270054 -0.0439601
0000e0 5e d3 48 bd 90 98 6a bc 35 da e0 3c 7f 6d fd bc
       -0.0490297 -0.0143186 0.0274478 -0.030936
0000f0 19 44 b9 bb e9 ba 8b bc 20 b2 08 3d a6 9f 4b 3c
       -0.00565387 -0.0170569 0.033373 0.0124282
000100 84 d2 fa bb b6 69 27 bd 7c bb 80 3c 3a f1 f0 3c
       -0.00765449 -0.0408723 0.0157144 0.0294119
000110 05 14 8f 3c e1 ac ad bc f2 83 09 bd 87 ce a1 bb
       0.0174656 -0.0212006 -0.0335731 -0.00493795
000120 37 16 16 3c e5 8b 07 bd 4b 00 e3 3c e1 e8 cf bc
       0.00916057 -0.0330924 0.0277101 -0.0253796
000130 4b 21 50 3d 0b eb 2b 3d 84 29 ca 3c 91 e9 b5 bc
       0.050813 0.0419722 0.024678 -0.0222061
000140 86 2d 49 3b bc b5 e7 bc 5b c2 ab bc 00 a3 99 b8
       0.00306973 -0.0282849 -0.0209667 -7.32597e-05
000150 08 9d 06 3d a2 8d ed 3c 14 9e 86 bc 7a cb 30 bc
       0.0328646 0.0289982 -0.0164328 -0.0107907
000160 15 4e b7 bc 4b 99 ef 3c 03 71 68 bc 96 e1 c7 bb
       -0.0223761 0.0292479 -0.0141871 -0.00609989
000170 5b 31 32 bd 9c 7a 6e bc c6 6f ca bc 93 cc 05 3d
       -0.0435041 -0.0145556 -0.0247115 0.0326658
000180 44 3f 49 3d f4 26 90 bc bf bd 26 3d 94 36 f0 bc
       0.0491326 -0.0175967 0.0407083 -0.0293229
000190 d7 a1 1a 3e 05 09 1b bd c6 fb 31 bd 1b d5 19 3e
       0.151008 -0.0378504 -0.043453 0.150227
0001a0 27 29 b5 3d ec ea 9f bc fe 27 3f be c1 1a 63 bf
       0.0884574 -0.0195212 -0.186676 -0.887127
0001b0 5c b1 9e ba 62 15 1f 3e b8 50 03 bd ba f6 35 be
       -0.00121073 0.155355 -0.0320594 -0.177699
0001c0 e6 07 ce 3d 5f 25 df 3d b5 36 9d be 51 93 4f 3c
       0.100601 0.108958 -0.307058 0.0126694
0001d0 cb 2f d3 be ee cf bd 3e 11 6e 72 be 5d de 7c 3d
       -0.412474 0.370727 -0.236748 0.0617355
0001e0 2c 63 13 be bb 39 96 bd fa 83 bc 3d 1d aa 59 3e
       -0.143933 -0.0733523 0.0920486 0.212563
0001f0 6d 1d 70 bf 7e 57 9f 3d 31 ea 22 3f 2f 31 5a 3f
       -0.937949 0.0778036 0.636386 0.852313
000200 12 84 ab be 91 14 09 bb 10 3e a4 3e 88 d7 21 3f
       -0.334992 -0.00209168 0.320786 0.632195
000210 a3 2b 47 bc 44 db 41 be 7f 7e 44 bd 8f 8c 15 3e
       -0.0121564 -0.189313 -0.0479722 0.146044
000220 75 3f 7f 3f d5 e7 ba 3e 78 9b b7 bc 95 10 fc be
       0.997062 0.36505 -0.022413 -0.492314
000230 6d ae 3a 3f ef 64 c1 3c 3a 23 4a 3e 2a fd 58 bf
       0.729224 0.0236077 0.1974 -0.847613
000240 c2 a1 c7 be 36 58 08 3e 7a 16 89 3d 06 f7 fb 3e
       -0.389906 0.133149 0.0669374 0.492119
000250 3b 71 39 be a4 71 28 3e ad f6 d0 3e 5d 66 3d bd
       -0.181096 0.164496 0.408132 -0.0462402
000260 40 50 ac 3b ce 36 af 3f df df e0 be 0a bf 80 3f
       0.00525859 1.36886 -0.439208 1.00583
000270 a7 40 ce 3e 1f 68 8d 3f 00 a0 7f b9 af 95 28 bf
       0.402837 1.10474 -0.000243783 -0.658534
000280 63 92 16 bd d5 92 ce 3d f0 16 d8 bf 77 49 5c be
       -0.0367607 0.100866 -1.6882 -0.215124
000290 80 f1 b8 bf 8a 19 06 3d 50 c6 08 be 3b 8b f6 3e
       -1.44487 0.0327392 -0.133569 0.481531
0002a0 5c 01 49 bf bd c6 2e be 96 cc e1 3e cf 67 30 3e
       -0.785177 -0.17068 0.441014 0.172271
0002b0 31 00 79 bd 47 54 74 bf fc a9 49 bf 91 9a 1a 3f
       -0.0607912 -0.954411 -0.78775 0.603921
0002c0 b6 3b 8a bd 54 35 01 c0 66 be fb be 77 12 31 3d
       -0.0674967 -2.01888 -0.491687 0.0432305
0002d0 b3 24 ac bf 04 ae d3 3e aa 28 56 bf 7e 02 80 be
       -1.34487 0.413437 -0.836558 -0.250019
0002e0 c8 bc 09 3d c0 5b 7c 3f 2f f9 8f be 9b fe cc 3e
       0.0336273 0.985775 -0.281198 0.40038
0002f0 6e 26 b0 3c 31 7c 8c 3f 4a 96 67 bf 7f ef cb bd
       0.0215027 1.09754 -0.904637 -0.0995779
000300 e8 be 28 bf 0f 64 19 bf 11 38 2e bf 3b ce 08 bd
       -0.659163 -0.599183 -0.680543 -0.0333998
000310 54 a9 99 bf f1 bc 84 be be 6a cd bf 75 1f c8 bf
       -1.20048 -0.259254 -1.60482 -1.56346
000320 80 2b a5 3f 4c 4b 51 3c d7 ed bd 3c 3a b0 10 3f
       1.29039 0.0127743 0.0231847 0.565189
000330 e0 22 28 38 f2 b0 0c 3f 9a 27 cf be c6 e6 be bd
       4.00868e-05 0.549575 -0.404599 -0.0932136
000340 6d 39 d7 bd 12 75 75 3d c2 a1 b7 ba 66 83 e4 3e
       -0.10509 0.0599261 -0.001401 0.446315
000350 a0 70 2e 3f 79 3f ee bd 43 c5 98 bf 1d 1a 3b 3c
       0.681406 -0.116332 -1.19352 0.0114198
000360 2d 42 f1 3e 29 95 70 3e eb e3 3d bf b9 51 34 3e
       0.471208 0.234944 -0.741759 0.176093
000370 87 88 83 be 65 39 6d 3f 66 84 bf be 9c a4 11 3f
       -0.256901 0.926657 -0.374057 0.568918
000380 8d 62 e5 bf 26 c4 08 3f ac 70 4b be 8c 50 27 bd
       -1.79207 0.534243 -0.198672 -0.0408483
000390 1f d8 f1 bd 8d 83 26 3d 86 75 1f bf d8 d4 49 be
       -0.118088 0.0406528 -0.622887 -0.197101
0003a0 f5 4e 81 bb d4 c2 db 3c 7b 24 af 3c f8 19 cf be
       -0.00394618 0.0268263 0.0213797 -0.404495
0003b0 6a 68 3f 3f 7b dc 57 3e cd dd 78 bc 4d 31 17 3e
       0.747687 0.210802 -0.0151896 0.147649
0003c0 8f e1 09 bf 41 bc f6 be cf 11 0d bf 73 91 8c bd
       -0.538598 -0.481905 -0.551053 -0.0686368
0003d0 4e 7a a7 3e 4b ab 9d 3f aa b9 64 3f 44 ec 82 3d
       0.327105 1.23179 0.893458 0.0639272
0003e0 e1 d1 12 bf b4 aa cd be f8 a5 d6 be 47 e9 52 bc
       -0.573515 -0.401693 -0.419235 -0.012873
0003f0 99 8e 6f bc 85 96 15 bf e2 5b 78 be cf d8 e7 3e
       -0.0146214 -0.584328 -0.242538 0.452826

Operation_3_Add_B f4 [50]
000000 90 14 c5 bf b4 22 aa bc e7 5a 8f bc cb db c5 bf
       -1.53969 -0.0207685 -0.0174994 -1.54577
000010 0b a2 44 3d cf 86 04 3f 6b 1c 3b 3d 23 da 1a bf
       0.0480061 0.517682 0.0456814 -0.604891
000020 c4 77 c2 bf 69 c4 10 3f e3 66 9d bc 8d b4 04 3e
       -1.51928 0.565497 -0.0192141 0.129595
000030 84 73 57 3c 41 d8 d9 3e b9 36 94 3f c3 40 fc bc
       0.0131501 0.425478 1.15792 -0.0307926
000040 95 f1 df 3e 9a ea 79 be b9 a7 1b be 30 d6 77 bd
       0.43739 -0.244059 -0.152007 -0.060507
000050 b1 c0 f7 3d e4 2c cc bf 02 81 ae be 43 e7 e5 bf
       0.120973 -1.59512 -0.340828 -1.79612
000060 14 eb ac 3e e3 c2 c5 bf 0f f0 28 bf 30 fc 79 bb
       0.337731 -1.54501 -0.659913 -0.00381447
000070 f8 54 36 3f 97 41 90 bc b9 e2 46 3f 50 36 91 bf
       0.712234 -0.0176094 0.776897 -1.13447
000080 2f 4f ef 3e b2 84 35 3f eb 65 e5 bc f5 2e 0e 3f
       0.467401 0.709056 -0.0280027 0.555404
000090 54 8c fb be 45 d4 9c be 69 bf 5a bc 7c d4 df bd
       -0.491305 -0.306307 -0.0133513 -0.109292
0000a0 e2 e4 de 3d df 70 a7 3e af 25 fc 3e 0f f1 5f 3e
       0.108835 0.327033 0.492475 0.218693
0000b0 11 1d 36 3f 6e c0 cb bf 8b 06 bf bd bc c9 1f 3e
       0.711381 -1.59181 -0.0932742 0.156043
0000c0 28 d6 31 3f ff 3e bb bf
       0.694674 -1.46286

Operation_4_MatMul_W f4 [50, 50]
000000 99 84 b3 be d9 09 bf be 8e 5b 64 3f 34 a0 7a bf
       -0.350621 -0.373122 0.892022 -0.979007
000010 c0 b0 ac 3e ea 3f 4b be 56 bc 29 3f ba cc 1f bd
       0.337286 -0.198486 0.66303 -0.0390136
000020 3d 9e f6 bd ce 19 41 be b6 b3 84 3d 03 e1 74 3d
       -0.120419 -0.188575 0.0647959 0.0597849
000030 16 4b 71 3e f2 ba b9 bd a7 a2 42 3c a2 61 41 3e
       0.235638 -0.0906886 0.0118796 0.188849
000040 98 ee 5b 3a 11 01 0f bf 0d 54 be 3e 33 f7 35 bc
       0.000838974 -0.55861 0.371735 -0.0111063
000050 c1 1c 41 3f a7 fb ca bc 1e fa 2a 3f 9f 1d f0 be
       0.754345 -0.0247782 0.667879 -0.468976
000060 a9 bc a9 bf ad 0d 3a bd 5d a9 17 3e 23 f7 c4 3e
       -1.32607 -0.0454232 0.148107 0.384698
000070 bf 0e cc be 8a 90 1a 3e 29 06 04 bf 60 3c ab be
       -0.39855 0.150942 -0.515719 -0.334445
000080 a5 67 8a 3d 11 39 2d be 29 f9 02 bd 4a 46 e6 be
       0.0675805 -0.169163 -0.0319759 -0.449755
000090 87 64 ad bd 26 de a6 3c fd 44 aa 3d 51 f8 bc 3e
       -0.0846644 0.0203696 0.0831394 0.369082
0000a0 49 ec 64 bd a4 e3 4a be 05 6b 94 be 2f bf 53 be
       -0.0558894 -0.198134 -0.289879 -0.206784
0000b0 9e 06 84 3e cb 3a 12 3d d3 4c bf be 77 bb ee be
       0.257863 0.0357006 -0.373633 -0.466274
0000c0 4a 95 a0 be 54 1e 61 bf 77 09 58 bd b9 1b 24 3d
       -0.313639 -0.879369 -0.0527434 0.0400655
0000d0 a3 2e 25 bb 7a ae 4a bd 9c 6d 2e 3d f6 90 1a 3d
       -0.00252048 -0.0494828 0.042585 0.0377359
0000e0 a5 98 e8 3c e7 e4 65 bd 9d 55 35 3d fd 6f 20 3d
       0.0283931 -0.0561265 0.0442711 0.0391693
0000f0 14 36 cd bc f5 0d 11 bd d1 97 39 bd 27 83 e3 bc
       -0.0250502 -0.0354137 -0.0453108 -0.0277725
000100 a8 83 26 3d b0 89 10 bc f0 cc 3a 3c 68 e3 ed bc
       0.0406529 -0.00882189 0.0114014 -0.0290391
000110 38 7b 11 3d c7 a0 93 bc 0c d3 d2 3c af 30 33 3c
       0.0355179 -0.018021 0.0257354 0.0109369
000120 59 86 18 3d e8 c6 0f bd c6 ae 23 bd 71 2b b3 bc
       0.0372375 -0.0351018 -0.0399616 -0.0218713
000130 90 20 8b 3c 4e d0 8b bc 65 7a b8 bc f8 cc 2b 3b
       0.0169833 -0.0170671 -0.0225193 0.00262147
000140 2f 4f 27 bd ad e0 d2 3c 23 38 44 bd a6 ed 24 bd
       -0.040847 0.0257419 -0.0479051 -0.0402657
000150 25 13 e6 bc 8c 4d 86 bc 11 99 08 bd 5f 3d d3 3c
       -0.0280853 -0.0163944 -0.0333491 0.0257861
000160 39 27 76 3b 39 df 00 3c 2e f9 c4 bc 3e 13 90 bc
       0.003756 0.00786572 -0.0240446 -0.0175873
000170 47 75 3a 3c a3 d9 0b bd 3a 50 12 bc 16 61 94 3c
       0.0113805 -0.0341431 -0.00893026 0.0181127
000180 51 75 1f 3c a7 96 2d bd 99 07 d5 bc b4 27 dc 3c
       0.00973256 -0.04238 -0.0260046 0.0268744
000190 63 88 d2 bc 81 e0 f9 ba 63 b2 3d bd f4 18 e5 3c
       -0.0256998 -0.00190641 -0.0463127 0.027966
0001a0 af 68 a9 3c 0c 6a 09 3d f5 65 08 bc d4 17 f8 3c
       0.0206798 0.0335484 -0.00832509 0.0302848
0001b0 58 16 51 bd 62 31 0a bd 3d b9 e6 bc f1 12 f7 3c
       -0.0510467 -0.0337385 -0.0281645 0.0301604
0001c0 3c b9 8b bc 79 b4 4c 3c 08 d3 e6 3c d9 d1 93 bb
       -0.0170561 0.0124942 0.0281768 -0.0045111
0001d0 a3 6c 5b 3c 5d db 20 3d 80 8e a0 3c 15 c4 20 bd
       0.0133926 0.0392717 0.0195992 -0.0392495
0001e0 00 6c c4 3a fa c2 da bc 3c f8 29 3d db 85 e6 bc
       0.00149858 -0.0267043 0.0414965 -0.02814
0001f0 d7 68 b9 bc b1 8f 09 bd b7 63 0a bd 4e 41 1f bb
       -0.022633 -0.0335843 -0.0337865 -0.00243004
000200 b7 2a df 39 36 f6 36 bc 99 a3 a2 bc bb 0b d6 3a
       0.000425657 -0.0111671 -0.0198534 0.00163304
000210 20 98 82 bb 14 57 ba bc fd c6 cd 3c dc 3b b4 bc
       -0.00398542 -0.0227466 0.0251193 -0.0220012
000220 5e df a0 3b f0 d8 b4 bc 4b fe 0c 3d b3 d9 07 3c
       0.00490944 -0.0220761 0.0344222 0.00829165
000230 7b 93 95 3c b8 df 26 3d 21 ef 11 3c fe 7c 40 3d
       0.0182588 0.0407407 0.00890711 0.0469942
000240 55 64 d9 3c 5d 87 aa bc 67 86 28 bd af 22 a3 3c
       0.0265371 -0.0208165 -0.0411438 0.019914
000250 9f 55 8b bc 99 34 01 3d a5 4b 63 bf da 1d d2 3d
       -0.0170086 0.0315443 -0.887873 0.102596
000260 a2 e6 a5 3d 0f 97 a4 bf 9e ea c8 be fc a5 9a bd
       0.0810063 -1.28586 -0.392415 -0.0755119
000270 32 3a 24 3f bc cb 25 3e d3 4e cd 3d b0 72 98 bd
       0.641513 0.16191 0.100248 -0.0744375
000280 6c c2 c7 bd 4d 19 93 3c 28 c1 91 bc e8 a5 02 be
       -0.0975388 0.0179564 -0.0177923 -0.127586
000290 3e 3e 31 3e 0a dc 82 3e 0d a9 8a be 3a cc 73 3f
       0.173089 0.255585 -0.270821 0.952335
0002a0 80 45 ee 3e 4b 59 66 be c8 99 ce 3e 2c 44 07 3d
       0.465374 -0.22495 0.403517 0.033024
0002b0 28 b5 67 be cb 13 d0 be 4a a4 0a c1 fb bd 9e bd
       -0.226277 -0.406401 -8.66511 -0.0775108
0002c0 0f 63 4e bf 71 ab 10 3f 1f a9 b4 3d b3 29 7f bf
       -0.806199 0.565116 0.0882132 -0.99673
0002d0 84 65 0c be 6d fe 1f bf 13 ec 04 3d a9 15 a6 be
       -0.137106 -0.624976 0.0324517 -0.324384
0002e0 26 73 94 3e 38 49 b3 3e b4 00 2d 3e 68 06 d9 be
       0.289941 0.350168 0.168948 -0.423877
0002f0 6d 26 b6 bb 7f db 33 3e 55 c3 59 bd 76 fd e2 3e
       -0.00555878 0.175642 -0.0531648 0.44334
000300 64 79 67 3e 61 fb a1 3e d4 2b 1d 3f 7f 4d 82 bf
       0.226049 0.316371 0.61395 -1.01799
000310 b0 37 b9 3e 71 56 14 3f c8 78 30 3f fa 7e ca 3d
       0.361753 0.579444 0.689343 0.098875
000320 4b 3b ad be e6 3d de be 99 9d 21 bf 62 db e2 be
       -0.338343 -0.434066 -0.631311 -0.44308
000330 53 20 53 be 51 e3 b4 bd 42 79 13 3f 98 ee bf 3d
       -0.206178 -0.0883242 0.576069 0.0937168
000340 18 9f 5d 3d e2 22 47 be 17 d9 3e be c9 8e 72 3d
       0.0541068 -0.194469 -0.186375 0.0592182
000350 e7 50 d6 be ed 99 09 bf a8 aa 00 bf c8 0c 44 3f
       -0.418586 -0.537505 -0.502604 0.76582
000360 79 01 de 3e 7e 18 2d 3f cb 4a 17 bf 8c 67 88 be
       0.433605 0.676155 -0.590985 -0.266415
000370 46 24 3a bf a7 7a ba 3e 2e 73 ca bf 6f 0c 55 3f
       -0.727116 0.364217 -1.58164 0.832221
000380 f0 be 82 be a3 01 d4 bf f7 3a 19 3f 58 e7 a8 3f
       -0.255363 -1.6563 0.598556 1.31956
000390 66 30 f6 3e d7 2f b0 bf 22 de 06 bf bd 53 41 3f
       0.480838 -1.37646 -0.526827 0.755184
0003a0 d9 ea 22 be de 58 48 bf 94 f5 fb 3e 6d 6a 0a 3d
       -0.159099 -0.782606 0.492108 0.0337929
0003b0 62 15 b7 be 4c 35 37 bf 58 e5 52 3e aa 2b 5d c0
       -0.357585 -0.715657 0.205953 -3.45579
0003c0 7c 54 cd bc 21 7e 19 bd ec 2e 60 be 01 13 d0 3e
       -0.0250647 -0.0374738 -0.218929 0.406395
0003d0 fd 79 a4 3d 55 a4 0c c0 c8 ea 42 c0 a0 35 df 3d
       0.0803108 -2.19753 -3.04558 0.108989
0003e0 30 d5 58 3f 7a 52 de be c3 46 75 bf 70 7d 88 3d
       0.847003 -0.434223 -0.958111 0.0666455
0003f0 f9 2f 50 bf fa ea 6f 3d 3b fb 0a be bc 72 a2 3d
       -0.813232 0.0585737 -0.135724 0.0793204

Operation_4_Add_B f4 [50]
000000 a5 2e 71 bf 71 ac 4b bf 95 d5 04 bf 25 ec ab 3e
       -0.942118 -0.7956 -0.518884 0.335786
000010 54 1a c9 3e 70 77 12 3f c8 d2 87 bf b7 25 76 bf
       0.392779 0.572135 -1.06112 -0.961513
000020 37 39 0c be b3 ea a7 3f d2 aa 56 3f 09 50 27 3f
       -0.136937 1.31185 0.838544 0.653565
000030 fa 7b 79 be ed 46 df 3e b3 b1 a2 3e 98 75 c5 3d
       -0.243637 0.436088 0.317762 0.0964157
000040 0b 0d 2c 3f d9 ee 6a 3f 7a 19 d1 bf eb 73 85 be
       0.672074 0.917707 -1.63359 -0.26065
000050 85 99 02 bf fa b7 1b 3e af 25 ec 3e d5 97 95 3e
       -0.510155 0.152069 0.461225 0.292174
000060 8b 6e 65 bf 13 9b 97 3f 41 9b 94 be 2b 4d d2 be
       -0.896218 1.18442 -0.290247 -0.410745
000070 55 a0 3e bf 78 7d fe 3e 44 6e 58 40 db 6a 36 bf
       -0.744634 0.497051 3.38173 -0.712568
000080 bd e4 ff be 0e 6b 2e bf 08 8f 04 c0 d2 a6 7e bf
       -0.499792 -0.681321 -2.07123 -0.994733
000090 4c 51 8e 3d d7 12 72 be 43 00 60 bf 52 49 23 c0
       0.069491 -0.2364 -0.875004 -2.55135
0000a0 c5 d6 fd bc 17 0e 84 bf c6 dc 81 bf c7 f4 54 be
       -0.0309862 -1.03168 -1.01455 -0.207965
0000b0 16 50 3c bf d2 a7 09 bf cd af d2 bf f0 8a 48 bf
       -0.735597 -0.537717 -1.64599 -0.78337
0000c0 56 49 04 3e 19 a3 3a bd
       0.129186 -0.0455657

Operation_5_MatMul_W f4 [50, 50]
000000 78 46 0b be 79 cc 60 be 27 f8 06 be 79 73 bd bd
       -0.136011 -0.21953 -0.131806 -0.0925054
000010 f2 27 0a 3d c3 b8 db 3d d6 ad 59 bd d0 5e b5 be
       0.0337295 0.107286 -0.0531443 -0.354239
000020 72 50 96 bf 44 ca aa bc bc eb 84 3e 1d c9 85 bf
       -1.17433 -0.0208484 0.259611 -1.0452
000030 b6 f7 29 3d 8a 42 86 bd 7a a8 1d 3e 30 9c 6b 3c
       0.041496 -0.0655566 0.153963 0.0143805
000040 98 16 25 3e 03 22 04 3e ab 52 84 bc 3e 22 a6 be
       0.161219 0.129036 -0.0161527 -0.32448
000050 0b d7 be bc bf 1b 81 3c 60 77 fa bd ff e9 b6 3e
       -0.0232959 0.0157603 -0.122298 0.357254
000060 d2 a6 92 be 6c 26 fa bc cd 72 d1 3e 47 58 84 bd
       -0.286429 -0.0305359 0.409079 -0.0646215
000070 cc 62 d2 3e 05 bf 52 bd 3b 2f ba bc 50 fd 23 3e
       0.41091 -0.0514517 -0.0227276 0.160146
000080 a8 0a 5c bd f1 80 f2 bd 36 4a cd 3b d6 ad fe bd
       -0.0537211 -0.11841 0.00626495 -0.124355
000090 5c 8d 04 bf ba f8 fb 3d 44 2b 9c bd ee 3f ca be
       -0.517782 0.123033 -0.0762544 -0.395019
0000a0 74 5d 38 be cb f8 cf 3e 8e 6d 23 3d db 52 17 be
       -0.180044 0.406195 0.0398994 -0.147777
0000b0 2d 42 21 3e 44 30 a6 3e 8e 61 a9 bc b7 08 f1 bc
       0.157479 0.324587 -0.0206764 -0.0294231
0000c0 75 b1 29 be b1 4e 25 3e 2c 9b a9 be e3 e0 02 3e
       -0.165716 0.161433 -0.331262 0.127811
0000d0 af b4 6c 3e 28 48 8c be 28 45 0b bd 58 ce d6 bb
       0.231158 -0.273988 -0.0340015 -0.00655536
0000e0 02 56 b8 bd 1b 48 57 3e 03 41 48 bf 9a 3f 8e 3e
       -0.0900078 0.210236 -0.782242 0.277829
0000f0 b6 2f 98 3e cc 45 74 bf 12 da f2 bd 60 00 c1 be
       0.297239 -0.95419 -0.11858 -0.376956
000100 76 c1 90 be 59 c2 3a be a6 d5 98 3e e4 9f d9 bd
       -0.282726 -0.182382 0.298505 -0.106262
000110 90 d9 d1 be 14 e9 e6 3e 58 e2 99 be 1d 8f 89 be
       -0.409863 0.450997 -0.300555 -0.26867
000120 7f 02 ae bd a4 c2 1c bf 74 b3 1b 3f 30 e0 3b bd
       -0.0849657 -0.612345 0.608207 -0.0458681
000130 c5 92 b2 bd 87 32 18 bf b4 68 8b bc fa cf a2 be
       -0.087194 -0.594521 -0.0170177 -0.317993
000140 de 38 39 be 42 d9 4a 3c 63 46 58 3e 03 22 84 bd
       -0.180881 0.0123809 0.211206 -0.064518
000150 bb 9c 92 be 95 0f 31 3e c7 2e 21 be 3a 69 0b bd
       -0.286352 0.172911 -0.157405 -0.0340359
000160 fd f5 ca 3e 47 93 26 bd d3 ae 78 3c eb c8 45 bf
       0.396408 -0.0406678 0.0151784 -0.772597
000170 ec a2 d0 be 97 73 81 3f 6f 10 7d be 5a 7f f3 be
       -0.407493 1.01134 -0.247133 -0.475581
000180 fb 3c 66 3e 0d 1d 0b be 9a b4 11 3f 19 58 27 3e
       0.224842 -0.135853 0.569162 0.163422
000190 6c bb 1e 3c 81 07 1e 3f 75 1f 84 bf 39 0e dc 3d
       0.00968824 0.617302 -1.03221 0.107449
0001a0 00 da 00 bd 48 8a e8 bd ff 92 d4 3d 74 5e 7f 3f
       -0.0314579 -0.113545 0.103796 0.997535
0001b0 b0 55 8e 3f c0 26 d3 be f2 ea a4 3f 19 a9 47 be
       1.11199 -0.412405 1.28842 -0.194981
0001c0 22 c3 ea bd 9a eb 88 3f 84 b8 22 3e 3e ec c5 3e
       -0.11463 1.06969 0.158907 0.386568
0001d0 68 5c b8 bf d4 0d ac 3e 09 5f be 3d 79 03 cc be
       -1.44032 0.336043 0.0929547 -0.398464
0001e0 5c 3c fc bd 28 f1 09 3f 21 f2 4c 3c 14 b0 ad 3e
       -0.123162 0.538836 0.0125089 0.339234
0001f0 4f 40 2f c0 9f e9 b5 be eb ad 71 bf f8 a6 e9 3d
       -2.7383 -0.355298 -0.94406 0.114088
000200 0c e6 03 bf 75 91 92 be 08 b1 0e 3d d2 e5 dd 3e
       -0.515229 -0.286266 0.0348368 0.433394
000210 0f f0 f4 3e 1d 08 24 bd 43 ec c7 bd d2 00 0e 3e
       0.478394 -0.0400468 -0.0976186 0.138675
000220 23 dc 94 be 69 b0 64 3d ac 72 89 3e 81 ec 81 bf
       -0.290742 0.0558323 0.268453 -1.01503
000230 49 67 f0 be 5b 7c 8a bf 9d 2f 36 be 73 30 4f 3f
       -0.469538 -1.08192 -0.177916 0.809333
000240 26 e0 77 3e 43 90 23 bf 9e 5c 33 be 07 b6 8a 3d
       0.242066 -0.63892 -0.175158 0.06773
000250 1d 03 8a 3e f6 0d 4c 3c 7d 23 da bd b4 93 29 3f
       0.269555 0.0124545 -0.106513 0.66241
000260 8e 76 8c be 98 52 32 3d 7b 25 b9 bb 77 0c f2 bb
       -0.274342 0.0435358 -0.00565022 -0.00738674
000270 e4 85 a4 3d 0c cd fd be 5f 6d 76 bd 29 9c 78 3d
       0.0803335 -0.495705 -0.0601629 0.0606958
000280 ee 5f 93 c0 77 87 cc 3e 40 df 1e bf fd 86 09 3e
       -4.60546 0.399471 -0.620594 0.134304
000290 3c 16 db be 7f 37 18 3d 52 f1 1f 3e 09 e5 b7 3b
       -0.427904 0.0371623 0.156194 0.00561202
0002a0 5b 3f dd 3d 88 84 87 3e 59 91 0c bd 23 bc 1d be
       0.108031 0.264683 -0.0343183 -0.154038
0002b0 ad a7 31 bd ab 4a c1 3d eb ab d3 be 26 3d 88 ba
       -0.0433728 0.0943807 -0.413421 -0.00103942
0002c0 f6 b0 ac 3d d7 e0 88 bd 3d 10 39 3e 6a 87 83 bf
       0.0843219 -0.0668351 0.180726 -1.02757
0002d0 f6 c3 1e 3d be db 4c 3e 57 b2 2f c0 68 74 ac bc
       0.0387611 0.200057 -2.74526 -0.0210516
0002e0 73 4c d6 3d 61 32 75 3e 0c 1f 81 3e c8 5d 14 3e
       0.104638 0.23945 0.25219 0.144889
0002f0 b0 5d 35 3d 8b 0c 7c 3d c9 e7 b5 bd 51 bd 9d 3e
       0.0442788 0.0615354 -0.088821 0.308085
000300 d3 62 35 3d 70 b6 f1 bf d6 41 74 bd dc 82 3d 3f
       0.0442837 -1.88838 -0.0596331 0.740278
000310 5b 42 2e be 59 83 9c 3c 32 59 04 3f 04 c9 3b 3c
       -0.170175 0.0191056 0.516986 0.0114615
000320 5b aa 8c bd 83 da d2 bb cd 41 eb 3c 99 f0 1b be
       -0.0686843 -0.00643474 0.0287179 -0.152285
000330 62 3e 4a bd d2 e1 21 be 30 b9 31 be 08 73 fb bd
       -0.0493759 -0.158088 -0.173558 -0.122778
000340 d8 47 d7 3f 6e fa 2b 3f 1e a3 2c 3f 73 66 5f 3f
       1.68188 0.67179 0.674364 0.872657
000350 55 db 3d 3e 47 3f 15 bd 68 24 82 3d ec 15 8e 3e
       0.185407 -0.0364373 0.063546 0.277511
000360 30 3d 9b 3d c0 23 1a 3e f1 64 f7 3d 71 58 1a 3e
       0.0758003 0.150527 0.120798 0.150728
000370 28 10 56 bd 4d f2 28 bd 7b 9f 9a bd d9 c5 8e 3d
       -0.0522615 -0.0412467 -0.0754995 0.0697133
000380 90 f6 87 3e 9b 55 3f 3d 2a 90 a9 3e 79 5a be 3e
       0.265553 0.0467125 0.331178 0.371784
000390 a4 7c 57 bd fd 66 62 3e 47 ec 2e 3d ba b9 9d bc
       -0.0526091 0.221096 0.0427058 -0.0192536
0003a0 fb 76 f2 3d 7d b3 0d be 1b 76 e9 3c 15 e1 e6 3d
       0.118391 -0.13838 0.0284987 0.112734
0003b0 25 1f 2b 3e 4d ba 6d bd f0 2b cb 3d 6c 78 1a 3e
       0.167111 -0.058039 0.0992049 0.15085
0003c0 df 2c ef bc 0d 80 42 3d e5 48 22 3d 02 f5 ae be
       -0.0291962 0.0474854 0.0396203 -0.341713
0003d0 71 74 75 3d bc b9 9e bd e8 09 75 bd 9d 13 1b 3e
       0.0599255 -0.0775027 -0.0598239 0.151442
0003e0 9e cf d0 be f6 b7 44 3e df 4f 11 c0 8d 7a 10 3f
       -0.407834 0.192108 -2.2705 0.56437
0003f0 07 78 0e 3f ab b2 8f c0 16 2b 4f bd af d2 2d 3e
       0.556519 -4.49056 -0.0505782 0.169749

Operation_5_Add_B f4 [50]
000000 3b df 45 c0 b0 1b ca bf a3 76 3f bf ef 3b d6 3e
       -3.09175 -1.57897 -0.747904 0.418426
000010 66 8a 94 bc d1 3c 38 3f 78 44 35 3e 7a 19 85 be
       -0.0181324 0.719678 0.177019 -0.25996
000020 b6 f8 34 c0 fc e0 ec be 70 7c 59 c0 fd 9f c7 3f
       -2.82768 -0.462654 -3.39822 1.55957
000030 6d 55 76 3f 4e 28 1e c0 42 ec 2c bd ea 97 98 3e
       0.962241 -2.47121 -0.0422175 0.298034
000040 6a a6 1f bf 64 96 1d be 0f 81 43 be d3 d8 de be
       -0.623633 -0.153894 -0.190922 -0.435248
000050 a0 e2 e8 3e c7 d8 49 3e 7b 1c e1 3c ed d8 c4 bf
       0.454854 0.197116 0.0274794 -1.53787
000060 88 68 cc 3f a5 14 b0 bf ef ff 27 3f 05 03 5e 3d
       1.59694 -1.37563 0.656249 0.0542021
000070 f3 cb 30 bf 89 29 f1 bd 03 79 26 be 6e a6 42 bf
       -0.690612 -0.117755 -0.162571 -0.760352
000080 5d 6f a3 be b5 16 ee be 38 85 05 3e 03 65 6e 3d
       -0.319209 -0.465017 0.130391 0.0582018
000090 eb ad d5 3f c4 7a d3 be c8 7c 70 bf ae d8 ff bf
       1.66937 -0.413046 -0.939404 -1.9988
0000a0 3b fe e3 3e 73 2e a9 bf 9f 75 e5 3e f6 56 8e bd
       0.445299 -1.32173 0.448163 -0.0695018
0000b0 1a f9 ac 3e 86 e6 da 3f bd 1d d5 3f ba 83 0c 3f
       0.337838 1.71016 1.66497 0.548885
0000c0 e2 91 04 bf e4 49 2a 3f
       -0.517851 0.66519

Operation_6_MatMul_W f4 [50, 50]
000000 57 21 15 bf 6c ea 0c bf 6a 4a 77 bd 3a b4 c3 bd
       -0.58254 -0.550452 -0.0603737 -0.0955586
000010 90 da dc 3e 65 70 84 bd 4a 0d 6d bc 72 cb 02 bd
       0.431355 -0.0646675 -0.0144685 -0.0319323
000020 87 16 39 c0 ad 86 90 3f 19 ac 1c bf 8f 7d aa bd
       -2.892 1.12911 -0.612001 -0.0832473
000030 e6 ca 28 3f 3a 08 56 bf 00 6f 01 3e 81 78 7d c0
       0.659346 -0.836063 0.1264 -3.96048
000040 f0 87 9f bc fa d1 f0 3c b1 c3 d8 3d a5 24 35 bd
       -0.019474 0.029397 0.105842 -0.0442244
000050 ce c7 1d c0 a6 12 b9 3c 35 07 d8 bf 5f eb 82 be
       -2.46532 0.0225919 -1.68772 -0.255702
000060 d5 77 5e be 35 34 94 3c 38 54 c2 bc b3 07 6a be
       -0.217254 0.0180913 -0.0237218 -0.228545
000070 26 aa 0f bf a3 21 23 be 8e 0d b8 bc 54 f5 7c bd
       -0.56119 -0.159308 -0.0224674 -0.0617574
000080 ac 8e 68 bf 23 67 79 c0 60 21 93 3e ad 34 2d c0
       -0.908427 -3.89692 0.287364 -2.70634
000090 fb 5d d8 ba 10 f7 47 bc 58 a8 b5 be 16 fb 2b bf
       -0.00165075 -0.0122049 -0.3548 -0.6718
0000a0 0a c4 46 3c 58 1c d2 bf 49 65 aa bd 7d e1 3a bc
       0.0121317 -1.64149 -0.083201 -0.0114063
0000b0 06 63 b4 bd 29 b4 50 bf c0 31 95 3c 91 0a 27 c0
       -0.0880795 -0.815249 0.0182122 -2.61002
0000c0 c6 3b 36 3d e5 26 42 bf 63 0b 4f c0 cb d6 0c c0
       0.0444906 -0.758406 -3.23507 -2.20061
0000d0 59 34 fd bf 0c 29 15 3d e2 cc e3 bf d0 15 9b 3c
       -1.97816 0.0364161 -1.77969 0.0189313
0000e0 3e ae 98 c0 33 19 4e 3d fe 47 2e bf 73 30 3b bf
       -4.77127 0.050317 -0.680786 -0.731208
0000f0 6f b8 03 bf 55 d3 9a 3c de 93 ba c0 80 48 03 c1
       -0.514533 0.0188996 -5.83055 -8.2052
000100 c5 8f 01 bf c2 51 87 c0 e6 da 01 3d 25 6b 8e 3d
       -0.5061 -4.22873 0.0317029 0.0695403
000110 5b 59 89 3a ac 5e 34 3d 57 eb ec be df c3 85 3d
       0.00104789 0.0440356 -0.462733 0.065315
000120 02 9f b3 bf 66 f5 4a bf 22 c3 3a 3e a7 5c 01 bd
       -1.40329 -0.792807 0.182385 -0.0315825
000130 eb fd 86 3d c9 03 91 3c e3 4a 62 3c e7 1a 16 be
       0.065914 0.017702 0.0138118 -0.146587
000140 98 33 ba 3b 1d b9 24 3d 2e ae c9 3e 8e d4 31 bc
       0.00568242 0.0402156 0.393907 -0.0108539
000150 5c c6 5d be 0c 07 ce bf 66 24 2d 3a d7 2a 26 3d
       -0.216577 -1.60959 0.000660485 0.0405682
000160 c7 63 9e bf f0 23 8d bd 0a 75 e4 3a 0c 06 ef be
       -1.23742 -0.0689162 0.00174299 -0.466843
000170 d5 24 38 bd 75 19 c4 3b a8 6f e9 be 30 2a ac c0
       -0.044957 0.00598448 -0.45593 -5.38015
000180 bf 95 71 bd 94 30 93 bf 2b 77 d5 3b a3 5c 3a be
       -0.0589807 -1.14992 0.00651445 -0.181994
000190 37 e0 d3 3d a8 c4 29 3f 29 e7 0b be 84 13 0c 3d
       0.103455 0.663157 -0.136624 0.0341983
0001a0 85 25 8e 3f 0f f8 97 bc c9 1f 80 bf 17 e7 b9 3c
       1.11052 -0.0185509 -1.00097 0.0226932
0001b0 6e 4c 87 bf 63 62 99 c0 dd cd 0b bf c6 16 8e bf
       -1.05702 -4.79326 -0.54611 -1.11007
0001c0 18 46 75 bd 6f 84 19 3f 39 d6 a7 c0 1c cd 61 bf
       -0.0598813 0.599677 -5.2449 -0.882036
0001d0 63 64 a4 bc 77 bc 89 bd 2a 6f 27 bd 1e 50 8e bf
       -0.0200674 -0.067254 -0.0408775 -1.11182
0001e0 a3 23 d9 bf 3e 36 73 3d 4b 08 a1 bd 58 ed 75 3c
       -1.6964 0.0593779 -0.0786291 0.0150102
0001f0 72 50 bd c0 95 29 1e bf 21 3a 24 3e ed c7 cc bd
       -5.91607 -0.617822 0.160378 -0.0999907
000200 ce 88 f2 3d ee e7 89 3d 7d c3 8e bc ce dd ee bd
       0.118425 0.0673369 -0.0174272 -0.116634
000210 03 10 d2 bc eb 60 33 bd cc 8a 77 3d 06 43 c2 3c
       -0.0256424 -0.0437936 0.0604351 0.0237136
000220 0e 2d 13 3c 68 08 cf be 9b 51 78 3d 89 fb d9 bc
       0.00898291 -0.404361 0.0606247 -0.0266092
000230 a3 94 d0 bd 54 3a f0 bf b0 03 e7 bd 5e 0b af bd
       -0.101846 -1.87678 -0.1128 -0.0854709
000240 11 b7 74 bd 73 4b 17 3f d3 12 3b 3e eb 73 b4 c0
       -0.0597449 0.590995 0.182689 -5.63915
000250 ea cf 9e bd 71 ac ab 3e bd ce bc 3c 7d cb 02 40
       -0.077545 0.3353 0.0230478 2.04367
000260 16 16 1c be 22 8b 04 3e 77 f5 ea 3e af 21 78 be
       -0.152428 0.129437 0.458904 -0.242316
000270 2d 5e 00 bf 74 99 fa bd 51 4e 08 c1 b8 94 23 bf
       -0.501437 -0.122363 -8.51912 -0.638988
000280 fc fb bc 3e a8 3a 64 be d2 35 a3 3f fe d4 d8 bf
       0.36911 -0.22288 1.27508 -1.694
000290 12 f8 63 3e f2 cd ca 3f 84 37 9a 3c ac 38 25 be
       0.222626 1.58441 0.0188253 -0.161349
0002a0 a8 70 04 3e 16 2e 10 3d b6 2e ed be da 1a 21 be
       0.129336 0.0352002 -0.463247 -0.157329
0002b0 f3 1f 58 40 c4 93 9d bd fb 22 91 bf 85 97 80 3e
       3.37695 -0.076942 -1.13388 0.251156
0002c0 d8 0d 83 be 84 55 8b bd e0 b9 af 3e 91 0a 33 3e
       -0.255965 -0.0680342 0.343215 0.174845
0002d0 f5 2a 72 be 43 c5 90 3e b7 44 f6 3e 4f e5 c4 be
       -0.236492 0.282755 0.480993 -0.384562
0002e0 77 67 d5 3e f4 89 72 c0 b4 52 2d 3d ab cc c4 3d
       0.416805 -3.78967 0.0423152 0.0960935
0002f0 0f 75 c4 bc 76 1a b9 3d a7 5c 21 3d 54 a9 19 bd
       -0.0239816 0.0903825 0.039395 -0.037515
000300 46 ed 3e 3e da 01 77 3d d8 c2 97 bd a2 c3 a2 bd
       0.186452 0.0603045 -0.0741021 -0.0794747
000310 fb 01 34 3d 26 36 3f bf 15 e2 d1 3d 15 36 0b 3f
       0.0439472 -0.74692 0.102482 0.543794
000320 2a 7b 20 bc 99 74 25 3c 6f cd c6 3b 94 2d 37 bd
       -0.00979499 0.0100986 0.00606697 -0.0447212
000330 42 cf 66 bc d4 2a 7a 3c 86 97 1a bc c3 8d 4a 3c
       -0.0140875 0.015269 -0.00943554 0.0123629
000340 79 30 77 bb 9e 36 f4 bc d8 c0 b1 bc 02 d9 46 bd
       -0.00377181 -0.0298112 -0.0216984 -0.0485468
000350 05 0f 78 bc d9 a3 05 3c e9 29 13 3b 52 38 cc 3c
       -0.0151403 0.00815674 0.00224554 0.0249292
000360 65 01 2e 3d 00 1c bb bc d9 a0 a5 3c 10 17 2a bd
       0.0424818 -0.0228405 0.0202183 -0.0415259
000370 d0 9f 32 3b cf f6 68 3c 06 55 99 bc fe 81 72 3c
       0.00272559 0.014219 -0.0187173 0.0148015
000380 1d 8f 99 3c 80 f4 08 3d 10 d8 2c 3b 49 cd e8 3c
       0.018745 0.0334363 0.00263739 0.0284182
000390 e1 c3 f6 bc 72 7d 69 bc 61 56 03 bd ec 20 a5 bc
       -0.0301227 -0.0142511 -0.0320648 -0.0201573
0003a0 35 05 f4 3b 7f a7 04 bd c9 ab 33 bd 68 8c 40 bd
       0.00744691 -0.0323863 -0.043865 -0.0470089
0003b0 b3 14 bf 3c fd aa 32 bd 76 be 24 bd 2f ac 76 3d
       0.0233253 -0.0436201 -0.0402207 0.0602228
0003c0 ab 0f 3f 3d 98 6d 27 bc fc 28 59 bc 21 d1 1f bd
       0.0466458 -0.010219 -0.0132544 -0.0390178
0003d0 19 99 b6 3c df b8 16 3d a2 e2 c9 bc a1 72 61 3b
       0.0222898 0.0367974 -0.0246442 0.00344006
0003e0 4c 75 3c bd f1 6d 55 3c ec 4e bf be 5b 7b 1f 3e
       -0.0460103 0.0130267 -0.373649 0.155744
0003f0 96 a0 55 3d 04 ca 96 3e 47 71 f6 3e fb 59 84 be
       0.0521551 0.29451 0.481333 -0.258499

Operation_6_Add_B f4 [50]
000000 19 c9 ae be 0a 4b e0 bf f4 18 55 be bf 60 37 be
       -0.341378 -1.75229 -0.208103 -0.17908
000010 91 2c ec bf 86 d0 bc 3d 72 6e 43 3e ee b1 f4 3d
       -1.84511 0.0921946 0.190851 0.11948
000020 41 2b 1a c0 82 90 90 c0 dc f6 1d be 52 0a ca bf
       -2.40889 -4.51764 -0.154262 -1.57844
000030 d9 42 6c c0 23 30 6a 3f d0 60 c3 be ca 54 b5 bf
       -3.69158 0.914797 -0.381598 -1.41665
000040 ed 7e f5 3e 9a 75 ab 3d 03 06 19 be c2 c0 f3 be
       0.479484 0.0837204 -0.149437 -0.47608
000050 44 34 04 c0 ae f1 f9 be 8b 1a a4 c0 72 6a a7 be
       -2.06569 -0.488172 -5.12824 -0.326984
000060 61 3b f3 3c 12 f5 22 3e ca c4 2d 3e 6d e2 3c bf
       0.0296914 0.159138 0.169696 -0.73783
000070 b6 4d c1 be ab 77 08 3e 5f 43 f0 3d f9 0c ad 3d
       -0.377546 0.133269 0.117316 0.0844974
000080 af 94 bb c0 bf d4 df bf d7 69 c4 3f 70 22 da be
       -5.8619 -1.74868 1.53448 -0.426044
000090 78 9a 1c 3e 14 08 e3 3e 17 d8 0b bf a9 bc a1 bf
       0.152933 0.443421 -0.546266 -1.26357
0000a0 33 18 53 3e 21 74 5c bf 42 d6 be bd 97 3c 6e 3e
       0.206147 -0.861147 -0.0931821 0.232653
0000b0 55 de a6 3e e2 06 a4 3f 78 5e f2 3e c4 d1 15 be
       0.325915 1.28146 0.473377 -0.146308
0000c0 4c 04 a5 3d 46 b1 dc bd
       0.0805746 -0.10776
