networks/onnx/ACASXU_run2a_3_4_batch_2000.onnx (onnx, 55914 bytes, 15 tensors)

input_AvgImg f4 [1, 1, 5]
0	0x00000000	0.0
1	0x00000000	0.0
2	0x00000000	0.0
3	0x00000000	0.0
4	0x00000000	0.0

Operation_1_MatMul_W f4 [5, 50]
0	0xbe923e5c	-0.285632
1	0xbbe1fd76	-0.00689667
2	0xbc0a2e57	-0.0084339
3	0xbb1e44fa	-0.002415
4	0x3eb8e821	0.361146
5	0xbffdba0a	-1.98224
6	0x3c8897b4	0.0166739
7	0xbe902abb	-0.281576
8	0x3d01a983	0.0316558
9	0xbb263056	-0.00253584
10	0x3d349f0e	0.044097
11	0xbc12f550	-0.00896962
12	0xbff05b6c	-1.87779
13	0xbcd8dbcf	-0.026472
14	0xbaf69548	-0.00188128
15	0x3ee98b2f	0.45614
16	0xbc39841b	-0.011323
17	0x3f09388b	0.536019
18	0xbf1c8638	-0.611423
19	0xbd195e0a	-0.0374432
20	0xbfa3544c	-1.27601
21	0x3d44435c	0.0479158
22	0x3e5515cf	0.208091
23	0xb8a5a3d6	-7.89833e-05
24	0x3cf0ccf2	0.0293946
25	0x3de2b6ae	0.1107
26	0xbd8a8e9a	-0.0676548
27	0xbca9199f	-0.0206421
28	0xbd8ad836	-0.0677952
29	0xba8bb6ad	-0.00106593
30	0xbdfb5958	-0.122729
31	0x3d1d4f66	0.0384058
32	0xbf1f9e28	-0.623507
33	0x3b5a1ec5	0.00332825
34	0x3c8bd76f	0.0170705
35	0xbf8c8366	-1.09776
36	0xbc1dac43	-0.00962359
37	0xbc553a5a	-0.0130144
38	0xbf154014	-0.583009
39	0xbc65251e	-0.0139859
40	0x3c552e30	0.0130115
41	0x3ee86cca	0.453955
42	0xbd0ef77f	-0.034904
43	0x3c35d900	0.0110991
44	0x3c86ba9a	0.0164464
45	0x3d8d943d	0.0691304
46	0xbcbc8415	-0.0230122
47	0x3d757837	0.0599291
48	0xbc30d3dd	-0.0107927
49	0xbf8d41c8	-1.10357
50	0x3db72523	0.0894263
51	0x3f2abc30	0.666934
52	0xbb0add13	-0.00211889
53	0xbdad4159	-0.0845973
54	0xc029f267	-2.65542
55	0xbd218663	-0.0394348
56	0x3f519fb2	0.818843
57	0xbb46406c	-0.00302508
58	0x3c17b345	0.00925905
59	0xbefc0b13	-0.492272
60	0x3e9fe069	0.312259
61	0x3dc68837	0.0969395
62	0x3e37f349	0.179639
63	0x3fab06f7	1.33615
64	0xbf4456a3	-0.766947
65	0x3d299c7c	0.041409
66	0x3da23c43	0.0792165
67	0xbd82cd04	-0.0638676
68	0x3e8e3b69	0.277797
69	0x3d6eb753	0.0582803
70	0xbe070e2c	-0.13189
71	0x3bc9106a	0.00613599
72	0x3ed71e2a	0.420152
73	0xbdeb588e	-0.114915
74	0xbf920d45	-1.14103
75	0x3ec1d8e8	0.378608
76	0x3e45d074	0.193178
77	0x3ea3d662	0.319995
78	0xbd8bd033	-0.0682682
79	0x3eb0fece	0.345694
80	0x3fa952d2	1.32284
81	0x3f3f1583	0.746422
82	0x3e97d242	0.296526
83	0x40018ab1	2.02409
84	0xbe61a650	-0.220361
85	0x3c32bcec	0.0109093
86	0xbd0153a2	-0.0315739
87	0x3e36362a	0.177941
88	0xbd21e6db	-0.0395268
89	0xba803830	-0.000978237
90	0xbdbf0549	-0.0932718
91	0x3f50efbb	0.816158
92	0xbf0565e4	-0.521086
93	0xbe8b3919	-0.27192
94	0xbed4523f	-0.41469
95	0xbfa76c8b	-1.308
96	0xbb8036f2	-0.0039128
97	0xbfabf5d8	-1.34344
98	0x3e622318	0.220837
99	0xbdb38ee6	-0.0876749
100	0xbf041f97	-0.516107
101	0xbf370878	-0.714973
102	0xbc2db03c	-0.0106011
103	0xbf39d713	-0.725938
104	0xbe1ebb34	-0.155011
105	0x3d1ca354	0.0382417
106	0xbebc36fc	-0.367607
107	0x3a85ed95	0.00102179
108	0xbc05da60	-0.00816974
109	0x3f29870e	0.662217
110	0xbb5c2708	-0.00335926
111	0x3e8e831b	0.278344
112	0xbe0ac472	-0.135515
113	0xbea5c1e8	-0.323745
114	0x3f4175e2	0.755705
115	0xbdfeb39a	-0.124366
116	0xbd95dfec	-0.073181
117	0xbeacf1c3	-0.337782
118	0x3dafbc00	0.0858078
119	0xbefd1d8a	-0.494366
120	0x3db5bfa0	0.0887444
121	0xbd741454	-0.0595897
122	0x3c915161	0.017739
123	0xbf0d5e4a	-0.55222
124	0x3f8a171a	1.07883
125	0xbe26c97e	-0.162878
126	0x3f4d51d7	0.80203
127	0xbe4ccab4	-0.199992
128	0xc00292cd	-2.04021
129	0xbe9cb3a2	-0.306058
130	0xbf54c500	-0.831131
131	0xbf3f2b88	-0.746758
132	0xbeb3d33d	-0.351221
133	0xbbc82aa7	-0.0061086
134	0x3eb430d3	0.351935
135	0xbb2d022c	-0.0026399
136	0x3bf41048	0.00744823
137	0xbe9a4181	-0.301281
138	0xbd08b4f5	-0.0333757
139	0xbbe1903e	-0.00688365
140	0x3f832e9d	1.02486
141	0xbf2120d1	-0.629407
142	0x3f269814	0.650758
143	0xbf9d8bd6	-1.23083
144	0x3eaedb94	0.341519
145	0x3fa3c4b1	1.27944
146	0xbcfefccb	-0.0311264
147	0xbed48d19	-0.415139
148	0xbe6fadb0	-0.234061
149	0xbcdc908f	-0.0269244
150	0xbdc781ef	-0.0974158
151	0xbc333a55	-0.0109392
152	0x3b4675f1	0.00302827
153	0xbf076199	-0.528833
154	0xbd57deff	-0.0527029
155	0xbd890c91	-0.0669185
156	0xbe4cd35b	-0.200025
157	0x3da86cd1	0.0822388
158	0xbfaf9431	-1.37171
159	0xbfbd7acc	-1.48031
160	0xbee9387a	-0.455509
161	0x3fb401a3	1.4063
162	0xbd446fec	-0.0479583
163	0xbeee9b9d	-0.466031
164	0x3dfb6cbe	0.122766
165	0x3e963e8e	0.293446
166	0x3fa28fb0	1.27001
167	0x3d6afff3	0.057373
168	0x3d9e66d8	0.0773446
169	0xbef4f8d7	-0.478461
170	0x3d384aca	0.0449932
171	0x3f1a4c0e	0.602723
172	0xbe15ccc9	-0.146289
173	0xbf1b008a	-0.605477
174	0x3c7a1cfd	0.0152657
175	0xbebafa72	-0.365192
176	0x3e1b0857	0.151399
177	0xbfaf9c63	-1.37196
178	0xbce80248	-0.0283214
179	0xbfe30d30	-1.77384
180	0xbe889efe	-0.266838
181	0x3d8d8234	0.069096
182	0x3e24690e	0.160557
183	0xbd09d211	-0.0336476
184	0xbeb0f92b	-0.345651
185	0x3df98a65	0.121846
186	0xbf860f91	-1.04735
187	0xbe92c519	-0.28666
188	0xbe229a5f	-0.158792
189	0x3ca23910	0.0198026
190	0xbec7f994	-0.390576
191	0xbe0096ff	-0.125576
192	0x3dd5a8df	0.104326
193	0xbcdb0285	-0.0267346
194	0xbed07619	-0.407151
195	0xbee8c005	-0.45459
196	0xbbf3df35	-0.00744238
197	0x3f10678c	0.56408
198	0xbfbe7c07	-1.48816
199	0xbe0ad3e9	-0.135574
200	0xbf8bcaea	-1.09213
201	0xbf7710dc	-0.965101
202	0x3b166e97	0.00229541
203	0x3ea9552e	0.330728
204	0x3e62dc2b	0.221543
205	0xbbe72e0d	-0.00705505
206	0x3e5aac97	0.213549
207	0x3f0806af	0.531352
208	0xbf747011	-0.954835
209	0x3f3aebf6	0.730163
210	0xc0042f83	-2.0654
211	0xbf936556	-1.15153
212	0xbd361b45	-0.0444596
213	0x3d84ef60	0.0649097
214	0xbf7f1d71	-0.996543
215	0xbe622fad	-0.220885
216	0xbf8bd1cc	-1.09234
217	0xbf83abc9	-1.02868
218	0x3d1b2215	0.0378743
219	0x3e9eb378	0.309963
220	0xbe925ca3	-0.285863
221	0x3e105f6c	0.140989
222	0x3cb8c46d	0.0225546
223	0x3e7e9c88	0.248644
224	0xbb9e2341	-0.00482598
225	0x3f0af21f	0.542757
226	0xbde0e8c9	-0.109819
227	0x3f09d463	0.538397
228	0x3dcd7c70	0.100335
229	0x3f37f120	0.718523
230	0x3e8d8277	0.276386
231	0xbf7da31a	-0.99077
232	0xbdb1e28e	-0.0868579
233	0x3eca25d9	0.39482
234	0xbf570564	-0.839926
235	0x3e2131ec	0.157417
236	0xbfb2fec5	-1.3984
237	0x3fa8d456	1.31898
238	0xbe16bce8	-0.147205
239	0xba790735	-0.000949967
240	0x3eedd9e4	0.464553
241	0x3c20e858	0.00982102
242	0xbe6e8bc1	-0.232955
243	0x3dc608f9	0.0966968
244	0x3ece3a3b	0.402788
245	0xbf4b326a	-0.793738
246	0x3a04b1f8	0.000506192
247	0xbf6f1034	-0.933841
248	0x3eb89093	0.360478
249	0xbb49ef4d	-0.00308128

Operation_1_Add_B f4 [50]
0	0xbe98aac9	-0.298178
1	0xbe1bba13	-0.152077
2	0xbc9fba0f	-0.0194979
3	0x3e2839ce	0.164283
4	0x3e938a1a	0.288163
5	0xbebffae3	-0.374961
6	0x3e659cd0	0.224231
7	0x3e55cbbc	0.208785
8	0xbee4aeea	-0.446647
9	0xbc3c05d5	-0.011476
10	0xbed7dc7b	-0.421604
11	0x3c9251dc	0.0178613
12	0xbeb33786	-0.350033
13	0xbf0df3f9	-0.554504
14	0xbd6b75ea	-0.0574855
15	0x3e5e0eb6	0.216853
16	0x3e8345ae	0.256391
17	0xbd8afee7	-0.067869
18	0x3d0da04c	0.0345767
19	0x3cf1a12d	0.0294958
20	0xbeb21555	-0.347819
21	0x3e621b7e	0.220808
22	0x3df95704	0.121748
23	0xbe108206	-0.141121
24	0x3f39fe22	0.726534
25	0x3d4495ac	0.0479943
26	0x3e053d64	0.130117
27	0xbd7f6a94	-0.0623575
28	0x3e2c8eef	0.168514
29	0xbf21f330	-0.632617
30	0x3f3c19a0	0.734766
31	0x3ce110f2	0.0274739
32	0xbcabbecb	-0.020965
33	0x3e899e95	0.268788
34	0x3e9fe261	0.312274
35	0xbe181494	-0.148516
36	0xbef55ef2	-0.47924
37	0x3e6763e5	0.225967
38	0x3de808c8	0.113298
39	0xbcb84414	-0.0224934
40	0x3e55681f	0.208405
41	0x3ecfed20	0.406106
42	0x3e51b3af	0.204787
43	0x3e4596c8	0.192958
44	0x3d9b0bb2	0.0757059
45	0xbeb69425	-0.356599
46	0xbcf764bb	-0.0301994
47	0x3d541fa7	0.051788
48	0xbf0e4a7b	-0.555824
49	0xbdb578e6	-0.0886095

Operation_2_MatMul_W f4 [50, 50]
0	0xbf50ca1d	-0.815584
1	0xbe442d8c	-0.19158
2	0xbebd0acc	-0.369223
3	0xbec448f1	-0.383369
4	0x3e4fd827	0.202973
5	0x3f2d335d	0.676565
6	0x3cd1fdc4	0.0256337
7	0xbe17f456	-0.148393
8	0xbd5933fe	-0.0530281
9	0x3e6c9de0	0.231071
10	0xbba84e28	-0.00513627
11	0xbe294f6a	-0.165342
12	0x3e6d9275	0.232004
13	0x3d8fc082	0.0701914
14	0x3dee4431	0.116341
15	0x3d9043d8	0.0704419
16	0x3e45bd51	0.193105
17	0xbc129b79	-0.0089482
18	0x3f8f9cb7	1.12197
19	0x3f559f5e	0.834463
20	0xbeb35b92	-0.350308
21	0xbef740c4	-0.482916
22	0x3eb71b26	0.357629
23	0xbf0446fa	-0.516708
24	0x3d2b4fda	0.0418242
25	0x3ea3fa09	0.320267
26	0x3e0264a1	0.127337
27	0xbef60547	-0.480509
28	0x3e25a038	0.161744
29	0xbedcd4aa	-0.43131
30	0x3cfb8115	0.0307012
31	0xbe153c9b	-0.145739
32	0xbd2ca3b2	-0.0421483
33	0xbe10aaa8	-0.141276
34	0x3ec7c30d	0.39016
35	0x3e37e026	0.179566
36	0x3cb2ff9c	0.0218504
37	0xbd009ac5	-0.0313976
38	0x3f6d10e4	0.926039
39	0x3bf83978	0.00757521
40	0xbdf90108	-0.121584
41	0xbdcc9cd4	-0.0999085
42	0x3f14aada	0.580732
43	0xbde5e13b	-0.112246
44	0xbe0fb8b2	-0.140353
45	0x3f103ac9	0.563397
46	0xbde34d27	-0.110987
47	0xbe90535d	-0.281886
48	0x3c534521	0.0128949
49	0xbfa1dacf	-1.26449
50	0xbe9ff584	-0.31242
51	0x3ed08e7a	0.407337
52	0x3f49c6a0	0.788187
53	0xbf2bd3a2	-0.671198
54	0x3bdc0b03	0.00671518
55	0x3d8964f6	0.0670871
56	0xbd2b153d	-0.0417683
57	0x3e8fe932	0.281076
58	0x3d36773b	0.0445473
59	0x3ed77708	0.42083
60	0xbcb06acc	-0.0215353
61	0xbe79029b	-0.243174
62	0x3f039bfe	0.514099
63	0xbe83cab8	-0.257406
64	0x3ed6f6b6	0.419851
65	0x3e553719	0.208218
66	0x3f38110a	0.71901
67	0xbd7f6556	-0.0623525
68	0x4049c0ec	3.1524
69	0xbf763a19	-0.961824
70	0xbfdf62b7	-1.7452
71	0xbf0a1ea3	-0.53953
72	0x3e385f8d	0.180052
73	0x3d74f540	0.0598042
74	0x3d1952d2	0.0374325
75	0x3ec5f1e1	0.386611
76	0x3f0ce68e	0.550393
77	0xbedc7779	-0.430599
78	0x3e9112fd	0.283348
79	0x3f0ae760	0.542593
80	0x3d878290	0.066167
81	0xbe24940c	-0.160721
82	0xbc14271f	-0.00904253
83	0x3df13405	0.117775
84	0x3ec74cf5	0.389259
85	0x3f666a12	0.900056
86	0xbc702f3d	-0.0146597
87	0xbc94c5c0	-0.0181607
88	0xbd6ccce8	-0.0578126
89	0xbc734572	-0.0148481
90	0x3f176124	0.591326
91	0xbe38348f	-0.179888
92	0xbcc55f86	-0.0240934
93	0x3d8962c2	0.0670829
94	0x3d1651e6	0.0366992
95	0xbeefb7c8	-0.468199
96	0x3d115400	0.0354805
97	0x3f9608af	1.17214
98	0xbb8d86a6	-0.00431903
99	0xbf47fb16	-0.781175
100	0x3c33b24a	0.0109678
101	0x3b0d85ba	0.00215946
102	0xbc48cfe8	-0.0122566
103	0xbbffb46b	-0.00780349
104	0x3d03353f	0.0320332
105	0xbd53b8e5	-0.05169
106	0x3d1a7e4b	0.0377181
107	0xbce7c724	-0.0282932
108	0x3d35c3b7	0.0443761
109	0xbd167903	-0.0367365
110	0x3c8c9b4f	0.0171639
111	0x3c476f2a	0.0121725
112	0x3cac58b9	0.0210384
113	0xbbfc183f	-0.00769332
114	0x3c12e286	0.00896514
115	0xbd226b65	-0.0396532
116	0xbc4901d2	-0.0122685
117	0xbcaf459e	-0.0213955
118	0xbd24b09f	-0.0402075
119	0xbd599fe4	-0.053131
120	0xbcdffcc0	-0.0273422
121	0x3bda4648	0.00666121
122	0x3c830893	0.0159953
123	0x3cf2fd18	0.0296617
124	0xbcf9c299	-0.0304883
125	0x3c36abf9	0.0111494
126	0xbbf1e7b9	-0.00738236
127	0xbc169e88	-0.00919307
128	0xbc2ca50f	-0.0105374
129	0x3ce041bf	0.0273751
130	0xbc78685c	-0.0151616
131	0x3c0c7e53	0.00857504
132	0xbcb6b8c4	-0.0223049
133	0x3d08bd23	0.0333835
134	0x3c7c09d1	0.0153832
135	0xbbdd970a	-0.00676239
136	0x3d44d049	0.0480502
137	0xbd169ef8	-0.0367727
138	0xbc592098	-0.0132524
139	0xbd4e5e82	-0.0503831
140	0xbc70336f	-0.0146607
141	0x3ca988fb	0.0206952
142	0xbb458fc2	-0.00301455
143	0x3d1351ec	0.0359668
144	0x3d12a0ec	0.035798
145	0x3d20e67a	0.0392823
146	0xbd0f7015	-0.035019
147	0x3d32bb74	0.0436358
148	0x3d33a620	0.0438596
149	0x3c624fec	0.013813
150	0x3c144999	0.00905075
151	0xbe33471f	-0.175076
152	0xbd6b05d3	-0.0573786
153	0xbecc6801	-0.399231
154	0x3dce1694	0.100629
155	0xbd7cc294	-0.061709
156	0x3cf6ee74	0.030143
157	0xbe611e86	-0.219843
158	0xbcb7403e	-0.0223695
159	0xbf384178	-0.719749
160	0xbcb10c7d	-0.0216124
161	0x3ee25354	0.442042
162	0x3e9a1123	0.300912
163	0xbdc7b76a	-0.0975178
164	0x3b623595	0.00345168
165	0x3d413702	0.0471716
166	0x3e00f0a6	0.125918
167	0xbd0d788f	-0.0345388
168	0xbfb04f4c	-1.37742
169	0xbf62758a	-0.884606
170	0x3f5c08fa	0.859512
171	0x3ebbfa6e	0.367145
172	0x3ec7bb30	0.3901
173	0x3e1acc92	0.151171
174	0xbcd40eab	-0.0258859
175	0x3c9a7d8f	0.0188587
176	0xbeb5bf05	-0.354973
177	0x3fc17bc8	1.51159
178	0x3e12263e	0.142724
179	0xbeaf6966	-0.342601
180	0xbe229cbb	-0.158801
181	0x3e9a4f44	0.301386
182	0x3c0165a6	0.00789777
183	0x3ee21816	0.44159
184	0xbefa04d1	-0.488318
185	0xbfa16191	-1.26079
186	0x3b798a1a	0.00380767
187	0xbd97392a	-0.0738395
188	0xbe016335	-0.126355
189	0xbcd07bae	-0.0254496
190	0x3f28a127	0.658709
191	0xbf0a6517	-0.540605
192	0x3e702b41	0.23454
193	0x3e694ccb	0.227832
194	0x3f4b6966	0.794577
195	0x3eae6666	0.340625
196	0xbd5b6e6b	-0.0535721
197	0x3e2a26e5	0.166164
198	0x3ced31fd	0.0289545
199	0xbe7e6d16	-0.248463
200	0x3eb3dbc2	0.351286
201	0xbe49d55e	-0.197103
202	0xbeb3a96d	-0.350902
203	0x3e13f78c	0.144499
204	0xbee0b2c8	-0.438864
205	0xbc5052ff	-0.0127151
206	0xbced8f1a	-0.0289989
207	0xbde0ae97	-0.109708
208	0x3cb4ccc6	0.0220703
209	0x3f446b05	0.767258
210	0x3be70ead	0.00705131
211	0xbf2cb274	-0.674598
212	0xbea75c29	-0.326875
213	0xbdafb755	-0.0857989
214	0xbe54944f	-0.207597
215	0xbee7cce2	-0.452735
216	0x3c8202da	0.0158705
217	0xbc4d5370	-0.0125321
218	0x3eb42aed	0.35189
219	0xbe6d640f	-0.231827
220	0xbee4ff43	-0.44726
221	0x3d93784d	0.0720068
222	0xbdfe59f3	-0.124195
223	0xbe861f19	-0.261956
224	0xbd439028	-0.0477449
225	0xbd813951	-0.0630976
226	0xbe9020a3	-0.281499
227	0xbee7878b	-0.452206
228	0xbcf79131	-0.0302206
229	0x3edd38ef	0.432075
230	0xbe0fa69c	-0.140284
231	0x3f2ab13e	0.666767
232	0xbc44b96d	-0.0120071
233	0xbefd2221	-0.494401
234	0xbfa211dc	-1.26617
235	0x3f944ab6	1.15853
236	0xbcac7d01	-0.0210557
237	0xbca0a8ed	-0.0196118
238	0x3e490eaa	0.196345
239	0xbc99bfc5	-0.0187682
240	0xbfa8917d	-1.31694
241	0xbe7ed4e5	-0.248859
242	0x3f2e26f6	0.680282
243	0x3eee60a2	0.465581
244	0x3f23ed63	0.640341
245	0x3ec36e50	0.381701
246	0x3e9dcaf3	0.308189
247	0x3e89932d	0.268701
248	0xbd017226	-0.031603
249	0xbe9e2260	-0.308856
250	0xbe2e50c6	-0.17023
251	0x3ef9fe00	0.488266
252	0xbe1085b2	-0.141135
253	0x3d239fe3	0.0399474
254	0x3f11a7f4	0.568969
255	0xbe8df783	-0.277279

Operation_2_Add_B f4 [50]
0	0xbdfc27e9	-0.123123
1	0xbf00aa65	-0.5026
2	0xbe1c0fcb	-0.152404
3	0xbf137f6b	-0.576163
4	0xbde8e0ca	-0.11371
5	0x3e303d57	0.172109
6	0xbc5b2555	-0.0133756
7	0xbf2507d9	-0.644651
8	0xbc22b35e	-0.00993046
9	0x3e5d284a	0.215974
10	0x00000000	0.0
11	0xbeedcdf7	-0.464462
12	0xbed7ebd1	-0.421721
13	0xbf1aaf68	-0.604239
14	0xbe7481b2	-0.238776
15	0xbf2ca05e	-0.674322
16	0xbf126c4c	-0.571965
17	0xbc0cd510	-0.00859572
18	0xbe8c9f30	-0.274652
19	0xbf21f612	-0.632661
20	0x3f2657c9	0.649777
21	0x3f3abda1	0.729456
22	0x3f159ded	0.584441
23	0x3e9025c0	0.281538
24	0xbc5d9140	-0.0135234
25	0x3ec5d54e	0.386393
26	0x3a7403d1	0.000930843
27	0x3dc8061c	0.0976679
28	0xbf3b24d9	-0.731031
29	0xbda41538	-0.0801186
30	0xbef9f080	-0.488163
31	0x3ea1bed3	0.315909
32	0xbc9194e8	-0.0177712
33	0x3ed06fac	0.407102
34	0xbf015b46	-0.505299
35	0xbf3120f3	-0.691909
36	0xbc160dbe	-0.00915855
37	0xbc907dc7	-0.0176381
38	0x3e3c200c	0.183716
39	0xbb9778d8	-0.00462256
40	0xbfc6e925	-1.55399
41	0x3e2a4b12	0.166302
42	0xbf00eee1	-0.503645
43	0xbf850d06	-1.03946
44	0x3f819ae9	1.01254
45	0xbec6c637	-0.388231
46	0xbebbe3c1	-0.366972
47	0xbf4b7c78	-0.794868
48	0xbc7db171	-0.0154842
49	0x3efb17ce	0.490416

Operation_3_MatMul_W f4 [50, 50]
0	0x3f2b2bed	0.668639
1	0xbcef56d0	-0.0292162
2	0x3dab5be9	0.0836714
3	0xbf05c0ba	-0.522472
4	0x3efe2dc7	0.496443
5	0xbea9b153	-0.331431
6	0x3ea01301	0.312645
7	0xbf40448d	-0.751046
8	0xc0076167	-2.11532
9	0x3dda4f87	0.106597
10	0xbf7575b0	-0.958827
11	0x3e1556d2	0.145839
12	0xbeddbd0e	-0.433083
13	0xbd218c42	-0.0394404
14	0xc004c0ad	-2.07426
15	0x3d5f3479	0.0544934
16	0xbefa55d2	-0.488936
17	0xbf9d667b	-1.22969
18	0xbeb020c5	-0.344
19	0x3f8d58b8	1.10427
20	0x3d37a4e8	0.044835
21	0x3ef35914	0.475289
22	0x3e6088d7	0.219272
23	0xbeb474fb	-0.352455
24	0xbd8b16b4	-0.0679144
25	0x3ef04d77	0.469341
26	0x3e894680	0.268116
27	0x3d53845c	0.0516399
28	0xbdb24837	-0.0870518
29	0xbf0d3a71	-0.551673
30	0xbea90279	-0.330097
31	0x3e3a8006	0.182129
32	0x3e3f5409	0.186844
33	0xbea09657	-0.313647
34	0x3f129457	0.572576
35	0xbe48abd6	-0.195968
36	0x3ea30468	0.318393
37	0x3dfcb685	0.123395
38	0xbd6080fa	-0.0548105
39	0xbe916e16	-0.284043
40	0x3eeb191e	0.459176
41	0xbeaa5658	-0.33269
42	0xbf438c87	-0.763863
43	0xbee91516	-0.455239
44	0xbef2c3ca	-0.47415
45	0xbbd25edd	-0.00642
46	0xbd5f17f3	-0.0544662
47	0xbfa6b6ae	-1.30245
48	0xbf00bf1a	-0.502916
49	0xbf01d2e1	-0.507124
50	0xbd970395	-0.0737373
51	0x3b14aea3	0.00226871
52	0x3e20a56a	0.156881
53	0xbe814c23	-0.252534
54	0x3eae644e	0.340609
55	0xbe24f11b	-0.161076
56	0xbe0d0353	-0.137708
57	0xbeb83fb3	-0.359861
58	0xc05a3ad2	-3.40984
59	0xbe6a98ee	-0.229099
60	0xbe839cb7	-0.257055
61	0xbf1d21ee	-0.613799
62	0xbe0aa327	-0.135388
63	0xbd41e654	-0.0473388
64	0xbf2f546d	-0.684882
65	0x3e35c78a	0.177519
66	0x3f2e553b	0.680988
67	0xbf0bcff6	-0.546142
68	0x3ee49eaa	0.446523
69	0x3e51cde6	0.204887
70	0xbe13c212	-0.144295
71	0x3f068651	0.525487
72	0xbd94a8ea	-0.0725878
73	0xbf842b41	-1.03257
74	0xbc31d3b8	-0.0108537
75	0xbe845586	-0.258465
76	0x3e2fef7c	0.171812
77	0x3e8536d6	0.260184
78	0x3f6244b7	0.883861
79	0x3dcc664d	0.0998045
80	0x3fbb19f8	1.46173
81	0x3d620d71	0.0551886
82	0xbebfbfe8	-0.374511
83	0x3e815465	0.252597
84	0x3f3976bc	0.724468
85	0x3d76b40c	0.0602303
86	0xbe6b0af6	-0.229534
87	0x3cf77517	0.0302072
88	0x3e4aa540	0.197896
89	0xbe5e731d	-0.217236
90	0x3eb5102c	0.353639
91	0xc06d9e5a	-3.71279
92	0x3ecc3d04	0.398903
93	0xbffcb04b	-1.97413
94	0xbdc95140	-0.0982995
95	0xbea3c2fc	-0.319847
96	0xbc892111	-0.0167394
97	0xbdaed80a	-0.085373
98	0x3e06bbdc	0.131576
99	0x3d969ab9	0.0735373
100	0xbdc40f81	-0.0957327
101	0xbc2602c9	-0.0101325
102	0xbf61d873	-0.882209
103	0x3c6abaf4	0.0143268
104	0x3d806863	0.0626991
105	0xbecaf6c7	-0.396414
106	0x3f5ed5bf	0.870449
107	0xbe19e908	-0.150303
108	0xbeaebce8	-0.341285
109	0x3dffc760	0.124892
110	0xbfb5f01c	-1.42139
111	0x3fa7121b	1.30524
112	0x3e589720	0.211514
113	0x3bebb012	0.00719262
114	0xbd4b5625	-0.0496427
115	0x3e273e25	0.163323
116	0xbf5a9eb2	-0.853984
117	0x3e339ef1	0.175411
118	0xbea7a787	-0.32745
119	0xbef0509c	-0.469365
120	0x3f0adedb	0.542463
121	0xbe53b257	-0.206735
122	0x3f3a0382	0.726616
123	0x3edeab15	0.434899
124	0x3cee1445	0.0290624
125	0xbf5df506	-0.86702
126	0x3c24dd2f	0.0100625
127	0x3e3417ca	0.175872
128	0xbf2709d9	-0.652494
129	0x3b46be15	0.00303257
130	0x3f332da1	0.699915
131	0xbd998ab6	-0.0749716
132	0xbe92ab04	-0.286461
133	0xbef8db8c	-0.48605
134	0xbea148fe	-0.31501
135	0x3f97f0ed	1.18704
136	0x3fa80981	1.31279
137	0xbd28cac5	-0.041209
138	0x3faeed14	1.36661
139	0xbf033a8a	-0.512612
140	0x3e7d1fa3	0.247191
141	0x3fcd7785	1.60521
142	0x3f2110d4	0.629163
143	0x3ee17a89	0.440388
144	0x3e62ad3f	0.221364
145	0x3efc83ed	0.493194
146	0x3cd5ed72	0.0261142
147	0xbf98bf0a	-1.19333
148	0xbfa70069	-1.3047
149	0x3f422036	0.758304
150	0xbcae2790	-0.0212591
151	0xbd3de417	-0.0463601
152	0x3dc3cb31	0.0956024
153	0x3e62a51e	0.221333
154	0xbed86a90	-0.422688
155	0x3df68b5d	0.120383
156	0xbfe6dcb1	-1.80361
157	0xbe8e073e	-0.277399
158	0x3f515bbc	0.817806
159	0xc009a637	-2.15077
160	0xbd841afd	-0.0645046
161	0x3e828b8f	0.254971
162	0xbedab192	-0.427136
163	0xbd177a3a	-0.0369818
164	0xbf8faf64	-1.12254
165	0x3e00d23d	0.125802
166	0xbe59930c	-0.212475
167	0x3e1c9c0b	0.152939
168	0xbe6bf22c	-0.230416
169	0x3eb8b978	0.36079
170	0x3d9fe932	0.0780815
171	0xbf42f102	-0.76149
172	0x3eccd706	0.400078
173	0x3e2668c2	0.162509
174	0x3c43b8bc	0.0119459
175	0xbf09e1d2	-0.538602
176	0xbea633f0	-0.324615
177	0x3e929110	0.286263
178	0xbff56cb5	-1.91738
179	0xbec4cc03	-0.384369
180	0x3ecc31df	0.398818
181	0xbd17d4b8	-0.0370681
182	0x3f48c405	0.784241
183	0xbece644e	-0.403109
184	0x3ed50b52	0.416102
185	0x3f91e3fc	1.13977
186	0x3e8d4930	0.275949
187	0xbdfde15d	-0.123965
188	0xbf2c829d	-0.673868
189	0xbdeef1bb	-0.116672
190	0x3f4570f8	0.771255
191	0x3f8becab	1.09316
192	0x3ec742ff	0.389183
193	0xbf30b32d	-0.690234
194	0x3e639e28	0.222283
195	0xbdeb32cf	-0.114843
196	0x3c822a11	0.0158892
197	0xbea62260	-0.324481
198	0xbea01f10	-0.312737
199	0x3dfff152	0.124972
200	0x3f131562	0.574545
201	0xbd346a6b	-0.0440468
202	0xbf5fb17d	-0.873802
203	0x3d156176	0.0364699
204	0x3e90958e	0.282391
205	0xbe8ce93e	-0.275217
206	0xbf4e5a36	-0.806064
207	0xbf6d19ac	-0.926173
208	0xc00997cc	-2.14989
209	0x3f282785	0.656853
210	0xbddcb924	-0.107775
211	0x3f9ec41e	1.24036
212	0x3f057df2	0.521453
213	0x3c1b305d	0.00947198
214	0xbe8baa9b	-0.272786
215	0xbfee3dc5	-1.86126
216	0x3f7ee0f4	0.99562
217	0x3e5dd2f2	0.216625
218	0xbedbd8e0	-0.429389
219	0xbe9b0ff1	-0.302856
220	0x3f35564b	0.708348
221	0xbf05887f	-0.521614
222	0x4037ddec	2.87292
223	0x3dfe02eb	0.124029
224	0x3d170cf7	0.0368776
225	0x3f53ad5c	0.826864
226	0x40403a7e	3.00357
227	0xbfd2d96a	-1.64726
228	0x3ee65ecc	0.449942
229	0x3ffeaf79	1.98973
230	0x3ee75b3e	0.451868
231	0xbf273b00	-0.653244
232	0xbec6e286	-0.388447
233	0xbe823183	-0.254284
234	0x3fc9d24a	1.57673
235	0xbf6fef17	-0.937242
236	0xc01951d7	-2.39562
237	0x3c84b323	0.0161987
238	0xc03f5b81	-2.98996
239	0xbf4ab8c7	-0.791882
240	0x3e9657da	0.293639
241	0x40ca6a55	6.32548
242	0xbf99fb40	-1.20298
243	0x408e3516	4.44398
244	0xbeb69db6	-0.356672
245	0xbdc645ca	-0.0968128
246	0x3ca4e959	0.0201308
247	0xbf5376b4	-0.82603
248	0xbf3f8d1e	-0.748247
249	0xc0226349	-2.53731
250	0x3e4afee7	0.198238
251	0x3cd23d4f	0.025664
252	0x3ef32a49	0.474932
253	0xbdfbe3c1	-0.122993
254	0x3ec89eba	0.391836
255	0x3ee13f29	0.439935

Operation_3_Add_B f4 [50]
0	0x3f863f14	1.0488
1	0xbc881da6	-0.0166157
2	0x3f1d7fd8	0.615232
3	0xbf9c245f	-1.21986
4	0xbee946e5	-0.455619
5	0xbfa4c78f	-1.28734
6	0xbfcb861a	-1.59003
7	0xbec58ec9	-0.385855
8	0x3f8c811b	1.09769
9	0x3ea09785	0.313656
10	0xbf5c4296	-0.860391
11	0xbffba0a5	-1.96584
12	0x3e0b02d6	0.135753
13	0xbc52e367	-0.0128716
14	0x3de95c85	0.113946
15	0xbf8b4246	-1.08796
16	0xbf8c2657	-1.09492
17	0xbffcf80e	-1.97632
18	0xbf1be825	-0.609011
19	0xbf42cbda	-0.760923
20	0xbeb1b995	-0.347119
21	0xbf78fbdb	-0.972593
22	0xc008e87d	-2.13919
23	0x3ebe89ca	0.372145
24	0xbcf377c7	-0.0297202
25	0xbfc5974e	-1.54368
26	0xbe903212	-0.281632
27	0xbf92b852	-1.14625
28	0x3fa0471b	1.25217
29	0xbdf0739b	-0.117408
30	0x3f915960	1.13554
31	0xbde23209	-0.110447
32	0xbff63e18	-1.92377
33	0x3f6b1a09	0.918366
34	0xbf71fdf0	-0.945281
35	0x3e7df3f9	0.248001
36	0x3f37d124	0.718035
37	0xbfa4995b	-1.28593
38	0xbf6905d1	-0.910245
39	0x3f1231a5	0.57107
40	0xbf9312c2	-1.14901
41	0xbeca5636	-0.395189
42	0xbf045d64	-0.51705
43	0x3eeca2ba	0.462179
44	0xbf824452	-1.01771
45	0x3ef7073a	0.482477
46	0xbcb8066c	-0.022464
47	0x3f59847f	0.849678
48	0x3f8e63c7	1.11242
49	0xbec52ded	-0.385116

Operation_4_MatMul_W f4 [50, 50]
0	0xbe5868fd	-0.211338
1	0xc0005365	-2.00509
2	0x3ecb078e	0.396542
3	0x3eed79d1	0.46382
4	0xbfd28d11	-1.64493
5	0x3cfdb8c8	0.0309719
6	0x3f9390eb	1.15286
7	0x3f3c20c5	0.734875
8	0x3f309dbf	0.689907
9	0x3f65a459	0.897039
10	0xbd039b7b	-0.0321307
11	0xbf046a3c	-0.517246
12	0x3f51615f	0.817892
13	0x3f938716	1.15256
14	0xbe80c309	-0.251488
15	0x3f138067	0.576178
16	0x3eaf7ab3	0.342733
17	0xbf214185	-0.629906
18	0xbf2d9c39	-0.678165
19	0xbe8f7b5b	-0.280238
20	0x3eeb26e1	0.459281
21	0xbf47ce21	-0.780489
22	0x3e2ae819	0.166901
23	0x3d09c19a	0.0336319
24	0xbf70663c	-0.93906
25	0x3e79f01c	0.24408
26	0x3f3ea4fd	0.744705
27	0x3fb3e61d	1.40546
28	0xbe22f2fa	-0.15913
29	0x3fde58f7	1.73709
30	0x3f932fec	1.1499
31	0xbc848104	-0.0161748
32	0x3fbb674d	1.46409
33	0x3f09bcfd	0.53804
34	0x3fa3fd61	1.28117
35	0x3e00d8cb	0.125827
36	0xbde2cd3a	-0.110743
37	0xbd290d75	-0.0412726
38	0x3e8f9ca6	0.280492
39	0xbdc683d0	-0.0969311
40	0x3f125919	0.571672
41	0x3ea41f64	0.320552
42	0x3c5fbdd6	0.0136561
43	0x3df70ef5	0.120634
44	0x3e3d7cf6	0.185047
45	0x3f901744	1.12571
46	0xbf13bb30	-0.577075
47	0x3f1ffb59	0.624929
48	0x3f660d99	0.898645
49	0x3f099c6b	0.537543
50	0x3c4ff3c9	0.0126924
51	0xbcf9591d	-0.030438
52	0xbc43eaa6	-0.0119578
53	0xbcaf0c5d	-0.0213682
54	0xbd165003	-0.0366974
55	0xbce91dd1	-0.0284566
56	0x3d149584	0.0362754
57	0xbc028c17	-0.00796797
58	0xbcb4e9ed	-0.0220842
59	0x3d336552	0.0437978
60	0x3d17be2d	0.0370466
61	0x3d432dcd	0.0476511
62	0xbc05b1d0	-0.00816007
63	0xbc923d19	-0.0178514
64	0x3ca1cfc9	0.0197524
65	0xbd33e5fb	-0.0439205
66	0x3c38b2cf	0.0112731
67	0xbb763902	-0.00375706
68	0xbd3644e6	-0.0444993
69	0xbc45b658	-0.0120674
70	0x3cc182b7	0.0236219
71	0xbcfacfaa	-0.0306166
72	0x3d010244	0.0314963
73	0xbcb6177f	-0.022228
74	0xbd090eb7	-0.0334613
75	0xbcbe0ac8	-0.0231985
76	0xbb7eefe0	-0.00389003
77	0xbcb29abd	-0.0218023
78	0xbd116f5e	-0.0355066
79	0x3c31267e	0.0108124
80	0x3cfb9ea7	0.0307153
81	0xbd16b8df	-0.0367974
82	0xbd24d0d0	-0.0402382
83	0xbbe02ca6	-0.00684126
84	0x3d348ee8	0.0440816
85	0xbc885935	-0.0166441
86	0x3d319bef	0.0433616
87	0x3c8e7c9b	0.0173934
88	0xbcb683eb	-0.0222797
89	0x3cb922cc	0.0225996
90	0xbc4a28ae	-0.0123388
91	0xbce2ade0	-0.0276708
92	0xbc54591e	-0.0129607
93	0x3c9ad1de	0.0188989
94	0x3cab990b	0.020947
95	0x3cc8ce70	0.0245125
96	0x3d1865d8	0.0372065
97	0x3d1d5256	0.0384086
98	0x3c9c1468	0.0190527
99	0x3d1a8e21	0.0377332
100	0x3f175621	0.591158
101	0xbecde1e3	-0.402114
102	0x3eeb8de7	0.460067
103	0x3e1b955f	0.151937
104	0xbee7670a	-0.451958
105	0xbecefb6e	-0.404262
106	0xbeda92e6	-0.426902
107	0xbeb4eb14	-0.353356
108	0xbefae600	-0.490036
109	0xbef5b121	-0.479867
110	0xbc576973	-0.0131477
111	0xbe61db87	-0.220564
112	0xbdd994e2	-0.106241
113	0xbe40e27e	-0.188364
114	0x3e91ae71	0.284534
115	0x3e8d801b	0.276368
116	0x3e16b767	0.147184
117	0x3e52990f	0.205662
118	0x3c44ebc2	0.0120191
119	0xbf173850	-0.590703
120	0xbe33454a	-0.175069
121	0xbd8fdb0a	-0.070242
122	0xbe1a1c69	-0.150499
123	0xbefa01ef	-0.488296
124	0xbe414120	-0.188725
125	0x3f61bab2	0.881755
126	0xbedb7d85	-0.428692
127	0x3ec5f58c	0.386639
128	0xbd872508	-0.0659886
129	0xbed4916d	-0.415172
130	0xbf3c6ca9	-0.736033
131	0xbc7edfda	-0.0155563
132	0x3f8d119d	1.1021
133	0x3e1ff0cc	0.156192
134	0x3e32f017	0.174744
135	0xbdb3f6d0	-0.0878731
136	0xbe5b2d4d	-0.21404
137	0xbd47d2fd	-0.0487852
138	0xbe859a0f	-0.260941
139	0x3dcbcea0	0.0995152
140	0xbd5455f8	-0.0518398
141	0x3cd3b1f9	0.0258417
142	0x3f76a0ba	0.96339
143	0x3edbfe19	0.429673
144	0xbdfb4d49	-0.122706
145	0xbfb5a07b	-1.41896
146	0xbef47736	-0.477472
147	0xbeeb8130	-0.45997
148	0x3eb0bae9	0.345176
149	0xbe545176	-0.207342
150	0x3eb758c1	0.358099
151	0x3f11a240	0.568882
152	0x3fa437b5	1.28295
153	0xbf053ab4	-0.520427
154	0x3eab22d1	0.33425
155	0x3ed6d4a2	0.419591
156	0x3fb0f084	1.38234
157	0x3f2306a3	0.63682
158	0x3f14ac2a	0.580752
159	0xc00aa57a	-2.16635
160	0xbd2618ce	-0.040551
161	0x3d9f1f80	0.0776968
162	0x3f7a2bbf	0.97723
163	0x3df45953	0.119311
164	0xbebad96a	-0.36494
165	0x3ee5757d	0.448162
166	0x3f2828d4	0.656873
167	0xbdd6a726	-0.104811
168	0x40044745	2.06685
169	0x3f27eec4	0.655987
170	0x3d519ede	0.0511769
171	0xbe5b65ed	-0.214256
172	0xbe7837f8	-0.242401
173	0x3f911a22	1.13361
174	0x3dd1c10d	0.102419
175	0xbdfd1351	-0.123572
176	0xbf32fddb	-0.699186
177	0xbee7459e	-0.451703
178	0xbcc2d278	-0.023782
179	0x3f090796	0.535272
180	0x3ef83cf3	0.48484
181	0xbc788f5e	-0.0151709
182	0x3dc773ad	0.0973886
183	0x3eee3de6	0.465316
184	0x3f12aeb0	0.572978
185	0xbda5cdd5	-0.080959
186	0x3ee2c98e	0.442944
187	0x3d022b89	0.0317798
188	0xbefbe0df	-0.49195
189	0xbe853869	-0.260196
190	0xbfa83c4b	-1.31434
191	0x3e0bc1f0	0.136482
192	0x3f56c98e	0.839013
193	0xbf28a516	-0.658769
194	0x3e18c9fb	0.149208
195	0xbeb85e1c	-0.360093
196	0xbe81baa1	-0.253377
197	0x3f8d97a2	1.10619
198	0x3f8e09ff	1.10968
199	0x3f088dc1	0.533413
200	0x3fae1577	1.36003
201	0xc0051aa0	-2.07975
202	0x3eb52ef9	0.353874
203	0x3df0d62c	0.117596
204	0xbe322899	-0.173983
205	0xbefdeb96	-0.495938
206	0x3edce033	0.431398
207	0xbfc45144	-1.53373
208	0x3eb394b8	0.350744
209	0x3f509cc3	0.814892
210	0xba25859c	-0.000631416
211	0x3e33f466	0.175737
212	0x3e914df9	0.283798
213	0x3e3e8a2f	0.186074
214	0xbe3249e4	-0.17411
215	0x3e85b878	0.261173
216	0xbf44c72a	-0.768664
217	0xbf6be868	-0.921515
218	0xc003e258	-2.06069
219	0x3d4a979e	0.049461
220	0x3f22e222	0.636263
221	0xbf873db0	-1.05657
222	0x3e9a5df2	0.301498
223	0x3e790753	0.243192
224	0xbebbec46	-0.367037
225	0xbf29e82d	-0.663699
226	0xc005e8e6	-2.09234
227	0xbedeca47	-0.435137
228	0x3ebd77fb	0.370056
229	0x3f914563	1.13493
230	0xbe10c0ad	-0.14136
231	0xb9e2c826	-0.000432552
232	0x3dca3a30	0.0987438
233	0xbf8bfc11	-1.09363
234	0xbd83a952	-0.0642878
235	0xbde7c393	-0.113166
236	0xbda897f7	-0.0823211
237	0xbc2ca4a4	-0.0105373
238	0x3f194079	0.59864
239	0x3dffe975	0.124957
240	0x3f40c2a4	0.75297
241	0x3ee8fffc	0.455078
242	0xbf894174	-1.07231
243	0x3bc5225e	0.00601606
244	0x3ef31961	0.474803
245	0xbde66c2b	-0.112511
246	0xbcab6899	-0.0209239
247	0xbeb01b86	-0.34396
248	0xbeda1fd1	-0.426024
249	0xbe839c95	-0.257054
250	0x3c29cf72	0.0103644
251	0xc04aa551	-3.16634
252	0xbfb41f75	-1.40721
253	0x3dcf5a96	0.101247
254	0x3fba58f7	1.45584
255	0x403218bd	2.78276

Operation_4_Add_B f4 [50]
0	0x3e8705a7	0.263715
1	0xbf6429bf	-0.891262
2	0xc00140cc	-2.01958
3	0xbe4ba494	-0.19887
4	0x3ea1ca19	0.315995
5	0xbd191d8e	-0.0373817
6	0xbcc19a34	-0.0236331
7	0xc00565d4	-2.08434
8	0x3f941062	1.15675
9	0xbf069e4d	-0.525853
10	0xbce6eb92	-0.0281885
11	0x3f0746cc	0.528424
12	0x3eb555a4	0.354169
13	0xbf40201d	-0.75049
14	0xbf134f2f	-0.575427
15	0xbfa4c34c	-1.28721
16	0x3d748dc1	0.0597055
17	0xbfa4d1b7	-1.28765
18	0xbf9fffac	-1.24999
19	0xbf34ea4b	-0.7067
20	0x3c688b6f	0.0141934
21	0xbef2b799	-0.474057
22	0x3f78fe15	0.972627
23	0x3f4b1540	0.793293
24	0x3e22d9cf	0.159034
25	0xbf6618f0	-0.898818
26	0xbfd3caea	-1.65463
27	0xbf64e24c	-0.894078
28	0x3eb86bbe	0.360197
29	0xbdd9fcb1	-0.106439
30	0xc01623e2	-2.34594
31	0xbce1f843	-0.0275842
32	0xbf97328b	-1.18123
33	0xbdec521e	-0.115391
34	0xbf139485	-0.576485
35	0x3f789f51	0.971181
36	0x3f272192	0.652856
37	0xbd073d41	-0.0330174
38	0xbed29260	-0.411273
39	0x3e2ac190	0.166754
40	0xbf9f0553	-1.24235
41	0xbfad00e7	-1.35159
42	0xbff84674	-1.93965
43	0xbf6fd8cf	-0.936902
44	0xbf4cc06a	-0.799811
45	0xbfa87358	-1.31602
46	0xbf890093	-1.07033
47	0xc015c1e8	-2.33996
48	0xc00c9cf5	-2.19708
49	0x3f29975f	0.662466

Operation_5_MatMul_W f4 [50, 50]
0	0xbe1555c5	-0.145835
1	0x3daf354f	0.0855509
2	0xbdb982f3	-0.0905818
3	0x3e8d4bcf	0.275969
4	0xbbc2b673	-0.00594216
5	0xbb423168	-0.00296315
6	0x3d9ddd03	0.0770817
7	0xbd34c3dc	-0.0441321
8	0x3e9d972d	0.307794
9	0x3ec7457c	0.389202
10	0xbe403687	-0.187708
11	0x3e12df0d	0.143429
12	0xbe68e970	-0.227453
13	0x3f75232d	0.957568
14	0xbdacabd3	-0.0843121
15	0xbe08c869	-0.133577
16	0x3e62d949	0.221532
17	0xbe1405b4	-0.144553
18	0xbd5ec9d5	-0.0543917
19	0xbdcf8f8a	-0.101348
20	0xbe20fc2f	-0.157212
21	0xbe995b36	-0.299524
22	0x3e3691a7	0.17829
23	0x3d05828b	0.0325952
24	0xbcce0115	-0.025147
25	0x3e56a3be	0.209609
26	0x3e39e1f4	0.181526
27	0xbe167a96	-0.146952
28	0xbcbdc7e2	-0.0231666
29	0xbc4ed9ed	-0.0126252
30	0xbf063b25	-0.52434
31	0xbeaecd4b	-0.34141
32	0x3f1257a8	0.57165
33	0x3e91a501	0.284462
34	0xbc9be56f	-0.0190303
35	0xbf057fe9	-0.521483
36	0xbec735e3	-0.389083
37	0xbcd44cbe	-0.0259155
38	0x3ec1d66b	0.378589
39	0xbe3d9b5f	-0.185163
40	0xbf14241c	-0.578676
41	0xbda98f02	-0.0827923
42	0xbcf2eb0f	-0.0296531
43	0xc016d552	-2.35677
44	0x3e0f4342	0.139905
45	0xbe32cf96	-0.17462
46	0xbecd4da5	-0.400983
47	0x3e769446	0.2408
48	0xbf1e37ce	-0.618039
49	0x3d991b17	0.0747587
50	0xbd9d55e7	-0.076824
51	0x3df7b310	0.120947
52	0x3d2f46c5	0.0427921
53	0x3e3429e1	0.175941
54	0x3cc700a5	0.0242923
55	0x3cbc689c	0.0229991
56	0x3d17dc96	0.0370756
57	0x3e841f21	0.25805
58	0x3e8655c1	0.262373
59	0x3cea2538	0.0285822
60	0xbfe67caf	-1.80068
61	0x3d7acde2	0.0612315
62	0xbe35b680	-0.177454
63	0x3f933d5c	1.15031
64	0x3cb12282	0.0216229
65	0xbe276af9	-0.163494
66	0x3e01c8a8	0.126742
67	0xbf38f14e	-0.722432
68	0xbe609d8c	-0.219351
69	0x3c52a696	0.0128571
70	0xbe3f4f51	-0.186826
71	0x3d414926	0.0471889
72	0x3e2779ea	0.163551
73	0xbe04a2ba	-0.129527
74	0xbd37eaf3	-0.0449018
75	0xbe434a45	-0.190713
76	0xbeae07e6	-0.339904
77	0x3da6a7fd	0.0813751
78	0x3c2b7cf1	0.0104668
79	0xbe1571d2	-0.145942
80	0xbe9a5094	-0.301396
81	0x3ce87f45	0.028381
82	0x3f98a71e	1.1926
83	0xbda0f7f0	-0.0785979
84	0xbbf89eb8	-0.00758728
85	0xbea79c84	-0.327366
86	0xbdffe543	-0.124949
87	0x3bf65ca9	0.00751837
88	0x3dc2414b	0.0948511
89	0xbe51c8a8	-0.204867
90	0x3e6ededb	0.233272
91	0xbe2b8e4c	-0.167535
92	0xbd8e6bee	-0.0695418
93	0x3d782a7e	0.0605874
94	0x3e264f12	0.162411
95	0xbdcf93bc	-0.101356
96	0xbfc79581	-1.55925
97	0xbdf7b41c	-0.120949
98	0xbf22f4cf	-0.636548
99	0x3e070c13	0.131882
100	0x3e00be51	0.125726
101	0x3d97d39e	0.0741341
102	0x3decc89b	0.115617
103	0xbf00cda7	-0.503138
104	0x3dc20c65	0.0947502
105	0xbf43252d	-0.762286
106	0xbd995c78	-0.0748834
107	0x3dd694cd	0.104776
108	0xbea2a51e	-0.317666
109	0x3e44f3ba	0.192336
110	0x3a0fc30a	0.000548408
111	0xbd175f7d	-0.0369563
112	0xbdb5de3e	-0.0888028
113	0xbf0bdb1a	-0.546312
114	0x3c1023cf	0.0087976
115	0xbe54b2b7	-0.207713
116	0xbef12d77	-0.47105
117	0x3f064378	0.524467
118	0xbe92bb23	-0.286584
119	0x3ebba12b	0.366464
120	0xbda6d4c3	-0.0814605
121	0xbefced70	-0.493999
122	0x3d6651a3	0.0562302
123	0xbdb8754f	-0.0900675
124	0xbc57c5ba	-0.0131697
125	0xbdbc3c84	-0.0919123
126	0x3e380779	0.179716
127	0x3f6824c4	0.906811
128	0x3ed18f82	0.409298
129	0x3c8e90bc	0.017403
130	0x3f256ca4	0.646189
131	0xbea56734	-0.323053
132	0xbfe40ebf	-1.7817
133	0x3d9e141d	0.0771868
134	0x3dc754d9	0.0973298
135	0x3ddbfdf8	0.107418
136	0x3e8cba73	0.27486
137	0xbe33f7cf	-0.17575
138	0xbf286cca	-0.65791
139	0xbd69dbd1	-0.0570944
140	0x40477de9	3.11706
141	0x3e415550	0.188802
142	0xbd662d0b	-0.0561953
143	0x3f83111f	1.02396
144	0xbf0231e8	-0.508574
145	0x3d8c5b3d	0.0685334
146	0x3e47a56e	0.194967
147	0x3da70f1e	0.0815718
148	0xc028f909	-2.6402
149	0xbe09331a	-0.133984
150	0x3e6e221d	0.232552
151	0x3d1aabcd	0.0377615
152	0x3bd0fbc6	0.00637767
153	0x3f0c92de	0.549116
154	0x3b8fd409	0.00438929
155	0xbf5286a5	-0.822367
156	0xbe44df05	-0.192257
157	0x3db82e7a	0.0899324
158	0xbf209093	-0.627206
159	0x3e4fe8ab	0.203036
160	0x3eacb2d9	0.337302
161	0xbde41030	-0.111359
162	0x3dc16f79	0.0944509
163	0x3f91ce07	1.1391
164	0x3e78ee6c	0.243097
165	0x3f032dd3	0.512418
166	0x3ea2ec4a	0.318209
167	0x3e901d3b	0.281473
168	0x3f851fb4	1.04003
169	0xbe36c1a0	-0.178473
170	0xbeab6651	-0.334765
171	0x3e920297	0.285176
172	0x3e296788	0.165434
173	0xbeddc5d6	-0.43315
174	0xbd6ee7c5	-0.0583265
175	0x3ec5171e	0.384942
176	0x3ee6175d	0.449397
177	0x3d97a560	0.0740459
178	0x3f2750d3	0.653577
179	0x3dccbdf6	0.0999717
180	0x3f5797bb	0.842159
181	0x3da05194	0.0782806
182	0xbff683e4	-1.9259
183	0xbe84f1a2	-0.259656
184	0xbe64bad8	-0.223369
185	0xbe0ca8e3	-0.137363
186	0x3ef1a4df	0.471961
187	0x3eced3fa	0.403961
188	0x3ec87dd4	0.391585
189	0xbf10c8ef	-0.565566
190	0xbf51a416	-0.81891
191	0xbd0114b8	-0.0315139
192	0xbd1a3b15	-0.037654
193	0xbc6cd9b3	-0.0144562
194	0xbf02cd3a	-0.510944
195	0x3e6f8bdf	0.233932
196	0xc01ae560	-2.42025
197	0xbe86c3b9	-0.263212
198	0x3fc86a7f	1.56575
199	0xbe495183	-0.1966
200	0x3d33334e	0.0437501
201	0xbe0e6bc6	-0.139083
202	0x3ec95af3	0.393272
203	0x3ec526d9	0.385062
204	0xbf4f7e6f	-0.810523
205	0x3f09a6b5	0.5377
206	0x3e8f7a70	0.280231
207	0x3d74f10e	0.0598002
208	0x3f98801f	1.19141
209	0x3e7813cb	0.242263
210	0xbecfe0f0	-0.406013
211	0x3f0f6f7e	0.560295
212	0xbcb46d25	-0.0220247
213	0x3f6adb83	0.917412
214	0x3eea923e	0.458147
215	0xbf1aa8b9	-0.604137
216	0x3e5457c1	0.207366
217	0xbdc25793	-0.0948936
218	0x3f27ace6	0.654982
219	0x3de8815e	0.113528
220	0x3dcaccad	0.0990232
221	0xbf437953	-0.76357
222	0xbdef9097	-0.116975
223	0xbe2760bf	-0.163455
224	0xbd2712ae	-0.0407893
225	0x3c69f6a9	0.01428
226	0xc03646f1	-2.84808
227	0xbf5a85ba	-0.853603
228	0x3fb5c971	1.42021
229	0xbdb06bbe	-0.086143
230	0xbfd1d591	-1.63933
231	0xbe0f5e42	-0.140008
232	0x3de0a0f5	0.109682
233	0xbdfb738e	-0.122779
234	0x3e32135e	0.173902
235	0xbf08a2ba	-0.533733
236	0xbea3f0fe	-0.320198
237	0x3e1f1f58	0.155393
238	0xbea1a0f1	-0.315681
239	0x3f1930ad	0.598399
240	0x3f83ea0c	1.03058
241	0xbd1c8df0	-0.0382213
242	0xbe3244e9	-0.174091
243	0xbfe6e243	-1.80378
244	0x3d7ea268	0.0621666
245	0xbeccb146	-0.39979
246	0x3fbdc140	1.48246
247	0xbed9d3cc	-0.425444
248	0xbffac765	-1.95921
249	0x3e65df65	0.224485
250	0x3de646f1	0.11244
251	0x3df61805	0.120163
252	0xbe8a7b70	-0.270473
253	0xbe37b99d	-0.179419
254	0x3e46c3b9	0.194106
255	0xbe63736d	-0.22212

Operation_5_Add_B f4 [50]
0	0x3fb97bc8	1.44909
1	0xbfbf2e49	-1.4936
2	0xbfbeef0b	-1.49167
3	0xc057e1b1	-3.37315
4	0xbecd31ba	-0.40077
5	0x3e8cd812	0.275086
6	0x3f2b1b8b	0.668389
7	0xc03bdfb9	-2.93553
8	0xbff438b0	-1.90798
9	0xc02c6fe7	-2.69433
10	0x400cee0f	2.20203
11	0xbfdef1aa	-1.74175
12	0x3faf19a4	1.36797
13	0xc07f68f1	-3.99078
14	0x3f279496	0.654611
15	0x3f8eba9d	1.11507
16	0xbf895476	-1.07289
17	0x3e44573a	0.191739
18	0xbf46c11a	-0.776384
19	0xbff470b9	-1.90969
20	0x3ed4588a	0.414738
21	0x3fe81e79	1.81343
22	0x3ee4bc27	0.446748
23	0xbee105c0	-0.439497
24	0xbce55087	-0.0279925
25	0xbf7ccc14	-0.987489
26	0xbfafa0f9	-1.3721
27	0x3f88cfc0	1.06884
28	0xbfd03516	-1.62662
29	0x3f40eb03	0.753586
30	0x3e42e6eb	0.190334
31	0x40151801	2.32959
32	0x4002b3e5	2.04223
33	0xbf2e7d56	-0.6816
34	0x3e5fd977	0.218603
35	0xbf29dacf	-0.663495
36	0x3da1bf60	0.0789783
37	0x3f9bfb16	1.2186
38	0x3fe60b4e	1.79722
39	0x3d19c6cb	0.0375431
40	0xc04c09ff	-3.18811
41	0x3ec27760	0.379817
42	0x3f448b22	0.767748
43	0xbded44dd	-0.115854
44	0xbfcb40a3	-1.58791
45	0xbeac09e5	-0.336013
46	0xbf69acde	-0.912794
47	0x3fbdce07	1.48285
48	0x3e818d04	0.253029
49	0xbfb00cc8	-1.37539

Operation_6_MatMul_W f4 [50, 50]
0	0xbf255a5c	-0.64591
1	0x3e00ae10	0.125664
2	0xc0c5e94f	-6.18473
3	0xbbcb0913	-0.00619615
4	0x3df316e3	0.118696
5	0x3e8ab431	0.270906
6	0xbd8baf96	-0.068206
7	0xbf363583	-0.711754
8	0x3b8e78ea	0.00434791
9	0x3caad3e9	0.020853
10	0xbd102470	-0.035191
11	0xbf28b524	-0.659014
12	0xbcc35f66	-0.0238492
13	0x3b73ad61	0.00371822
14	0x3d5dd59e	0.0541588
15	0x3e0100e7	0.12598
16	0xbf9d2a30	-1.22785
17	0x3ea0984e	0.313662
18	0xbdc38ea3	-0.0954869
19	0x3ea12770	0.314754
20	0x39d07d06	0.00039766
21	0xbb517b5d	-0.00319644
22	0x3dee47dc	0.116348
23	0xbd796fc3	-0.0608976
24	0x3e39f773	0.181608
25	0xbcd98f1d	-0.0265575
26	0xbebcdc66	-0.368869
27	0x3d784b1b	0.0606185
28	0xbb019dfa	-0.0019778
29	0xbf3b3205	-0.731232
30	0x3df4e22a	0.119572
31	0x3d6f6d26	0.0584537
32	0x3e6460aa	0.223025
33	0xbdd220ff	-0.102602
34	0xbe999a20	-0.300004
35	0x3d438d53	0.0477422
36	0xbeb280d0	-0.348639
37	0xbcbd647a	-0.0231192
38	0x3e2a01ef	0.166023
39	0x3e79c993	0.243933
40	0xbd0d6e48	-0.034529
41	0x3e082492	0.132952
42	0x3dd5ac8a	0.104333
43	0x3e5f6d33	0.21819
44	0x3a0aba47	0.000529204
45	0xbd865732	-0.065596
46	0xbdbec8c8	-0.0931564
47	0xbdbb5668	-0.0914734
48	0x3d1284b8	0.0357711
49	0xbdf29564	-0.118449
50	0xbe9d9c8d	-0.307835
51	0xbcebf587	-0.0288036
52	0x3f51795b	0.818258
53	0xbdac263c	-0.0840573
54	0xbd6bbfa1	-0.0575558
55	0xbfa18a33	-1.26203
56	0x3daeea13	0.0854074
57	0xbdb6a0dc	-0.089174
58	0x3e6d0bb7	0.23149
59	0xbd6677e9	-0.0562667
60	0xbd8145f3	-0.0631217
61	0x3e1e4a7b	0.154581
62	0xbc9d9bbd	-0.0192393
63	0x3c0bec52	0.00854023
64	0xbd9e4d0d	-0.0772954
65	0x3e69203a	0.227662
66	0xbfa184f5	-1.26187
67	0x3dd099e1	0.101856
68	0xbd4b1a45	-0.0495856
69	0xbd82ae81	-0.0638094
70	0xbd0bb906	-0.034112
71	0x3ccc1af6	0.0249152
72	0x39e38029	0.000433923
73	0x3e54241c	0.207169
74	0x3e0a1273	0.134836
75	0x3cae9a7d	0.0213139
76	0xc0f513fd	-7.65869
77	0xbd572820	-0.0525285
78	0x3d6402a9	0.0556666
79	0x3e18711d	0.148869
80	0xbb85fe72	-0.00408917
81	0x3cbb5a49	0.0228702
82	0x3de5ad54	0.112147
83	0xbc1a1804	-0.00940514
84	0x3e220ab7	0.158244
85	0x3e791bc5	0.24327
86	0xbdb2a701	-0.0872326
87	0x3c9be42c	0.0190297
88	0x3e2ae643	0.166894
89	0xbdd49e88	-0.103818
90	0x3cd13b92	0.0255411
91	0x3dfe9292	0.124303
92	0xbd0885c6	-0.0333307
93	0xbf5717ce	-0.840207
94	0x3dcd5d81	0.100276
95	0xbc43dccf	-0.0119545
96	0x3d73458d	0.0593925
97	0xbc7db6e5	-0.0154855
98	0x3cb0f60c	0.0216017
99	0xc0643516	-3.56574
100	0x3fabb4f6	1.34146
101	0xbded24e1	-0.115793
102	0xc053c8c9	-3.30913
103	0xbee31316	-0.443505
104	0x3c032fcb	0.008007
105	0xbf2282a5	-0.634806
106	0xc08bded3	-4.37095
107	0x3edb3f21	0.428216
108	0x3ecd4c98	0.400975
109	0x3d4961de	0.0491656
110	0x3e1a8976	0.150915
111	0xbf2422ab	-0.641154
112	0xbe63d9ec	-0.222511
113	0xbeb1042e	-0.345735
114	0x3cf1b732	0.0295063
115	0x3f575233	0.841098
116	0xc029be23	-2.65223
117	0x3cc5a8b6	0.0241283
118	0x3d28bbfc	0.0411949
119	0x3e582385	0.211073
120	0x3bb67e6c	0.00556927
121	0x3f42c7a8	0.760859
122	0xbeac65e9	-0.336715
123	0x3f9fe32a	1.24912
124	0xbf4b9f34	-0.795398
125	0x3f27f77b	0.65612
126	0xc044176e	-3.06393
127	0x3ece9ad4	0.403525
128	0x3e8843a2	0.266141
129	0xbe82ec07	-0.255707
130	0x3ea17a25	0.315385
131	0xbd3f73b3	-0.0467412
132	0x3ee17f20	0.440423
133	0x3e7e5860	0.248384
134	0xbe3eea64	-0.186441
135	0xbf1077de	-0.564329
136	0xbfc093c9	-1.50451
137	0xbf3005e6	-0.68759
138	0xbeae34b9	-0.340246
139	0xbd348924	-0.0440761
140	0x3e5cf180	0.215765
141	0x3eb0fc93	0.345677
142	0x3f77c47e	0.967842
143	0x3ed4f5b2	0.415937
144	0xbc2ad37e	-0.0104264
145	0xbf0160e9	-0.505385
146	0x3f0b485e	0.544073
147	0x3e98d0cc	0.298468
148	0xbf1b23ee	-0.606017
149	0xc0ab29f1	-5.34887
150	0x3e0ba0e8	0.136356
151	0x3e71feeb	0.236324
152	0xc0f3bc7f	-7.61676
153	0x3de630ec	0.112398
154	0x3d806332	0.0626892
155	0xbc8515b4	-0.0162457
156	0x3e3034f4	0.172077
157	0xbebe427c	-0.371601
158	0x3db3d0e8	0.0878008
159	0x3d33ec97	0.0439268
160	0x3db6cf6a	0.0892628
161	0xbeefe73a	-0.468561
162	0x3d9a21b5	0.0752596
163	0x3df9c0ec	0.12195
164	0xbc1db552	-0.00962575
165	0x3e360675	0.177759
166	0x3f30b578	0.690269
167	0xbf7ab24a	-0.979283
168	0x3bf24a60	0.00739412
169	0xbe35d356	-0.177564
170	0xbc601f25	-0.0136793
171	0x3d28fcc9	0.0412567
172	0x3d8071ee	0.0627173
173	0x3c99216f	0.0186927
174	0xbe03ad5c	-0.128591
175	0xbd91ba72	-0.0711564
176	0xbf2973c9	-0.661923
177	0x3cd71d1d	0.026259
178	0xbd5f4d88	-0.0545173
179	0xc038cb29	-2.8874
180	0xbd7d25fb	-0.0618038
181	0x3d3523b3	0.0442235
182	0xbcc2b0ea	-0.023766
183	0xbc258ad4	-0.0101039
184	0xc036ea21	-2.85804
185	0xbfe5dc72	-1.79579
186	0x3e85a37f	0.261013
187	0x3d34ddf8	0.044157
188	0xbc74bdad	-0.0149378
189	0x3e0c7150	0.137151
190	0x3bb4b0a1	0.00551422
191	0xbf38ebcc	-0.722348
192	0x3cea50a1	0.0286029
193	0x3b8a40a1	0.00421913
194	0xbf055d81	-0.520958
195	0xbde78078	-0.113038
196	0x3c99765e	0.0187332
197	0xbd99a8b3	-0.0750288
198	0x3c281924	0.0102599
199	0xbe253d64	-0.161367
200	0xc0417343	-3.02266
201	0x3d95573d	0.0729203
202	0x3fe6caff	1.80307
203	0x3dad716d	0.084689
204	0xbdb1476b	-0.086562
205	0xbceda702	-0.0290103
206	0xbd7f415e	-0.0623182
207	0x3f15be90	0.584939
208	0xbda96207	-0.0827065
209	0xbdd75c8e	-0.105157
210	0x3ebafc26	0.365205
211	0xbf9b6849	-1.21412
212	0x3e4994e2	0.196857
213	0xbe58b439	-0.211625
214	0xbde3326a	-0.110936
215	0x3f057bfa	0.521423
216	0x3f067d35	0.525348
217	0x3e9e6eeb	0.30944
218	0x3e25d56f	0.161947
219	0x3e6552e3	0.223949
220	0x3cbd8f78	0.0231397
221	0xbe54bfd3	-0.207763
222	0x3d93eab3	0.072225
223	0x3e38090b	0.179722
224	0x3daea4c4	0.0852752
225	0x3da9fbf5	0.0830001
226	0x3e35d5f5	0.177574
227	0xbd0a195e	-0.0337156
228	0x3dac3b92	0.084098
229	0xc0678e9f	-3.61808
230	0x3c7df48d	0.0155002
231	0xbddf6e3f	-0.109097
232	0x3e5d9cf1	0.216419
233	0xbd1244a6	-0.03571
234	0x3deb502b	0.114899
235	0x3f0c8302	0.548874
236	0x3e0d2b2c	0.13786
237	0xbd80395b	-0.0626094
238	0x3e5909f2	0.211952
239	0xbe1109d0	-0.141639
240	0x3e55a46a	0.208635
241	0x3e4911cf	0.196357
242	0x3e4ed6fe	0.201992
243	0x3cda401d	0.0266419
244	0xbd5151b2	-0.0511033
245	0x3e510ba6	0.204146
246	0x3e4d72bd	0.200633
247	0xbafead45	-0.00194303
248	0x3d8f2d8d	0.0699111
249	0x3f3bcdee	0.733611
250	0xbf22fd97	-0.636682
251	0xbc1c9cae	-0.00955884
252	0xc0185f5b	-2.38082
253	0xbe419d67	-0.189077
254	0xbd01d8b3	-0.0317008
255	0x3e7321a3	0.237433

Operation_6_Add_B f4 [50]
0	0xbf0cc3b1	-0.549861
1	0x3df54110	0.119753
2	0xbfdf5f1c	-1.74509
3	0xbd521c47	-0.0512965
4	0x3e79afe2	0.243835
5	0xbf827ab7	-1.01937
6	0x3f48f0d8	0.784925
7	0xbfaa69ad	-1.33135
8	0x3f83c84b	1.02955
9	0xbe8cface	-0.275351
10	0xbe568662	-0.209497
11	0x3ca129b1	0.0196732
12	0x3e1bc72e	0.152127
13	0xbf195d70	-0.599082
14	0x3e9f37b9	0.310972
15	0xbf0e9e5e	-0.557104
16	0xbeb57aff	-0.354454
17	0xbeb9ecd5	-0.363135
18	0x3d508015	0.0509034
19	0x3f0f3b21	0.559496
20	0xbd04290a	-0.0322657
21	0xbcdd7881	-0.027035
22	0x3e9a03e6	0.300811
23	0x3ebbfa8f	0.367146
24	0x3ee7ec57	0.452975
25	0x3e943201	0.289444
26	0xc03cf862	-2.95266
27	0x3e9255b0	0.28581
28	0x3e095f24	0.134152
29	0xbdbe081b	-0.0927889
30	0x3e1ecbb8	0.155074
31	0x3c7eb801	0.0155468
32	0xbe92be8c	-0.28661
33	0xb9396a5e	-0.000176826
34	0xbf257dd0	-0.646451
35	0x3fb8d79d	1.44408
36	0x3eb466f5	0.352348
37	0x3f1a8f9f	0.603754
38	0x3eda8848	0.426821
39	0x3f5e976c	0.869498
40	0x3ef5373b	0.478937
41	0x3e901909	0.281441
42	0xbee03644	-0.437914
43	0x3c16a8b9	0.0091955
44	0xbea7e133	-0.32789
45	0x3e2810a5	0.164126
46	0xbe6cdfad	-0.231322
47	0x3f082dcf	0.531949
48	0x3eb55d5f	0.354228
49	0xc00a7992	-2.16367
