networks/onnx/ACASXU_run2a_2_1_batch_2000.onnx (onnx, 55914 bytes, 15 tensors)

input_AvgImg f4 [1, 1, 5]
0	0x00000000	0.0
1	0x00000000	0.0
2	0x00000000	0.0
3	0x00000000	0.0
4	0x00000000	0.0

Operation_1_MatMul_W f4 [5, 50]
0	0x3cc6b9f9	0.0242586
1	0xc006bd66	-2.10531
2	0xbd093be9	-0.0335044
3	0x3b98dd72	0.00466507
4	0xbef7926c	-0.483539
5	0xbd7ed6f0	-0.0622167
6	0xbba7e790	-0.00512404
7	0x3e952264	0.291278
8	0x3e3fa3ba	0.187148
9	0xbdd5097d	-0.104022
10	0xbc0b2c8f	-0.00849451
11	0x3cec3eed	0.0288386
12	0xbf81e0b5	-1.01467
13	0x3c89fa55	0.016843
14	0x3a73b19c	0.000929618
15	0xc00510f5	-2.07916
16	0xbfd3a1a1	-1.65337
17	0xbf2bc4d2	-0.670972
18	0xbb92bf60	-0.00447838
19	0xbd1ce564	-0.0383047
20	0xbc346273	-0.0110098
21	0x3a94b788	0.00113462
22	0xbf83b15b	-1.02885
23	0xbe882fd7	-0.26599
24	0xbc2662d6	-0.0101554
25	0x3c0cf2b7	0.00860279
26	0x3d9829f8	0.0742988
27	0x3c505518	0.0127156
28	0xbfcb3db0	-1.58782
29	0xbfdb4cc2	-1.71328
30	0xbea12cf1	-0.314796
31	0x3a857723	0.00101826
32	0xbf4c59fb	-0.798248
33	0xbd9dd617	-0.0770685
34	0x3b20a1cc	0.00245105
35	0x3df06d50	0.117396
36	0xbd533490	-0.0515638
37	0xbfe97a78	-1.82405
38	0xbeaba1f5	-0.33522
39	0xbd65abdc	-0.0560721
40	0xc00184a1	-2.02372
41	0x3c23f2b9	0.0100066
42	0xbe3e7147	-0.185979
43	0x3cda4419	0.0266438
44	0xbd9406cd	-0.0722786
45	0xbecd82ba	-0.401388
46	0xbc1610a3	-0.00915924
47	0x3d641bee	0.0556907
48	0xbcacaf20	-0.0210796
49	0xbbcb72db	-0.00620876
50	0x3e5c86cf	0.215358
51	0xbd721b05	-0.0591078
52	0xbe5eb032	-0.217469
53	0xbdc6bbc1	-0.0970378
54	0xbcd15f6e	-0.0255582
55	0x39db0802	0.000417769
56	0x3b2aa961	0.00260409
57	0xc009cd36	-2.15315
58	0x3fbb8ca8	1.46523
59	0x3bffb166	0.00780313
60	0xbd033970	-0.0320372
61	0x3fd19e30	1.63764
62	0x3dcaba61	0.0989883
63	0x3cdcea51	0.0269672
64	0x3ae2b973	0.00172977
65	0xbaf86e10	-0.00189537
66	0x3da79025	0.0818179
67	0xbb6123f2	-0.00343537
68	0x3edf8573	0.436565
69	0xbf8525ee	-1.04022
70	0x3f79ad10	0.975297
71	0x3cc9ec7d	0.0246489
72	0x3cb5ad97	0.0221775
73	0xbe9f0953	-0.310618
74	0x3f9c61fa	1.22174
75	0x3ca01f90	0.0195463
76	0x3d93906b	0.0720528
77	0xbbccd9b8	-0.00625154
78	0xbcfd944b	-0.0309545
79	0x3bd3a396	0.00645871
80	0x3f0ba398	0.545465
81	0xbf5ea5c6	-0.869717
82	0xbe3fbb0e	-0.187237
83	0x3e83955f	0.256999
84	0x3e88b806	0.267029
85	0x3f996c0d	1.19861
86	0x3e43fb7a	0.191389
87	0x3c19972b	0.00937442
88	0x3fb1fb94	1.39049
89	0x3f05c1a4	0.522486
90	0x3d9607df	0.0732572
91	0x3f3c4e72	0.735572
92	0x3fa7e426	1.31165
93	0xbe861bb0	-0.26193
94	0x3d470cb4	0.0485961
95	0xbf893fd1	-1.07226
96	0x3c4d3898	0.0125257
97	0x3fa0fbfc	1.25769
98	0x3ea239e7	0.316848
99	0xbd9211be	-0.0713229
100	0xbfd66a55	-1.67512
101	0xbc7edc14	-0.0155554
102	0x3f28e758	0.65978
103	0xbdd47ae1	-0.10375
104	0x3c9c9e9c	0.0191186
105	0xbefa367e	-0.488697
106	0x39d03424	0.000397117
107	0x3ed0fb22	0.408166
108	0xbeda57c9	-0.426451
109	0xbbc0a5a2	-0.00587912
110	0x3dc5bdd7	0.0965535
111	0x3e9ca4d3	0.305945
112	0xbdc0d43b	-0.0941548
113	0xbf1a6eb9	-0.603252
114	0xbd4d0679	-0.050055
115	0x3daaf7c6	0.0834804
116	0xbdb1b618	-0.0867731
117	0xbd101b1b	-0.0351821
118	0xbf0c994a	-0.549214
119	0xbee1cda3	-0.441022
120	0xbed5c0fd	-0.417488
121	0xbd8cf5f5	-0.0688285
122	0xbaad70e7	-0.00132325
123	0xbd011e93	-0.0315233
124	0x3f44fd5d	0.769491
125	0xbbdca5b3	-0.00673362
126	0xbd0b41b2	-0.0339982
127	0x3fe0cbd1	1.75622
128	0x3d909da7	0.0706132
129	0xbb149579	-0.00226721
130	0xbd727731	-0.0591957
131	0x3f53eef6	0.827865
132	0x3e2f7836	0.171357
133	0xbec832fd	-0.391014
134	0xbe8d9e62	-0.276599
135	0xbf86cd9f	-1.05315
136	0x3f795571	0.97396
137	0xbbcc0653	-0.00622634
138	0xbfc273d6	-1.51916
139	0xbfbe77c4	-1.48803
140	0xbdece3de	-0.115669
141	0xbf5663fa	-0.837463
142	0xbecc213a	-0.398691
143	0xbf15a2f9	-0.584518
144	0xbf8abd90	-1.08391
145	0x3f9a1230	1.20368
146	0xbccb07d1	-0.024784
147	0xbf9da46a	-1.23158
148	0xbf1a0f0a	-0.601792
149	0x3dec2efd	0.115324
150	0x3d487478	0.0489392
151	0x3a13d60b	0.00056395
152	0x3e8ea7ad	0.278623
153	0xbfa80789	-1.31273
154	0xbf83414a	-1.02543
155	0x3ed6aca8	0.419286
156	0xbec136c6	-0.377371
157	0xbd977c53	-0.0739676
158	0x3e36876e	0.178251
159	0xbd63bd24	-0.0556003
160	0x3f6ddd7f	0.929161
161	0x3e0f1844	0.139741
162	0xbc17965f	-0.00925216
163	0x3e03ab00	0.128582
164	0xbf209d5a	-0.627401
165	0xbb9e23ad	-0.00482603
166	0x3a739222	0.000929149
167	0x3ea86b59	0.328944
168	0xbdeaba38	-0.114613
169	0x3d8db18c	0.0691863
170	0x3e90bf3c	0.282709
171	0xbfadc194	-1.35747
172	0xbba6fa40	-0.00509575
173	0x3d814d80	0.0631361
174	0x3eca28dd	0.394843
175	0x3f311dac	0.691859
176	0xbf0e0afa	-0.554855
177	0x3d2537fe	0.0403366
178	0x3bd86399	0.00660367
179	0xbea9c66d	-0.331592
180	0x3db1621b	0.0866129
181	0x3e9e05ee	0.308639
182	0x3d83efbc	0.0644221
183	0xbf3084b6	-0.689525
184	0xbfd3b1af	-1.65386
185	0xbd26ad63	-0.0406927
186	0x3df59ddc	0.11993
187	0xbc3b8de0	-0.0114474
188	0x3d873f17	0.0660383
189	0x3ef76be3	0.483245
190	0xbc526528	-0.0128415
191	0x3d12e382	0.0358615
192	0xbe8fcd8a	-0.280865
193	0xbeb85ab4	-0.360067
194	0x3e4b1855	0.198335
195	0xbd54f179	-0.0519881
196	0xbf0da166	-0.553244
197	0x3d9bae7c	0.0760164
198	0xbe8d3565	-0.275798
199	0xbfcaa359	-1.58311
200	0xbcafc8e6	-0.0214581
201	0x3bef193d	0.00729671
202	0xbfd6171a	-1.67258
203	0x3ee0be94	0.438954
204	0xbf15c0ba	-0.584972
205	0xbf7ca2ec	-0.986861
206	0xbf104567	-0.563559
207	0xbd9b0a3a	-0.0757031
208	0xbe636bd3	-0.222091
209	0xbcf7934a	-0.0302216
210	0xbf9bc6a8	-1.217
211	0xbdbd121c	-0.0923197
212	0x3d5b56ee	0.0535497
213	0xbed89d28	-0.423074
214	0xbef24bfd	-0.473236
215	0x3c67451e	0.0141156
216	0xbcd5867a	-0.0260651
217	0xbad1a650	-0.0015995
218	0xbfcd91bc	-1.60601
219	0xbdfaa1d7	-0.122379
220	0xbf39ff2e	-0.72655
221	0x3f5625b7	0.836513
222	0xbe01fb83	-0.126936
223	0x3e64b839	0.223359
224	0xbea024f6	-0.312782
225	0xbf497d07	-0.787064
226	0xbfdcb09f	-1.72414
227	0xbcc917a1	-0.0245474
228	0xbd8f6703	-0.0700207
229	0xbe676534	-0.225972
230	0xbc3a153a	-0.0113576
231	0xbf72f380	-0.949028
232	0x3de3369c	0.110944
233	0xbf967caf	-1.17568
234	0xbf0f6b6e	-0.560233
235	0x3d8877ab	0.0666345
236	0xbd308066	-0.0430912
237	0xbe47d6b6	-0.195155
238	0xbe588b97	-0.21147
239	0xbfadce5b	-1.35786
240	0x3bc5d1c6	0.00603697
241	0xbe8d883c	-0.27643
242	0x3d74e6fd	0.0597906
243	0x3eac284e	0.336245
244	0x3bdf1bc4	0.00680873
245	0xbecd5b8a	-0.401089
246	0xbf34d057	-0.706304
247	0x3d65dbfd	0.056118
248	0x3e0972cd	0.134227
249	0xbf11d95e	-0.569723

Operation_1_Add_B f4 [50]
0	0x3e2677b4	0.162566
1	0xbf14f2ae	-0.581828
2	0xbf4d322f	-0.801547
3	0xbcfd273d	-0.0309025
4	0xbf4e5fd9	-0.80615
5	0xbd37fd4d	-0.0449193
6	0x3ecbe4ef	0.398231
7	0xbc53a23f	-0.0129171
8	0xbe1ab6d0	-0.151088
9	0xbdaabbbe	-0.0833659
10	0x3c8da1a9	0.017289
11	0x3e8dce3a	0.276964
12	0xbe06f36f	-0.131788
13	0x3e260dcc	0.162162
14	0x3dc2fc84	0.0952082
15	0xbf005693	-0.501321
16	0xbea34507	-0.318886
17	0xbd99080f	-0.0747224
18	0xbeef991c	-0.467965
19	0xbe4a3162	-0.197454
20	0xbdff761d	-0.124737
21	0xbe26a338	-0.162732
22	0xbd835eed	-0.0641459
23	0x3e5377e2	0.206512
24	0xbe836b90	-0.25668
25	0x3e461f19	0.193478
26	0xbf698330	-0.912158
27	0x3b62541e	0.0034535
28	0xbe978078	-0.295902
29	0xbf34e842	-0.706669
30	0x3d5312b2	0.0515315
31	0xbdcdf9be	-0.100574
32	0xbde7b5f2	-0.11314
33	0xbf2f8a6e	-0.685706
34	0xbf4160b7	-0.755382
35	0x3f1cbfa1	0.612299
36	0x3db8a512	0.0901586
37	0xbef4ac2a	-0.477876
38	0xbd8df2b7	-0.0693106
39	0xbf214fce	-0.630124
40	0xbeffd999	-0.499707
41	0x3e1f5169	0.155584
42	0xbeb89742	-0.360529
43	0x3da88ac1	0.0822959
44	0xbd401803	-0.0468979
45	0x3d5a4ff3	0.0532989
46	0x3ee49d17	0.446511
47	0xbeebe511	-0.460732
48	0x3e25f99c	0.162085
49	0xbf1e7200	-0.618927

Operation_2_MatMul_W f4 [50, 50]
0	0x3de12f90	0.109954
1	0xc00129b3	-2.01817
2	0xc04a4e27	-3.16102
3	0xbcbaa11b	-0.0227819
4	0xc006ba49	-2.10512
5	0x3eae5109	0.340462
6	0x3e639e6b	0.222284
7	0x3de045bb	0.109508
8	0x3ee796c0	0.452322
9	0x3ebbbb41	0.366663
10	0x3f523c53	0.821233
11	0x3bed8a72	0.00724917
12	0xbf1bff04	-0.60936
13	0x3e338b48	0.175336
14	0x3f1418b5	0.578502
15	0x3caaf8d2	0.0208706
16	0xbe6bb83d	-0.230195
17	0x3b23f390	0.0025017
18	0x3eacfbfc	0.33786
19	0x3d9fe0c1	0.0780654
20	0xbf8ab50b	-1.08365
21	0x3e21f645	0.158166
22	0xbea4d424	-0.321931
23	0x3ed21db8	0.410383
24	0xbf4be4de	-0.796461
25	0xbfb20371	-1.39073
26	0x3e67f0aa	0.226504
27	0xbe28c6d6	-0.164821
28	0xbedc0b13	-0.429772
29	0x3ee60568	0.44926
30	0x3d1d06a1	0.0383364
31	0xbf856042	-1.042
32	0x3e4a1230	0.197335
33	0x3e893d96	0.268048
34	0x3e93f20a	0.288956
35	0xbec2e3a4	-0.380643
36	0x3e61ed5b	0.220632
37	0x3cbc1708	0.0229602
38	0xbe328c37	-0.174363
39	0x3e67ec35	0.226487
40	0xbd81f546	-0.0634561
41	0x3f497892	0.786996
42	0xbcd8bcfb	-0.0264573
43	0xbee257a8	-0.442075
44	0x3ef0c671	0.470264
45	0xbe822f6a	-0.254268
46	0xbeca95c8	-0.395674
47	0x3dc28375	0.0949773
48	0xbe5c347f	-0.215044
49	0xbd918c77	-0.0710687
50	0xbe620254	-0.220712
51	0x3ea897ea	0.329284
52	0xbf45840a	-0.771546
53	0xbd973d0b	-0.0738469
54	0x3ccc0592	0.024905
55	0x3f051149	0.519795
56	0x3ede3ef3	0.434074
57	0xbeb15550	-0.346354
58	0xbea3fc65	-0.320285
59	0xbf2e3140	-0.680439
60	0xbfed057d	-1.85173
61	0x3cda6f17	0.0266643
62	0xbfacfe9b	-1.35152
63	0x3d94b3fa	0.0726089
64	0x3db4a607	0.0882073
65	0xbd4dbf56	-0.0502313
66	0x408bba0a	4.36646
67	0x3eb68ab5	0.356527
68	0x3e65c52e	0.224385
69	0x3e388b54	0.180219
70	0xbea2b2e1	-0.317771
71	0x3f5c2928	0.860003
72	0xbe5a46e1	-0.213161
73	0xbed484b6	-0.415075
74	0x3fe84966	1.81474
75	0x3d0fd8f1	0.035119
76	0xbe4a7e31	-0.197747
77	0xbefa3e5c	-0.488757
78	0xbeab15d7	-0.334151
79	0xbe24cb9f	-0.160933
80	0xbc4753e7	-0.012166
81	0xbe9f08ee	-0.310615
82	0x3ed9b25f	0.425189
83	0x3d815ab6	0.0631613
84	0x3e98db49	0.298548
85	0xbf506834	-0.81409
86	0x3da0cb5f	0.0785129
87	0xbd300a6f	-0.0429787
88	0x3f147475	0.579902
89	0xbea34374	-0.318874
90	0x3ee8c112	0.454598
91	0xbb91b3b2	-0.00444647
92	0x3e94b48d	0.29044
93	0x3f04d5d8	0.518888
94	0xbe59a5ec	-0.212547
95	0xbef2e89f	-0.474431
96	0x3f747f88	0.955071
97	0x3f48b74e	0.784047
98	0xbf4330c6	-0.762463
99	0x409ea6b5	4.95785
100	0x3f5201ef	0.820342
101	0xbf9f8f9b	-1.24657
102	0xc01c7400	-2.44458
103	0xbf6dd5a2	-0.929041
104	0x3fba493d	1.45536
105	0x3e3afc05	0.182602
106	0xbe6c9e23	-0.231072
107	0xbeb788fd	-0.358467
108	0xbf9f29b3	-1.24346
109	0x40177cee	2.367
110	0x3f80d79d	1.00658
111	0xbcabf22c	-0.0209895
112	0x3fcfd9fd	1.62384
113	0x3f3b1ca8	0.730906
114	0x3fe1fc8f	1.76552
115	0xbd1fc8bd	-0.0390098
116	0xbe2bdf8f	-0.167845
117	0x3e97dc16	0.296601
118	0x400554a0	2.08329
119	0x3edb7b07	0.428673
120	0x3dd825e1	0.105541
121	0x3f4e2b06	0.805344
122	0xc07adfce	-3.91991
123	0x3c4c6386	0.0124749
124	0x3e946c33	0.289888
125	0xc04fe671	-3.24844
126	0xbe99b542	-0.300211
127	0xbf343600	-0.703949
128	0x3f67048a	0.902413
129	0xbd2a8e64	-0.0416397
130	0x3c8b6523	0.017016
131	0x3d1aa5b9	0.0377557
132	0xbd3e6bab	-0.0464894
133	0xbf6c4663	-0.922949
134	0xbf7f1ef3	-0.996566
135	0xbe4f2f98	-0.20233
136	0xbeb7a461	-0.358676
137	0x3bc5b7b0	0.00603386
138	0x3fe654b5	1.79946
139	0x403a4d55	2.91097
140	0xbe13879c	-0.144072
141	0x3ee74688	0.45171
142	0xc006f694	-2.1088
143	0x3fb3d220	1.40485
144	0xbf9cb5dd	-1.2243
145	0xbf31d420	-0.694643
146	0xbf053448	-0.520329
147	0xbf82e43b	-1.02259
148	0xbf25ba3d	-0.647373
149	0xbb2cbfe7	-0.00263595
150	0xbfd21c58	-1.64149
151	0x3f069fe0	0.525877
152	0x3f1fc3c6	0.624081
153	0x3dd6a833	0.104813
154	0xbdbc5239	-0.0919537
155	0x3f27a95d	0.654928
156	0xbefc2225	-0.492448
157	0x3f053f5b	0.520498
158	0xbdf2a305	-0.118475
159	0xbe8e529c	-0.277974
160	0x3f7f7ef6	0.998031
161	0xbd18b7d7	-0.0372847
162	0xbef5054b	-0.478556
163	0xbe57f738	-0.210904
164	0x3ea36263	0.31911
165	0x3ce83f84	0.0283506
166	0xbd106f19	-0.0352622
167	0xbcdf7eec	-0.0272822
168	0x3e7d2674	0.247217
169	0x40219e5a	2.52529
170	0x3fc73eff	1.55661
171	0xc02b3f53	-2.67574
172	0x3ece9164	0.403453
173	0xc09bed7c	-4.87274
174	0x3f28e497	0.659738
175	0x3e6ffa7f	0.234354
176	0x3f0d141a	0.551088
177	0xbf526fc6	-0.822018
178	0x3e30068e	0.1719
179	0xbee819b1	-0.453321
180	0xbc1ba1d2	-0.00949903
181	0x3edd6a9c	0.432454
182	0xbe458b82	-0.192915
183	0xbe8246e1	-0.254447
184	0x3d08e079	0.0334172
185	0xbe787d2c	-0.242665
186	0x3ca001c8	0.0195321
187	0xbd385c32	-0.0450098
188	0xbeb9c25d	-0.362811
189	0x3f04fcf8	0.519485
190	0x3f7aec18	0.980165
191	0xbde98aa8	-0.114034
192	0xbe16ad71	-0.147146
193	0x3f4980e5	0.787123
194	0x4004516e	2.06747
195	0xbe802de0	-0.25035
196	0xbf029ee4	-0.510237
197	0xbdc5a980	-0.0965147
198	0x3e899a84	0.268757
199	0xbe14e2b0	-0.145396
200	0xbb3305fc	-0.00273168
201	0x3fb09f41	1.37986
202	0xbfbcebee	-1.47595
203	0xc0248fb0	-2.57127
204	0x3ca7253e	0.0204035
205	0x3f6bf39d	0.921686
206	0x3f7b3f42	0.981434
207	0x3fa32032	1.27442
208	0x3e0ff866	0.140596
209	0xbf14d1fa	-0.581329
210	0x3e045b6c	0.129255
211	0x3d3d8ac0	0.0462749
212	0x3f045650	0.516942
213	0x3fcd1fb4	1.60253
214	0x3f816191	1.01079
215	0x3cd76e7c	0.0262978
216	0x3ee2e3c5	0.443144
217	0x3e50507a	0.203432
218	0xbe9b59de	-0.30342
219	0xbee29803	-0.442566
220	0xbecf4ea9	-0.404897
221	0xbfba45f6	-1.45526
222	0xbe32e515	-0.174702
223	0xbcbece07	-0.0232916
224	0xbf81743f	-1.01136
225	0x3f398c3b	0.724796
226	0xbd23448e	-0.0398603
227	0x3fcfebaf	1.62438
228	0xbeaf8e7e	-0.342884
229	0x3f6ff6c2	0.937359
230	0x3c624646	0.0138107
231	0x3a606b90	0.000856095
232	0x405c8d65	3.44613
233	0xbfc0cd21	-1.50626
234	0xbfcfaf64	-1.62254
235	0xbdc4c463	-0.0960777
236	0xbfc79e5a	-1.55952
237	0x3c1ccea3	0.00957075
238	0x403ba8d6	2.93218
239	0xbf6227bf	-0.883419
240	0x40510a91	3.26627
241	0xbff0912a	-1.87943
242	0x3f23fc87	0.640572
243	0x3ff8471b	1.93967
244	0x3f940f67	1.15672
245	0x3fb545b7	1.41619
246	0xbfeda60d	-1.85663
247	0x3f019525	0.506182
248	0x3ff9af3a	1.95066
249	0x3f0372d6	0.513471
250	0x3f90710d	1.12845
251	0x3f375254	0.7161
252	0xbf85ceaf	-1.04537
253	0xbf94dfce	-1.16308
254	0xbf61798e	-0.880761
255	0xbe4f6be3	-0.20256

Operation_2_Add_B f4 [50]
0	0x3f0d7b96	0.552667
1	0xbf267ff6	-0.65039
2	0x3f4c3ec9	0.797833
3	0xbeb96f00	-0.362175
4	0x3f1cd50f	0.612626
5	0x3f40bac7	0.75285
6	0xbdfa6e76	-0.122281
7	0xbb875056	-0.00412945
8	0xbe10d90e	-0.141453
9	0xbf280f99	-0.656488
10	0x3e7d8c6d	0.247606
11	0xbcb59ee9	-0.0221705
12	0x3f3d654d	0.739827
13	0xbe67b6bb	-0.226283
14	0x3f7307f2	0.94934
15	0xbbc1f5ef	-0.00591921
16	0xbf19dc62	-0.601019
17	0xbe68650e	-0.226948
18	0x3f850c5f	1.03944
19	0xbd683665	-0.0566925
20	0xbf6a2446	-0.914616
21	0x3e274081	0.163332
22	0x3e9c1d2a	0.30491
23	0xbf355497	-0.708322
24	0x3fa3afb8	1.2788
25	0x3f86c472	1.05287
26	0xbe66d762	-0.225431
27	0xbe7163fe	-0.235733
28	0x3e151a87	0.145609
29	0x3f4a6e98	0.79075
30	0xbbd5f20f	-0.0065291
31	0x3f1b4b73	0.60662
32	0xbf2cd728	-0.675158
33	0x3f30929b	0.689737
34	0xbd221a3c	-0.0395758
35	0x3cdbc91f	0.0268293
36	0xbedb9d1b	-0.428933
37	0xbcc7a32d	-0.0243698
38	0xbfa5018e	-1.28911
39	0xbe777532	-0.241658
40	0xbec0afe6	-0.376342
41	0xbdff7b5b	-0.124747
42	0xbe933e14	-0.287583
43	0xbed3f3bf	-0.413969
44	0x3dc181fb	0.0944862
45	0x3e26aad2	0.162761
46	0xbeae15ec	-0.340011
47	0xbeccd0bb	-0.40003
48	0x3edceb14	0.431481
49	0xbfc1cdb3	-1.51409

Operation_3_MatMul_W f4 [50, 50]
0	0xbec583a5	-0.38577
1	0xbef2e233	-0.474382
2	0xbf0aed03	-0.542679
3	0x3eb11340	0.34585
4	0x3e1aefb3	0.151305
5	0xbaf57ac1	-0.00187286
6	0x3e6cf399	0.231398
7	0xbeabdc27	-0.335664
8	0xbe2c61d8	-0.168342
9	0x3f54e853	0.83167
10	0x3dcabc0e	0.0989915
11	0x3e2ee99a	0.170813
12	0xbe959d34	-0.292215
13	0x3f88de7f	1.06929
14	0xbf6c9d06	-0.924271
15	0xbfa4bc6a	-1.287
16	0x3e4aa822	0.197907
17	0xbed16180	-0.408947
18	0xbd008b76	-0.031383
19	0x3d752993	0.0598541
20	0x3f38c6b5	0.721782
21	0xbd588857	-0.0528644
22	0xbfbea25e	-1.48933
23	0x3f2fbf2f	0.686511
24	0x3d0351a9	0.0320603
25	0xbf3e0ba2	-0.742365
26	0xbffe454e	-1.98649
27	0xbf0d40cc	-0.55177
28	0x3e2d3bf3	0.169174
29	0xbeb0c77e	-0.345272
30	0x3d42ea60	0.0475868
31	0xbec55d81	-0.385479
32	0x3f3101d2	0.691434
33	0x3ea1b888	0.315861
34	0xbdf8ed1c	-0.121546
35	0x3f16c2f0	0.588912
36	0xbf1fd588	-0.624352
37	0xbc2c4f7f	-0.010517
38	0xbed84d12	-0.422463
39	0x3f3c8206	0.736359
40	0xbe463ae2	-0.193584
41	0xbcbe39c2	-0.0232209
42	0xbf0d5cfb	-0.5522
43	0xbef248b6	-0.473211
44	0xc00ed5d0	-2.2318
45	0xbf65f81a	-0.898317
46	0xbe49b7bf	-0.19699
47	0x3ea35350	0.318995
48	0xbe985426	-0.297517
49	0xbe78b5cc	-0.242881
50	0xbdf9c172	-0.121951
51	0xbf69c6e3	-0.913191
52	0x3eaf3c4f	0.342257
53	0x3ce89abe	0.0283941
54	0xbf4826fe	-0.781845
55	0xbf669e6f	-0.900855
56	0x3f82685e	1.01881
57	0xbf041bb9	-0.516048
58	0x3c9d30c8	0.0191883
59	0xc00024b3	-2.00224
60	0xbe0f190d	-0.139744
61	0xbf6418d7	-0.891004
62	0x3ec5b74a	0.386164
63	0xbf214fad	-0.630122
64	0x3f8957bc	1.07299
65	0xc0046cf4	-2.06915
66	0xbf2442d9	-0.641645
67	0x3f8fedfa	1.12445
68	0xbe0eccc4	-0.139453
69	0x3f0ff163	0.562277
70	0x3f5cf14e	0.863057
71	0x3f0084b6	0.502025
72	0x3f61ae2e	0.881564
73	0xbf85feda	-1.04684
74	0x3d85256e	0.0650128
75	0xbf02805a	-0.509771
76	0xbf98ad04	-1.19278
77	0xbec1d649	-0.378588
78	0xbe477293	-0.194773
79	0x3f330425	0.699282
80	0xbb69c8b1	-0.00356726
81	0x3c1bd5ff	0.00951147
82	0x3ef81f54	0.484614
83	0x3d1bf84e	0.0380786
84	0x3f59ac04	0.850281
85	0xc039c3df	-2.90258
86	0xbf3009c4	-0.687649
87	0xbf3b0ef5	-0.730697
88	0x40479c8d	3.11893
89	0x3f86f73c	1.05442
90	0x3f32ff7e	0.699211
91	0xba97ff10	-0.00115964
92	0xbea6f7a1	-0.326108
93	0x3d3a8984	0.0455413
94	0xbe222574	-0.158346
95	0x3f16c754	0.588979
96	0xbf519c17	-0.818788
97	0x3f1a26a2	0.602152
98	0xbfdd4f37	-1.72898
99	0xbf784242	-0.969761
100	0x3f892157	1.07133
101	0x3f18f51b	0.59749
102	0xbdcc79c1	-0.0998416
103	0x3e6e5647	0.232751
104	0xbf03e2a4	-0.515177
105	0x3f1390da	0.576429
106	0xbf3a8fe2	-0.728758
107	0xbe768f8e	-0.240782
108	0xbd2d670c	-0.0423346
109	0xbf967b0b	-1.17563
110	0xbf2ca3e8	-0.674376
111	0xbee1e647	-0.44121
112	0xbf1c7d70	-0.611289
113	0x3cc734dd	0.0243172
114	0x3e5703f3	0.209976
115	0xbfafe8bc	-1.37429
116	0xbed7bedb	-0.421378
117	0x3e111127	0.141667
118	0xbf3f7920	-0.747942
119	0xbee345d0	-0.443892
120	0x3d9b01a1	0.0756867
121	0xbf0c0e06	-0.547089
122	0xbfa3c116	-1.27933
123	0xbe991a54	-0.299029
124	0x3e49018e	0.196295
125	0xbf8e9b28	-1.11411
126	0x3dba446a	0.0909508
127	0x3f40b9aa	0.752833
128	0xbe5cc3a0	-0.21559
129	0xbe7c896e	-0.246618
130	0xbba246e7	-0.0049523
131	0xbe9ebb34	-0.310022
132	0x3e4944ed	0.196552
133	0xbebe9164	-0.372203
134	0x3dd87619	0.105694
135	0xbe774aba	-0.241496
136	0xbdf5fdce	-0.120113
137	0xbead4068	-0.338382
138	0x3cfe7628	0.0310622
139	0xbce23514	-0.0276132
140	0xbf268662	-0.650488
141	0xbcfd42b6	-0.0309156
142	0x3e3489d2	0.176307
143	0xbe04052d	-0.128926
144	0x3f8dac9b	1.10683
145	0x3e351548	0.176839
146	0xbca5c663	-0.0202362
147	0x3f5f74cd	0.872876
148	0x3e4ecf64	0.201963
149	0xbe1e2bd0	-0.154464
150	0xbe35c076	-0.177492
151	0x3f930d84	1.14885
152	0x3c93f00c	0.0180588
153	0xbda16adc	-0.0788171
154	0x3e8ee243	0.27907
155	0x3eb4a212	0.352799
156	0xbef977c9	-0.487242
157	0x3e1a3ad2	0.150615
158	0xbed0ecb7	-0.408056
159	0xbe68d152	-0.227361
160	0x3f81cd0c	1.01407
161	0x3f59b563	0.850424
162	0xbe1be271	-0.152231
163	0xbe3a31a5	-0.18183
164	0xbe791d58	-0.243276
165	0x3fbdd0fa	1.48294
166	0xbcfaf7ee	-0.0306358
167	0x3f1bd72c	0.608752
168	0xbf88fa05	-1.07013
169	0x3eb15b14	0.346398
170	0xbf46b2af	-0.776164
171	0x3d934acb	0.07192
172	0x3e0f327b	0.139841
173	0xbe9f0b8d	-0.310635
174	0x3dd06e5d	0.101773
175	0xbdf79421	-0.120888
176	0xbefa97e1	-0.48944
177	0x3d78888d	0.0606771
178	0xbef37f17	-0.475579
179	0x3df3d295	0.119054
180	0xbc77b1e8	-0.0151181
181	0xbe0e1f3a	-0.138791
182	0xbea086be	-0.313528
183	0x3e5caff7	0.215515
184	0x3e93bc90	0.288548
185	0x3f1ce3ef	0.612853
186	0x3dc68dee	0.0969504
187	0xbde23f25	-0.110472
188	0xbd51bf2a	-0.0512077
189	0x3e0e1933	0.138768
190	0xbe791a33	-0.243264
191	0xbd0762b0	-0.0330531
192	0x3ed18634	0.409227
193	0xbf4e732e	-0.806445
194	0xbe067c28	-0.131333
195	0x3f94302b	1.15772
196	0xbe6f86e4	-0.233913
197	0xbd7de58e	-0.0619865
198	0xbe622d51	-0.220876
199	0x3eeb46dc	0.459525
200	0x3ea9a73b	0.331354
201	0xbeff5c29	-0.49875
202	0xbdf3543b	-0.118813
203	0xbe7d2c38	-0.247239
204	0xbeaf3c4f	-0.342257
205	0xbe185447	-0.148759
206	0xbc940505	-0.0180688
207	0xbe8e8e3f	-0.278429
208	0xbf1b95a3	-0.607752
209	0xc022c8de	-2.54351
210	0x3ddd31ba	0.108005
211	0xbe1bd513	-0.15218
212	0xbe789939	-0.242772
213	0xbe5444e1	-0.207294
214	0xbe191601	-0.149498
215	0xbe5d9664	-0.216394
216	0xbc8e0653	-0.017337
217	0xbdd39192	-0.103305
218	0xbee145b7	-0.439985
219	0x3e387097	0.180117
220	0xbe572325	-0.210095
221	0x3cd27af7	0.0256934
222	0xbfde454e	-1.73649
223	0xbead71d2	-0.338759
224	0xbe2aed57	-0.166921
225	0xbf534eec	-0.825423
226	0xbfb6ba49	-1.42756
227	0xbdb60bdb	-0.0888898
228	0xbf2600f3	-0.648452
229	0xbf1c2603	-0.609955
230	0xbc9f307d	-0.0194323
231	0xbdb26c13	-0.0871202
232	0x3d2ac373	0.0416903
233	0xbecf8f8a	-0.405392
234	0xbe8c64fe	-0.274208
235	0xbe42c908	-0.19022
236	0xbeed0204	-0.462906
237	0xbec63ac1	-0.387167
238	0xbe8dfce3	-0.27732
239	0x3e8b5287	0.272114
240	0xbf031151	-0.511983
241	0xbd29ac01	-0.0414238
242	0xbef1d170	-0.472301
243	0x3e9a60f6	0.301521
244	0xbebdde37	-0.370836
245	0x3db100cc	0.0864273
246	0xbefb007a	-0.490238
247	0x3faa7d03	1.33194
248	0x3f06b5f6	0.526214
249	0xbea93c68	-0.330539
250	0x3f520fc3	0.820553
251	0x3fa98106	1.32425
252	0x3efb18b9	0.490423
253	0x3fb114e4	1.38345
254	0x3f74e033	0.956546
255	0x3f8dbf48	1.1074

Operation_3_Add_B f4 [50]
0	0x3de8869c	0.113538
1	0xbef1ea57	-0.472491
2	0xbe15eb31	-0.146405
3	0xbd23972f	-0.0399391
4	0xbea838a0	-0.328557
5	0xbe9182ed	-0.284202
6	0x3f815bab	1.01061
7	0x3f1c8a7a	0.611488
8	0x3e34f1e5	0.176704
9	0xbf4e8ec5	-0.806866
10	0xbf1e5fc8	-0.618649
11	0xbebeaa08	-0.372391
12	0xbf48fc72	-0.785102
13	0xbecdb22d	-0.40175
14	0xbef64bcb	-0.481047
15	0xbecc4e72	-0.399036
16	0xbdaf767b	-0.0856752
17	0xbfcbfeb0	-1.59371
18	0xbf5fead5	-0.874677
19	0xbe9d75c0	-0.307539
20	0x3e1f1e8e	0.15539
21	0xbe5b5675	-0.214197
22	0x3ea3f20a	0.320206
23	0x3e30c2c6	0.172618
24	0xbfa987e8	-1.32446
25	0x3ee9934f	0.456202
26	0xbe9da05a	-0.307864
27	0xbe8fc3f8	-0.280792
28	0xbe1007dd	-0.140655
29	0x3eaf84cb	0.34281
30	0xbbd673d5	-0.00654457
31	0x3dd02abb	0.101644
32	0x3e926395	0.285916
33	0xbd74a7dd	-0.0597304
34	0xbf1cce5f	-0.612524
35	0x3f21b0bc	0.631603
36	0x3d96f941	0.0737176
37	0xbe658fb4	-0.224181
38	0x3eb703d1	0.357451
39	0x3f5592c9	0.834271
40	0xbdf1bbcf	-0.118034
41	0xbcbcfa92	-0.0230687
42	0x3fcf7bf2	1.62097
43	0x3ed6731d	0.418847
44	0xbf1807cc	-0.593869
45	0xbf4bc0a0	-0.795908
46	0x3def5558	0.116862
47	0x3f484589	0.782311
48	0x3f5cd2f6	0.862594
49	0x3f1e4ffd	0.618408

Operation_4_MatMul_W f4 [50, 50]
0	0xc02c0f91	-2.68845
1	0x3e181238	0.148507
2	0x3df2f901	0.118639
3	0xbd59a771	-0.0531382
4	0x3de92b3d	0.113852
5	0xbed524c0	-0.416296
6	0xbd34b77d	-0.0441203
7	0xbe41dc0e	-0.189316
8	0xbdd4aa97	-0.103841
9	0x3e4a6a01	0.19767
10	0x3c20094a	0.00976784
11	0x3d7e6aef	0.0621137
12	0xbe51f751	-0.205045
13	0x3dfb267c	0.122632
14	0xbe9608af	-0.293035
15	0xbc84f74b	-0.0162312
16	0xbe0d88c2	-0.138217
17	0xbe22ecaf	-0.159106
18	0x3d6e894b	0.0582364
19	0xbe49a5a9	-0.196921
20	0xbe0c7970	-0.137182
21	0xbf0536f8	-0.52037
22	0x3d91e8be	0.0712447
23	0xbe0606b8	-0.130885
24	0xbea3866e	-0.319385
25	0xbe86bee0	-0.263175
26	0xbf42c7da	-0.760862
27	0x3ea0383b	0.312929
28	0xbda29e0a	-0.079403
29	0xbec3a1b2	-0.382093
30	0xbed6a4a9	-0.419225
31	0x3e36eac8	0.17863
32	0xbdd11f92	-0.102111
33	0x3d6bbe44	0.0575545
34	0xbed9ab4b	-0.425135
35	0xbe6ec743	-0.233182
36	0xbeb26a87	-0.348469
37	0x3dbd509b	0.0924389
38	0x3ee0242d	0.437776
39	0xbd437d48	-0.0477269
40	0x3ef81494	0.484532
41	0xbf404135	-0.750995
42	0xbf57a6ce	-0.842389
43	0x3cd4b19e	0.0259636
44	0xbf49aa93	-0.787759
45	0x3e2a6b0e	0.166424
46	0x3d4f8650	0.0506652
47	0xbe4e32e4	-0.201366
48	0xbeb357c5	-0.350279
49	0xbe98acc1	-0.298193
50	0xbe9f91a3	-0.311658
51	0x3d3a5409	0.0454903
52	0x3f275bf7	0.653747
53	0xbe825a04	-0.254593
54	0xbe1b1034	-0.151429
55	0x3e503969	0.203344
56	0xbcb081a8	-0.0215462
57	0xbd9013b7	-0.0703501
58	0x3dbbb708	0.0916577
59	0xbedbd9ec	-0.429397
60	0x3e2394fb	0.159748
61	0x3d43f283	0.0478387
62	0xbefce63a	-0.493944
63	0xbd183a89	-0.0371652
64	0xbddc3a43	-0.107533
65	0x3c97887d	0.0184977
66	0xbe74a516	-0.238911
67	0xbcada844	-0.0211984
68	0x3d32a71c	0.0436164
69	0xbdfbeb18	-0.123007
70	0x3e1a6224	0.150765
71	0xbde7c84b	-0.113175
72	0x3d7644e6	0.0601243
73	0xbea1dd3c	-0.316141
74	0xbcc50771	-0.0240514
75	0xbe545415	-0.207352
76	0xbee5f1bf	-0.44911
77	0x3e2249a1	0.158484
78	0x3e0b6d01	0.136158
79	0xbf0c06d1	-0.546979
80	0xbef3f76a	-0.476497
81	0x3d9dd16c	0.0770596
82	0xbe928651	-0.286181
83	0x3e7e1ac5	0.248149
84	0xbf222510	-0.633378
85	0x3d320db4	0.0434701
86	0xbe4920c0	-0.196414
87	0xbe82cb64	-0.255458
88	0xbe0305d9	-0.127952
89	0xbd249f6c	-0.0401911
90	0xbea40c63	-0.320407
91	0x3d2ba047	0.0419009
92	0x3e7fa26a	0.249643
93	0x3e4a2b9d	0.197432
94	0xbe5ef1bb	-0.217719
95	0xbe713272	-0.235544
96	0x3e9ec82e	0.310121
97	0x3d785b91	0.0606342
98	0xbed6fa1e	-0.419877
99	0x3dbeafc6	0.0931087
100	0xbed3193f	-0.412302
101	0x3c5a3e3a	0.0133205
102	0x3f8eb170	1.11479
103	0x3ec91bc5	0.39279
104	0x3d28e531	0.0412342
105	0x3e6aafff	0.229187
106	0xbd2ffdbf	-0.0429666
107	0xbe0827fa	-0.132965
108	0xbe7b54a0	-0.24544
109	0xbe7a209b	-0.244265
110	0x3f1f6f1a	0.622789
111	0xbe6fe9b8	-0.23429
112	0x3f79ab19	0.975267
113	0xbe7c4d23	-0.246388
114	0x3dc6536c	0.0968388
115	0x3d5680e0	0.052369
116	0xbea41f64	-0.320552
117	0x3eaa500d	0.332642
118	0xc114bd71	-9.29625
119	0x3d76e9d7	0.0602816
120	0x403d404f	2.95705
121	0x400bc67e	2.18399
122	0x3e61387a	0.219942
123	0xbe7d0204	-0.247078
124	0x3ee7ba67	0.452594
125	0xbf8e3ad2	-1.11117
126	0xbd135af1	-0.0359754
127	0xbdb73c6a	-0.0894707
128	0x3ebf1801	0.37323
129	0xbf343569	-0.70394
130	0x3f5d84e4	0.865309
131	0xbe53bd16	-0.206776
132	0xbed93123	-0.424203
133	0x3f3a670e	0.728135
134	0xbeea8b8f	-0.458096
135	0x3f13b5f2	0.576995
136	0xbf3977a7	-0.724482
137	0xbe9c69f9	-0.305496
138	0xc01e8ac6	-2.47722
139	0x3a0386bb	0.000501733
140	0xbf40ea18	-0.753572
141	0xbf45d085	-0.772713
142	0xc1207660	-10.0289
143	0xbe823960	-0.254344
144	0xbe2069a5	-0.156653
145	0xbeed712a	-0.463754
146	0x3e53d817	0.206879
147	0xbe5ce28f	-0.215708
148	0xbed98aa8	-0.424886
149	0xbec186db	-0.377982
150	0xbed047f5	-0.406799
151	0xbcfa7801	-0.0305748
152	0xbf0648d8	-0.524549
153	0xbeeb9baa	-0.460172
154	0xbee6bd90	-0.450665
155	0x3ed0c997	0.407788
156	0xbcbbc06b	-0.0229189
157	0xbe7cf91a	-0.247044
158	0xbd010690	-0.0315004
159	0x3e1c896e	0.152868
160	0xbf0b2fdc	-0.543699
161	0x3e16bf44	0.147214
162	0xbeff74ac	-0.498937
163	0x3edf3366	0.435939
164	0x3f1326f2	0.574813
165	0xbcadbeeb	-0.0212092
166	0xbe0f9e38	-0.140252
167	0x3c61cd0f	0.0137818
168	0xbd0ef673	-0.034903
169	0xbe28a655	-0.164697
170	0xbd7e98a7	-0.0621573
171	0xbf06511a	-0.524675
172	0xbe24677b	-0.160551
173	0x3a55e0ea	0.000815882
174	0x3e6d5ed0	0.231807
175	0x3e6cb253	0.231149
176	0xbe881c71	-0.265842
177	0x3ec0cc14	0.376557
178	0x3daf6fb7	0.0856623
179	0xbde8f430	-0.113747
180	0x3e6e73e7	0.232864
181	0xbe68c8ef	-0.227329
182	0x3ec0e5c5	0.376753
183	0xbee1e53b	-0.441202
184	0xbc00905e	-0.00784692
185	0x3ecdee78	0.40221
186	0x3db9b7e7	0.0906828
187	0xbea0435f	-0.313014
188	0x3eb4341a	0.35196
189	0x3c8ba0e8	0.0170445
190	0x3f6fbcd3	0.936475
191	0xbdac5289	-0.0841418
192	0x3e8d0c3d	0.275484
193	0x3e9d4d1f	0.307229
194	0xbe9944cc	-0.299353
195	0xbec1641f	-0.377717
196	0xbf07cbd5	-0.530454
197	0xbe0b15b5	-0.135825
198	0x3f477eb3	0.779277
199	0x3ec8b674	0.392017
200	0xc02a45f6	-2.66052
201	0x3cd74f72	0.026283
202	0x3e91a8ac	0.28449
203	0xbf9bcf81	-1.21727
204	0x3ee834b1	0.453527
205	0xbe8c2a67	-0.273761
206	0x3d0ccd53	0.0343755
207	0x3e951288	0.291157
208	0xbe96312f	-0.293344
209	0x3f224862	0.633917
210	0xbf350eaa	-0.707255
211	0x3e9014d7	0.281409
212	0x3f6c51fc	0.923126
213	0xbf6d57ac	-0.927119
214	0x3dc3a10a	0.095522
215	0xbae9c0a3	-0.00178339
216	0x3de74320	0.112921
217	0x3f392f3c	0.723377
218	0xbee3039f	-0.443387
219	0x3a8f2bd7	0.00109231
220	0x3ea34dad	0.318952
221	0x3fc1a416	1.51282
222	0xbefba238	-0.491472
223	0x3ed43cc0	0.414526
224	0xbf011e86	-0.504372
225	0x3e2dbe3c	0.169671
226	0xc05e8683	-3.47696
227	0xbe8337eb	-0.256286
228	0x3f399cae	0.725047
229	0x3f5eb25b	0.869909
230	0x3e898634	0.268602
231	0x3ceddecb	0.0290369
232	0xbe078e19	-0.132378
233	0xbeb30e3d	-0.349718
234	0x3f0089a0	0.5021
235	0x3df735c2	0.120708
236	0x3e12bf98	0.143309
237	0x3d8f8cf9	0.0700931
238	0x3df24745	0.1183
239	0xbc187aab	-0.00930659
240	0xc01c8db9	-2.44615
241	0x3f180432	0.593814
242	0x3ff3c5ac	1.90447
243	0x3bdd8c22	0.00676109
244	0x3e144242	0.144784
245	0xbeb44a41	-0.352129
246	0x3f680c0f	0.906434
247	0x3e89c23b	0.26906
248	0xbf132841	-0.574833
249	0xbf8bbd7b	-1.09172
250	0xbd64d7bb	-0.0558698
251	0xbd6bc54b	-0.0575612
252	0x3ebd8f93	0.370236
253	0x3eb3c3c6	0.351103
254	0x3ed2d05f	0.411746
255	0x3ec771a8	0.389539

Operation_4_Add_B f4 [50]
0	0xbfcc6d1e	-1.59708
1	0x3e01f538	0.126912
2	0x3f13ac1d	0.576845
3	0x3e770ef5	0.241268
4	0x3f079c30	0.529727
5	0xbfabf823	-1.34351
6	0xbcb85b26	-0.0225044
7	0xbf843809	-1.03296
8	0xbf8b2df5	-1.08734
9	0xbeca2707	-0.394829
10	0x3f902507	1.12613
11	0xbf644c38	-0.891788
12	0xbfe87011	-1.81592
13	0x3e069d73	0.13146
14	0x3e19fbe7	0.150375
15	0xbcf54e96	-0.0299447
16	0xbf9abc41	-1.20887
17	0xbfa67ab7	-1.30062
18	0x3ccfef97	0.0253828
19	0xbfd8a969	-1.69267
20	0xbec3da0e	-0.382523
21	0xbf62edbb	-0.88644
22	0x3ee41787	0.445492
23	0xbf87c99b	-1.06084
24	0xbfa14de8	-1.26019
25	0xbf633461	-0.887518
26	0xbfc44620	-1.53339
27	0xbec1f55a	-0.378825
28	0x3f67eee5	0.905989
29	0xbefc54de	-0.492835
30	0x3f81cb14	1.01401
31	0x3f7bbdcf	0.983365
32	0x3c6c14fc	0.0144093
33	0xbe4bd44a	-0.199052
34	0x3ef649d4	0.481032
35	0xbfabb5f2	-1.34149
36	0x3f8a9c78	1.0829
37	0x3f20df37	0.628406
38	0xbef204b0	-0.472692
39	0xbb608bf1	-0.00342631
40	0x3f1efbf4	0.621032
41	0xbfacf377	-1.35118
42	0xc029dc48	-2.65407
43	0x3e16a6e3	0.147121
44	0xbf5376a3	-0.826029
45	0xbf19d830	-0.600955
46	0x3de0e7bc	0.109817
47	0x3dda17f4	0.106491
48	0x3f2c3c08	0.672791
49	0xbfa848bf	-1.31472

Operation_5_MatMul_W f4 [50, 50]
0	0x3f4cf8b6	0.80067
1	0x3f2a5d4a	0.665486
2	0xc03d4e90	-2.95792
3	0xbee9ac36	-0.456392
4	0xbfafc16a	-1.37309
5	0xc0a52fec	-5.1621
6	0xbffec519	-1.99039
7	0x3ea50a24	0.322343
8	0x3ebaee63	0.3651
9	0x3e683ada	0.226787
10	0x3e84afb4	0.259153
11	0xbf7e9414	-0.994447
12	0x3cae712d	0.0212942
13	0x3e44ba95	0.192118
14	0xbe710881	-0.235384
15	0x3d284bc9	0.0410879
16	0xbf3306a3	-0.69932
17	0xbe8078fb	-0.250923
18	0x3cc1be10	0.0236502
19	0x3f108605	0.564545
20	0x3f2e5fb7	0.681148
21	0x3d8a17be	0.0674281
22	0x3da54809	0.0807038
23	0xbeb2135e	-0.347804
24	0x3e394dd7	0.180961
25	0x3d8509c0	0.06496
26	0xbf4010a5	-0.750254
27	0xbc2087b5	-0.00979798
28	0x3d321038	0.0434725
29	0x3d9bd9cb	0.076099
30	0xbf1bad2a	-0.608111
31	0x3d33fd0d	0.0439425
32	0xbf31f96a	-0.695212
33	0xbf4b9421	-0.795229
34	0xbe53d4ae	-0.206866
35	0xbe639000	-0.222229
36	0xbd463a5c	-0.0483955
37	0xbe31409a	-0.173098
38	0xbe93cb60	-0.288661
39	0xbf1ff1fa	-0.624786
40	0x3da959f4	0.0826911
41	0x3e582ecb	0.211116
42	0x3ed3e89b	0.413884
43	0xbefb1d2e	-0.490457
44	0x3ed4c61e	0.415574
45	0x3f1c7b46	0.611256
46	0x3ea4269a	0.320607
47	0xbe88a15a	-0.266856
48	0xbeb6659d	-0.356244
49	0xbed98aca	-0.424887
50	0xbfe3f62b	-1.78095
51	0xbe54bfd3	-0.207763
52	0x3e6232d3	0.220897
53	0x3dd1dd5d	0.102473
54	0x3db5505f	0.0885322
55	0xbf88e94f	-1.06962
56	0xbf503569	-0.813315
57	0xbf6a7a74	-0.915931
58	0xbb59fd8d	-0.00332627
59	0x3e45a74c	0.193021
60	0xbd5b3f3b	-0.0535271
61	0xbd38b1a8	-0.0450913
62	0xbcce4ae7	-0.0251822
63	0xbd5b512a	-0.0535442
64	0x3d79a7c1	0.060951
65	0xbe7ce960	-0.246984
66	0x3f5cae10	0.862031
67	0xbe7414e8	-0.238361
68	0xbf3e40d9	-0.743177
69	0xbf073a58	-0.528234
70	0x3ec77f6b	0.389644
71	0xbd657e24	-0.0560285
72	0x3b02024e	0.00198378
73	0xbd83a2fa	-0.0642757
74	0x3e4c4a41	0.199502
75	0xbdfddb98	-0.123954
76	0xbf495411	-0.786439
77	0xbf65fd69	-0.898398
78	0x3f414749	0.754994
79	0x3f6fa10a	0.936051
80	0xbdc57372	-0.0964116
81	0xbeadf04e	-0.339724
82	0xc0209f17	-2.50971
83	0x3e470ac4	0.194377
84	0x3e80a32f	0.251245
85	0x3e8f4081	0.279789
86	0x3d0869e1	0.0333041
87	0xbe614cec	-0.22002
88	0xbcab8efa	-0.0209422
89	0xbe464e48	-0.193658
90	0x3f803ba3	1.00182
91	0xbf0611cb	-0.523709
92	0x3db7ec50	0.0898062
93	0x3e5c40d1	0.215091
94	0x3e945825	0.289735
95	0x3d026627	0.0318357
96	0x3e1cf356	0.153272
97	0x3ecec0b5	0.403814
98	0xbf10fe9b	-0.566385
99	0x3e1907d9	0.149444
100	0x3f057c5f	0.521429
101	0xbd9cb429	-0.0765155
102	0xbc07048c	-0.00824083
103	0xbd4fcec5	-0.0507343
104	0x3ee08d09	0.438576
105	0x3e9fd0d0	0.31214
106	0x3daf42ff	0.085577
107	0x3d77a0d1	0.0604561
108	0xbf07ad7d	-0.529991
109	0xbeb972cd	-0.362204
110	0xbe0d7bea	-0.138168
111	0x3e060bf6	0.130905
112	0xbd4e67d7	-0.050392
113	0xbe3e24ff	-0.185688
114	0x3e454d62	0.192678
115	0xbe100c95	-0.140673
116	0xbedec80c	-0.43512
117	0x3eaeb7cc	0.341246
118	0x3dd34efd	0.103178
119	0xbef33d8e	-0.475079
120	0xbe137e6f	-0.144037
121	0x3e50c62e	0.203881
122	0xbe51409a	-0.204348
123	0x3e74bba1	0.238997
124	0xbe53033a	-0.206067
125	0x3e1ee5ac	0.155173
126	0x3e246456	0.160539
127	0x3d04ec13	0.0324517
128	0xbdd61998	-0.104541
129	0x3e6a5ca3	0.228869
130	0x3e4da2f9	0.200817
131	0xbe7d8341	-0.247571
132	0xbe497204	-0.196724
133	0x3e157109	0.145939
134	0xbe5c83ed	-0.215347
135	0x3e311c6d	0.17296
136	0xbb3527c0	-0.00276421
137	0xbe97cb92	-0.296475
138	0xbcb93251	-0.022607
139	0xbe5150db	-0.20441
140	0x3e7147ae	0.235625
141	0x3d9e8039	0.077393
142	0x3e95d54e	0.292643
143	0xbf01a262	-0.506384
144	0xbdd2074f	-0.102553
145	0x3d199c1e	0.0375024
146	0xbf188c0d	-0.595887
147	0x3e23ad5c	0.159841
148	0xc02aede5	-2.67077
149	0xba5090d2	-0.000795615
150	0x3f6e018a	0.929711
151	0x3eb01cf8	0.343971
152	0x3d614f71	0.0550074
153	0xbd9a8fc1	-0.0754695
154	0xbe07f90e	-0.132786
155	0x3d914bc5	0.0709453
156	0xbf592535	-0.848224
157	0x3df612c7	0.120153
158	0xbe37c1be	-0.17945
159	0x3c83f8e9	0.0161099
160	0xbe6f52fc	-0.233715
161	0x3ddf90da	0.109163
162	0x3c81e9af	0.0158585
163	0x3eda69e0	0.426589
164	0x3e2d1527	0.169026
165	0xbe188a05	-0.148964
166	0x3f9c7992	1.22246
167	0xbd24827b	-0.0401635
168	0x3e075643	0.132165
169	0xbec7661f	-0.389451
170	0xbea57604	-0.323166
171	0xbd859868	-0.0652321
172	0xc05f96d1	-3.49358
173	0xbe4a4010	-0.19751
174	0x3e5e8e61	0.21734
175	0x3e096e16	0.134209
176	0xbf0f8b8b	-0.560723
177	0xbed2be8c	-0.41161
178	0xbedca85d	-0.430972
179	0xbeb1409a	-0.346196
180	0xbe0c6690	-0.13711
181	0xbd4a4af7	-0.0493879
182	0x3e678290	0.226084
183	0xbd006459	-0.0313457
184	0xbd63ae91	-0.0555864
185	0x3cb151e7	0.0216455
186	0x3bb80b75	0.0056166
187	0xbde364bf	-0.111032
188	0xbe3c64bb	-0.183978
189	0xbee6f06b	-0.451053
190	0xbe4f1887	-0.202242
191	0xbe0945b7	-0.134055
192	0xbebaac97	-0.364598
193	0x3e451505	0.192463
194	0x3ff72baa	1.93102
195	0xbe3c55c9	-0.183921
196	0xbebe8790	-0.372128
197	0x3da67664	0.0812805
198	0x3ecefeb5	0.404287
199	0x3e53e682	0.206934
200	0x3ca6673d	0.0203129
201	0xbeccf616	-0.400315
202	0xbf81d0fa	-1.01419
203	0xbe753261	-0.23945
204	0x3e21b691	0.157923
205	0xbdb5069a	-0.0883915
206	0x3f49171e	0.785509
207	0xbdc3f3c5	-0.0956798
208	0x3e97aaef	0.296226
209	0xbd4db397	-0.0502201
210	0x3e0f911d	0.140202
211	0xbdff8a09	-0.124775
212	0xbd7c7aa5	-0.0616404
213	0xbdcb9014	-0.0993959
214	0x3e0de82d	0.138581
215	0x3dcd51f8	0.100254
216	0xbe0491f3	-0.129463
217	0x3e09d495	0.1346
218	0xbf8cdd2f	-1.1005
219	0x3eae59f3	0.34053
220	0xbe923c43	-0.285616
221	0x3dce3b47	0.100699
222	0xbeb5a07b	-0.35474
223	0xbc9681ed	-0.0183725
224	0xbe449ba6	-0.192
225	0x3dc6f6bd	0.0971503
226	0x3ed7587d	0.420597
227	0x3ee95d2d	0.455789
228	0x3e0dee78	0.138605
229	0x3d34f957	0.0441831
230	0x3d1a9d8b	0.0377479
231	0x3d264a4c	0.0405982
232	0x3db752c0	0.0895133
233	0xbb6ad2f2	-0.00358313
234	0x3b866738	0.00410166
235	0x3df97247	0.1218
236	0xbd50ef71	-0.0510096
237	0x3dc6d331	0.0970825
238	0x3d8c579f	0.0685265
239	0x3caa9e04	0.0208273
240	0x3e1be5da	0.152244
241	0x3d14bf0a	0.036315
242	0xbf131583	-0.574547
243	0x3e777293	0.241648
244	0xbf0fb2ee	-0.561324
245	0xbe83aecd	-0.257193
246	0xba6f1986	-0.000912093
247	0xbebd40ee	-0.369636
248	0x3dc0d555	0.0941569
249	0x3e184407	0.148697
250	0x3f7aec9e	0.980173
251	0x3dfa4df4	0.122219
252	0x3e349add	0.176372
253	0xbd6f4cf5	-0.058423
254	0x3e1fd114	0.156071
255	0x3deaf039	0.114716

Operation_5_Add_B f4 [50]
0	0xc028e58a	-2.63901
1	0xc000e0a0	-2.01371
2	0xbf031f25	-0.512194
3	0x3f2625b7	0.649013
4	0xbf543676	-0.828956
5	0x3d8cd474	0.0687646
6	0xbf475a32	-0.77872
7	0x3fd88851	1.69166
8	0xbf1e35b5	-0.618007
9	0xbe5929aa	-0.212073
10	0x3efdd399	0.495755
11	0xbfab7b4a	-1.3397
12	0xbcb16a05	-0.021657
13	0x3f7d6378	0.989799
14	0x3f7c6983	0.985985
15	0x3f108659	0.56455
16	0xbf1d16a9	-0.613627
17	0x3e25fd05	0.162098
18	0x3f83352b	1.02506
19	0xbeb6963e	-0.356615
20	0xbeabfea0	-0.335927
21	0x3f82718b	1.01909
22	0xbdf6b980	-0.120471
23	0xbf2d373b	-0.676624
24	0x3f7b965b	0.982763
25	0x3f83cddd	1.02972
26	0x3f8a209b	1.07912
27	0x3f3ac83f	0.729618
28	0xbfb4a527	-1.41129
29	0x3f984ab6	1.18978
30	0x3f8ce219	1.10065
31	0x3f168d22	0.588091
32	0x3e6bf8ba	0.230441
33	0x3fa5f5ae	1.29656
34	0xbf6f9768	-0.935904
35	0x3d0d5538	0.0345051
36	0xbd085498	-0.0332838
37	0x3f75461b	0.958101
38	0x3f93e719	1.15549
39	0xbffd2b2c	-1.97788
40	0xbdafa971	-0.0857724
41	0x3f774b62	0.965994
42	0x3f4adaa9	0.792399
43	0x3ee557bc	0.447935
44	0x3f376502	0.716385
45	0x3f561459	0.836248
46	0xbea084c7	-0.313513
47	0x3efe3f9a	0.496579
48	0x3f6663a6	0.899958
49	0x3f9a4895	1.20534

Operation_6_MatMul_W f4 [50, 50]
0	0xbee332f0	-0.443748
1	0x3d0243c2	0.0318029
2	0xbdba743a	-0.091042
3	0xbe5e7ddd	-0.217277
4	0x3dc63d3e	0.0967965
5	0x3c2c5c14	0.01052
6	0xbd0dff4c	-0.0346673
7	0xbc053abd	-0.00813168
8	0x3d334b36	0.0437729
9	0x3e563a9f	0.209208
10	0x3e72cf10	0.237118
11	0x3d8ed17c	0.0697355
12	0x3d0eaf90	0.0348354
13	0xbdf43c7d	-0.119256
14	0x3e1afff3	0.151367
15	0x3e1b79d9	0.151832
16	0xbee1afe2	-0.440795
17	0x3c8a68da	0.0168957
18	0xbf1c3e96	-0.61033
19	0xbd10f7ba	-0.0353925
20	0x3cf92a23	0.0304156
21	0x3c4cc393	0.0124978
22	0x3ddcb578	0.107768
23	0xbdfb65ed	-0.122753
24	0xbdf60e95	-0.120145
25	0x3cfe6850	0.0310556
26	0x3d3b2ee0	0.045699
27	0xbd1eb6a4	-0.0387484
28	0x3d87dd0e	0.0663396
29	0x3e646888	0.223055
30	0xbe619eb6	-0.220332
31	0xbd9bc4fa	-0.0760593
32	0xbd7c8bbc	-0.0616567
33	0xbe801f75	-0.25024
34	0xbe0e9468	-0.139238
35	0xbba65ecf	-0.00507722
36	0xbecf179c	-0.404477
37	0xbde1a933	-0.110186
38	0xbe2db7ae	-0.169646
39	0x3e1edb2f	0.155133
40	0xbf00a88f	-0.502572
41	0x3c42c867	0.0118886
42	0x3d19c09b	0.0375372
43	0xbd11a57a	-0.0355582
44	0xbb7fc822	-0.00390292
45	0xbdf523b3	-0.119697
46	0xbbdb63be	-0.00669524
47	0xbee042d9	-0.43801
48	0x3c2dc60c	0.0106063
49	0x3db23839	0.0870213
50	0x3e2c4d23	0.168263
51	0x3cd25b17	0.0256782
52	0xbdaf1c76	-0.0855035
53	0x3e270585	0.163107
54	0xbd19bf3e	-0.0375359
55	0xbc18b9ab	-0.00932161
56	0x3e99e8a3	0.300603
57	0xbdafded0	-0.0858742
58	0x3e045baf	0.129256
59	0xbdf6134d	-0.120154
60	0xc0840404	-4.12549
61	0xbb31db2f	-0.00271387
62	0x3ecd0529	0.40043
63	0x3cc2f8d9	0.0238003
64	0xbf81f45e	-1.01527
65	0xbe8c78c8	-0.274359
66	0xbd9757ad	-0.0738977
67	0xbe55d6bf	-0.208827
68	0xbb7316b8	-0.00370924
69	0x39b2d11b	0.000341066
70	0x3e93cada	0.288657
71	0xbe22a348	-0.158826
72	0x3e3110e4	0.172916
73	0x3e6dbf05	0.232174
74	0x3e5cbe1f	0.215569
75	0x3d7a59b3	0.0611207
76	0xbe1fd502	-0.156086
77	0x3e3aa822	0.182282
78	0xbe4785f9	-0.194847
79	0x3d910c8a	0.0708247
80	0x3cba5856	0.0227472
81	0xbdc69f7f	-0.0969839
82	0x3d77eca1	0.0605284
83	0xbde9068a	-0.113782
84	0xbd73ab43	-0.0594895
85	0x3cd90987	0.0264938
86	0x3ebfbf83	0.374508
87	0x3e107cc8	0.141101
88	0xbeaa2ec3	-0.332388
89	0xbdaef7a7	-0.0854333
90	0x3cbe6bab	0.0232447
91	0xbeae6f50	-0.340693
92	0xbdba0e4e	-0.0908476
93	0xbd981f03	-0.0742779
94	0xbe9b1466	-0.30289
95	0x3c2423cc	0.0100183
96	0xbe2ff4ba	-0.171832
97	0x3e050269	0.129892
98	0xbeae2307	-0.340111
99	0x3e4a7115	0.197697
100	0xbdb46afe	-0.0880947
101	0x3ed9af3a	0.425165
102	0x3edeffa0	0.435544
103	0xbe623c86	-0.220934
104	0x3e8b2852	0.271792
105	0x3e0fcbd5	0.140426
106	0x3e61a9fc	0.220375
107	0xbd9ec9ad	-0.0775331
108	0xbd803c4b	-0.062615
109	0x3f9c81c3	1.22271
110	0x3e2806af	0.164088
111	0xbf83a398	-1.02843
112	0xbea68598	-0.325238
113	0x3f0581e0	0.521513
114	0xbecc43b3	-0.398954
115	0xbf55797d	-0.833885
116	0x3e9dd096	0.308232
117	0x3d7d99f4	0.0619144
118	0x3eeb1fef	0.459228
119	0xbce6e4dc	-0.0281853
120	0x3e98bf1a	0.298333
121	0x3c8e307a	0.0173571
122	0x3eedd356	0.464503
123	0xbf01015c	-0.503927
124	0x3e6a2ec3	0.228694
125	0x3e37635e	0.17909
126	0xbe85a1ec	-0.261001
127	0xbe0e9ccb	-0.13927
128	0xbcd9c4cd	-0.0265831
129	0xbae59dff	-0.00175184
130	0x3e229bae	0.158797
131	0xbd935d17	-0.0719549
132	0x3ef102bc	0.470724
133	0x3e42c2bd	0.190196
134	0x3f612c7c	0.879585
135	0xbe7bbba5	-0.245833
136	0x3f8e62cc	1.11239
137	0x3e26837f	0.162611
138	0xbd9fde7f	-0.0780611
139	0x3f4f4203	0.809601
140	0xbff0fe9b	-1.88277
141	0x3e8885b2	0.266645
142	0x3e1ad29a	0.151194
143	0xbe87aebc	-0.265005
144	0x3c80881b	0.0156899
145	0x3f368230	0.712924
146	0x3cac8a6d	0.0210621
147	0xbd326eb2	-0.0435626
148	0xbeb70c13	-0.357514
149	0xc00c9b7c	-2.19699
150	0x3e56034f	0.208997
151	0xbc168d00	-0.00918889
152	0x3dedeb10	0.116171
153	0x39901059	0.00027478
154	0xbe27a2cf	-0.163707
155	0x3db17911	0.0866567
156	0xbdeb3b32	-0.114859
157	0xbe2f8c65	-0.171434
158	0xbbfa7cde	-0.00764428
159	0x3e949f95	0.29028
160	0x3dd101b0	0.102054
161	0xbee13b19	-0.439904
162	0xbeb81fda	-0.359618
163	0xbff943bf	-1.94738
164	0x3eebb6cc	0.460379
165	0xbf43e36d	-0.765189
166	0xbe968640	-0.293993
167	0xbd3a7547	-0.045522
168	0x3ea80581	0.328167
169	0xbcce05e8	-0.0251493
170	0x3d33b0d2	0.0438698
171	0xbcc8cd99	-0.0245121
172	0x3ede3fff	0.434082
173	0x3dac683e	0.0841832
174	0xbe39de05	-0.181511
175	0x3e4867ae	0.195708
176	0x3e8e9186	0.278454
177	0xbd70d505	-0.0587969
178	0xbe834699	-0.256398
179	0xbf574699	-0.840921
180	0xbe131ec1	-0.143672
181	0xbd4d7569	-0.0501608
182	0x3f127c28	0.572207
183	0xbe047736	-0.129361
184	0x3f4840e1	0.78224
185	0x3efaa583	0.489544
186	0xbf3b280f	-0.73108
187	0xbcee79fb	-0.0291109
188	0xbe969df9	-0.294174
189	0x3ee77ad5	0.452109
190	0xbe873ecd	-0.264151
191	0x3d94e245	0.0726972
192	0xbee5cf25	-0.448846
193	0xbe56a37b	-0.209608
194	0xbe79973e	-0.243741
195	0xbe8eefa2	-0.279172
196	0xbe7578e6	-0.239719
197	0x3e70da1b	0.235207
198	0xbe8be37e	-0.27322
199	0xbf975dcc	-1.18255
200	0x3cdd99a4	0.0270508
201	0xbd4039fc	-0.0469303
202	0xbe2fd36f	-0.171705
203	0xbdde8ab5	-0.108663
204	0x3d1da654	0.0384887
205	0x3d718d41	0.0589726
206	0x3f37a1a1	0.71731
207	0x3daa8537	0.0832619
208	0xbd9b3c3e	-0.0757985
209	0xbd952843	-0.0728307
210	0xbdbdc7ac	-0.092666
211	0xbac6a414	-0.00151551
212	0xbe3695d9	-0.178306
213	0xbdaeb639	-0.0853085
214	0xbe8a9e2c	-0.270738
215	0xbd505c39	-0.0508692
216	0x3d1cde27	0.0382978
217	0x3cc13ac8	0.0235876
218	0x3e284d34	0.164357
219	0xbd254966	-0.0403532
220	0x3d0e5c34	0.0347559
221	0xbcacd291	-0.0210965
222	0x3d991497	0.0747463
223	0xbcc2a5cd	-0.0237607
224	0xbe3a50d7	-0.181949
225	0x3b74448b	0.00372723
226	0x3e3f0175	0.186529
227	0xbe202d5a	-0.156423
228	0xbdb53643	-0.0884824
229	0xbdb31b23	-0.0874541
230	0x3d56b350	0.0524171
231	0x3dab2f3e	0.0835862
232	0xbd9b2ffa	-0.0757751
233	0x3e3bc622	0.183373
234	0xbe079d0a	-0.132435
235	0xbedf6641	-0.436327
236	0xbef67bc4	-0.481413
237	0xbc2e1b9c	-0.0106267
238	0x3b79a6f5	0.00380939
239	0xbe3e9531	-0.186116
240	0xbb86ec2d	-0.00411751
241	0xbde7c41a	-0.113167
242	0x3cef8056	0.029236
243	0x3d0f33e5	0.0349616
244	0xbd37de94	-0.04489
245	0xbe5d3ed5	-0.21606
246	0x3dc04dce	0.0938984
247	0xbdbef64a	-0.0932432
248	0xbd9446d1	-0.0724007
249	0xbdcdcca7	-0.100488
250	0xbe3deebb	-0.185481
251	0xbd9a49c3	-0.075336
252	0xbd14b670	-0.0363068
253	0x3d49dd13	0.0492831
254	0x3d264b3e	0.0405991
255	0xbe40ec74	-0.188402

Operation_6_Add_B f4 [50]
0	0xbe5c88a4	-0.215365
1	0xbd7e666d	-0.0621094
2	0xbd92a305	-0.0716
3	0xbfbe7fa2	-1.48827
4	0xbc5a8a25	-0.0133386
5	0xbd13d65c	-0.0360931
6	0xbf56b346	-0.838673
7	0x3c751c0c	0.0149603
8	0xbe751b0d	-0.239361
9	0x3d71f546	0.0590718
10	0xbd82b544	-0.0638223
11	0xbf6b4bf9	-0.919128
12	0xbececdd1	-0.403914
13	0x3e132b56	0.14372
14	0xc009381d	-2.14405
15	0xbd40c7c1	-0.0470655
16	0x3e567232	0.20942
17	0xbd0e4954	-0.0347379
18	0xbf3d27b3	-0.738887
19	0xbcae3d96	-0.0212696
20	0xbf08038a	-0.531304
21	0xbd3083c1	-0.0430944
22	0xbdfb688c	-0.122758
23	0xbec88d2a	-0.391702
24	0xbea879c4	-0.329054
25	0xbd036687	-0.0320802
26	0xbf0d17f8	-0.551147
27	0x3c9b65b7	0.0189694
28	0x3d280339	0.0410187
29	0x3f0af6e8	0.54283
30	0x3eec6da4	0.461774
31	0xbc57c7d3	-0.0131702
32	0xbf77e88a	-0.968392
33	0xbe8f505d	-0.27991
34	0xbf3c7076	-0.736091
35	0xbf9449ba	-1.1585
36	0xbfd096bc	-1.6296
37	0xbe6a96d5	-0.229091
38	0xbe5b239a	-0.214003
39	0xbfa25658	-1.26826
40	0xbdd00581	-0.101573
41	0xbec9018e	-0.39259
42	0xbeadb0de	-0.33924
43	0x3f0d42e5	0.551802
44	0xbf0885b2	-0.53329
45	0xbeae2a1b	-0.340165
46	0x3d03bc4d	0.032162
47	0xbf11d8d8	-0.569715
48	0xbdbb6e93	-0.0915195
49	0x3e6ae42a	0.229386
