networks/onnx/ACASXU_run2a_5_1_batch_2000.onnx (onnx, 55914 bytes, 15 tensors)

input_AvgImg f4 [1, 1, 5]
0	0x00000000	0.0
1	0x00000000	0.0
2	0x00000000	0.0
3	0x00000000	0.0
4	0x00000000	0.0

Operation_1_MatMul_W f4 [5, 50]
0	0x3ba1a541	0.00493303
1	0x3d96b4fe	0.0735874
2	0xbda096c9	-0.0784126
3	0xbe2fa15e	-0.171514
4	0xbc9f11a9	-0.0194176
5	0xbf10c74c	-0.565541
6	0xbf1497b7	-0.58044
7	0x3cdeacc9	0.027182
8	0xbcbe70e9	-0.0232472
9	0xbf1d62f1	-0.614791
10	0xbbbb31da	-0.00571273
11	0x3c822dd8	0.015891
12	0xbf747a7d	-0.954994
13	0x3c8ab05d	0.0169298
14	0xbe0cb210	-0.137398
15	0xbcaf8e2d	-0.0214301
16	0x3dacc667	0.0843628
17	0xbeb2ed57	-0.349467
18	0xbd94bfd3	-0.0726315
19	0x3da15e6f	0.0787934
20	0x3cf7669f	0.0302003
21	0xbd975353	-0.0738894
22	0x3d79c107	0.0609751
23	0xbf8c6ad3	-1.09701
24	0xbf2811f5	-0.656524
25	0x38f4539c	0.000116504
26	0xbe085165	-0.133123
27	0xbfe0cc25	-1.75623
28	0xbd4a6c1a	-0.0494195
29	0xc00a26ab	-2.15861
30	0xbc7d7287	-0.0154692
31	0xbff6464a	-1.92402
32	0xbfe931ba	-1.82183
33	0xbc569cc5	-0.0130989
34	0xbcd46d0a	-0.0259309
35	0x3e96ca8a	0.294514
36	0xbfdfa5e3	-1.74725
37	0xbf0cde1a	-0.550264
38	0xbf87f045	-1.06202
39	0xbf5ce6b0	-0.862895
40	0xbdb55a98	-0.0885517
41	0xbfb1f0c3	-1.39016
42	0x3de03600	0.109478
43	0x3c3d116e	0.0115398
44	0x3cb558dd	0.0221371
45	0xbea0ff97	-0.31445
46	0x3d13c7e3	0.0360793
47	0xbc1b4662	-0.00947723
48	0xbbd12679	-0.00638276
49	0xbc792444	-0.0152064
50	0xbcc82be9	-0.024435
51	0x3e49cf14	0.197079
52	0xba201a67	-0.000610745
53	0x3f34e454	0.706609
54	0x3f517cc4	0.81831
55	0x3efbbbc7	0.491667
56	0x3eb00368	0.343776
57	0xbfdbc30d	-1.71689
58	0x3d141e30	0.0361616
59	0x3d4d30bb	0.0500953
60	0xbc8b7d41	-0.0170275
61	0x3e4cd5b7	0.200034
62	0x3c3d77c5	0.0115642
63	0xbc247596	-0.0100378
64	0x3fab4dbe	1.33831
65	0xbb4b81f4	-0.00310528
66	0x3fd9e1b1	1.7022
67	0x3b7351f2	0.00371277
68	0x3f231759	0.637075
69	0x3f27fa5d	0.656164
70	0xbf1d6590	-0.614831
71	0xbf5c1e36	-0.859836
72	0x3aae2dd0	0.00132888
73	0x3c676f7b	0.0141257
74	0xbc8735ea	-0.0165052
75	0x3bb2a128	0.00545134
76	0xbe540fed	-0.207092
77	0xbe3f6599	-0.186911
78	0x3f9eb26c	1.23982
79	0x3cc32de8	0.0238256
80	0xbc29a291	-0.0103537
81	0xbdc6f36f	-0.097144
82	0x3c3c1128	0.0114787
83	0x3e1de482	0.154192
84	0x3fd94af5	1.6976
85	0x3f763487	0.961739
86	0x3b203819	0.00244475
87	0x3a62ed53	0.000865658
88	0xbb8ff500	-0.00439322
89	0xbcd4b3b6	-0.0259646
90	0xbe50a138	-0.20374
91	0xbdc9af84	-0.0984793
92	0x3fcf4fb5	1.61962
93	0xbce8d394	-0.0284212
94	0x401259f3	2.28674
95	0x3bd9a4a2	0.00664194
96	0xbf7f3083	-0.996834
97	0x3ba42b58	0.00501005
98	0x3b40dc54	0.00294282
99	0xbef45a3e	-0.477251
100	0x3d276981	0.0408721
101	0xbd86e265	-0.0658615
102	0x3aa96f7b	0.00129269
103	0xbf505e2d	-0.813937
104	0xbf9418e7	-1.15701
105	0x3d055d1c	0.0325595
106	0x3d0fcb4f	0.035106
107	0x3fe1c487	1.76381
108	0x3b8668a5	0.00410183
109	0xbf40e63a	-0.753513
110	0x3d9edff5	0.0775756
111	0xbf8b5200	-1.08844
112	0xbc89e450	-0.0168325
113	0x3c9de6d1	0.0192751
114	0x3efd58a7	0.494817
115	0xbd0f276b	-0.0349497
116	0xbec34763	-0.381404
117	0x3c454229	0.0120397
118	0x3e1dec1c	0.154221
119	0x3f113cac	0.567332
120	0xbf7cf8f9	-0.988174
121	0xbf3efdca	-0.74606
122	0xbfe4d6f5	-1.78781
123	0xbc3377fd	-0.0109539
124	0x3a20a5ec	0.000612824
125	0xbcb0516c	-0.0215232
126	0x3db8c5af	0.0902208
127	0x3e2c28f6	0.168125
128	0x3f9ae782	1.21019
129	0xbcc07fed	-0.0234985
130	0x38c78c13	9.51515e-05
131	0x3c2ce4d0	0.0105526
132	0xbe27735c	-0.163526
133	0xbe0eacc9	-0.139331
134	0xbfd34396	-1.6505
135	0xbf587b46	-0.845631
136	0xbaf2724e	-0.00184972
137	0x3f048473	0.517646
138	0xbf511e21	-0.816866
139	0xbdeff759	-0.117171
140	0x3e63c537	0.222432
141	0x3d4f1abb	0.0505626
142	0xbfd9fd8b	-1.70305
143	0xb9aa6795	-0.000325021
144	0xbdbdfb94	-0.092765
145	0xbd770fb1	-0.0603177
146	0xbf1bfac2	-0.609295
147	0x3fc07d2c	1.50382
148	0x3b80f0ab	0.00393494
149	0x3e846e4c	0.258654
150	0x3f884d55	1.06486
151	0xbf8a40b8	-1.0801
152	0xbf50dd72	-0.815879
153	0x3e39717e	0.181097
154	0x3e146349	0.14491
155	0x3c10ff0c	0.00884987
156	0x3e6b777d	0.229948
157	0x3da36629	0.0797847
158	0xbf94b8d0	-1.16189
159	0x3cab10ba	0.020882
160	0xbca47c4c	-0.0200788
161	0x3ee0fece	0.439444
162	0xbf236c6a	-0.638373
163	0x3c065f0a	0.00820137
164	0x3e8771c9	0.26454
165	0xbef347c7	-0.475157
166	0xbe82bbaa	-0.255338
167	0xbd9c8d77	-0.0764417
168	0xbf3ec7eb	-0.745238
169	0xbe8db318	-0.276757
170	0x3e04e8fb	0.129795
171	0x3f179086	0.592049
172	0xbbcc5772	-0.00623601
173	0xbef40464	-0.476596
174	0xbf03685a	-0.513311
175	0xbff5dbcb	-1.92077
176	0xbfad450f	-1.35367
177	0x3ba205b9	0.00494453
178	0x3f18c4ce	0.596753
179	0xbcbd8fae	-0.0231398
180	0x3bf0fe5a	0.00735454
181	0xbd0fce24	-0.0351087
182	0x3e0f8551	0.140157
183	0xbfdb11c7	-1.71148
184	0xbcc4a516	-0.0240045
185	0xbd81e39a	-0.0634224
186	0xbb44916a	-0.00299939
187	0xba33e3fb	-0.000686228
188	0xbcc623d1	-0.024187
189	0x3d9d076a	0.0766743
190	0xbf226245	-0.634312
191	0xbce66ce7	-0.0281281
192	0xbe2f7cee	-0.171375
193	0x3ea46ae4	0.321128
194	0x3c9fc420	0.0195027
195	0xbf0ce219	-0.550325
196	0x3dbcde78	0.0922212
197	0xbe940853	-0.289126
198	0x3b0c5bc3	0.0021417
199	0xbdd12663	-0.102124
200	0x3f3938ce	0.723523
201	0xbf97d417	-1.18616
202	0xbf69de7a	-0.913551
203	0xbeb8a0b2	-0.360601
204	0xbefa4980	-0.488842
205	0x3c9412dc	0.0180754
206	0xbc0a20ab	-0.00843064
207	0xbe895593	-0.268231
208	0x3f2963bb	0.661678
209	0x3e594a2c	0.212197
210	0xbf9da709	-1.23166
211	0xbf589fe8	-0.84619
212	0xbe829025	-0.255006
213	0xb9e5e589	-0.000438493
214	0xbe905b3a	-0.281946
215	0xbfa0a8c1	-1.25515
216	0xbe589763	-0.211515
217	0x3d62ee92	0.0554033
218	0x3c5e756c	0.0135778
219	0x3dea46e1	0.114393
220	0xbd9d4bad	-0.0768045
221	0xbf00ccff	-0.503128
222	0x3b9578ce	0.00456152
223	0xbee7d999	-0.452832
224	0x3ddfe868	0.10933
225	0x3f498538	0.787189
226	0xbe12ff09	-0.143551
227	0xbcc0f5c9	-0.0235547
228	0xbed6fef8	-0.419914
229	0x3ad08f24	0.00159118
230	0x3c5ee4fd	0.0136044
231	0x3d17ed77	0.0370917
232	0xbed00bcc	-0.40634
233	0xbf4022bc	-0.75053
234	0xbf1be176	-0.608909
235	0x3d590a28	0.0529882
236	0xbb70bc6b	-0.00367334
237	0x3dc0ee80	0.0942049
238	0x3e4919f0	0.196388
239	0xbec1ad86	-0.378277
240	0xbfc0f862	-1.50758
241	0x3d87bd06	0.0662785
242	0x3f1c2e45	0.610081
243	0xbf923444	-1.14222
244	0x3d8ebeaa	0.0696996
245	0xbdeecb75	-0.116599
246	0xbdd73f31	-0.105101
247	0xbe529564	-0.205648
248	0xbb7c9669	-0.00385418
249	0x3f39d95e	0.725973

Operation_1_Add_B f4 [50]
0	0x3e8b97ff	0.272644
1	0xbf39fb50	-0.726491
2	0xbf473615	-0.778169
3	0x3e7e9681	0.248621
4	0x3e30be0e	0.1726
5	0x3d0127ce	0.0315321
6	0xbdac69f9	-0.0841865
7	0x3d8fe289	0.0702563
8	0xbe87383f	-0.264101
9	0xbbb25a70	-0.00544291
10	0x3e909507	0.282387
11	0xbf1fda83	-0.624428
12	0xbf1d52f4	-0.614547
13	0xbcfa74a6	-0.0305732
14	0x3e80f4b6	0.251867
15	0xbf3835f0	-0.719573
16	0xbed0ea7d	-0.408039
17	0x3e435936	0.19077
18	0xbeead9f1	-0.458694
19	0x3deeeaea	0.116659
20	0x3cac3eed	0.0210261
21	0xbe5fddec	-0.21862
22	0x3d23c983	0.0399871
23	0xbf358a11	-0.709138
24	0xbdb5a617	-0.0886957
25	0x3c782327	0.0151451
26	0xbf18dd72	-0.597129
27	0xbebf0436	-0.373079
28	0xbe7ea183	-0.248663
29	0xbee9e860	-0.456851
30	0xbcf19d9c	-0.0294941
31	0xbf01059f	-0.503992
32	0xbee69e80	-0.450428
33	0xbec47171	-0.383678
34	0xbc07702c	-0.00826649
35	0x3f06e6fb	0.526962
36	0xbf0a7393	-0.540826
37	0xbd726776	-0.0591807
38	0xbe83e63f	-0.257616
39	0xbd92d10e	-0.0716878
40	0xbf334949	-0.700337
41	0xbe34a7b5	-0.176421
42	0xbeb25b96	-0.348355
43	0x3e870564	0.263713
44	0xbb1fe208	-0.00243962
45	0x3dd39431	0.10331
46	0x3ceae155	0.0286719
47	0xbf08f26b	-0.534949
48	0xbccb46bb	-0.024814
49	0x3ee174a3	0.440343

Operation_2_MatMul_W f4 [50, 50]
0	0xbf2b1c76	-0.668403
1	0x3dd0142f	0.101601
2	0x3f06fa83	0.52726
3	0xc0876723	-4.23134
4	0x3dfb35b1	0.122661
5	0xc11a689d	-9.65054
6	0xbdf96399	-0.121772
7	0x3ed50460	0.416049
8	0x3e5d6fdb	0.216247
9	0x3d3c7b2b	0.0460159
10	0xbeb60a63	-0.355548
11	0x3eb96d6e	0.362163
12	0x3f59ef74	0.85131
13	0x3f8ea4fd	1.11441
14	0xbc47848e	-0.0121776
15	0x3cd45efd	0.0259242
16	0x3df0307f	0.11728
17	0xc0975d8d	-4.73017
18	0xbdf5b813	-0.11998
19	0xbfb3e426	-1.4054
20	0x3ee078d9	0.438422
21	0x3e5b9303	0.214428
22	0x3e101ffb	0.140747
23	0x3f027a85	0.509682
24	0x3f67de40	0.905735
25	0x3e24ef89	0.16107
26	0xbf01831f	-0.505907
27	0x3dfa6ce3	0.122278
28	0x3f1fc84b	0.62415
29	0x39dacd5a	0.000417332
30	0xbe177708	-0.147915
31	0x3d35d1f9	0.0443897
32	0x3f838e4c	1.02778
33	0xbb88a413	-0.00416995
34	0xbf076dca	-0.529019
35	0x3f3a7504	0.728348
36	0x3f4c7af2	0.798751
37	0xbd13f48f	-0.0361219
38	0x3dc74fde	0.0973203
39	0x3bb93a9f	0.00565274
40	0xbc0eba58	-0.00871142
41	0xbddbf37c	-0.107398
42	0x39b56b7f	0.000346031
43	0x3fa09c4e	1.25477
44	0xbed7f8a9	-0.421819
45	0x3fae7dfe	1.36322
46	0xbd8cc89b	-0.068742
47	0xbdff583a	-0.12468
48	0x3e778466	0.241716
49	0xbddbec25	-0.107384
50	0x3fa0f5c3	1.2575
51	0x3e1765fe	0.14785
52	0x3fc7ba34	1.56037
53	0xbec01883	-0.375187
54	0xbeb5f202	-0.355362
55	0x3f3f6e83	0.74778
56	0x3d1a8e8c	0.0377336
57	0x3f095fdd	0.536619
58	0xbf1030d3	-0.563245
59	0xbd9dc883	-0.0770426
60	0xbf5b9f77	-0.857902
61	0xbfa9512f	-1.32279
62	0xbf645e1c	-0.892061
63	0x4069f751	3.65572
64	0xbcc358e5	-0.0238461
65	0x3e8edd05	0.27903
66	0xbd9a0cf2	-0.07522
67	0xbd18a61f	-0.0372678
68	0x3dbde0a1	0.0927136
69	0x3fd060fe	1.62796
70	0xbdfbf2f5	-0.123022
71	0x3fde9058	1.73878
72	0x3c13dd82	0.00902498
73	0x3ea99781	0.331234
74	0xc016dd05	-2.35724
75	0xbf64383b	-0.891483
76	0x3e8eeac8	0.279135
77	0xbee36ae8	-0.444175
78	0x3f9ce560	1.22575
79	0x3bb4a67b	0.00551301
80	0x3f100ae1	0.562666
81	0x3ef6dbb6	0.482145
82	0xbe01d9f5	-0.126808
83	0xbd5bd132	-0.0536663
84	0xbe0de093	-0.138552
85	0xbf1409b3	-0.578273
86	0xbf172c73	-0.590522
87	0x3f5c54de	0.86067
88	0x3d8a4251	0.0675093
89	0x3ccc57c7	0.0249442
90	0xbd22e649	-0.0397704
91	0x3e7f52fc	0.24934
92	0xbd37a33a	-0.0448334
93	0x3f67c750	0.905385
94	0x3b76eb03	0.00376767
95	0x3f6e2d0e	0.930375
96	0xbbe829f5	-0.00708508
97	0xbf7e15a9	-0.992518
98	0xbd568bc8	-0.0523794
99	0x3e3138bd	0.173068
100	0x405b60e9	3.42779
101	0x3dfc0b9a	0.123069
102	0xbe9b994e	-0.303904
103	0x40030d84	2.0477
104	0x4035b0de	2.83892
105	0xbcc12dfd	-0.0235815
106	0xbeeb2d90	-0.459332
107	0xbd2533b1	-0.0403325
108	0xbfc497b7	-1.53588
109	0xc01ee8fb	-2.48297
110	0x3f91ffd6	1.14062
111	0xc0909f6b	-4.51946
112	0xbf7061c8	-0.938992
113	0xc08c8701	-4.39148
114	0xbcfccd10	-0.0308595
115	0x4024c448	2.57448
116	0x3fd77b9e	1.68346
117	0xbd0f3da5	-0.0349709
118	0x405d4b1f	3.45771
119	0xbf419b1b	-0.756273
120	0xbea04b5e	-0.313075
121	0xbf9dd053	-1.23292
122	0x3fb2b2c0	1.39608
123	0xbf6d69f5	-0.927398
124	0x3fcf3626	1.61884
125	0xbe7213e4	-0.236404
126	0x3e2d7a57	0.169412
127	0x40044817	2.0669
128	0xbf9fe426	-1.24915
129	0x3d2a2827	0.0415422
130	0xbf45ac04	-0.772156
131	0xbface2c1	-1.35067
132	0x40093405	2.1438
133	0x3cd24eed	0.0256724
134	0xbda8037d	-0.0820379
135	0x3e7a0903	0.244175
136	0x400990c1	2.14946
137	0x3e65eb31	0.22453
138	0x3ee8626f	0.453876
139	0xbd1e315e	-0.0386213
140	0xbcc0b6df	-0.0235247
141	0xbf7c75c5	-0.986172
142	0x3c9bc3e1	0.0190143
143	0x3f00d456	0.50324
144	0x3c9c8da0	0.0191105
145	0x3f94980b	1.16089
146	0xbf79be1b	-0.975557
147	0x404221c0	3.03331
148	0x3fb5e54b	1.42106
149	0xbf648ba8	-0.892756
150	0x3e426f1e	0.189877
151	0x3eeeb28e	0.466206
152	0xbe79a390	-0.243788
153	0xbf17ea1c	-0.593416
154	0xbe7ddf01	-0.247921
155	0x3cc0a35e	0.0235154
156	0x3f6cc576	0.924888
157	0x3ed519bd	0.416212
158	0x3ee7aede	0.452506
159	0x3ed0e886	0.408024
160	0xbe6e0b4e	-0.232465
161	0x3e8346fe	0.256401
162	0x3e826549	0.254679
163	0xbe2dabe2	-0.169601
164	0x3d1a2270	0.0376305
165	0x3e540af2	0.207073
166	0xba2e32c8	-0.000664514
167	0xc037edfa	-2.8739
168	0xbf2ba67a	-0.670509
169	0xbf24ffeb	-0.64453
170	0x3f3d36b5	0.739116
171	0xbef14c88	-0.471287
172	0x3f2c549b	0.673166
173	0x3e903c8e	0.281712
174	0xbe1eab7a	-0.154951
175	0xbcfd27de	-0.0309028
176	0xbc835f66	-0.0160367
177	0xbf6aab15	-0.916673
178	0xbdde2d62	-0.108485
179	0x3cfd523b	0.030923
180	0xbee15b79	-0.440151
181	0xbe44e8fb	-0.192295
182	0x3d78eb03	0.060771
183	0xbd84500c	-0.0646058
184	0x3f06492c	0.524554
185	0x3dac6d2b	0.0841926
186	0xbda156d5	-0.0787789
187	0xbee85b9f	-0.453824
188	0x3ddc7608	0.107647
189	0xbc811b53	-0.0157601
190	0xbce6b393	-0.0281618
191	0xbe8e64b2	-0.278112
192	0x3bd3ef81	0.00646776
193	0xbf8802f3	-1.06259
194	0xbea94749	-0.330622
195	0xbe441feb	-0.191528
196	0x3e5dfb0d	0.216778
197	0x3ec6cc60	0.388278
198	0xbde219eb	-0.110401
199	0xbf8704ab	-1.05483
200	0xbe6ad213	-0.229317
201	0x3ee94ea0	0.455678
202	0x3efa6dad	0.489118
203	0x3f0ebe8c	0.557595
204	0xbe2623d1	-0.162246
205	0x3cae8519	0.0213037
206	0x3f97ad6d	1.18498
207	0xbd840929	-0.0644706
208	0xbcae2400	-0.0212574
209	0x3ebe04e2	0.371131
210	0x3dbe964b	0.0930601
211	0x3ee5c50d	0.448769
212	0x3ead696e	0.338695
213	0xbe4cd6c3	-0.200038
214	0xbcd2d956	-0.0257384
215	0x3dc832ac	0.0977529
216	0x3da9bd69	0.0828808
217	0xbfacef35	-1.35105
218	0xbebc46d8	-0.367728
219	0xbeee03b4	-0.464872
220	0x3e812924	0.252267
221	0xbd3bbb62	-0.045833
222	0x3efdca6d	0.495685
223	0xbf4f65dc	-0.810148
224	0x3f436988	0.763329
225	0x3f51d799	0.819696
226	0xbf91c23b	-1.13874
227	0x3f1b1961	0.605856
228	0x3ec02e88	0.375355
229	0xbacfd2e7	-0.00158557
230	0x3e48f57f	0.196249
231	0xbd14280b	-0.036171
232	0x3eb65083	0.356083
233	0x3c86b4f0	0.0164437
234	0xbe883750	-0.266047
235	0xbe07e88a	-0.132723
236	0xbf04e960	-0.519186
237	0xbe8c319c	-0.273816
238	0x3e8d28f2	0.275703
239	0xbcf6767f	-0.0300858
240	0xbd6c1100	-0.0576334
241	0x3e8f7143	0.280161
242	0xbd5ad066	-0.0534214
243	0xbde6cca3	-0.112695
244	0xbcaf697a	-0.0214126
245	0x3f51a2f9	0.818893
246	0x3ee983b6	0.456083
247	0x3e82d3a6	0.255521
248	0xbe6ec072	-0.233156
249	0xbf7b2a39	-0.981113
250	0x3ee2bc94	0.442845
251	0xbeea37ac	-0.457456
252	0x3e7d79d1	0.247535
253	0xbe625a25	-0.221047
254	0xbe324420	-0.174088
255	0xbf01b813	-0.506715

Operation_2_Add_B f4 [50]
0	0x3f31c12f	0.694354
1	0xbe55c4a8	-0.208758
2	0xbeac9907	-0.337105
3	0x3eca8694	0.395558
4	0xbf859c8d	-1.04384
5	0x3d9aa095	0.0755016
6	0xbf955619	-1.16669
7	0x3dd104d5	0.10206
8	0xbe532a06	-0.206215
9	0xbe7f1b69	-0.249128
10	0xbe95bfcf	-0.292479
11	0xbf95cc64	-1.1703
12	0xbfa3f4dc	-1.28091
13	0xbf456452	-0.771062
14	0xbc6f59c0	-0.0146088
15	0xbe18f217	-0.149361
16	0xbf4361fe	-0.763214
17	0x3f8c302b	1.09522
18	0x3e56249a	0.209124
19	0x3fb8d899	1.44411
20	0x3e3af039	0.182557
21	0x3eec7ae1	0.461875
22	0xbf95cf03	-1.17038
23	0x3f27da30	0.655673
24	0xbd64761c	-0.0557767
25	0xbefab841	-0.489687
26	0x3f8b7fe1	1.08984
27	0x3e58adef	0.211601
28	0x3f09a240	0.537632
29	0xbc5a8b67	-0.0133389
30	0xbf94fe9b	-1.16402
31	0xbed46bad	-0.414884
32	0xbefe3d3e	-0.496561
33	0xbc96aece	-0.0183939
34	0x3e6bb624	0.230187
35	0xbddf16b1	-0.10893
36	0xbf3d1f60	-0.73876
37	0x3dc7c7b8	0.0975489
38	0x3edc3d68	0.430156
39	0xbc6bd53b	-0.0143941
40	0xbc165d85	-0.00917757
41	0x3e0985ad	0.134299
42	0xbc7f2d72	-0.0155748
43	0xbf49fb40	-0.78899
44	0xbe166b1e	-0.146893
45	0xbf5b9703	-0.857773
46	0xbfa158b8	-1.26052
47	0xbf1f8c11	-0.623231
48	0xbef60daa	-0.480573
49	0x3f5c1c0d	0.859803

Operation_3_MatMul_W f4 [50, 50]
0	0xbb9e2eaa	-0.00482734
1	0x39bf432a	0.000364804
2	0xbe883772	-0.266048
3	0x3e807e5a	0.250964
4	0xbf4d84a1	-0.802805
5	0xbf41aea3	-0.756571
6	0x3d0ab83a	0.0338671
7	0xbe3a37ef	-0.181854
8	0x3e9b5e0f	0.303452
9	0xbc92c4ff	-0.0179162
10	0x3f0f3861	0.559454
11	0xbf125bc8	-0.571713
12	0xbf0ecc81	-0.557808
13	0x3dac65ac	0.0841783
14	0xbf348616	-0.705171
15	0x3dbbb0a3	0.0916455
16	0x3ec79075	0.389774
17	0xbd5886c5	-0.0528629
18	0xbd48d287	-0.0490289
19	0xbfbc3aa8	-1.47054
20	0xbe47caea	-0.19511
21	0x3df7396d	0.120715
22	0xbeb71477	-0.357578
23	0x3e0afa72	0.135721
24	0xbf5d6b66	-0.86492
25	0xbf806499	-1.00307
26	0x3e67dfe3	0.22644
27	0xbe894a4d	-0.268145
28	0x3efb38d6	0.490668
29	0x3d6f6bfe	0.0584526
30	0x3e338a3b	0.175332
31	0x3e944bb2	0.28964
32	0xbef92d77	-0.486675
33	0xbeff1950	-0.49824
34	0xbd33c991	-0.0438934
35	0x3e63315d	0.221868
36	0xbdbfceb8	-0.093656
37	0x3f80bfb1	1.00585
38	0x3ea4a601	0.321579
39	0x3d0b0b47	0.0339463
40	0x3e2c18b5	0.168063
41	0x3f032d0a	0.512406
42	0x3e573861	0.210176
43	0x3e56e115	0.209843
44	0xbe88ad69	-0.266948
45	0xbf1c9cf5	-0.61177
46	0x3f376f3b	0.716541
47	0xbdddf97b	-0.108386
48	0xbec2e686	-0.380665
49	0x3d08670c	0.0333014
50	0x3f83ce31	1.02973
51	0x3db25171	0.0870694
52	0xbd2d603b	-0.0423281
53	0xbf0e4053	-0.555669
54	0x3fbdc6d2	1.48263
55	0x3ea0620b	0.313248
56	0xbc1f1f1f	-0.00971201
57	0xbf0adb40	-0.542408
58	0x3f6e5c81	0.931099
59	0xbd293096	-0.0413061
60	0xbf204d44	-0.626179
61	0x3f07dad7	0.530683
62	0x3d8aead2	0.0678307
63	0xbd37079e	-0.044685
64	0x3f2cd77b	0.675163
65	0xbe3db941	-0.185277
66	0xbec3367a	-0.381275
67	0xbe9ce78a	-0.306454
68	0xbe6146e5	-0.219997
69	0x3f76b096	0.963632
70	0x3da66fd6	0.081268
71	0xbe93530d	-0.287743
72	0xbf03df4c	-0.515126
73	0xbc77fc25	-0.0151358
74	0xbf02dbb6	-0.511165
75	0x3d40ff39	0.0471184
76	0xbdb93492	-0.0904323
77	0xbff86f15	-1.94089
78	0x3ec3d923	0.382516
79	0xbf635e42	-0.888157
80	0x3ea4dc23	0.321992
81	0xbdc6d846	-0.0970922
82	0x3eaa237d	0.332302
83	0x3ee21038	0.44153
84	0xbc8f4730	-0.01749
85	0x3e098a22	0.134316
86	0x3bdc242e	0.00671818
87	0xbd9984d7	-0.0749604
88	0x3d320d7e	0.0434699
89	0x3c6c32c4	0.0144164
90	0xbe59f44d	-0.212846
91	0x3d9e5739	0.0773148
92	0xc0b1c4db	-5.55528
93	0xbe44c3c2	-0.192153
94	0x3ea6160e	0.324387
95	0xbee37c35	-0.444307
96	0x3edafc26	0.427705
97	0x3ef612c7	0.480612
98	0xbf59183b	-0.848026
99	0x3e745e4e	0.238641
100	0xbf2007ab	-0.625117
101	0xbd3c560c	-0.0459805
102	0x3f80980b	1.00464
103	0x3e3542a2	0.177012
104	0xbf2cc88a	-0.674935
105	0x3ece6320	0.4031
106	0x3c3f2a4d	0.0116678
107	0xbefb6391	-0.490994
108	0xbd880263	-0.0664108
109	0xbb8a7fcb	-0.00422666
110	0xbe5eedcc	-0.217704
111	0xbeca5871	-0.395206
112	0x3ae18211	0.00172049
113	0xbe90ace2	-0.282569
114	0x3ed3443d	0.41263
115	0xbf562596	-0.836511
116	0x3e9b9de5	0.303939
117	0xbe07110e	-0.131901
118	0x3da21c47	0.0791555
119	0x3f1cd185	0.612572
120	0xbf5a4170	-0.852561
121	0x3dea45d4	0.114391
122	0xbfb13016	-1.38428
123	0xbc8520d1	-0.016251
124	0xbe8407ee	-0.257873
125	0x3f12696a	0.571921
126	0x3f630143	0.886738
127	0x3d10b9a6	0.0353333
128	0xc03bdc9c	-2.93534
129	0xbe460fa1	-0.193419
130	0x3e127781	0.143034
131	0x3e997bb7	0.299772
132	0xbe4b5914	-0.198582
133	0x3dbdd31a	0.0926878
134	0x3ecd8ab9	0.401449
135	0xbe82f859	-0.255801
136	0x3e921294	0.285298
137	0x3e9d801b	0.307618
138	0xbea6f1dc	-0.326064
139	0xbcadedaf	-0.0212315
140	0x3eeb97dd	0.460143
141	0x3f1ff10f	0.624772
142	0x3f17457c	0.590904
143	0x3cf7f570	0.0302684
144	0x3f723748	0.946156
145	0x3e48811b	0.195805
146	0x3eef10ed	0.466926
147	0xbdfa47aa	-0.122207
148	0x3f03dc8c	0.515084
149	0xbe02b346	-0.127637
150	0x3f8e415f	1.11137
151	0x3d973b78	0.0738439
152	0xbfb32da1	-1.39983
153	0xbf42fc26	-0.76166
154	0xbe49ec70	-0.197191
155	0xbf18cef6	-0.596908
156	0xbc92eb2a	-0.0179344
157	0x3f9f05fb	1.24237
158	0x3d703deb	0.0586528
159	0xbb08026d	-0.00207534
160	0x3e1e40c8	0.154544
161	0xbe3764f1	-0.179096
162	0x3e3fc009	0.187256
163	0x3d78f183	0.0607772
164	0xbeb12924	-0.346017
165	0xbe2d3522	-0.169148
166	0x3e1518f4	0.145603
167	0x3e8b03e2	0.271514
168	0xbecbfceb	-0.398414
169	0x3f413426	0.754702
170	0x3f9126e9	1.134
171	0x3f2c2d5a	0.672567
172	0xc0165048	-2.34865
173	0x3ddcd91f	0.107836
174	0x3ddff716	0.109358
175	0xbf081f97	-0.531732
176	0x3d100318	0.0351592
177	0x3f10572a	0.56383
178	0x40320496	2.78153
179	0x3da663ba	0.0812449
180	0xbec3f749	-0.382746
181	0x3da60568	0.081065
182	0xbf4379c8	-0.763577
183	0xbf00ce92	-0.503152
184	0xbe85ca08	-0.261307
185	0x3f1ec3b9	0.620174
186	0x3e8999dd	0.268752
187	0xbe68f712	-0.227505
188	0xbc58552c	-0.0132039
189	0xbd2dfe91	-0.0424791
190	0x3dc3df89	0.0956412
191	0x3e2eed03	0.170826
192	0x3f290c3d	0.660343
193	0xbd51bbb4	-0.0512044
194	0xbc36a909	-0.0111487
195	0x3e99b047	0.300173
196	0x3eee5604	0.4655
197	0x3f03b385	0.514458
198	0x3ea600f3	0.324226
199	0xbedcd4cc	-0.431311
200	0x3de06c01	0.109581
201	0xbdfc0a07	-0.123066
202	0xbf442603	-0.766205
203	0xbf4509e1	-0.769682
204	0x3fe3c89f	1.77956
205	0x3e90ccde	0.282813
206	0xbc156ebd	-0.00912064
207	0xbf104556	-0.563558
208	0x3d996993	0.0749084
209	0x3d1def4f	0.0385583
210	0x3ec42a02	0.383133
211	0x3e0339c1	0.12815
212	0x3e7593e6	0.239822
213	0xbdd02689	-0.101636
214	0x3f71a5a9	0.943934
215	0x3d0f384c	0.0349658
216	0x3e74f54d	0.239217
217	0x3eb3415b	0.350108
218	0x3d79619b	0.0608841
219	0xc011ee4e	-2.28017
220	0xbcca756f	-0.0247142
221	0xbd12b3e7	-0.0358161
222	0xbf0d8dac	-0.552943
223	0xbebce4a8	-0.368932
224	0x3dc4d70d	0.0961133
225	0xbe50d1fa	-0.203926
226	0xbe945f39	-0.289789
227	0x3e9bab22	0.30404
228	0x3f9ff38c	1.24962
229	0xbbec3dd6	-0.00720952
230	0xbe9ae1ce	-0.302504
231	0xbc0d3055	-0.00861748
232	0xbdf90753	-0.121596
233	0xbf01ad00	-0.506546
234	0xbd9f119b	-0.0776703
235	0x3fb3f67f	1.40596
236	0xbf745a60	-0.954504
237	0xbc41af62	-0.0118216
238	0x3d7970cf	0.0608986
239	0x3c5bea77	0.0134226
240	0xbe9fb8d4	-0.311957
241	0xbe2b951c	-0.167561
242	0x3b00b014	0.00196362
243	0xbe1eef1c	-0.155209
244	0x3e719c5a	0.235948
245	0x3e4ea91e	0.201817
246	0xbf5e581d	-0.868532
247	0x3e064a17	0.131142
248	0xbe328177	-0.174322
249	0xbe2b76b4	-0.167445
250	0xbfbb7803	-1.4646
251	0xbed0f084	-0.408085
252	0x3f8778ab	1.05837
253	0x3f1229d8	0.570951
254	0xbf07cd36	-0.530475
255	0x3f11158c	0.566735

Operation_3_Add_B f4 [50]
0	0x3e8b61bb	0.27223
1	0xbf86f933	-1.05448
2	0x3fc95715	1.57297
3	0x3fb7eb5b	1.43687
4	0xbed827b7	-0.422178
5	0xbf7d06bc	-0.988384
6	0xbcb308d6	-0.0218548
7	0xbe966cd3	-0.293799
8	0x3f8c26fe	1.09494
9	0xbcfc3b1a	-0.0307899
10	0xbd80f536	-0.0629677
11	0xbf5711d8	-0.840116
12	0x3f01012a	0.503924
13	0x3e6c8c0d	0.231003
14	0xbceb6615	-0.0287352
15	0x3f91c8c9	1.13894
16	0x3f3c5c03	0.735779
17	0x3de3126f	0.110875
18	0xbf81815a	-1.01176
19	0xbe18b3f6	-0.149124
20	0xbf8199ed	-1.01251
21	0xbf8dea36	-1.10871
22	0x3fb651c2	1.42437
23	0x3e989d06	0.298073
24	0x3eb29175	0.348766
25	0x3e8e2c34	0.277681
26	0xbfa141c8	-1.25982
27	0xbe861da8	-0.261945
28	0x3e13a216	0.144173
29	0xbe989b74	-0.298061
30	0xbf88d20b	-1.06891
31	0xbd6ce267	-0.0578331
32	0x3f19d302	0.600876
33	0x3f1e1e1d	0.617647
34	0x3f2744c3	0.653393
35	0xc03289f4	-2.78967
36	0x3f147486	0.579903
37	0x3ef5e56d	0.480266
38	0x3eafaace	0.3431
39	0xbc243bb4	-0.010024
40	0xbe895098	-0.268193
41	0xbd957944	-0.0729852
42	0xbdbbf61b	-0.091778
43	0x3ee495c0	0.446455
44	0x3f10c597	0.565515
45	0xbf0b5e96	-0.544412
46	0x3e749f0e	0.238888
47	0x3d3e6835	0.0464861
48	0x3f0e24ee	0.555251
49	0x3dc2da7e	0.0951433

Operation_4_MatMul_W f4 [50, 50]
0	0xbe3351df	-0.175117
1	0xbdeb2bfe	-0.11483
2	0xbf8bb59e	-1.09148
3	0x3eedf288	0.464741
4	0x3e89e53b	0.269327
5	0xbd1518b1	-0.0364005
6	0x3c351e5a	0.0110546
7	0xbf06de98	-0.526834
8	0x3f27be66	0.655249
9	0xbec5ce3a	-0.386339
10	0xbbf9f5d0	-0.00762818
11	0x3f4a6edb	0.790754
12	0x3e95349c	0.291417
13	0xbe994e5d	-0.299426
14	0x3e93cd9a	0.288678
15	0x3d1fbfb9	0.0390012
16	0x3f385f07	0.7202
17	0xbd317b1d	-0.0433303
18	0x3ee8ab93	0.454434
19	0x3eb0e001	0.345459
20	0xbf3098f6	-0.689834
21	0x3e462520	0.193501
22	0xbde6f3f5	-0.11277
23	0xbdeec8d6	-0.116594
24	0xbcd1f95c	-0.0256316
25	0xbdf02eec	-0.117277
26	0x3d0ecb90	0.0348621
27	0x3e24bcae	0.160876
28	0xbd27a37d	-0.0409274
29	0xbd6498d1	-0.0558098
30	0xbcb10cb3	-0.0216125
31	0xbd5f1ded	-0.0544719
32	0xbf01d2af	-0.507121
33	0x3f423ef3	0.758773
34	0x3b8d2dfb	0.00430846
35	0x3f304dba	0.688686
36	0xbf8db0de	-1.10696
37	0x3c4892ab	0.012242
38	0xbea5d181	-0.323864
39	0xbe420360	-0.189466
40	0xc06ff9f0	-3.74963
41	0xbc0959f1	-0.00838326
42	0x3ecfd5cb	0.405928
43	0x3d2155bb	0.0393884
44	0x3f2aedee	0.667693
45	0xbea9aac5	-0.331381
46	0x3eb00e8d	0.343861
47	0x3e5152b1	0.204417
48	0x3f4cfb98	0.800714
49	0x3ee51eb8	0.4475
50	0x3f77cc7d	0.967964
51	0x3e1b0ccc	0.151416
52	0xc03f9ffd	-2.99414
53	0xbfc85879	-1.5652
54	0xbfaaf0ae	-1.33547
55	0xbf05527e	-0.52079
56	0xbd30a387	-0.0431247
57	0x3ed77cee	0.420875
58	0x3ed60d88	0.418072
59	0x3e88e3ce	0.267363
60	0x3e4ee914	0.202061
61	0xc021352b	-2.51887
62	0xbdf02de0	-0.117275
63	0xc046b8a6	-3.10502
64	0x3d135dab	0.035978
65	0x3e5d4413	0.21608
66	0x3e214d72	0.157522
67	0xbee9728a	-0.455952
68	0x3d84ee03	0.0649071
69	0x3e9a01ef	0.300796
70	0xbdd285a9	-0.102794
71	0xbf0061e9	-0.501494
72	0x3dd27568	0.102763
73	0x3e49f2bb	0.197215
74	0xbd39c2cf	-0.0453518
75	0xbed1bd62	-0.409648
76	0xbff61ab5	-1.92269
77	0xbf03cfc4	-0.514889
78	0x3e97bdcf	0.29637
79	0xbeef6838	-0.467592
80	0xbfe854de	-1.81509
81	0xbd8312e7	-0.0640009
82	0x3bc7d973	0.00609892
83	0x3ebb45ae	0.365766
84	0x3fcb7f39	1.58982
85	0xbe9e1bb0	-0.308805
86	0x3edf11d8	0.435683
87	0xc02841dd	-2.62902
88	0x3f410f41	0.754139
89	0x3f09f751	0.53893
90	0x3e96af25	0.294305
91	0x3ef9b047	0.487673
92	0xbda9104a	-0.0825506
93	0x3cd191c3	0.0255822
94	0x3e65c854	0.224397
95	0xbf25715c	-0.646261
96	0xbde4588a	-0.111497
97	0x3e5868ba	0.211337
98	0x3f810093	1.00783
99	0xbe3e8965	-0.186071
100	0xbd54398e	-0.0518127
101	0xbe5daa93	-0.216471
102	0xbfede98e	-1.85869
103	0x3e758601	0.239769
104	0x3eba64e5	0.364051
105	0xbc5aeece	-0.0133626
106	0xbd30a859	-0.0431293
107	0xbf457508	-0.771317
108	0x3f999fd3	1.20019
109	0xbf8ff972	-1.1248
110	0xbf07471f	-0.528429
111	0x3de69164	0.112582
112	0x3ca48733	0.020084
113	0xbe1ae8e2	-0.151279
114	0x3e289d6b	0.164663
115	0x3cb49be9	0.022047
116	0x3ea03127	0.312875
117	0x3e9f980f	0.311707
118	0xbf4b8c33	-0.795108
119	0xbdcb921f	-0.0993998
120	0xbee3966c	-0.444507
121	0xbdc62af2	-0.0967616
122	0x3eefe026	0.468507
123	0xbca118b4	-0.0196651
124	0xbcd9a3ab	-0.0265673
125	0xbead56f3	-0.338554
126	0x3da8b31f	0.0823729
127	0x3b046804	0.00202036
128	0xbd81da38	-0.0634045
129	0x3e32c775	0.174589
130	0x3e3a4441	0.181901
131	0xbcdee6ab	-0.0272096
132	0x3e7bf8fd	0.246067
133	0x3ea9f299	0.331929
134	0x3e87df3b	0.265375
135	0xbef49f95	-0.47778
136	0xbf1714fd	-0.590164
137	0x3eacbfb1	0.3374
138	0x3e63c42a	0.222428
139	0xbdb36d30	-0.0876106
140	0x3e8ce39b	0.275174
141	0x3ea77c03	0.327118
142	0x3f7920c0	0.973156
143	0xbd1a1c26	-0.0376245
144	0x3ec2ac11	0.380219
145	0xbfdc039b	-1.71886
146	0xbec65f31	-0.387445
147	0x3dc0c54a	0.0941263
148	0x3ea4d1c8	0.321913
149	0x3e79b888	0.243868
150	0xbe698916	-0.228062
151	0x3dbf4d88	0.0934096
152	0xc023f291	-2.56168
153	0x3bb1ec61	0.00542979
154	0x3e92f0e1	0.286994
155	0xbe4486f0	-0.191921
156	0xbc1a651c	-0.00942352
157	0xbcf3c346	-0.0297562
158	0xbd99d261	-0.0751083
159	0xbe683383	-0.226759
160	0x3de1700d	0.110077
161	0x3f147065	0.57984
162	0x3eafd912	0.343453
163	0x3f79f17c	0.976341
164	0x3e0d7732	0.13815
165	0x3e6888b5	0.227084
166	0xbe0bc409	-0.13649
167	0x3c11ddf9	0.00890302
168	0xbf16b3bc	-0.58868
169	0xbec1a283	-0.378193
170	0xbf531de7	-0.824675
171	0x3cc4f101	0.0240407
172	0x3e730f49	0.237363
173	0x3df89d6b	0.121394
174	0xbd2c6731	-0.0420906
175	0x3e336b09	0.175213
176	0x3e8c434e	0.273951
177	0x3e8c6e09	0.274277
178	0xbe539607	-0.206627
179	0x3e205708	0.156582
180	0x3e0bba99	0.136454
181	0x3cf8be58	0.0303642
182	0x3e8a4b34	0.270105
183	0x3ee8f27c	0.454975
184	0x3f60caf7	0.878097
185	0x3ed28e93	0.411244
186	0x3f75fbb5	0.960872
187	0x3e86f8ad	0.263616
188	0x3e86fd22	0.26365
189	0x3e83df2b	0.257562
190	0xbf0ababf	-0.541912
191	0xbca1e2df	-0.0197615
192	0xbe32d624	-0.174645
193	0xbc96bf29	-0.0184017
194	0x3cdb643f	0.0267812
195	0x3f3e3359	0.742971
196	0x3d5bb532	0.0536396
197	0xbd741b5b	-0.0595964
198	0x3f05186e	0.519904
199	0x3ee5dd4c	0.448954
200	0xbaf84edc	-0.00189444
201	0xbe305bc0	-0.172225
202	0xc0808295	-4.01594
203	0xbeaff0ed	-0.343635
204	0x3df0f495	0.117654
205	0xbd22ad3f	-0.039716
206	0xbcd72e50	-0.0262672
207	0xbdd47ae1	-0.10375
208	0x3f44fc50	0.769475
209	0x3f10e8a7	0.56605
210	0x3fb0c059	1.38087
211	0xbf4a27f2	-0.789672
212	0x3ed913e8	0.42398
213	0x3e6bdc27	0.230332
214	0x3e116a8c	0.142008
215	0x3e00435f	0.125257
216	0x3f0fe261	0.562048
217	0x3ce18952	0.0275313
218	0xbfcb7708	-1.58957
219	0x3c4ef607	0.0126319
220	0xbe21dabe	-0.158061
221	0xbdd1b691	-0.102399
222	0x3da2a993	0.079425
223	0xbd86a9ee	-0.0657538
224	0x3cd72ffd	0.026268
225	0x3e66b830	0.225312
226	0x3db76c8b	0.0895625
227	0x3d3f2aee	0.0466718
228	0xbd748d71	-0.0597052
229	0xbcf50bb0	-0.0299128
230	0x3dd79075	0.105256
231	0xbd1d28eb	-0.0383691
232	0xbfd72618	-1.68085
233	0xbed278f2	-0.411079
234	0x3eb8cda7	0.360944
235	0x3dbad107	0.091219
236	0x3ec9bed3	0.394034
237	0x3e012dfd	0.126152
238	0xbcb21c7d	-0.0217421
239	0x3d2ce9d8	0.0422152
240	0x3f335936	0.70058
241	0x3de26916	0.110552
242	0x3e8969e4	0.268386
243	0xbcdae452	-0.0267202
244	0xbb922978	-0.00446051
245	0x3e5929ed	0.212074
246	0xbcf31b81	-0.0296762
247	0xc0b9c8de	-5.80577
248	0x3f01f916	0.507707
249	0xbe42a173	-0.190069
250	0x3df31fcd	0.118713
251	0xbe1e3044	-0.154481
252	0x3ee38bf0	0.444427
253	0x3e866e22	0.262559
254	0x3d7ea7c1	0.0621717
255	0xbeb9624a	-0.362078

Operation_4_Add_B f4 [50]
0	0xbf102e99	-0.563211
1	0xbdab72e0	-0.0837152
2	0xbf8ff823	-1.12476
3	0xc012dae4	-2.29461
4	0x3f72786c	0.94715
5	0x3f2cebff	0.675476
6	0xbcf7a121	-0.0302282
7	0xbcde97d0	-0.027172
8	0x3d999540	0.0749917
9	0x3e8a0b80	0.269619
10	0xbf9742ee	-1.18173
11	0xbee92c06	-0.455414
12	0x3ee4d317	0.446923
13	0xbd6c611c	-0.0577098
14	0x3fce3b25	1.61118
15	0xc01ad014	-2.41895
16	0xbfe3cc8e	-1.77968
17	0x3fa52253	1.29011
18	0x3eb88d8f	0.360455
19	0xbf4991de	-0.787382
20	0x3e1dc400	0.154068
21	0x3fac9c4e	1.34852
22	0x3edbc4b1	0.429235
23	0xbf683e96	-0.907205
24	0xbcc24844	-0.0237161
25	0x3eb0a82a	0.345033
26	0xbe3e14be	-0.185626
27	0xbf89ecd5	-1.07754
28	0x3f75449a	0.958078
29	0xbdde6688	-0.108594
30	0x3f337b9e	0.701105
31	0xbd2bf1f6	-0.0419788
32	0x3f67588e	0.903695
33	0x3dfd28d0	0.123613
34	0xc0247bdd	-2.57006
35	0x3e3dacac	0.185229
36	0x3f3dfbf8	0.742126
37	0x3f0a3d3e	0.539997
38	0xbeb5c0db	-0.354987
39	0x3fa9335d	1.32188
40	0xbffa339c	-1.9547
41	0x3f3fdcad	0.749461
42	0xbeae1f5c	-0.340083
43	0xbc4abd93	-0.0123743
44	0xc0273e2d	-2.61317
45	0xbe896723	-0.268365
46	0xbf3e3c64	-0.743109
47	0xc01aea21	-2.42054
48	0xbf5b54d2	-0.856763
49	0xbf41c62a	-0.75693

Operation_5_MatMul_W f4 [50, 50]
0	0x3eeb1833	0.459169
1	0xbe9982aa	-0.299825
2	0x3f0b404f	0.54395
3	0x3ed6f77f	0.419857
4	0xbddc37a4	-0.107528
5	0xbe645f18	-0.223019
6	0xbf0e0525	-0.554766
7	0xbf1a6c3c	-0.603214
8	0x3f1e20ef	0.61769
9	0x3ef72cd8	0.482764
10	0x3e968c69	0.29404
11	0x3b0675fb	0.00205171
12	0x3f2ab13e	0.666767
13	0xbeab0985	-0.334057
14	0x3e5fc5ce	0.218528
15	0xbf19d51b	-0.600908
16	0xbda967a3	-0.0827172
17	0xbe0cdb38	-0.137555
18	0xc08a97a2	-4.33101
19	0xbe90ffda	-0.283202
20	0xbe182b1f	-0.148602
21	0x3ce3387f	0.0277369
22	0xbd19c828	-0.0375444
23	0x3e9f0eb2	0.310659
24	0x3e2fd3f6	0.171707
25	0xbd0a17e7	-0.0337142
26	0xbeac36db	-0.336356
27	0xbdce65bf	-0.10078
28	0x3f4a6a55	0.790685
29	0xbe3740c4	-0.178958
30	0x3d86ca39	0.0658154
31	0xbd00f6bb	-0.0314853
32	0xbfb1a273	-1.38777
33	0x3f113ea3	0.567362
34	0x3e2c8605	0.16848
35	0xbdfe353f	-0.124125
36	0xbe2f5f4e	-0.171262
37	0x3e708fa8	0.234923
38	0xbe231a4c	-0.15928
39	0xbd8f8719	-0.0700819
40	0x3cfe12f6	0.0310149
41	0xbd3101e6	-0.0432147
42	0x3e804838	0.250551
43	0xbf8a6517	-1.08121
44	0x3c9e52d1	0.0193266
45	0x3eec7bab	0.461881
46	0xbe183d79	-0.148672
47	0x3e45c67e	0.19314
48	0xbee6a1a5	-0.450452
49	0xbf9916db	-1.19601
50	0xbe3a82e8	-0.18214
51	0x3c035783	0.00801647
52	0xbdd8b9bb	-0.105823
53	0xbeda8976	-0.42683
54	0x3ecd4802	0.40094
55	0x3e0123c4	0.126113
56	0xbd3109f9	-0.0432224
57	0xbf054a90	-0.520669
58	0xbde63305	-0.112402
59	0x3de0e8c9	0.109819
60	0xbf02efe5	-0.511473
61	0xba5adc51	-0.000834887
62	0xbf18cb19	-0.596849
63	0x3d9b90dd	0.0759599
64	0xbe307cc8	-0.172351
65	0xbd804c13	-0.0626451
66	0x3e7a4ce8	0.244434
67	0xbea22835	-0.316713
68	0xbf6a8d00	-0.916214
69	0x3d869f3c	0.0657334
70	0x3ee69b5a	0.450404
71	0xbca1bdf6	-0.0197439
72	0xbe5660a2	-0.209353
73	0xbda82378	-0.0820989
74	0x3ea71f9b	0.326413
75	0x3c0a7894	0.0084516
76	0xbe284945	-0.164342
77	0xbe9056a3	-0.281911
78	0xbde98b2f	-0.114035
79	0xbd5600d8	-0.0522469
80	0x3e30064b	0.171899
81	0xbd595754	-0.0530618
82	0xbf389de0	-0.721159
83	0xbe639086	-0.222231
84	0x3da60095	0.0810558
85	0x3c86fac6	0.016477
86	0xbf061d32	-0.523883
87	0x3e457f30	0.192868
88	0xbe0b5350	-0.13606
89	0x3f062670	0.524024
90	0x3e64e8fb	0.223545
91	0xbe9ea0dc	-0.309821
92	0xbe45dbfd	-0.193222
93	0xbe26b2af	-0.162791
94	0xbcc983a2	-0.0245989
95	0xbd557d75	-0.0521216
96	0x3d848ece	0.0647255
97	0xbed7e9d9	-0.421706
98	0x3cc8977e	0.0244863
99	0xbee44fe3	-0.445922
100	0x3ddae361	0.106879
101	0xbc03952b	-0.00803117
102	0x3e0fe500	0.140522
103	0x3ec4f313	0.384667
104	0x3c9a6506	0.018847
105	0x3e2523f6	0.16127
106	0xc03ec836	-2.98097
107	0xbf3ecdf2	-0.74533
108	0x3d686488	0.0567365
109	0x3d89a141	0.0672021
110	0x3c41e944	0.0118354
111	0x3d8f0282	0.069829
112	0xbdd147f1	-0.102188
113	0xbd8294c3	-0.0637603
114	0x3c4560c8	0.012047
115	0xbfc6f1fe	-1.55426
116	0xbe91d96f	-0.284862
117	0xbb2a6874	-0.00260022
118	0xbf6e0924	-0.929827
119	0xbeb4eb9a	-0.35336
120	0x3dff8b15	0.124777
121	0x3a6b032a	0.000896501
122	0xbf1b4656	-0.606542
123	0x3aeaacdd	0.00179043
124	0xbc94e0cd	-0.0181736
125	0x3ca757fe	0.0204277
126	0xbde773e2	-0.113014
127	0xc0619b67	-3.52511
128	0xbe1efd00	-0.155262
129	0xbdd7995f	-0.105273
130	0xbd650390	-0.0559116
131	0xbead3c15	-0.338349
132	0xc03cd10f	-2.95026
133	0xbd0955cf	-0.0335291
134	0xc0a8320e	-5.25611
135	0x3ee8e347	0.454859
136	0x3e24cfd1	0.160949
137	0x3db49a71	0.0881852
138	0xbfbf7d41	-1.49601
139	0x3d135745	0.0359719
140	0xbdc833ee	-0.0977553
141	0x3d767756	0.0601724
142	0x3a82d9dc	0.000998314
143	0xbef7ed63	-0.484233
144	0xbc79aa10	-0.0152383
145	0xbe295aaf	-0.165385
146	0x3d5c9115	0.0538493
147	0xbf012fb2	-0.504634
148	0xbda1b6c7	-0.0789619
149	0xbe2fe60c	-0.171776
150	0x3ea149e9	0.315017
151	0x3ed6a726	0.419244
152	0x3f9ac1d3	1.20904
153	0x3f90f3cb	1.13244
154	0xbd839c7a	-0.0642633
155	0x3fbcc250	1.47468
156	0x3e8306e6	0.255912
157	0xbfffb0b4	-1.99758
158	0x3e2c3548	0.168172
159	0xbd0a8544	-0.0338185
160	0xc0330dae	-2.79771
161	0x3dae075f	0.084975
162	0xbe6116ec	-0.219814
163	0xbe37dc38	-0.179551
164	0xbf019d88	-0.50631
165	0x3f2a9f7b	0.666496
166	0xbe87dae8	-0.265342
167	0xbfd61a61	-1.67268
168	0x3f243d25	0.641558
169	0x3ddc65c7	0.107616
170	0xbfa83eea	-1.31442
171	0x3cb4a7a7	0.0220526
172	0xbe214f48	-0.157529
173	0x3e0a9e2c	0.135369
174	0x3daea118	0.0852682
175	0x3f8e594b	1.1121
176	0x3e52502f	0.205384
177	0xbe170da6	-0.147513
178	0x3f0cfa6a	0.550696
179	0x3ea5043e	0.322298
180	0x3d2b93e8	0.0418891
181	0xc023e32a	-2.56074
182	0xbf3b64ae	-0.732005
183	0x3da69e07	0.0813561
184	0x3f5fd20f	0.874299
185	0x3ce8e714	0.0284305
186	0xbf10c708	-0.565537
187	0xbed45c57	-0.414767
188	0x3f15bb28	0.584887
189	0xbd99a64a	-0.0750242
190	0x3e784945	0.242467
191	0xbf8bb646	-1.0915
192	0xc015d85a	-2.34133
193	0x3e434dad	0.190726
194	0x3d34393d	0.0439999
195	0x3d10d520	0.0353595
196	0x3e4c85c2	0.199729
197	0xbf73e61d	-0.95273
198	0x3e24a948	0.160802
199	0x3df7f51f	0.121073
200	0xbf01a6e7	-0.506453
201	0x3e4c4c59	0.19951
202	0xbed15076	-0.408817
203	0xbf0ab3ee	-0.541808
204	0xbf7be037	-0.98389
205	0x3ecf7271	0.40517
206	0xbe08a58b	-0.133444
207	0xbf87876a	-1.05882
208	0x3eb024d5	0.344031
209	0xbe25ad10	-0.161793
210	0x3f135569	0.575522
211	0x3eb67cd0	0.356421
212	0x3f010929	0.504046
213	0x3ea09dae	0.313703
214	0x3d8a18d8	0.0674302
215	0x3d03b5cd	0.0321558
216	0x3d989b01	0.0745144
217	0x3dffcd25	0.124903
218	0xbe8942d5	-0.268088
219	0xbd69a276	-0.0570397
220	0xbd605129	-0.0547649
221	0xbce5f923	-0.0280729
222	0xbdb869ef	-0.0900458
223	0xbe2eec39	-0.170823
224	0xbe85e7ea	-0.261535
225	0x3e588872	0.211458
226	0xbdc5649c	-0.0963833
227	0xbe3d8d37	-0.185109
228	0x3cf10dbf	0.0294255
229	0xbf3d5e18	-0.739717
230	0xbead2008	-0.338135
231	0xbcc9840d	-0.0245991
232	0x3eb1847f	0.346714
233	0x3e399cbf	0.181262
234	0x3deccd53	0.115626
235	0xbcee3ea2	-0.0290826
236	0x3e97c7e7	0.296447
237	0x3f23fde7	0.640593
238	0x3dcc593f	0.0997796
239	0xbd4a3f1e	-0.0493766
240	0x3eab34c6	0.334387
241	0x3dd9d020	0.106354
242	0x3e394749	0.180936
243	0xbc1cfcdb	-0.00958177
244	0xbd962ffb	-0.0733337
245	0xbe861933	-0.261911
246	0xbde2cecd	-0.110746
247	0x3dac5825	0.0841525
248	0x3e9f4688	0.311085
249	0x3ea8f94d	0.330027
250	0xbe1b7f17	-0.151852
251	0x3e67e415	0.226456
252	0xbf6643bb	-0.899471
253	0x3f01362f	0.504733
254	0xbf0829f1	-0.53189
255	0xc0204dfd	-2.50476

Operation_5_Add_B f4 [50]
0	0xbe10cd85	-0.141409
1	0x3e4321e6	0.190559
2	0xbed4dc23	-0.415742
3	0xbef8b3b3	-0.485746
4	0xbf23bc2c	-0.63959
5	0x3e10e8c9	0.141513
6	0xbf6ef380	-0.933403
7	0xbf01b2f6	-0.506637
8	0xbe86004b	-0.261721
9	0x3ec93c8a	0.39304
10	0xbc177bc8	-0.00924582
11	0xbe1ec205	-0.155037
12	0xbe6a9f38	-0.229123
13	0x3db80552	0.0898539
14	0x3e417b0f	0.188946
15	0x3e16d8f5	0.147312
16	0xbe1d249e	-0.15346
17	0xbf3faf75	-0.748771
18	0xbef37825	-0.475526
19	0x3ee77ee5	0.45214
20	0x3f07c127	0.530291
21	0xbcc9811e	-0.0245977
22	0x3fadc9c5	1.35772
23	0x3f097de1	0.537077
24	0x3e1764ae	0.147845
25	0xbf8e4b88	-1.11168
26	0x3f67d849	0.905644
27	0x3ebdb37d	0.37051
28	0xbf395875	-0.724006
29	0xbf118ca0	-0.568552
30	0x3e98c309	0.298363
31	0xbe018549	-0.126485
32	0xbed56170	-0.416759
33	0xbebd4a80	-0.369709
34	0xbfe79581	-1.80925
35	0xc00969ec	-2.14709
36	0x3efd9514	0.495278
37	0xbd514171	-0.0510878
38	0xbf402108	-0.750504
39	0x3ec5510d	0.385384
40	0xbe402eec	-0.187679
41	0xbf4349cf	-0.762845
42	0xbe879379	-0.264797
43	0xc01f3b64	-2.488
44	0xbca27a13	-0.0198336
45	0xbf0a527a	-0.540321
46	0xbe011340	-0.12605
47	0xbdda6e76	-0.106656
48	0x3eec0097	0.460942
49	0xbf8e7621	-1.11298

Operation_6_MatMul_W f4 [50, 50]
0	0x3da25d58	0.0792796
1	0xbeff3062	-0.498416
2	0xbe6c8c0d	-0.231003
3	0x3e30f627	0.172814
4	0xbd83ca4d	-0.0643507
5	0xbed319c6	-0.412306
6	0xbdaf9534	-0.0857338
7	0xbd4babeb	-0.0497245
8	0xbd61f2cf	-0.0551632
9	0xbdc42c07	-0.0957871
10	0x3d214834	0.0393755
11	0x3d9bcd94	0.0760757
12	0x3e022ff1	0.127136
13	0xbe4f4cf5	-0.202442
14	0x3d7bea5c	0.0615028
15	0x3e83074a	0.255915
16	0x3e5a009f	0.212893
17	0x3dd84988	0.105609
18	0xbdab418a	-0.0836211
19	0x3d955f35	0.0729355
20	0x3dd2a38c	0.102851
21	0x3e0c7608	0.137169
22	0xbeccb902	-0.399849
23	0x3d2becd3	0.0419739
24	0xbec45b4b	-0.383509
25	0xbdc7bece	-0.0975319
26	0x3d0dfd19	0.0346652
27	0x3ebdc422	0.370637
28	0xbd89c77a	-0.067275
29	0x3ef1f8a1	0.4726
30	0x3ba46e34	0.00501802
31	0xbd729838	-0.0592272
32	0xbe85b2d5	-0.26113
33	0x3d00f5ff	0.0314846
34	0x3e8664b2	0.262487
35	0x3cf5f875	0.0300257
36	0x3d6dfd34	0.0581028
37	0x3cfa2311	0.0305343
38	0x3e1127b3	0.141753
39	0x3dfb71fc	0.122776
40	0x3e91613d	0.283945
41	0x3e3044f2	0.172138
42	0xbe355a3a	-0.177102
43	0xbe8e3583	-0.277752
44	0x3db7f66f	0.0898255
45	0x3eaa99b7	0.333204
46	0x3e9c651f	0.305459
47	0x3e06d9be	0.13169
48	0xbd82ab33	-0.0638031
49	0x3f318f50	0.693593
50	0x3d613829	0.0549852
51	0x3e024b34	0.12724
52	0xbda8e2e3	-0.082464
53	0xbb9ee142	-0.00484863
54	0x3d4d1725	0.0500709
55	0x3e4c1b97	0.199324
56	0xbd91b3d7	-0.0711438
57	0x3ec0713f	0.375864
58	0xbab4b326	-0.00137863
59	0x3e996aad	0.299642
60	0x3d24b7c0	0.0402143
61	0x3dcaf973	0.0991086
62	0x3ddaf428	0.106911
63	0xbd825164	-0.0636318
64	0x3d4b9f56	0.0497125
65	0xbc8691ea	-0.016427
66	0x3e410060	0.188478
67	0x3edc0486	0.429722
68	0xbdf61dc9	-0.120174
69	0xbd0f2552	-0.0349477
70	0x3e31ae71	0.173517
71	0x3cce7254	0.025201
72	0x3e01f70e	0.126919
73	0xbe9d4d1f	-0.307229
74	0xbe31b7e1	-0.173553
75	0xbd377ed7	-0.0447987
76	0x3df2b884	0.118516
77	0xbeaceb14	-0.337731
78	0x3dc625c1	0.0967517
79	0xbe3429e1	-0.175941
80	0xbcd1dffc	-0.0256195
81	0xbe1f1993	-0.155371
82	0x3e2cffeb	0.168945
83	0xbde3a648	-0.111157
84	0x3e087400	0.133255
85	0x3d79ab6d	0.0609545
86	0xbc97540f	-0.0184727
87	0x3e38b3f6	0.180374
88	0x3ddcb924	0.107775
89	0x3e068db9	0.1314
90	0x3e755476	0.23958
91	0x3e15a3e4	0.146133
92	0xbce08af0	-0.02741
93	0xbceb67f8	-0.0287361
94	0xbe29ad86	-0.165701
95	0x3d9a3df7	0.0753135
96	0xbda74894	-0.0816814
97	0xbeb9c6f3	-0.362846
98	0xbe36744b	-0.178178
99	0x3e738f36	0.237851
100	0xbebbb81b	-0.366639
101	0xbf6ebf34	-0.932605
102	0x3cafd9ad	0.0214661
103	0xbcbadb68	-0.0228097
104	0x3ec3a4f8	0.382118
105	0x3dbfe818	0.0937044
106	0xbd03fc5f	-0.0322231
107	0xbf3132e8	-0.692183
108	0x3cdec878	0.0271952
109	0x3d3967b0	0.0452649
110	0x3dca08f5	0.0986499
111	0xbe90cf3a	-0.282831
112	0x3eec67be	0.461729
113	0x3ce6149c	0.028086
114	0xbeb733a9	-0.357816
115	0xbe969d0f	-0.294167
116	0xbe09a283	-0.134409
117	0xc01d55ef	-2.45837
118	0x3cc5b8dc	0.024136
119	0xbe833440	-0.256258
120	0x3e8a8a83	0.270588
121	0xbf4b1ee2	-0.79344
122	0xc08e7137	-4.45132
123	0xbfb3fe5d	-1.4062
124	0x3eb6d84d	0.357119
125	0xbfa1dd1a	-1.26456
126	0x3d7490cc	0.0597084
127	0xc11f5591	-9.95839
128	0x3e43c3a4	0.191176
129	0xc09bb203	-4.86548
130	0x3bdb49bd	0.00669214
131	0x3e299ae9	0.16563
132	0xbca7a9c8	-0.0204667
133	0x3cfabf19	0.0306087
134	0x3e02174c	0.127042
135	0x3daa821f	0.083256
136	0xbc56a594	-0.013101
137	0x3b12e245	0.00224127
138	0xbd93c940	-0.0721612
139	0xbf42d1f2	-0.761016
140	0x3e7fa97e	0.24967
141	0xbec2ee42	-0.380724
142	0xbffc8e8a	-1.9731
143	0xbd16a2bf	-0.0367763
144	0x3c8bcfe2	0.0170669
145	0x3ded8cb0	0.115991
146	0xc021a53c	-2.52571
147	0x3bdf1e74	0.00680905
148	0xbfa2e7d5	-1.2727
149	0xc00bb6ed	-2.18304
150	0xbe5e09bb	-0.216834
151	0x3dcfb3b7	0.101417
152	0x3ecd0b0f	0.400475
153	0xbe2982cb	-0.165538
154	0x3e7fceb8	0.249812
155	0xbcd5f641	-0.0261184
156	0xc09a61bb	-4.82443
157	0xbaf04f08	-0.00183341
158	0x3c3a75b2	0.0113806
159	0x3e8d2ded	0.275741
160	0xbe461390	-0.193434
161	0xbed15e5b	-0.408923
162	0x3f2f5ff6	0.685058
163	0xbba010ac	-0.0048848
164	0x3d03ec03	0.0322075
165	0x3d6da53a	0.0580189
166	0x3e954eb1	0.291616
167	0x3ee28fc1	0.442503
168	0x3ead7e67	0.338855
169	0xbe3cd7cf	-0.184417
170	0xbf19cbab	-0.600764
171	0xbe243b71	-0.160383
172	0x3e015b9a	0.126326
173	0x3f38b945	0.721577
174	0x3fa55b57	1.29185
175	0x3eb70b6b	0.357509
176	0xbda5eaab	-0.081014
177	0xc0bba53c	-5.86392
178	0xbdf12f4d	-0.117766
179	0x3eff0bf2	0.498138
180	0xbdea70d2	-0.114473
181	0xbdd55582	-0.104167
182	0xbf1c435f	-0.610403
183	0xbf9eb2c0	-1.23983
184	0xbeb3d2fa	-0.351219
185	0xbf539abf	-0.82658
186	0x3de4d3bf	0.111732
187	0xbe68ac5c	-0.22722
188	0x3ccb51a3	0.0248192
189	0xbe2f3e47	-0.171136
190	0xbe72bdc2	-0.237052
191	0xbd5651e6	-0.0523242
192	0x3f4159f7	0.755279
193	0x3e9e6299	0.309346
194	0x3d8d7e1d	0.0690882
195	0xbe6500d6	-0.223636
196	0x3e337111	0.175236
197	0x3ed006d1	0.406302
198	0x3eb4cd75	0.35313
199	0xbea3e2f8	-0.320091
200	0xbeb855da	-0.36003
201	0x3c46ecb9	0.0121414
202	0x3d6d963b	0.0580046
203	0xc08fc4c6	-4.49277
204	0x3f071e08	0.527802
205	0xbdac36f5	-0.0840892
206	0xbf359818	-0.709352
207	0x3dc3539a	0.0953743
208	0xbd37cd46	-0.0448735
209	0xc0356335	-2.83418
210	0xbec5ff82	-0.386715
211	0xbeeee115	-0.466561
212	0xbbb0697f	-0.00538367
213	0x3ef09d8c	0.469952
214	0x3dbce9be	0.0922427
215	0xbea74c2b	-0.326753
216	0xbdd0ef56	-0.102019
217	0x3f43bfc6	0.764645
218	0xbe8468cb	-0.258612
219	0xbea41659	-0.320483
220	0xbf0c18c6	-0.547253
221	0xbdc8900c	-0.097931
222	0x3ea6d02d	0.325807
223	0xbf492780	-0.785759
224	0xbe96785b	-0.293887
225	0x3d0572ec	0.0325803
226	0x3f19970b	0.599961
227	0xc009573f	-2.14595
228	0x3f79cf14	0.975816
229	0xbe8cb945	-0.274851
230	0xbea30e1b	-0.318467
231	0xbec0d584	-0.376629
232	0xc04af909	-3.17145
233	0xbe39b670	-0.18136
234	0x3e9e2e6f	0.308948
235	0x3f806595	1.0031
236	0x3eec1fc9	0.46118
237	0xbdcef805	-0.101059
238	0x3e4aa194	0.197882
239	0xbf0a4606	-0.540131
240	0x3e3ca57a	0.184225
241	0xbe1e032e	-0.154309
242	0xbfa42f83	-1.2827
243	0xbe82fab5	-0.255819
244	0xbf091eeb	-0.535628
245	0xbe0f6a94	-0.140055
246	0x3ec932f8	0.392967
247	0x3ea8e0ca	0.32984
248	0x3ec42310	0.38308
249	0xbefa9ae5	-0.489463
250	0xbb9824fa	-0.00464308
251	0xbf3eb27d	-0.744911
252	0x3c0213c1	0.00793928
253	0x3c83dbf8	0.0160961
254	0xbfb5b3d0	-1.41955
255	0xbc421e1d	-0.011848

Operation_6_Add_B f4 [50]
0	0xba50f7b2	-0.000797148
1	0xbf91421c	-1.13483
2	0xbc6ea2e0	-0.0145652
3	0xbd90f5ff	-0.0707817
4	0xbf5ae02a	-0.854983
5	0x3d3ccaf7	0.046092
6	0xbec88030	-0.391603
7	0xbe63c4b1	-0.22243
8	0xbd117a97	-0.0355173
9	0xbd55a4fd	-0.0521593
10	0xbd839f4f	-0.0642687
11	0x3e9c69d7	0.305495
12	0xbef22bbf	-0.47299
13	0x3e7995ab	0.243735
14	0x3de2d730	0.110762
15	0xbe663cb8	-0.224841
16	0xc011259a	-2.26792
17	0xbf1ce443	-0.612858
18	0x3e458cd2	0.19292
19	0xbdd02d5a	-0.101649
20	0xbec40054	-0.382815
21	0xbee2513b	-0.442026
22	0xbf826ca0	-1.01894
23	0xbf99b90f	-1.20096
24	0xbf8c6690	-1.09688
25	0xbf636bc2	-0.888363
26	0xbd86a289	-0.0657397
27	0x3d3b8470	0.0457806
28	0xbe16451c	-0.146748
29	0xbdb2e33f	-0.0873475
30	0x3d892a73	0.0669755
31	0xbd99add6	-0.0750386
32	0x3cb7542a	0.022379
33	0xbea58c2a	-0.323335
34	0xbe780779	-0.242216
35	0xbf0b9ad0	-0.545331
36	0x3c58eb54	0.0132397
37	0x3e087400	0.133255
38	0x3dc463dd	0.0958936
39	0xbe54bad8	-0.207744
40	0xbe25b8dc	-0.161838
41	0xbf480c20	-0.781435
42	0xbee286d7	-0.442435
43	0x3e051aca	0.129985
44	0xbe4d5e8d	-0.200556
45	0x3cb5e0f8	0.022202
46	0xbf8c4bb2	-1.09606
47	0x3dfb25f6	0.122631
48	0x3d223224	0.0395986
49	0x3e1d759f	0.153769
