networks/onnx/ACASXU_run2a_1_1_batch_2000.onnx (onnx, 55914 bytes, 15 tensors)

input_AvgImg f4 [1, 1, 5]
0.0 0.0 0.0 0.0 0.0
00000000: 0000 0000 0000 0000 0000 0000 0000 0000
00000010: 0000 0000

Operation_1_MatMul_W f4 [5, 50]
0.0540062 -1.12374 0.196019 -1.63015 -0.355133 -0.0341918 0.402002 -1.41575
-1.44498 -1.1274 0.613717 0.933699 -0.0408026 -0.212265 0.032018 -0.0124055
-0.12243 0.0601742 0.0833034 -1.18804 -0.103537 -0.0853903 -0.0193838 0.0166866
0.00167639 -0.897525 -0.93322 0.160333 0.0834021 0.284019 1.37295 -0.144445
-1.3629 -1.55178 1.29659 0.015868 -0.0415857 -0.0826992 -1.59025 0.0283388
0.139212 0.257852 0.068648 -0.74459 -0.416569 -0.632539 0.0392007 -0.0385883
-1.57631 0.620367 -2.61092 0.0263619 0.242159 -0.0344447 0.565969 1.4957
0.224022 -0.0747429 0.0448403 0.0239891 -0.55782 0.203647 0.548666 -0.328003
0.422455 2.28453 -0.712042 -0.0639072 -0.0407486 0.14463 0.0699915 0.175215
3.9939 -0.654405 0.00538434 -0.127606 -0.0243277 0.00369291 2.01281 -0.0465741
0.0058815 0.000607591 -0.0207197 0.0838021 0.0938274 0.329773 -1.47674 0.0025512
0.047571 -0.0230824 -0.572182 -0.0626802 0.00245863 0.00311863 0.0120669 -0.0358635
0.564469 -0.123878 0.000440016 0.0750374 -0.180027 -0.00917929 0.638452 -0.00605492
0.228267 -1.53371 -0.046716 0.0604386 0.00888916 -0.00956711 -0.0519507 0.166178
0.0574868 0.357536 -0.568833 0.0534617 0.00915904 -2.50281 -0.752101 -0.14928
2.42373 -0.0874009 0.117807 0.560096 -0.00726639 0.162803 0.230273 0.262149
0.35531 0.0074793 0.0130908 -0.0211642 0.0445642 -0.0352086 0.175474 -0.265353
-0.0579324 0.00987215 0.00763074 -0.0763311 0.426805 -0.331132 -0.014261 -0.187879
-0.0481611 0.0283509 0.262818 -0.762627 -0.00832176 -0.0146141 0.242194 0.055623
-0.478265 0.0112076 0.177342 0.0405053 0.16389 0.0482656 -0.25023 0.00892796
0.160852 -0.00152163 0.142985 -0.389715 -0.210782 0.0580561 -0.391123 0.0499702
-0.118798 -0.0360766 0.0226499 -0.731836 0.0784146 0.196579 0.00418084 -0.0481184
-0.209033 0.281943 0.0360065 -0.840513 -0.0741005 -0.647714 0.0394107 0.00605953
0.13344 -0.103541 -0.206667 0.0689708 -0.0142601 -0.77161 -0.330029 0.329905
0.0279897 0.0136177 -0.364603 0.0737678 -0.0139606 0.0423037 -0.0926607 0.262575
0.141407 -0.327635 0.142577 -0.0104997 -0.208078 0.16435 -0.160826 -0.0560096
0.0653312 -0.00458007 -0.0971775 -0.209448 0.0948681 -0.459337 0.0757506 0.118652
0.0339849 -0.0377898 -0.218044 -0.118933 0.0319605 -0.22085 -0.0145183 -0.449805
0.00178105 0.0785461 -0.0943662 -0.551476 -0.0996482 -0.481789 -0.155849 -0.0182691
0.0935691 0.00828404 0.298777 0.0765932 0.201547 -0.878938 0.00285048 0.499034
0.280864 -0.856315 -1.85103 -0.015955 0.288194 0.0649997 -0.357883 0.0498901
-0.00493705 -0.257948
00000000: 9b35 5d3d b6d6 8fbf 34b9 483e c1a8 d0bf
00000010: fed3 b5be b30c 0cbd 35d3 cd3e 4c37 b5bf
00000020: 1bf5 b8bf a54e 90bf 8f1c 1d3f e606 6f3f
00000030: a120 27bd ff5b 59be 4e25 033d 7040 4bbc
00000040: 94bc fabd 3979 763d f99a aa3d b211 98bf
00000050: 350b d4bd 1ce1 aebd c6ca 9ebc 56b2 883c
00000060: 50ba db3a 33c4 65bf 82e7 6ebf 552e 243e
00000070: b8ce aa3d f06a 913e d3bc af3f 64e9 13be
00000080: 8273 aebf baa0 c6bf a9f6 a53f 9cfd 813c
00000090: c455 2abd 335e a9bd 508d cbbf c526 e83c
000000a0: 978d 0e3e 2d05 843e 5397 8c3d 739d 3ebf
000000b0: 8848 d5be 13ee 21bf ea90 203d c40e 1ebd
000000c0: 87c4 c9bf 5fd0 1e3f 5019 27c0 e9f4 d73c
000000d0: 87f8 773e e315 0dbd 58e3 103f 1973 bf3f
000000e0: 0666 653e ce12 99bd 76aa 373d ca84 c43c
000000f0: 4bcd 0ebf d788 503e 6075 0c3f 02f0 a7be
00000100: 064c d83e bd35 1240 6248 36bf c7e1 82bd
00000110: 01e8 26bd e319 143e b457 8f3d 906b 333e
00000120: 0f9c 7f40 1687 27bf 1e6f b03b 26ab 02be
00000130: e24a c7bc c004 723b e1d1 0040 7cc4 3ebd
00000140: 99b9 c03b be46 1f3a 5cbc a9bc 6fa0 ab3d
00000150: 9428 c03d 02d8 a83e d105 bdbf 0932 273b
00000160: cfd9 423d 4d17 bdbc 857a 12bf 7a5e 80bd
00000170: f720 213b ee61 4c3b 3fb4 453c 9be5 12bd
00000180: 0a81 103f c0b3 fdbd f3b1 e639 35ad 993d
00000190: ff58 38be bc64 16bc 9771 233f 5a68 c6bb
000001a0: d3be 693e 9c50 c4bf 4759 3fbd 778e 773d
000001b0: d7a3 113c 5ebf 1cbc 42ca 54bd 912a 2a3e
000001c0: 4777 6b3d f50e b73e 0a9f 11bf a8fa 5a3d
000001d0: cc0f 163c 0a2e 20c0 b189 40bf dbdc 18be
000001e0: 641e 1b40 3eff b2bd cc44 f13d 7462 0f3f
000001f0: e61a eebb d4b5 263e afcc 6b3e 6538 863e
00000200: 31eb b53e ea14 f53b cb7a 563c 8b60 adbc
00000210: f388 363d e536 10bd 75af 333e 59dc 87be
00000220: 864a 6dbd ccbe 213c 490b fa3b 7b53 9cbd
00000230: 2f86 da3e 228a a9be f8a6 69bc 5a63 40be
00000240: 9344 45bd 2640 e83c 1590 863e 863b 43bf
00000250: fe57 08bc fa6f 6fbc b401 783e f1d4 633d
00000260: 26df f4be 15a0 373c 2499 353e e3e8 253d
00000270: c8d2 273e 26b2 453d 261e 80be 9446 123c
00000280: 63b6 243e 6e71 c7ba a96a 123e b988 c7be
00000290: 3dd7 57be 3ccc 6d3d 4641 c8be 8dad 4c3d
000002a0: 5e4c f3bd 0fc5 13bd 488c b93c 9b59 3bbf
000002b0: d597 a03d 014c 493e 6eff 883b cd17 45bd
000002c0: bf0c 56be d55a 903e 8d7b 133d dc2b 57bf
000002d0: 01c2 97bd 96d0 25bf 1d6d 213d 068f c63b
000002e0: 7fa4 083e 4e0d d4bd 84a0 53be 9040 8d3d
000002f0: 32a3 69bc 3c88 45bf 90f9 a8be 4fe9 a83e
00000300: a84a e53c c61c 5f3c 3fad babe 9313 973d
00000310: 00bb 64bc a546 2d3d e5c4 bdbd 3b70 863e
00000320: ffcc 103e c6bf a7be b5ff 113e ef06 2cbc
00000330: 6612 55be 5e4b 283e 92af 24be 536a 65bd
00000340: 5dcc 853d 6914 96bb ff04 c7bd 8979 56be
00000350: 354a c23d 382e ebbe 2123 9b3d d2ff f23d
00000360: c033 0b3d 7ac9 1abd ed46 5fbe 2593 f3bd
00000370: 03e9 023d 8126 62be 2ade 6dbc d74c e6be
00000380: 1f72 e93a c7dc a03d 1143 c1bd 882d 0dbf
00000390: 5b14 ccbd 0cad f6be e196 1fbe 14a9 95bc
000003a0: 28a1 bf3d c8b9 073c 4df9 983e e5dc 9c3d
000003b0: 5662 4e3e 1502 61bf 1ecf 3a3b 6281 ff3e
000003c0: 68cd 8f3e 7637 5bbf 8dee ecbf 0fb4 82bc
000003d0: 2a8e 933e 901e 853d 713c b7be 9059 4c3d
000003e0: fac6 a1bb c311 84be

Operation_1_Add_B f4 [50]
0.22763 -0.188762 0.0534094 -0.377861 -0.0812531 -0.588651 0.0746065 -0.392887
-0.356303 -0.167712 0.0587109 0.183917 0.131957 -0.308681 0.196929 0.206664
-0.311696 0.0306576 -0.138822 -0.347434 -0.0045184 -0.390616 0.0969635 0.00983266
-0.0188585 -0.231919 -0.238165 0.0710148 -0.141913 -0.442307 0.559084 0.135483
-0.373217 -0.41539 0.759638 0.132825 0.235566 0.214858 -0.440841 -0.0772968
0.221606 -0.00650873 -0.634843 -0.153833 -0.0573027 -0.109229 0.0370344 0.0538087
-0.44755 0.175917
00000000: d717 693e d34a 41be d1c3 5a3d ff76 c1be
00000010: 0668 a6bd d5b1 16bf 4bcb 983d 7c28 c9be
00000020: 596d b6be b2bc 2bbe d77a 703d bd54 3c3e
00000030: bc1f 073e 700b 9ebe c1a7 493e ba9f 533e
00000040: 9e96 9fbe a625 fb3c 5b27 0ebe dfe2 b1be
00000050: 160f 94bb d2fe c7be cd94 c63d 2a19 213c
00000060: 247d 9abc 2d7c 6dbe 87e1 73be 3570 913d
00000070: a451 11be 1076 e2be 2120 0f3f 0ebc 0a3e
00000080: 4c16 bfbe 00ae d4be a377 423f 4703 083e
00000090: 3738 713e bc03 5c3e e9b5 e1be c94d 9ebd
000000a0: afec 623e 2f47 d5bb 1285 22bf 6686 1dbe
000000b0: 3cb6 6abd 74b3 dfbd 62b1 173d 8366 5c3d
000000c0: 4625 e5be 9623 343e

Operation_2_MatMul_W f4 [50, 50]
-0.184202 0.0171639 0.0698282 0.794837 -0.0585128 0.0332535 -0.2083 -1.10533
0.0180697 0.234612 -0.00582788 0.280057 0.108762 -0.0876624 -0.262059 -0.667995
-0.522074 -0.295839 -0.0597724 0.225581 -0.0766084 0.0053438 0.316588 -0.317647
-0.0386614 -0.0442498 -0.0617362 0.0694637 0.0956433 0.189924 -0.695974 0.889581
-0.312797 0.193564 -0.153071 0.147091 0.52024 0.00337957 0.0394096 0.544524
0.0672764 -0.92864 -0.0876844 -0.136948 0.469926 0.517693 -0.164987 0.396691
-1.24508 -0.348713 0.0343834 -0.0344739 -0.00408911 -0.36298 0.00708394 -0.081036
0.835133 0.278798 -0.120998 -0.00865116 0.0164447 0.377801 -0.024273 0.600703
0.661248 -0.0202133 -0.392761 0.48749 -0.18151 -0.13455 0.120952 -0.00537545
0.941569 -0.319918 0.0300274 -0.022406 0.196832 0.234293 0.434045 0.0260059
-0.129607 0.42773 0.520245 1.44523 0.0185324 -0.920817 -0.252208 0.00358123
0.55121 0.0611729 -0.478893 -0.0805053 -0.0394447 0.00949599 0.408884 -0.188861
-0.0833527 -0.0966309 0.562699 0.0989373 -0.115142 -0.00869311 -0.277997 -0.171911
0.268116 -0.53441 -0.151215 -1.34995 -0.193342 0.0404159 -0.0498632 -0.441952
0.439208 -0.393411 -0.425415 -0.43026 0.290612 -0.250767 0.234351 2.60395
0.159317 -0.184408 0.342191 -0.711323 -0.0406126 0.0395571 0.775808 -0.0384624
-0.112437 -0.267103 0.600306 0.102021 -0.247811 0.659922 0.496609 -0.670497
0.610368 -0.0523126 -0.0374195 -0.100278 0.834231 0.0640302 0.0651309 -0.138863
0.185463 -0.110653 0.242473 0.524738 0.260105 0.176364 0.184753 0.0381665
0.25879 0.0975946 -0.00659521 0.667956 1.15162 -0.0696007 0.85779 0.25135
-0.0581705 -1.27845 0.650574 1.05088 0.988594 -0.598796 -0.102772 -0.797391
1.16461 -0.27982 -0.376492 -0.142157 -0.728312 1.59191 0.0106733 0.0281488
-0.548274 1.88544 1.01573 0.770939 0.304015 -0.0690815 0.60606 1.59422
-0.176242 0.276299 0.869977 -0.0435683 2.12755 -0.416678 -0.272691 -0.263019
1.97424 0.0145009 0.868883 0.610181 0.850368 0.290395 -0.236235 1.00371
-0.137148 0.021407 0.15582 0.0271402 0.315806 -0.81253 0.221574 0.754957
-1.75996 0.655618 0.0244792 -0.298068 0.196522 0.260039 -0.263324 0.353495
0.71297 -0.232384 0.0971876 -0.0326815 -0.0740785 -0.416168 1.44769 0.0841627
-0.0154052 0.0075683 0.713229 0.0263936 0.210701 -0.907456 0.564409 -0.50109
-0.308867 1.12143 0.13252 -0.0595598 -0.105383 -0.0121571 0.0327126 0.0386408
0.120782 0.16609 -0.247538 0.0200551 -0.947657 0.357651 -0.47946 -0.141133
-0.367931 0.217003 -0.189317 0.0421881 -1.33151 -0.415327 -0.053758 1.29677
00000000: 739f 3cbe 4f9b 8c3c 1602 8f3d 707a 4b3f
00000010: 1eab 6fbd d234 083d 984c 55be 747b 8dbf
00000020: e806 943c 213e 703e cdf7 bebb a263 8f3e
00000030: 9dbe de3d 5888 b3bd 992c 86be b801 2bbf
00000040: a4a6 05bf 3678 97be e7d3 74bd b5fe 663e
00000050: dde4 9cbd 0b1b af3b d317 a23e a1a2 a2be
00000060: 6b5b 1ebd 473f 35bd 19df 7cbd fc42 8e3d
00000070: a2e0 c33d 707b 423e 5a2b 32bf 95bb 633f
00000080: ee26 a0be a435 463e a5be 1cbe 069f 163e
00000090: 732e 053f c77b 5d3b f66b 213d ed65 0b3f
000000a0: 36c8 893d 5abb 6dbf e193 b3bd 193c 0cbe
000000b0: 249a f03e 8787 043f 5af2 28be 151b cb3e
000000c0: c85e 9fbf 838a b2be 9cd5 0c3d 8134 0dbd
000000d0: f1fd 85bb 84d8 b9be 6520 e83b 34f6 a5bd
000000e0: 47cb 553f 9dbe 8e3e cdcd f7bd 98bd 0dbc
000000f0: 09b7 863c 226f c13e 2cd8 c6bc acc7 193f
00000100: 8d47 293f 5d96 a5bc f817 c9be 4a98 f93e
00000110: c2dd 39be 7ac7 09be afb5 f73d 8b24 b0bb
00000120: aa0a 713f 4bcc a3be 06fc f53c ca8c b7bc
00000130: 548e 493e 81ea 6f3e 253b de3e 530a d53c
00000140: b3b7 04be 6dff da3e c72e 053f 4cfd b83f
00000150: 42d1 973c aaba 6bbf 6821 81be 12b3 6a3b
00000160: 191c 0d3f 6f90 7a3d 7731 f5be f6df a4bd
00000170: c490 21bd 1295 1b3c 3e59 d13e c764 41be
00000180: d2b4 aabd 6ce6 c5bd 0b0d 103f a49f ca3d
00000190: 92cf ebbd 8c6d 0ebc 9f55 8ebe 7009 30be
000001a0: 8046 893e 18cf 08bf 1bd8 1abe 29cb acbf
000001b0: 72fb 45be 258b 253d 5b3d 4cbd 8847 e2be
000001c0: dfdf e03e 2b6d c9be ffcf d9be 0a4b dcbe
000001d0: 19cb 943e 8864 80be b5f9 6f3e 1ea7 2640
000001e0: ff23 233e 73d5 3cbe a933 af3e 4419 36bf
000001f0: 6659 26bd a006 223d 5a9b 463f c08a 1dbd
00000200: 5f45 e6bd b9c1 88be a7ad 193f 63f0 d03d
00000210: 2bc2 7dbe a6f0 283f 8943 fe3e b1a5 2bbf
00000220: 1441 1c3f bd45 56bd 3145 19bd 8d5e cdbd
00000230: 2a90 553f 4422 833d 5963 853d 1a32 0ebe
00000240: 03ea 3d3e 0a9e e2bd d84a 783e 3b55 063f
00000250: 7c2c 853e c498 343e e42f 3d3e 7a54 1c3d
00000260: 1f80 843e addf c73d a21c d8bb 2aff 2a3f
00000270: 4968 933f d08a 8ebd 2098 5b3f f2b0 803e
00000280: 3144 6ebd 40a4 a3bf 058c 263f 3c83 863f
00000290: 7f14 7d3f b24a 19bf 207a d2bd d121 4cbf
000002a0: f111 953f 9144 8fbe 8fc3 c0be 9b91 11be
000002b0: a872 3abf b5c3 cb3f 11df 2e3c 5098 e63c
000002c0: af5b 0cbf 1956 f13f 7103 823f 425c 453f
000002d0: dba7 9b3e 9a7a 8dbd c026 1b3f 670f cc3f
000002e0: c878 34be 1077 8d3e d0b6 5e3f ac74 32bd
000002f0: c729 0840 d256 d5be 289e 8bbe 6daa 86be
00000300: e5b3 fc3f 2f95 6d3c 1e6f 5e3f d234 1c3f
00000310: b8b1 593f a7ae 943e 96e7 71be 9279 803f
00000320: 8670 0cbe bc5d af3c 478f 1f3e 2055 de3c
00000330: 53b1 a13e f701 50bf 4be4 623e dd44 413f
00000340: 5f46 e1bf 95d6 273f 9a88 c83c 5e9c 98be
00000350: 103d 493e d523 853e 67d2 86be 4cfd b43e
00000360: 3485 363f 12f6 6dbe 4b0a c73d 09dd 05bd
00000370: 78b6 97bd f913 d5be e84d b93f 7e5d ac3d
00000380: 1866 7cbc 80ff f73b 2d96 363f 6437 d83c
00000390: 01c2 573e 094f 68bf 1c7d 103f 6f47 00bf
000003a0: d123 9ebe 058b 8f3f 53b3 073e faf4 73bd
000003b0: 0bd3 d7bd 932e 47bc a6fd 053d d145 1e3d
000003c0: 8e5c f73d 7f13 2a3e 9a7a 7dbe 984a a43c
000003d0: a699 72bf 081e b73e c87b f5be 2b85 10be
000003e0: 7461 bcbe 0936 5e3e 51dc 41be 6ecd 2c3d
000003f0: eb6e aabf bea5 d4be 5931 5cbd 8ffc a53f

Operation_2_Add_B f4 [50]
0.08355 -0.0213261 0.756291 -1.25082 0.178469 -0.339158 0.109226 -1.26214
-0.356488 -0.00829379 -0.0201183 -0.192039 -0.0892578 -0.206319 0.105053 -0.0932226
-0.245924 0.159416 0.465794 -0.760039 0.127213 0.393189 -0.0717872 0.319831
-0.0141183 -0.00660377 -0.703714 0.440894 -0.403874 -0.550258 -1.33355 -1.11956
-0.731673 0.237415 -0.827488 0.317529 -0.741801 -0.0174412 -0.302206 -0.0996994
0.655079 1.25241 0.0390987 -0.0242382 -0.385696 -0.359071 -0.155856 0.0285971
-0.426623 0.780925
00000000: 431c ab3d 13b4 aebc 499c 413f df1a a0bf
00000010: 94c0 363e 1ea6 adbe e2b1 df3d ce8d a1bf
00000020: 9885 b6be ade2 07bc 22cf a4bc dfa5 44be
00000030: cbcc b6bd 4a45 53be 0726 d73d 7eeb bebd
00000040: 80d3 7bbe f33d 233e 8d7c ee3e ea91 42bf
00000050: 2044 023e 1250 c93e 2b05 93bd e4c0 a33e
00000060: 7150 67bc 7064 d8bb 9a26 34bf dcbc e13e
00000070: 93c8 cebe b5dd 0cbf c4b1 aabf be4d 8fbf
00000080: ec4e 3bbf eb1c 733e 41d6 53bf 2993 a23e
00000090: ace6 3dbf d9e0 8ebc bfba 9abe 332f ccbd
000000a0: 42b3 273f f94e a03f f525 203d 318f c6bc
000000b0: f279 c5be 27d8 b7be b798 1fbe 7744 ea3c
000000c0: 546e dabe b3ea 473f

Operation_3_MatMul_W f4 [50, 50]
0.146062 -1.159 1.01583 0.17155 0.955485 -1.20828 -0.422953 -0.799142
2.00733 0.736684 0.145289 -0.0586311 0.898132 -0.203191 0.632305 0.29554
0.925119 0.527795 -0.609429 0.0281987 0.498226 0.265352 -2.52108 0.0395581
-0.750542 0.797069 0.75265 0.0951803 -1.25352 -0.46427 0.107584 0.779768
0.907045 0.0553672 0.234 0.862983 -0.136454 0.367219 -0.257706 -0.577885
-0.352779 0.751743 -0.405981 -1.1486 1.46934 -0.277425 1.92611 0.0470127
-1.14982 -0.684643 -0.00549069 -0.00827789 0.0282395 0.028289 0.0254362 -0.0303847
0.0222066 0.00816988 -0.012773 -0.0349476 0.0185443 -0.0325541 0.00309214 0.0354445
0.0412482 0.0134774 0.0347794 0.0383142 -0.0267744 0.000566582 -0.00212754 -0.0307186
0.0290909 -0.0326162 -0.0218864 -0.0194802 -0.0376294 -0.00187257 0.0242106 -0.0209486
-0.014962 0.00460521 -0.0200609 0.00976905 0.0293159 -0.0467611 -0.0301639 -0.0147802
-0.0331422 0.0215591 0.0373517 0.00802776 -0.0171778 -0.0281092 -0.041374 0.010897
-0.0127626 0.0260384 0.00800037 0.0266207 0.793907 -0.478648 0.111866 0.00477124
1.0283 0.436792 0.338828 0.0553741 -0.232578 -0.593136 0.392431 0.0212813
0.192508 -0.135743 -0.540681 -0.0766397 0.583957 -0.0262704 -0.580239 -0.03319
-0.300608 0.0462529 -2.017 -0.00405857 0.0847197 0.316095 0.669118 -0.765131
-0.201039 -0.161542 -0.0359278 -0.107788 -0.0542313 -0.971502 0.332882 0.20696
0.211548 0.248119 0.276224 0.148933 0.449918 0.127171 -0.34864 -0.316401
0.275 -0.0576476 0.330936 -0.00239061 -0.0243698 -0.0270434 1.30888 -0.485165
-0.52413 0.0251563 -0.371288 0.335091 1.27635 -0.559372 0.159315 -0.66023
0.683524 -0.127002 0.855317 1.72597 -0.165997 1.55444 2.62754 -0.0558835
0.709073 0.0221532 -1.30814 -0.181781 -3.73543 -1.02651 -0.704043 0.285329
0.652661 0.177984 0.120524 0.764034 -0.372482 0.413416 0.256682 -0.358402
1.24706 0.434222 0.400702 -1.60884 1.37799 -0.170277 0.275572 0.764413
-2.74881 -1.1296 -0.00619663 -0.426415 -0.456887 -0.0356783 0.482854 -0.49358
0.224081 1.43533 0.373136 0.562535 0.374185 -0.173446 -0.9927 0.400247
0.0390867 -0.0605671 -0.167875 0.24877 -0.76274 -0.560661 0.220873 -0.00156924
1.2478 1.03953 1.54059 -0.00849354 -1.94194 0.733043 -4.04761 -0.107761
-0.00485713 -0.117365 0.592636 -0.00284895 -0.617982 -0.484822 0.702955 0.0950057
-0.273609 -1.04272 -0.773563 0.576017 -0.163457 0.381106 -0.825 -0.386151
-0.089783 -0.649843 -1.24885 0.826642 2.3813 -1.02631 1.56485 -0.0238743
0.609077 0.0854302 -1.3641 1.08912 -0.0115599 -0.0817147 -0.467278 0.410784
00000000: 4791 153e 1d5a 94bf b806 823f ceaa 2f3e
00000010: aa9a 743f eba8 9abf 4c8d d8be 9294 4cbf
00000020: 1878 0040 5397 3c3f a4c6 143e 2a27 70bd
00000030: fbeb 653f 4d11 50be bede 213f 0551 973e
00000040: 99d4 6c3f 931d 073f 8a03 1cbf f600 e73c
00000050: 7a17 ff3e 38dc 873e 6059 21c0 ad07 223d
00000060: 8523 40bf b70c 4c3f acad 403f e4ed c23d
00000070: 5873 a0bf ccb4 edbe 0055 dc3d e09e 473f
00000080: 1a34 683f b8c8 623d b29d 6f3e 74ec 5c3f
00000090: 99ba 0bbe 2104 bc3e 0af2 83be 45f0 13bf
000000a0: 739f b4be 3b72 403f bedc cfbe 5305 93bf
000000b0: 5513 bc3f a60a 8ebe c68a f63f 6490 403d
000000c0: 4d2d 93bf c344 2fbf 3feb b3bb fd9f 07bc
000000d0: 8656 e73c 55be e73c 945f d03c 56e9 f8bc
000000e0: 9eea b53c f6da 053c d845 51bc 3725 0fbd
000000f0: 37ea 973c 7357 05bd 80a5 4a3b 412e 113d
00000100: dff3 283d 50d0 5c3c d874 0e3d 5aef 1c3d
00000110: fd55 dbbc ad86 143a 336e 0bbb 93a5 fbbc
00000120: 0a50 ee3c 9198 05bd 1c4b b3bc f194 9fbc
00000130: 4921 1abd 0671 f5ba 4f55 c63c 669c abbc
00000140: 2d23 75bc 4de7 963b c256 a4bc 5e0e 203c
00000150: e627 f03c 9188 3fbd 491a f7bc a728 72bc
00000160: 1ec0 07bd b69c b03c 19fe 183d de86 033c
00000170: 75b8 8cbc 4445 e6bc c977 29bd 5589 323c
00000180: 391a 51bc 7c4e d53c fc13 033c a713 da3c
00000190: 7d3d 4b3f 5a11 f5be 001a e53d 1058 9c3b
000001a0: 569f 833f 33a3 df3e dd7a ad3e f4cf 623d
000001b0: ed28 6ebe c3d7 17bf b7ec c83e 1f56 ae3c
000001c0: d120 453e 3700 0bbe 126a 0abf 46f5 9cbd
000001d0: 357e 153f 0635 d7bc 8b8a 14bf 3df2 07bd
000001e0: 4be9 99be ae73 3d3d 8716 01c0 c1fd 84bb
000001f0: 8681 ad3d 34d7 a13e 514b 2b3f a0df 43bf
00000200: 2bdd 4dbe 446b 25be 0729 13bd f4bf dcbd
00000210: a421 5ebd 5bb4 78bf 826f aa3e 52ed 533e
00000220: 0aa0 583e e812 7e3e 3b6d 8d3e e481 183e
00000230: a75b e63e 1d39 023e f180 b2be 50ff a1be
00000240: cdcc 8c3e e41f 6cbd 7270 a93e c8ab 1cbb
00000250: 2da3 c7bc 1f8a ddbc 6189 a73f 8c67 f8be
00000260: 622d 06bf 9614 ce3c 7619 bebe 0c91 ab3e
00000270: 705f a33f 0133 0fbf 7923 233e d504 29bf
00000280: 6efb 2e3f d00c 02be 0ef6 5a3f 96ec dc3f
00000290: 1efb 29be e4f7 c63f 9e29 2840 19e6 64bd
000002a0: cf85 353f a17a b53c 2271 a7bf cc24 3abe
000002b0: 4911 6fc0 ae64 83bf 293c 34bf a516 923e
000002c0: cb14 273f 7041 363e 49d5 f63d bb97 433f
000002d0: f6b5 bebe 43ab d33e d36b 833e 7880 b7be
000002e0: a99f 9f3f 5952 de3e d028 cd3e 78ee cdbf
000002f0: fa61 b03f 185d 2ebe c617 8d3e 92b0 433f
00000300: 81ec 2fc0 bc96 90bf 1a0d cbbb 1153 dabe
00000310: 18ed e9be 6923 12bd a438 f73e 85b6 fcbe
00000320: 7d75 653e e5b8 b73f af0b bf3e 4b02 103f
00000330: 2d95 bf3e d49b 31be 9621 7ebf 2ded cc3e
00000340: 6019 203d 3515 78bd 6de7 2bbe 90bd 7e3e
00000350: ee42 43bf 7b87 0fbf 882c 623e f5ae cdba
00000360: e9b7 9f3f 520f 853f 0e32 c53f 7d28 0bbc
00000370: 7d91 f8bf b5a8 3b3f 0586 81c0 cdb1 dcbd
00000380: 8f28 9fbb 105d f0bd feb6 173f 73b5 3abb
00000390: 1134 1ebf 973a f8be dcf4 333f 5992 c23d
000003a0: 7b16 8cbe d977 85bf 3a08 46bf da75 133f
000003b0: 4661 27be 5320 c33e 3333 53bf 95b5 c5be
000003c0: 26e0 b7bd 1c5c 26bf 51da 9fbf cf9e 533f
000003d0: 3867 1840 205e 83bf 014d c83f 0994 c3bc
000003e0: 78ec 1b3f 07f6 ae3d d49a aebf 4968 8b3f
000003f0: bc65 3dbc 095a a7bd 103f efbe 4852 d23e

Operation_3_Add_B f4 [50]
-0.408486 1.06875 -0.101351 0.291739 0.361906 -1.17598 -1.08494 -0.525396
-0.485121 -0.563451 -0.430958 -0.375102 -0.299369 -0.300263 -0.528058 -0.0620032
-0.65379 0.730181 -0.849961 -0.0157298 -0.289808 0.27894 1.47078 2.10793
-0.31017 -0.538444 -0.145919 1.01049 -0.374156 -0.0527222 -0.14879 0.255464
-0.772198 -1.76047 0.0622966 0.254439 -0.150744 -0.757264 -2.46425 -0.913194
-0.563058 -0.217101 0.570546 -0.523408 -1.49997 -0.261921 -0.526109 -0.00598984
-0.464336 0.114195
00000000: 1425 d1be cdcc 883f 1d91 cfbd d05e 953e
00000010: be4b b93e 8386 96bf 50df 8abf 5a80 06bf
00000020: c861 f8be 533e 10bf 87a6 dcbe 5f0d c0be
00000030: e546 99be 12bc 99be cf2e 07bf 11f7 7dbd
00000040: c85e 27bf 24ed 3a3f 0b97 59bf c8db 80bc
00000050: b761 94be 39d1 8e3e 8542 bc3f 53e8 0640
00000060: 9ace 9ebe 77d7 09bf ca6b 15be bc57 813f
00000070: 6091 bfbe 3cf3 57bd 685c 18be 2dcc 823e
00000080: c5ae 45bf 1557 e1bf b82a 7f3d d445 823e
00000090: a35c 1abe 0edc 41bf 46b6 1dc0 15c7 69bf
000000a0: 9224 10bf b94f 5ebe 4d0f 123f 11fe 05bf
000000b0: 04ff bfbf 821a 86be 14af 06bf 6b46 c4bb
000000c0: 73bd edbe 11df e93d

Operation_4_MatMul_W f4 [50, 50]
-0.775044 -0.289933 -0.099163 0.605937 0.670455 -0.121062 -0.248874 -0.393225
0.0818828 0.194819 -0.657673 0.510451 -0.656003 -0.0628853 -0.0234828 -0.560505
0.0662013 -1.45275 -0.197084 0.0606654 0.238801 -1.21575 -2.23541 0.605307
-0.405345 -0.667115 0.00977216 -0.5381 0.199686 -0.0274636 0.352598 0.474551
0.378866 0.602261 -0.748403 -0.124741 0.022474 -1.65839 0.23733 0.0550891
0.325453 -0.603652 -0.062351 0.508427 -0.282334 -0.366222 -0.520737 -0.0279318
0.124486 0.0862763 -0.415395 -0.0390589 -0.0366602 -0.285093 0.710898 -0.112551
0.0982728 -0.205191 -0.177643 0.372706 -0.236014 0.0903219 -0.381218 0.151351
0.027635 -1.06136 -0.283445 -0.431664 -0.751798 0.0661857 -0.491399 0.449087
-0.458402 0.342678 -0.338088 0.272085 -0.342523 0.152444 -0.0468696 0.212535
0.175683 0.1754 0.119511 0.340364 -0.636772 -0.162926 0.235287 -0.268514
-0.101165 -0.0224943 0.143056 -0.0582643 -0.177152 -0.124275 -0.0569569 -0.10395
-0.176785 -0.0610613 -0.114356 0.214661 -0.324942 -0.235392 0.0755007 1.46327
1.28744 -0.331936 0.0846956 -0.35831 -0.291979 -0.136073 -0.478229 0.373484
-0.0285268 0.0876364 0.0163625 -1.0305 0.244095 -2.44945 0.0752054 -0.12843
-0.354474 0.249439 -0.319774 -1.00909 0.614009 2.06603 -0.0872946 -0.518378
-0.248863 0.262578 0.4993 0.224568 0.759654 -0.281864 -2.16349 0.170552
-0.00244008 -0.415726 0.889848 -0.0622061 0.279404 -0.119465 -0.404799 -0.0867165
0.0528054 -0.34603 0.254045 -0.0101412 -0.213392 -0.205132 0.112048 -0.0341524
0.446032 -0.355091 -0.882045 0.0576856 0.486966 -0.18181 0.358953 0.115637
-0.0304675 0.194804 -1.57473 -0.498453 -0.00758906 4.17539 -0.0527514 -0.0537688
-0.000303508 -0.0477622 -0.397221 0.309514 -0.0633092 0.569165 0.210703 0.304316
0.0230972 0.266488 0.0687756 0.0758312 0.0693423 -0.0534589 0.473347 0.109726
-0.205706 0.328912 0.235307 -0.385764 -6.52041 -0.180562 -0.435766 0.348017
0.0295261 0.354505 0.382469 0.520252 -0.32638 -0.0552915 1.41302 -0.509698
-0.74317 -0.101442 -0.179006 0.362924 0.0258417 -0.0952833 0.0546425 -0.208585
-0.0206239 -0.564466 -0.373831 -0.138909 0.887882 0.415273 0.0316789 -1.20403
0.164633 -1.71025 0.0947408 0.200595 -0.277335 -0.154501 0.54659 -0.383039
-0.00827776 0.786943 -0.323026 -0.33612 0.109249 0.156597 0.140148 -0.0647308
0.327117 0.194238 -0.780755 0.0669338 -0.312756 -0.0920057 -1.65906 0.0120773
0.158735 -0.164347 -0.0703788 -1.09316 0.52649 -0.230381 0.246891 0.0404394
-0.673417 -0.282893 -0.784722 -0.0104391 -0.0030297 0.227066 0.903023 0.0641034
00000000: 4969 46bf 1972 94be f915 cbbd b01e 1b3f
00000010: f0a2 2b3f 5bef f7bd d3d8 7ebe ca54 c9be
00000020: 2bb2 a73d a27e 473e 425d 28bf ebac 023f
00000030: d0ef 27bf 02ca 80bd 005f c0bc 417d 0fbf
00000040: 8c94 873d b6f3 b9bf 63d0 49be 487c 783d
00000050: 4088 743e b29d 9bbf f510 0fc0 66f5 1a3f
00000060: 6189 cfbe 0cc8 2abf 691b 203c ecc0 09bf
00000070: 7d7a 4c3e 58fb e0bc ba87 b43e 59f8 f23e
00000080: b9fa c13e c72d 1a3f 5797 3fbf 3678 ffbd
00000090: 651b b83c 2046 d4bf a306 733e 1ca5 613d
000000a0: c7a1 a63e f088 1abf c363 7fbd 4628 023f
000000b0: 158e 90be 7381 bbbe 054f 05bf 3bd1 e4bc
000000c0: 84f2 fe3d a1b1 b03d a7ae d4be 3afc 1fbd
000000d0: 0229 16bd b6f7 91be 69fd 353f 2481 e6bd
000000e0: 4043 c93d 971d 52be 0ce8 35be 52d3 be3e
000000f0: a7ad 71be b0fa b83d 012f c3be c2fb 1a3e
00000100: cc62 e23c a5da 87bf b41f 91be 1003 ddbe
00000110: d575 40bf 5e8c 873d a698 fbbe bbee e53e
00000120: abb3 eabe 7e73 af3e df19 adbe ba4e 8b3e
00000130: 2d5f afbe 481a 1c3e 56fa 3fbd c6a2 593e
00000140: 3fe6 333e 0f9c 333e 2fc2 f43d 3144 ae3e
00000150: 7d03 23bf 13d6 26be 13ef 703e ab7a 89be
00000160: 982f cfbd f745 b8bc 467d 123e 8ca6 6ebd
00000170: 5567 35be e483 febd a34b 69bd bde3 d4bd
00000180: 2107 35be 6a1b 7abd 7b33 eabd 18d0 5b3e
00000190: cc5e a6be 9a0a 71be 1ca0 9a3d 6e4c bb3f
000001a0: d5ca a43f 84f3 a9be e374 ad3d 6974 b7be
000001b0: 467e 95be b856 0bbe 6eda f4be 4b39 bf3e
000001c0: 09b1 e9bc b67a b33d a60a 863c 6de7 83bf
000001d0: 0af4 793e cac3 1cc0 4a05 9a3d 2783 03be
000001e0: 9e7d b5be f06c 7f3e 6bb9 a3be dc29 81bf
000001f0: b22f 1d3f d639 0440 83c7 b2bd 6cb4 04bf
00000200: f1d5 7ebe a070 863e 40a4 ff3e 27f5 653e
00000210: af78 423f 7a50 90be 9f76 0ac0 2fa5 2e3e
00000220: c0e9 1fbb 0ada d4be 14cd 633f d3cb 7ebd
00000230: 0b0e 8f3e 11aa f4bd d141 cfbe 6c98 b1bd
00000240: 7a4a 583d d82a b1be 3012 823e 4727 26bc
00000250: 6f83 5abe 1f0e 52be 6c79 e53d 63e3 0bbd
00000260: 4e5e e43e 7dce b5be b3cd 61bf bc47 6c3d
00000270: 9c53 f93e 672c 3abe b0c8 b73e 17d3 ec3d
00000280: fb96 f9bc b37a 473e c190 c9bf 3b35 ffbe
00000290: a6ad f8bb cb9c 8540 da11 58bd ac3c 5cbd
000002a0: 2720 9fb9 4ca2 43bd 8d60 cbbe 9e78 9e3e
000002b0: 41a8 81bd ccb4 113f 87c2 573e 4fcf 9b3e
000002c0: 5736 bd3c 1d71 883e 39da 8c3d 634d 9b3d
000002d0: 5603 8e3d b8f7 5abd 8a5a f23e 06b8 e03d
000002e0: 98a4 52be 2767 a83e 51f4 703e dc82 c5be
000002f0: 33a7 d0c0 3fe5 38be b91c dfbe 492f b23e
00000300: b8e0 f13c ae81 b53e fad2 c33e 3c2f 053f
00000310: 481b a7be 5779 62bd d7dd b43f 917b 02bf
00000320: 6440 3ebf d3c0 cfbd 594d 37be 2dd1 b93e
00000330: f9b1 d33c e423 c3bd d0d0 5f3d 4e97 55be
00000340: 74f3 a8bc d880 10bf c766 bfbe 293e 0ebe
00000350: 3c4c 633f aa9e d43e bcc1 013d a81d 9abf
00000360: 8e95 283e 79e9 dabf 7707 c23d c768 4d3e
00000370: dafe 8dbe 8335 1ebe 52ed 0b3f b01d c4be
00000380: 719f 07bc 1975 493f aa63 a5be ec17 acbe
00000390: f1bd df3d f75a 203e f582 0f3e 9591 84bd
000003a0: e17b a73e 54e6 463e 8fdf 47bf 9714 893d
000003b0: 8e21 a0be 7c6d bcbd 145c d4bf dedf 453c
000003c0: 6e8b 223e 944a 28be c322 90bd abec 8bbf
000003d0: 0cc8 063f ffe8 6bbe ffd0 7c3e c9a3 253d
000003e0: 0e65 2cbf 5ad7 90be 8ae3 48bf c208 2bbc
000003f0: ee8d 46bb fd83 683e 842c 673f a548 833d

Operation_4_Add_B f4 [50]
1.48416 -0.0392727 -0.0907838 -2.47397 -2.26864 0.289911 0.0849784 -0.0216935
-0.688173 -0.245358 -0.408883 0.345316 -1.17538 -0.129693 -0.0153813 2.30298
0.472199 -0.466609 -1.12351 0.495937 -0.570643 -0.788515 1.01652 0.462602
-1.62913 -0.584215 0.124253 -0.0774607 0.288896 -1.92722 -1.86128 0.507499
2.08643 -0.100975 0.302989 -0.800885 -0.166501 0.224915 -0.31377 -0.0885139
-0.0413228 -0.688478 0.0999729 0.235693 0.200208 0.185322 0.213242 -0.0363364
0.0762837 -0.216393
00000000: f4f8 bd3f 69dc 20bd dbec b9bd 8655 1ec0
00000010: 6631 11c0 376f 943e 2809 ae3d 91b6 b1bc
00000020: 1b2c 30bf 213f 7bbe 1d59 d1be 42cd b03e
00000030: da72 96bf 3ece 04be d901 7cbc 0664 1340
00000040: 11c4 f13e 60e7 eebe 2dcf 8fbf 74eb fd3e
00000050: a915 12bf 1edc 49bf 541d 823f 2bda ec3e
00000060: 5587 d0bf 1d8f 15bf 5b78 fe3d b7a3 9ebd
00000070: 2dea 933e 25af f6bf 6c3e eebf 74eb 013f
00000080: 1288 0540 fbcb cebd 6021 9b3e cd06 4dbf
00000090: 3d7f 2abe 1e50 663e 76a6 a0be c746 b5bd
000000a0: 1942 29bd 1840 30bf 97be cc3d 8159 713e
000000b0: 5303 4d3e 0dc5 3d3e 1c5c 5a3e 7ad5 14bd
000000c0: a13a 9c3d 2096 5dbe

Operation_5_MatMul_W f4 [50, 50]
-0.169473 0.143577 0.00119997 -0.512819 0.15628 -0.018116 0.74015 -2.03088
0.134509 0.221371 0.38376 -0.404076 -1.2586 0.144398 0.216987 -0.0651774
-0.467969 0.282938 -0.0282119 -0.242008 0.684779 -0.121418 0.0371726 -0.525492
-0.0616888 -0.03333 0.347632 0.225502 1.15895 -0.785951 -0.171358 -0.102436
-0.0774197 -0.046582 -0.270405 0.375018 -0.105 -0.136729 -0.0179265 0.375566
0.00973395 0.0099361 0.542716 -0.0937429 -0.854777 0.0603471 -0.109546 0.418294
0.233909 0.19239 -1.03007 0.157256 -0.254742 -1.55515 0.112975 -0.688114
-0.397148 -0.155727 -1.45003 -0.462056 0.20059 -0.0419424 0.953439 0.944435
0.431716 0.131578 -0.28572 1.68018 0.655421 -0.0143518 -1.23925 0.0887225
0.0334255 -0.297079 -0.522319 -0.420223 -0.327401 0.518288 -0.082995 -0.328681
0.068605 -0.673777 -2.7451 -1.36682 -0.829149 -0.162315 -1.21279 -0.741291
0.110244 0.247807 -0.387155 -0.331624 -0.284881 -0.614771 -0.804487 0.884705
-0.687897 -1.40829 -0.242613 -0.879008 0.593824 2.10021 0.202776 3.80889
-2.696 0.355782 1.79801 -0.248909 0.292652 -1.04637 -0.16424 1.41769
0.358845 -6.52346 0.101036 0.455438 -1.41029 1.07629 -1.92449 0.829281
-0.267095 0.0371437 0.161873 0.669968 -0.175403 0.395815 0.605528 0.558638
-0.524102 0.374446 1.14928 0.500149 3.42553 0.634261 1.11758 -0.794787
-0.550133 0.875438 -0.184169 0.831821 -0.201139 0.103244 -4.30196 0.574087
3.86719 2.42111 0.415421 -2.72308 -0.0361945 1.01191 -0.338295 0.291818
-0.0314264 -0.669636 -0.0929159 -0.158535 0.0996511 -0.185697 -0.187551 -0.0847253
-0.121489 -0.765138 -0.128209 -0.140787 0.676643 -0.238157 -1.45105 -0.620943
-4.4303 -0.962464 1.61387 0.118398 -0.200124 -0.229898 -0.0572232 0.163183
0.0714051 -0.515126 1.97089 1.14356 0.234316 -0.000298093 -0.244947 0.172802
0.081221 -0.154189 0.587044 0.100066 -0.051578 -1.12053 0.0376793 0.020101
-0.277912 -0.995807 0.427518 0.270771 -0.216894 -0.236537 0.284611 -0.231684
0.209267 -0.646289 -0.140569 -0.595168 -0.114286 0.0326831 -0.142658 0.402917
-0.0231918 -0.0863158 0.00473864 -2.32233 -0.192998 -0.771333 -0.239259 -0.165716
-5.93991 0.0434746 -3.76537 0.0598716 0.142103 -0.193567 0.0542473 -0.00759089
-0.295034 0.10879 -0.142411 0.0242073 -1.27179 1.19847 -4.70365 0.0862572
-0.0550098 0.109347 -0.213066 -0.821326 -0.561154 0.0856765 -0.469853 -2.11613
-0.200139 0.0195166 0.114021 -0.279647 0.443657 0.00966464 0.128069 -0.269111
0.236274 -0.015137 0.217493 -0.204413 0.490016 -3.35302 -2.39392 -0.704587
00000000: 558a 2dbe d905 133e 5048 9d3a 1b48 03bf
00000010: dd07 203e 0168 94bc 787a 3d3f f0f9 01c0
00000020: babc 093e 14af 623e 317c c43e 0de3 cebe
00000030: ce19 a1bf 12dd 133e d731 5e3e bb7b 85bd
00000040: a299 efbe 40dd 903e a41c e7bc f2d0 77be
00000050: ad4d 2f3f 00aa f8bd 4c42 183d a586 06bf
00000060: 65ad 7cbd 0a85 08bd d2fc b13e ffe9 663e
00000070: 7958 943f 1634 49bf 7978 2fbe f7c9 d1bd
00000080: 388e 9ebd c4cc 3ebd 8672 8abe 5c02 c03e
00000090: 3d0a d7bd b002 0cbe 98da 92bc 304a c03e
000000a0: 257b 1f3c 06cb 223c 70ef 0a3f 47fc bfbd
000000b0: aad2 5abf 852e 773d a759 e0bd a22a d63e
000000c0: d785 6f3e e201 453e 55d9 83bf b807 213e
000000d0: 8b6d 82be 280f c7bf 705f e73d 3d28 30bf
000000e0: fc56 cbbe e676 1fbe 959a b9bf 9b92 ecbe
000000f0: 7767 4d3e cbcb 2bbd 9414 743f 7ec6 713f
00000100: e109 dd3e 62bc 063e e449 92be 2310 d73f
00000110: acc9 273f d023 6bbc be9f 9ebf 24b4 b53d
00000120: 2de9 083d bd1a 98be b3b6 05bf 7827 d7be
00000130: 1ba1 a7be 86ae 043f 48f9 a9bd e048 a8be
00000140: c780 8c3d a67c 2cbf b8af 2fc0 f5f3 aebf
00000150: 1c43 54bf e735 26be b43c 9bbf 3fc5 3dbf
00000160: 9bc7 e13d 1ec1 7d3e 2e39 c6be 9fca a9be
00000170: ecdb 91be a261 1dbf dcf2 4dbf 077c 623f
00000180: 051a 30bf d942 b4bf 8b6f 78be ab06 61bf
00000190: da04 183f d769 0640 83a4 4f3e dbc4 7340
000001a0: 448b 2cc0 0f29 b63e 3125 e63f 00e2 7ebe
000001b0: 7cd6 953e 74ef 85bf 882e 28be de76 b53f
000001c0: 88ba b73e 2fc0 d0c0 f6eb ce3d 2b2f e93e
000001d0: 6284 b4bf dfc3 893f b055 f6bf c24b 543f
000001e0: adc0 88be fe23 183d 09c2 253e 0683 2b3f
000001f0: d89c 33be 44a8 ca3e e203 1b3f e602 0f3f
00000200: 8c2b 06bf 63b7 bf3e 9b1b 933f c409 003f
00000210: e23b 5b40 ee5e 223f dd0c 8f3f 2977 4bbf
00000220: 84d5 0cbf b41c 603f cc96 3cbe 39f2 543f
00000230: 62f7 4dbe 9771 d33d a8a9 89c0 5ef7 123f
00000240: 0a80 7740 77f3 1a40 10b2 d43e f146 2ec0
00000250: af40 14bd 4486 813f 0135 adbe 2b69 953e
00000260: f8b8 00bd 446d 2bbf b14a bebd 0057 22be
00000270: e015 cc3d 5b27 3ebe 5f0d 40be 7584 adbd
00000280: 3acf f8bd 15e0 43bf 3849 03be 782a 10be
00000290: 7a38 2d3f 6edf 73be 02bc b9bf 1ff6 1ebf
000002a0: 05c5 8dc0 0a64 76bf 4b93 ce3f a77a f23d
000002b0: 4eed 4cbe 626a 6bbe e062 6abd 7219 273e
000002c0: d63c 923d 4cdf 03bf 2046 fc3f 2d60 923f
000002d0: 89f0 6f3e 5d49 9cb9 63d3 7abe 02f3 303e
000002e0: 3257 a63d b9e3 1dbe 8448 163f 67ef cc3d
000002f0: 7443 53bd 876d 8fbf 9c55 1a3d daaa a43c
00000300: 7b4a 8ebe 35ed 7ebf a4e3 da3e 7fa2 8a3e
00000310: 7619 5ebe c136 72be 88b8 913e 923e 6dbe
00000320: 174a 563e 3273 25bf 52f1 0fbe ee5c 18bf
00000330: c70e eabd b7de 053d f014 12be 234b ce3e
00000340: bbfc bdbc 57c6 b0bd 9846 9b3b 0ea1 14c0
00000350: 45a1 45be 1476 45bf 5000 75be 75b1 29be
00000360: be13 bec0 6c12 323d d2fb 70c0 ec3b 753d
00000370: 7383 113e 6d36 46be 6b32 5e3d 00bd f8bb
00000380: b20e 97be 4bcd de3d 30d4 11be 634e c63c
00000390: 04ca a2bf 7767 993f 4d84 96c0 9da7 b03d
000003a0: f551 61bd 52f1 df3d f92d 5abe 6c42 52bf
000003b0: caa7 0fbf 2977 af3d 9390 f0be ad6e 07c0
000003c0: 3df1 4cbe 47e1 9f3c d883 e93d e42d 8fbe
000003d0: 0327 e33e 7058 1e3c 8524 033e ebc8 89be
000003e0: d0f1 713e 2e01 78bc 7cb6 5e3e a451 51be
000003f0: 61e3 fa3e e197 56c0 fc35 19c0 d05f 34bf

Operation_5_Add_B f4 [50]
0.343884 -0.148704 -0.182344 2.09282 0.0573921 1.07278 -3.5375 0.290246
1.78528 0.570392 0.102578 -0.867694 -1.88844 -1.11489 -0.445675 0.694016
1.27762 -1.29112 -1.34225 -0.159671 0.645223 0.988629 0.516151 -2.38274
0.676756 0.761867 0.0567606 -0.222461 1.86957 1.05205 -0.107629 0.0906623
2.55632 0.875174 0.0827916 -1.16245 1.19683 0.119459 0.0523826 -0.25144
0.971201 0.414523 0.559316 0.711265 -3.24478 0.58 0.165873 -1.29327
-0.331041 -0.654165
00000000: 9011 b03e dd45 18be 63b8 3abe c3f0 0540
00000010: fb13 6b3d db50 893f 6666 62c0 209b 943e
00000020: 0e84 e43f 3605 123f 6a14 d23d 3221 5ebf
00000030: 67b8 f1bf b7b4 8ebf 832f e4be 08ab 313f
00000040: 0d89 a33f 6c43 a5bf d9ce abbf cb80 23be
00000050: 562d 253f ca16 7d3f 7922 043f d07e 18c0
00000060: e23f 2d3f b709 433f ce7d 683d d1cc 63be
00000070: 124e ef3f 93a9 863f 986c dcbd 28ad b93d
00000080: bf9a 2340 670b 603f a48e a93d 29cb 94bf
00000090: ba31 993f eca6 f43d 238f 563d bebc 80be
000000a0: a1a0 783f 5c3c d43e 552f 0f3f 7715 363f
000000b0: 7aaa 4fc0 e17a 143f 9dda 293e df89 a5bf
000000c0: 357e a9be 5c77 27bf

Operation_6_MatMul_W f4 [50, 50]
0.0198897 -0.12478 -1.47445 -0.00951057 0.935307 0.201806 -0.0666847 -5.00427
-0.230212 -0.275657 -0.272714 -0.0679461 -0.218528 0.0436474 -1.68243 -0.13921
-0.00332703 -0.0433162 -1.5523 0.000892677 -0.0632891 -2.86537 -0.979547 -0.153644
-0.531871 -0.00230329 0.0464698 -1.08128 0.989711 -0.297066 -0.557517 0.0204695
-0.106109 -0.0247721 0.139598 -0.825566 -0.229304 0.0221196 -0.57233 -0.509607
-0.148583 1.63073 -2.65606 -0.845734 -1.00651 -0.0494978 0.00796714 -0.710425
-0.283984 0.0114592 -0.0404527 0.0416074 -1.20772 -0.00195054 -2.01348 0.251866
-0.0253962 0.196102 0.257645 -0.209983 0.829244 -0.195916 0.0963922 -0.0298087
-0.17072 0.179277 0.334581 1.58955 -0.602873 -0.0987551 -0.110602 1.22957
1.07139 -0.287349 0.440242 0.148607 0.551384 -0.137468 4.07426 0.614013
-0.173367 0.0223643 1.29134 0.0115411 1.06516 -0.699428 -0.0635595 -0.165367
0.119985 0.544226 -0.599085 -0.804304 -0.110162 -3.7655 -3.00287 0.380365
-1.73872 0.0589588 0.241602 0.735028 -0.277591 0.0687742 -0.533325 0.0289095
0.25284 -0.490096 0.308655 0.0715269 0.0558687 -0.144089 -3.90107 0.16952
0.269749 -0.14988 -0.319248 -0.294366 -0.0439898 -0.667105 0.597125 -0.0635048
-0.0480748 -1.33339 0.784348 0.808311 -1.63629 -0.128516 0.359815 -0.12353
1.8658 0.0177407 0.0392317 -0.0243812 1.76848 -0.0797831 0.490222 -0.326328
-0.20567 0.168003 0.347008 0.0154673 -0.702443 0.554447 4.18359 -2.96207
2.41322 0.311537 0.302138 0.200475 0.0244167 -0.0564581 0.0392536 -0.0500863
-0.092422 -0.082063 -0.0538865 -0.0280296 0.0338291 -0.0464746 -0.129267 0.0174152
-2.10402 -0.246394 -0.041633 -0.113116 0.118979 -0.00802601 0.0167441 -0.091773
-1.00441 0.00899302 -0.0178147 -0.990793 -2.78449 -0.628978 -0.0417775 -0.00179663
-0.0802145 -0.125097 -1.90335 0.0946948 0.0217549 0.0146298 0.0430765 0.159416
-2.17528 -1.77177 -0.0351613 0.0421288 -0.0191082 -0.0145282 -0.408774 0.446609
0.250344 -1.05373 -0.755737 -0.0403161 0.0273523 -0.030058 -0.0294464 -0.172334
0.603609 0.377188 2.52431 0.32719 -0.449774 0.539718 0.331749 -0.571942
0.124365 -0.26319 -5.10687 1.0181 0.809256 0.0848855 1.96849 -4.32188
0.117819 1.13252 -0.257599 -0.172508 -0.0833551 -4.61914 2.48911 0.663088
0.127859 -0.00163784 0.590648 0.00140105 -3.88138 0.28738 -0.108408 -0.0415361
-3.86096 -4.32132 3.12607 0.277596 0.0823049 -1.21394 -2.0265 0.184382
-0.992477 1.58161 -0.128001 -1.77945 1.95889 0.0266516 -0.668215 0.542728
-0.45401 -0.495945 0.359966 -0.0149096 -0.945134 0.0505229 0.944573 0.0679513
00000000: b9ef a23c a88c ffbd c7ba bcbf 39d2 1bbc
00000010: 4870 6f3f 3ba6 4e3e fd91 88bd fb22 a0c0
00000020: b2bc 6bbe ea22 8dbe 2ba1 8bbe 5327 8bbd
00000030: cec5 5fbe 9ec7 323d de59 d7bf 118d 0ebe
00000040: 4d0a 5abb 546c 31bd c4b1 c6bf 8a02 6a3a
00000050: b79d 81bd 3962 37c0 98c3 7abf da54 1dbe
00000060: b328 08bf cbf2 16bb 1e57 3e3d 6267 8abf
00000070: b35d 7d3f 0919 98be 6fb9 0ebf a7af a73c
00000080: ad4f d9bd dcee cabc c7f2 0e3e 4b58 53bf
00000090: abce 6abe 2a34 b53c 3884 12bf 9b75 02bf
000000a0: 2426 18be c3bb d03f e3fc 29c0 0682 58bf
000000b0: 52d5 80bf 35be 4abd 9b88 023c 6ade 35bf
000000c0: 5a66 91be 5ebf 3b3c bbb1 25bd 856c 2a3d
000000d0: 9296 9abf 43a9 ffba dbdc 00c0 95f4 803e
000000e0: b10b d0bc f6ce 483e 0cea 833e c905 57be
000000f0: 5649 543f 349e 48be 4669 c53d 6031 f4bc
00000100: 39d1 2ebe 6494 373e 334e ab3e 6076 cb3f
00000110: e355 1abf 1d40 cabd 4d83 e2bd 8d62 9d3f
00000120: 4f23 893f 681f 93be 6667 e13e 6f2c 183e
00000130: 8027 0d3f 69c4 0cbe 5760 8240 f52f 1d3f
00000140: 1e87 31be 5635 b73c a14a a53f e216 3d3c
00000150: 2a57 883f b70d 33bf 7c2b 82bd f855 29be
00000160: b2ba f53d 6552 0b3f a25d 19bf dee6 4dbf
00000170: 9d9c e1bd f4fd 70c0 062f 40c0 34bf c23e
00000180: 618e debf c87e 713d 8466 773e cc2a 3c3f
00000190: 6820 8ebe 7dd9 8c3d fd87 08bf 9ed3 ec3c
000001a0: 3f74 813e dded fabe 0708 9e3e b27c 923d
000001b0: 94d6 643d 118c 13be 22ab 79c0 a796 2d3e
000001c0: 8a1c 8a3e 257a 19be 7974 a3be 24b7 96be
000001d0: a62e 34bd 65c7 2abf 2fdd 183f ce0e 82bd
000001e0: 15ea 44bd 86ac aabf 08cb 483f 78ed 4e3f
000001f0: f371 d1bf b399 03be ac39 b83e 4cfd fcbd
00000200: 89d2 ee3f f254 913c 6bb1 203d 15bb c7bc
00000210: 8d5d e23f 5265 a3bd 61fe fa3e 7714 a7be
00000220: 289b 52be fa08 2c3e 08ab b13e 8f6a 7d3c
00000230: 4ed3 33bf 3df0 0d3f f8df 8540 8e92 3dc0
00000240: 3272 1a40 c781 9f3e d5b1 9a3e 5249 4d3e
00000250: 8805 c83c 9c40 67bd 62c8 203d 4b27 4dbd
00000260: bf47 bdbd a510 a8bd 17b8 5cbd 559e e5bc
00000270: 6290 0a3d 265c 3ebd 925e 04be 52aa 8e3c
00000280: 44a8 06c0 b54e 7cbe 5d87 2abd 5da9 e7bd
00000290: 43ab f33d 877f 03bc ec2a 893c 7cf3 bbbd
000002a0: 8290 80bf 7657 133c 22f0 91bc 9ca4 7dbf
000002b0: 1635 32c0 b404 21bf e21e 2bbd e67c ebba
000002c0: 8047 a4bd 6e19 00be f9a0 f3bf 59ef c13d
000002d0: 5537 b23c d4b1 6f3c fc70 303d f33d 233e
000002e0: ca37 0bc0 5cc9 e2bf 4c05 10bd 408f 2c3d
000002f0: cd88 9cbc b007 6ebc d34a d1be efa9 e43e
00000300: 172d 803e a0e0 86bf fb77 41bf 7f22 25bd
00000310: ee11 e03c 323c f6bc 9439 f1bc 5378 30be
00000320: 1f86 1a3f c91e c13e 4c8e 2140 7385 a73e
00000330: c748 e6be f52a 0a3f 01db a93e ca6a 12bf
00000340: 14b3 fe3d d7c0 86be 7b6b a3c0 1a51 823f
00000350: 672b 4f3f 73d8 ad3d 7bf7 fb3f d74c 8ac0
00000360: 164b f13d 6af6 903f 04e4 83be f0a5 30be
00000370: 14b6 aabd ffcf 93c0 944d 1f40 23c0 293f
00000380: 78ed 023e caac d6ba b534 173f 70a3 b73a
00000390: 8868 78c0 7923 933e 0305 debd c221 2abd
000003a0: f819 77c0 4148 8ac0 8811 4840 1021 8e3e
000003b0: 798f a83d 6362 9bbf 2db2 01c0 a3ce 3c3e
000003c0: f912 7ebf 3272 ca3f b212 03be 05c5 e3bf
000003d0: e8bc fa3f 7554 da3c 2310 2bbf 39f0 0a3f
000003e0: 0074 e8be 81ec fdbe 774d b83e 6547 74bc
000003f0: 4df4 71bf 1af1 4e3d 89cf 713f 0d2a 8b3d

Operation_6_Add_B f4 [50]
-0.430061 -0.0245742 -1.85737 -0.0138152 0.419247 -0.213587 0.16007 0.741838
0.00846945 -0.726034 -4.74206 0.0694902 -0.33274 0.458429 -1.03401 -0.436594
0.0870681 -1.17479 0.295038 0.64818 0.596977 -2.17556 -1.11059 -0.429719
0.24184 0.161132 0.103251 0.190621 -2.56281 0.428494 0.165919 -0.0413155
-3.21202 0.0165723 -1.44951 -0.212717 0.096362 -0.183611 -0.554534 0.339886
0.36664 1.18725 -7.0066 0.864816 -4.08665 0.190657 0.438984 -0.664789
-0.114347 0.121706
00000000: f530 dcbe d54f c9bc 4dbe edbf 2659 62bc
00000010: 8ba7 d63e 8db6 5abe 64e9 233e 18e9 3d3f
00000020: 73c3 0a3c 5ddd 39bf f5be 97c0 e150 8e3d
00000030: e65c aabe 35b7 ea3e 715a 84bf 4089 dfbe
00000040: c350 b23d 855f 96bf 390f 973e 20ef 253f
00000050: 7cd3 183f 603c 0bc0 d027 8ebf 2104 dcbe
00000060: e8a4 773e c9ff 243e 4375 d33d 2732 433e
00000070: 1405 24c0 9163 db3e ace6 293e 713a 29bd
00000080: bc91 4dc0 a2c2 873c 8b89 b9bf 7cd2 59be
00000090: 7159 c53d 8604 3cbe f1f5 0dbf 8a05 ae3e
000000a0: 3db8 bb3e cff7 973f 1136 e0c0 9564 5d3f
000000b0: d6c5 82c0 973b 433e 83c2 e03e 9d2f 2abf
000000c0: c32e eabd ff40 f93d

linear_7_MatMul_W f4 [50, 5]
-0.0010049 -0.00160923 0.0317032 0.00386038 0.032974 0.0177588 0.0238133 0.0212332
0.0159409 -0.00321035 0.00644684 0.00746871 -0.00498239 0.0125385 -0.00730703 0.0100598
-0.0031306 0.0276194 0.00446224 0.0142817 0.00215751 -0.0028099 0.0203134 -0.0279642
0.0309295 0.0241695 0.022873 0.0217319 0.0242819 0.0267673 0.020716 0.0236429
0.0120344 0.00800875 0.0229176 0.00325348 0.00820832 -0.0062876 0.0242513 -0.022414
0.0376957 0.0433519 0.0411111 -0.00429988 0.00461009 0.0537383 0.0518454 0.0582644
0.0597856 0.0524488 0.00396667 -0.000974907 0.00941772 -0.0114641 0.0178036 0.000295171
-0.000245709 0.0153711 -0.0191129 0.0293894 0.00844118 0.00399484 0.0289061 0.00406634
0.0278019 0.00430048 -0.00809352 0.0130497 -0.0123403 0.024519 5.53546e-05 -0.00729084
0.00292384 -0.0165 0.0120456 0.0270628 0.0195302 0.0252006 0.0248731 0.034738
0.00422983 -0.00845971 -0.0102096 0.0229474 0.0226422 -0.0169606 -0.028078 -0.012132
-0.0287024 0.00185986 0.00433998 0.0022241 0.0139771 -0.0110197 0.0231078 0.0567525
0.0669689 0.0693007 0.0460935 0.0506335 0.0600247 0.0556077 0.0526067 0.0586005
0.0519765 0.0347097 0.0375405 0.0374207 0.0364215 0.035548 0.00104634 0.00812147
-0.00258324 0.0228337 -0.0209633 0.00925969 -0.0106021 -0.00697084 0.0147448 0.00519522
0.0104904 0.0140604 0.00310848 0.0150308 -0.0129484 -0.0627135 -0.0113678 -0.0135615
-0.0141495 -0.0184528 0.0129801 0.0248419 0.0204092 0.0287788 -0.0054493 0.143107
0.174828 0.159073 0.134752 0.0964997 0.000155933 0.0145279 0.00164534 0.0210016
-0.0113055 0.00909701 0.0100504 0.0190926 -0.0144816 0.0243227 0.186967 0.201379
0.19954 0.146935 0.134838 0.0109487 0.0206927 0.0133324 0.00479544 0.00860237
-0.0154135 -0.014034 -0.0111085 -0.019016 -0.0168496 0.366418 0.413943 0.400429
0.198699 0.204973 -0.00464881 -0.0112926 -0.00365827 -0.009207 0.0131377 -0.0105615
-0.00436394 -0.0175431 0.0175599 -0.0245341 0.0346626 0.0329306 0.0316598 0.0421516
0.0375603 0.0354153 0.0233757 0.0306686 0.0391117 0.0336533 -0.000777726 0.0294505
-0.00118986 0.0313064 0.00147645 0.0038574 0.0155092 -0.0100581 0.0197998 -0.0103691
0.00419073 -0.00207847 0.00221781 -0.0245558 0.0188854 -0.0172908 -0.0257482 -0.0167647
-0.0348254 -0.00469537 0.00628022 0.013277 -0.000780408 0.0142149 -0.00316553 -0.0146312
-0.0134533 -0.0245084 0.0162112 -0.038399 0.00526843 0.00197653 0.0207162 -0.0102774
0.0155334 0.0235743 0.0245503 0.0152769 0.0269725 0.02367 0.0181072 0.0200014
0.0214738 0.0188189 0.0162628 -0.00114841 -0.0515162 0.00284946 -0.0582468 -0.00340823
0.0116412 0.011273 0.0194173 -0.0100225 0.0212921 -0.00497452 -0.00887692 -0.00955315
-0.0099651 -0.00807586
00000000: d9b6 83ba ccec d2ba 37db 013d 6efe 7c3b
00000010: bf0f 073d e77a 913c 1c14 c33c 3ff1 ad3c
00000020: 7e96 823c bc64 52bb 0340 d33b 15bc f43b
00000030: 5143 a3bb 486e 4d3c cf6f efbb dcd1 243c
00000040: c12a 4dbb 1442 e23c fb37 923b cbfd 693c
00000050: 0365 0d3b 4d26 38bb 4a68 a63c 2e15 e5bc
00000060: dd5f fd3c 1eff c53c 2860 bb3c 1907 b23c
00000070: d6ea c63c 1947 db3c 9ab4 a93c c1ae c13c
00000080: ef2b 453c 2237 033c b1bd bb3c 5638 553b
00000090: 307c 063c 3608 cebb aaaa c63c 919d b7bc
000000a0: ce66 1a3d c391 313d 1d64 283d 02e6 8cbb
000000b0: 3d10 973b b11c 5c3d d85b 543d a7a6 6e3d
000000c0: bfe1 743d 8ed4 563d d7fa 813b e790 7fba
000000d0: c84c 1a3c ecd3 3bbc dbd8 913c 2ec1 9a39
000000e0: 81d2 80b9 11d7 7b3c a892 9cbc 0ac2 f03c
000000f0: e04c 0a3c 26e7 823b 7ccc ec3c ef3e 853b
00000100: cfc0 e33c 0aeb 8c3b af9a 04bc 69ce 553c
00000110: f82e 4abc 12dc c83c 8d2c 6838 00e8 eebb
00000120: e59d 3f3b 022b 87bc e95a 453c ceb2 dd3c
00000130: ccfd 9f3c 7d71 ce3c acc2 cb3c 6f49 0e3d
00000140: 639a 8a3b 989a 0abc 2b46 27bc 30fc bb3c
00000150: 237c b93c f5f0 8abc d503 e6bc 4cc5 46bc
00000160: 4c21 ebbc 8cc6 f33a 6436 8e3b 35c2 113b
00000170: 3500 653c f98b 34bc 924c bd3c 4f75 683d
00000180: fe26 893d 87ed 8d3d 8acc 3c3d 1365 4f3d
00000190: 76dc 753d e6c4 633d 207a 573d 1407 703d
000001a0: 4fe5 543d c22b 0e3d 11c4 193d 7346 193d
000001b0: b62e 153d c89a 113d 5825 893a ea0f 053c
000001c0: 934b 29bb bd0d bb3c 3abb abbc f4b5 173c
000001d0: 6eb4 2dbc a56b e4bb 2c94 713c aa3c aa3b
000001e0: eddf 2b3c 985d 663c a4b7 4b3b bf43 763c
000001f0: 8725 54bc ef6f 80bd 0240 3abc 0e31 5ebc
00000200: 4ed3 67bc 542a 97bc 7caa 543c 3e81 cb3c
00000210: 3231 a73c 85c1 eb3c 0b90 b2bb a48a 123e
00000220: 1c06 333e 08e4 223e 6efc 093e a2a1 c53d
00000230: f281 2339 6e06 6e3c 73a8 d73a 8c0b ac3c
00000240: b43a 39bc a00b 153c 6faa 243c 1668 9c3c
00000250: 3c44 6dbc 6640 c73c 4774 3f3e 4c36 4e3e
00000260: 3754 4c3e 2176 163e f912 0a3e 2d62 333c
00000270: bd83 a93c 2370 5a3c 1123 9d3b f4f0 0c3c
00000280: e888 7cbc ddee 65bc 6d00 36bc 71c7 9bbc
00000290: 2c08 8abc 249b bb3e 56f0 d33e 0805 cd3e
000002a0: c077 4b3e 71e4 513e 0b55 98bb 9904 39bc
000002b0: 96bf 6fbb f5d8 16bc 823f 573c 240a 2dbc
000002c0: 62ff 8ebb 8cb6 8fbc c8d9 8f3c bdfb c8bc
000002d0: 5ffa 0d3d 3de2 063d b5ad 013d 28a7 2c3d
000002e0: d4d8 193d a20f 113d 657e bf3c b73c fb3c
000002f0: 9733 203d 0bd8 093d 4fe0 4bba 2d42 f13c
00000300: 14f5 9bba 243b 003d 7185 c13a 6fcc 7c3b
00000310: 4d1a 7e3c bbca 24bc 3133 a23c 28e3 29bc
00000320: 6452 893b f136 08bb ad58 113b 3f29 c9bc
00000330: 8eb5 9a3c 70a5 8dbc e4ed d2bc 2056 89bc
00000340: 14a5 0ebd 9edb 99bb 4eca cd3b c687 593c
00000350: 4b94 4cba 9de5 683c c874 4fbb b3b7 6fbc
00000360: 3b6b 5cbc d7c5 c8bc 5acd 843c 4548 1dbd
00000370: cba2 ac3b ac88 013b 05b5 a93c 8a62 28bc
00000380: cd7f 7e3c e41e c13c b61d c93c f64b 7a3c
00000390: 6ff5 dc3c 96e7 c13c 8d55 943c fad9 a33c
000003a0: d3e9 af3c 182a 9a3c 9039 853c 3f86 96ba
000003b0: a702 53bd 02be 3a3b 3294 6ebd 9c5c 5fbb
000003c0: bbba 3e3c 64b2 383c 0811 9f3c 6935 24bc
000003d0: c56c ae3c 4c01 a3bb 8070 11bc d184 1cbc
000003e0: a944 23bc 9d50 04bc

linear_7_Add_B f4 [5]
-0.0102815 -0.0158668 -0.0154823 -0.015336 -0.0148281
00000000: bd73 28bc 17fb 81bc 79a9 7dbc d943 7bbc
00000010: 8ff1 72bc
