networks/onnx/ACASXU_run2a_4_9_batch_2000.onnx (onnx, 55914 bytes, 15 tensors)

input_AvgImg f4 [1, 1, 5]
000000 00 00 00 00 00 00 00 00 00 00 00 00 00 00 00 00
       0.0 0.0 0.0 0.0
000010 00 00 00 00
       0.0

Operation_1_MatMul_W f4 [5, 50]
000000 da 69 94 bb 66 f9 aa be 26 e7 1f 3d 5b d3 e8 3f
       -0.00452922 -0.333934 0.0390388 1.81895
000010 31 e3 b7 bd 20 d5 9b bd 0d f1 c9 3d 4f 78 e9 bd
       -0.0897888 -0.0760901 0.0986043 -0.113999
000020 fa 5f ee 3d 13 b9 10 3e 36 8f 13 be 17 c0 9f 3d
       0.116394 0.141331 -0.144101 0.0780031
000030 7e c2 7e bc 43 72 32 bd a8 28 ad 3d 2d 54 c8 3d
       -0.0155493 -0.043566 0.0845502 0.0978168
000040 3b 9f 8b bc 13 57 5f 3d 49 12 ac be de ab ce bf
       -0.0170437 0.0545264 -0.336077 -1.61462
000050 c2 eb 24 3d ba e8 1a bd bc 39 91 3d 20 a0 16 bd
       0.0402639 -0.0378196 0.0709109 -0.0367738
000060 96 0b b2 3b e8 87 d1 bc 5e ca 9f bd 0f 3d ce bc
       0.00543351 -0.0255775 -0.0780227 -0.0251756
000070 98 2f 8f bf dc d2 8f 3c 9e b7 a9 be d0 17 b1 bc
       -1.11864 0.0175566 -0.331479 -0.0216178
000080 d0 1f 04 3d f2 d2 2d 3e c4 99 ff 3d fb 76 1a 3f
       0.0322569 0.16975 0.124805 0.603378
000090 08 22 2b 3d bb d6 06 bf 97 01 67 3c ff bc 00 bb
       0.0417805 -0.526714 0.0140995 -0.00196439
0000a0 55 ef 3a 3b d5 9e 88 3c a0 c3 94 be e8 91 b5 bc
       0.0028524 0.0166773 -0.290555 -0.0221643
0000b0 e4 49 46 40 40 66 cc bc 44 32 b4 3d dd 0a fe bb
       3.09826 -0.0249511 0.0879865 -0.00775276
0000c0 d7 ec 72 bd 2d 6a 46 3d 9b fa 65 3d 3d 2c b8 3f
       -0.0593079 0.0484411 0.0561472 1.43885
0000d0 83 4c d2 bf 22 34 04 3c 4b c9 7a 3f 3c f1 a1 bd
       -1.64296 0.00806907 0.979634 -0.0790734
0000e0 c9 1f c0 3f 8b 1a 98 bf 1c 5f 7f bf ed 7d 92 3e
       1.50097 -1.18831 -0.997545 0.286117
0000f0 5f 29 0f 40 8e 40 e4 3f d7 69 b4 bf 27 14 e2 3f
       2.2369 1.78322 -1.40948 1.76624
000100 79 01 ea 3f e8 f5 af be c2 88 2d 3f 95 64 59 bf
       1.82817 -0.343673 0.677868 -0.849191
000110 a9 d9 e3 3f 67 3c db bc fe 0d 7a 3f 50 01 f8 3f
       1.78008 -0.0267622 0.976776 1.93754
000120 8a ab 76 40 10 03 6d 3f 73 f2 02 bd 24 9c ae bf
       3.85422 0.925828 -0.0319695 -1.36414
000130 21 a9 aa bc 3b e2 10 3f a5 46 ec bb a5 49 89 3f
       -0.0208326 0.565952 -0.00721057 1.07256
000140 dd 0b ac be 21 b1 19 bf b3 d1 a1 3e 2f 34 a7 3f
       -0.336028 -0.600359 0.316053 1.30628
000150 33 16 d5 bf 05 58 bf 3b e9 57 c4 3c e8 77 4b 3d
       -1.66474 0.00583935 0.0239677 0.0496749
000160 c4 7c 89 3f ea ec 00 bf 95 7d ab 3f a8 32 f1 bc
       1.07412 -0.503615 1.33977 -0.0294431
000170 69 74 97 bf bd c2 b2 3e b4 90 90 3d 9e ec 12 3f
       -1.18324 0.349142 0.0705885 0.573923
000180 86 1d 62 3f 47 77 48 bf 67 0a d9 bf ef e6 2d bf
       0.883263 -0.78307 -1.69563 -0.679305
000190 d3 b4 b5 3d fe b7 d6 bf cb b9 d4 3d 8d a1 57 3d
       0.0887238 -1.67749 0.10387 0.0526443
0001a0 d8 47 37 be 4a f1 61 3e 83 dd 90 bf 7d 96 93 3f
       -0.178985 0.220647 -1.13176 1.15303
0001b0 46 42 8f 3f 89 29 a1 3f ba 2c f6 bf 89 98 e2 bf
       1.11921 1.25908 -1.92324 -1.77028
0001c0 78 4d 8e bd 91 44 d7 bf f0 50 d4 be fb 58 01 be
       -0.0694837 -1.68178 -0.41468 -0.126316
0001d0 4f 04 c1 3e f5 66 cc 3e 4a 29 d4 bf ef 5e 84 bd
       0.376986 0.399223 -1.65751 -0.0646342
0001e0 68 42 bb 3e a1 0f 32 3f a5 71 c1 bb 3e 79 90 bf
       0.365741 0.695551 -0.00590344 -1.1287
0001f0 6a c9 fc 3b d7 c0 be 3f 87 1a 15 be 89 b1 54 3f
       0.00771444 1.49026 -0.145609 0.830834
000200 1a 1a 6f 3d 96 7b f1 be 65 c2 97 3f a2 2a 4e bf
       0.0583745 -0.471646 1.18562 -0.805338
000210 7e 73 73 bf 40 4d d9 bf 49 a2 97 3f a4 dc b5 39
       -0.950981 -1.69767 1.18464 0.000346874
000220 ca a0 3f 3d 84 9f 18 3d e6 e8 45 3f 5b e9 75 bf
       0.0467842 0.0372615 0.773085 -0.960592
000230 e2 23 b6 bf cd 06 b5 bf a6 5e 3f bf 4e 7c b5 3e
       -1.42297 -1.41427 -0.747538 0.354464
000240 a9 a4 ee bd 5c 05 f1 3d d6 8d 53 bf b6 d6 8b 3f
       -0.116525 0.117686 -0.826383 1.09249
000250 34 bf 00 40 3f b0 be 3c 2e 74 e3 3b 75 04 08 bf
       2.01167 0.0232774 0.00694134 -0.531318
000260 d8 d4 d1 3e ec 69 37 3e 81 ec 9d bf 6e dd 89 bf
       0.409827 0.179115 -1.23378 -1.07707
000270 1a 19 54 3e 86 ff 99 3c 66 86 6d 3e 6b 0f 63 3f
       0.207127 0.0187986 0.231958 0.886954
000280 a5 f4 0c 3e 3a ae 12 bf a6 5f 82 3e fc 2a 0c 3c
       0.137652 -0.572971 0.254636 0.00855517
000290 a1 65 19 3f a5 a4 27 3e 4e 64 86 be 26 8d 49 bf
       0.599207 0.163714 -0.262484 -0.78731
0002a0 57 d8 02 bd a8 70 64 3d 93 e2 53 3e 31 0a 5e bf
       -0.0319446 0.0557715 0.206919 -0.867343
0002b0 e7 3c 3e 3c 4f cb 4d bb 48 37 02 be d3 f6 1f be
       0.0116112 -0.00314017 -0.127164 -0.156215
0002c0 c3 81 90 bf cc 24 4a 3e 0c 74 0d be 54 00 c4 be
       -1.12896 0.197406 -0.138138 -0.382815
0002d0 e6 03 02 3e 7e 39 d3 bd 2d ec 19 bf 67 0c 63 3e
       0.126968 -0.103137 -0.60126 0.221727
0002e0 ea 22 b5 3e e6 45 81 3c 30 64 95 bf 63 29 9a 3e
       0.353782 0.0157804 -1.16712 0.301097
0002f0 0f 2a 89 3e 81 0a e7 3e a5 22 1f bd af d4 9e 3d
       0.267899 0.451252 -0.0388514 0.0775541
000300 6c 5e b5 3e e5 0a 97 be 58 2e 04 bc 11 1d 3a 3f
       0.354236 -0.295005 -0.00806769 0.727006
000310 11 e1 ff bd fd f6 ad be 77 da aa be 68 58 ec 3d
       -0.124941 -0.339775 -0.333698 0.115403
000320 7d e8 f2 bf f2 08 1e 3f af 60 17 bf a6 28 17 3e
       -1.89772 0.617324 -0.591319 0.147616
000330 47 ac ad 3f 2e 04 85 3f 74 31 7c bd b2 0e bf be
       1.35682 1.03919 -0.0615706 -0.373159
000340 cf 0a 31 3d 2e 8d af be 52 27 58 bf c3 f4 51 3f
       0.0432232 -0.342874 -0.84435 0.820141
000350 0a eb 50 bd 9e 08 06 bf f2 d1 4e bf 86 92 a9 3d
       -0.0510054 -0.523569 -0.807891 0.082799
000360 21 ce 23 3d 92 cc 7e 3f 69 8f c7 3e 81 96 5e 3e
       0.0399915 0.995309 0.389766 0.217371
000370 09 3c cb bc 4b c8 e7 3d c0 0e 35 bb 87 1a cd 3e
       -0.0248089 0.113175 -0.00276272 0.400593
000380 d2 fb 92 bf 1e 6f fa 3e c0 26 a3 3f de 5a 26 3d
       -1.14831 0.489129 1.27462 0.040614
000390 29 49 8d bc 36 e6 ed 3e a7 ad 41 be 5f 7e 07 be
       -0.0172468 0.464647 -0.189139 -0.132318
0003a0 d4 f0 21 3f 49 14 06 bf a1 a3 f5 be 2c 9b 49 be
       0.632581 -0.523747 -0.479764 -0.196881
0003b0 7d 58 5f be fe 65 bf be 80 28 28 be 2b a1 fb be
       -0.218111 -0.373825 -0.164217 -0.491464
0003c0 89 7e 9d 3e e3 d0 91 3c cc 44 a9 be 29 92 0f 3f
       0.307606 0.0177998 -0.330603 0.560824
0003d0 1b 57 52 3d 4e d2 50 bf 29 e9 31 3e 19 aa f2 3e
       0.0513526 -0.815709 0.173741 0.473954
0003e0 47 71 4a 3f 94 fb ad be
       0.790791 -0.33981

Operation_1_Add_B f4 [50]
000000 56 4a 1f bf ad 88 3a bf 06 82 e0 bd 6e fa 13 3f
       -0.622228 -0.728648 -0.109623 0.57804
000010 9a 7d 1e 3e 8e 05 19 bf 59 fb d3 be 73 84 6c bd
       0.154776 -0.597741 -0.414027 -0.0577435
000020 86 c9 c4 be 7c d1 fe bd b3 ed d4 bd df a6 cf be
       -0.38435 -0.124423 -0.103969 -0.40557
000030 98 2f 0f 3e 4e b7 a4 be e4 67 8b be 29 75 6e bd
       0.13983 -0.321711 -0.272277 -0.0582172
000040 bb 1c a0 3d fa 7a 1e 3e 25 02 85 be 63 f0 60 be
       0.0781798 0.154766 -0.259782 -0.219667
000050 bf e7 11 bd d6 6e 93 be c3 cc 28 bd 8a af a6 be
       -0.0356214 -0.287955 -0.0412109 -0.325558
000060 3e 7b 02 bf 51 c0 f6 be 2e ea 6e 3d 00 d5 ae bd
       -0.509693 -0.481936 0.0583288 -0.0853672
000070 3e ae 2d be 14 5e 72 3e fb 6e 94 bd ac 80 2c 3d
       -0.16961 0.236687 -0.0724773 0.0421149
000080 f6 5e fc 3d 55 14 0f 3e 5b 3f ad be a9 09 4c bd
       0.123228 0.139726 -0.338374 -0.0498139
000090 99 61 fb be da bb 10 bd e0 9e 9f be 19 76 14 3b
       -0.490979 -0.0353354 -0.311759 0.00226534
0000a0 c2 4d 12 bf fe 9e 93 3d 97 35 56 bd 62 68 75 3e
       -0.571499 0.0720806 -0.0522972 0.239656
0000b0 18 5d 72 3f 8b c6 85 bd 28 45 f3 be 7b 87 07 bf
       0.946733 -0.0653201 -0.475137 -0.529411
0000c0 8f 70 ca be e7 38 07 be
       -0.39539 -0.132053

Operation_2_MatMul_W f4 [50, 50]
000000 9c 33 c6 bf 77 d8 cc be 73 a9 80 3c f8 df 5a 3e
       -1.54845 -0.400089 0.0157058 0.213745
000010 17 bc 9c bf 13 d7 d1 bd ae b9 43 bd 87 e1 c3 3e
       -1.22449 -0.102461 -0.0477845 0.38258
000020 bb b6 77 bf f1 9b 82 be 28 5b 89 bc d5 95 df bf
       -0.967632 -0.255096 -0.0167671 -1.74676
000030 eb a8 8a bf b6 61 98 ba 6d d7 15 bd f3 73 93 be
       -1.08328 -0.00116258 -0.0365824 -0.287994
000040 a7 e8 6c 3f 13 d7 b1 3d 51 66 93 bf 15 ac 59 bf
       0.925425 0.086836 -1.15156 -0.850282
000050 a7 79 97 3f 84 4b 67 3f 55 32 d0 be f0 69 3e bf
       1.1834 0.903496 -0.406634 -0.743804
000060 04 be 0c 3d b0 fe d3 3f 4c 1a 33 3f 26 6f 50 bf
       0.0343609 1.65621 0.69962 -0.814196
000070 f7 90 10 3e ba 49 b4 3f 87 f9 b6 3f ed d2 d6 3e
       0.141178 1.4085 1.42949 0.419578
000080 b2 fc 4f 3d 84 29 3e 3f 70 d1 75 3f 54 35 81 3c
       0.0507781 0.742821 0.960227 0.0157725
000090 ef a1 af bb 26 a6 1b 3f 51 44 90 3d 30 d6 9a 3a
       -0.00535988 0.608004 0.0704428 0.00118131
0000a0 7c 27 16 3e 0d 6f 32 3f 5b 43 11 bf 4a 8e 65 bd
       0.146635 0.697007 -0.567434 -0.0560439
0000b0 25 74 8f 3e 2f 17 31 3e bb d6 de 3d 42 d3 ed bc
       0.280183 0.17294 0.108808 -0.0290314
0000c0 c0 ec 6e be e9 47 9b 3e 4b 03 2b bf d8 9d 5a bf
       -0.233325 0.303283 -0.668019 -0.853971
0000d0 fc 77 18 bd 03 cf 0d 3e 4d 15 22 c0 87 20 bd 3c
       -0.0372238 0.138485 -2.53255 0.0230868
0000e0 21 3f 97 3a 32 72 52 bf 04 ff b3 bf 91 76 08 bd
       0.00115392 -0.822055 -1.40622 -0.0333162
0000f0 59 74 c6 bc 49 49 47 bf cb 9f bf 3e e7 a0 95 3c
       -0.0242254 -0.778462 0.374266 0.0182652
000100 d3 4a 26 3d a4 34 5b 3f 00 69 07 bc e2 9b 9c 3c
       0.0405987 0.856272 -0.00826478 0.0191173
000110 5b 24 bd be 53 79 1f c0 a3 cd 89 be 12 50 59 bf
       -0.369418 -2.49178 -0.269147 -0.848878
000120 da 20 bb 3f 18 95 ac be 6a 3b bf bb 72 6d 24 c0
       1.46194 -0.337075 -0.00583594 -2.56918
000130 b1 6b 3b be ce 17 5b be 1d e9 44 3f 8f e4 c2 3f
       -0.183028 -0.213958 0.769182 1.5226
000140 42 ec c8 bf 32 59 b4 be bd 29 9b 3c c9 3c ee 3f
       -1.56971 -0.352243 0.0189408 1.86123
000150 81 22 66 3e b4 4c 10 bd a0 71 3c bc 92 ae 19 3e
       0.224741 -0.0352294 -0.0115017 0.15008
000160 a7 58 a5 be 53 03 4d 3c db 8a 85 bf 68 23 1f 3f
       -0.322942 0.012513 -1.0433 0.621634
000170 29 5f 30 be 5c ad 53 bd 45 2c a2 be 44 a8 c2 bf
       -0.172238 -0.051679 -0.316744 -1.52076
000180 be 30 b1 3f 6d a3 2b 3d 11 35 b6 3c c4 b1 a2 bf
       1.3843 0.0419039 0.0222421 -1.27105
000190 86 c5 6d 3d 1f 2b 7c 3f 35 62 01 bc c1 04 c9 bd
       0.0580497 0.985033 -0.00789695 -0.0981536
0001a0 9a 08 19 c0 78 5e 6e 3f 70 76 d0 bc 43 e4 f4 bd
       -2.39115 0.931129 -0.0254471 -0.119576
0001b0 af d1 26 3f 4b 58 6b 3e 2c f7 9b 3b b3 0c 15 bf
       0.651637 0.229829 0.00475969 -0.582225
0001c0 ed d6 62 3e d4 52 2f 3c 29 71 02 3d 61 6c 21 bd
       0.221523 0.0107009 0.0318462 -0.03941
0001d0 b7 96 89 be e8 fa 7e be 6e a1 5b be 09 33 65 3f
       -0.268728 -0.249004 -0.214483 0.89531
0001e0 af 7b 13 bf 53 ae 75 bd 04 3b c6 3e 3b c6 85 be
       -0.576106 -0.0599807 0.387169 -0.261278
0001f0 29 f8 b7 bc 57 24 72 3f 2d 22 2a 3e e7 d2 be 3d
       -0.0224572 0.945867 0.166146 0.0931757
000200 a3 22 56 3f b2 d7 0d c0 d4 f0 fd be 93 e2 8b be
       0.836466 -2.21629 -0.495978 -0.273213
000210 da 9e 4a bd d2 00 32 bf e1 07 ff be aa 4c 0c 3d
       -0.0494679 -0.695325 -0.498107 0.0342528
000220 db ec d9 bc 11 37 07 3f 7d ce 8d 3e e9 7e a6 3e
       -0.0266022 0.528184 0.276966 0.325187
000230 1e fe 0e bf 33 c9 63 bd b9 33 d3 3d d8 ef 2e bc
       -0.558565 -0.0556118 0.103126 -0.0106773
000240 d8 d7 ba be b0 e6 f8 be 22 a9 ed 3e b5 dd 04 3d
       -0.364928 -0.486135 0.464181 0.032438
000250 e2 cc b3 3f 9b 86 11 3c e8 a2 11 3e 8a 2c c8 bc
       1.40469 0.00888219 0.142223 -0.0244353
000260 c8 9a 6c bc 92 3d 82 3e 0a a0 58 3e 30 10 34 3e
       -0.0144412 0.254376 0.211548 0.175843
000270 22 2d ba 3c a8 e4 3c 3e ff ff 84 3d e0 67 a4 bf
       0.0227266 0.184466 0.0649414 -1.28442
000280 be 22 0e bd 78 0a 99 3e 86 24 6e bd 54 43 71 bd
       -0.0347011 0.298908 -0.0581403 -0.0589021
000290 6d 78 15 bd 0a 70 10 bd 47 74 8f be 36 46 c1 bd
       -0.0364918 -0.0352631 -0.280184 -0.0943722
0002a0 48 8a 78 3e 6b bc bf 3d e4 b1 f0 3c 86 03 61 3e
       0.242715 0.0936211 0.0293817 0.21974
0002b0 cd 05 4e 3d 5c 04 96 3e 3e a2 15 bc a1 29 60 3c
       0.0502985 0.293002 -0.00913292 0.0136818
0002c0 ee 24 92 be 40 bf 3f 3e 50 34 3f 3e ae db 7b bc
       -0.285438 0.187253 0.186723 -0.0153722
0002d0 20 9a 39 bd fa 27 ac c0 fb 0c c3 bc ed 62 1a be
       -0.045313 -5.37988 -0.0238099 -0.150768
0002e0 02 98 19 bc df f8 5a bd be 7b d3 3a d8 ba 9c 3e
       -0.00937462 -0.05346 0.00161349 0.306113
0002f0 f8 60 63 bd d2 a8 b8 3e c2 1a 42 bd 17 4a 96 3d
       -0.0555124 0.360663 -0.0473888 0.0733835
000300 74 40 52 be 0a 2d 6b bc 60 5a 94 3e 3b c2 85 bf
       -0.205324 -0.014354 0.289752 -1.04499
000310 1c 5f 1d c0 50 46 00 3a 51 84 64 3e e4 12 07 3e
       -2.45893 0.000489329 0.223161 0.131908
000320 25 3d 4c 3e 71 5a 8c 3f b7 2c 1d bc 6d 75 79 3e
       0.199452 1.09651 -0.00959318 0.243612
000330 a5 a3 78 bf 08 02 0c bf 7e 6e 68 3c f7 72 5f be
       -0.971247 -0.546906 0.0141865 -0.218212
000340 b6 2c df be c5 1c 64 be 5d c6 ea 3a a3 79 e0 3d
       -0.435888 -0.222766 0.00179119 0.109607
000350 03 4b a4 bd 47 ff 70 bc 9a 56 6f bd ff 5d 0f be
       -0.0802212 -0.0147093 -0.0584322 -0.140007
000360 c2 a6 a6 3e bf 0d d1 be 36 e4 ff be 31 7d f7 be
       0.325491 -0.408308 -0.499788 -0.483377
000370 d6 37 c8 3e e9 a2 fc 3c 05 14 7a 3e 6f 4c ba bd
       0.391051 0.0308394 0.244217 -0.0909661
000380 c7 7d 80 bd bf 46 d2 3d f1 4b c9 bf 47 ab 82 be
       -0.0627399 0.102674 -1.57263 -0.255213
000390 e6 c9 f5 bd dd 79 aa be 2b 4d a2 3f c0 5c 0f 3f
       -0.120014 -0.332961 1.26798 0.560009
0003a0 a2 c9 cf bc bf 2c 88 3c 16 4b 51 3e 8a 27 16 bd
       -0.0253647 0.0166229 0.204388 -0.0366588
0003b0 74 89 99 bc 9c 16 6c be 9e 60 87 be 00 bb c4 bd
       -0.0187423 -0.230555 -0.264409 -0.0960598
0003c0 89 62 06 3f dd 3f bb 3d f2 4a 6d bb d8 db 41 bd
       0.524941 0.0914304 -0.0036208 -0.0473288
0003d0 52 98 47 be 3b 56 59 be 2c 82 df bd 08 e6 63 b9
       -0.194917 -0.212243 -0.109135 -0.000217341
0003e0 91 f1 80 3e 8f 8d ac bf 0d e0 11 bf 5f cf 97 bc
       0.251843 -1.34807 -0.569825 -0.0185315
0003f0 f8 f7 fe 3c 72 18 8c bd 65 fe 61 3f e5 d0 ea 3f
       0.0311241 -0.068406 0.882788 1.8345

Operation_2_Add_B f4 [50]
000000 69 3a 83 3f 4c df 0f bf b5 05 1b bc 31 eb 35 3e
       1.02522 -0.562001 -0.00946181 0.177655
000010 25 b3 4a 3f bb 28 12 bf 78 99 c4 bb bc c9 a7 be
       0.791796 -0.570934 -0.00599974 -0.327711
000020 96 79 4b bf 52 0b 45 3f bc 31 ce bc a5 2c cf 3f
       -0.794824 0.769704 -0.0251702 1.61855
000030 35 44 b5 be 0f bc 14 bc d6 63 91 bd e0 9d bc 3e
       -0.354036 -0.00907804 -0.0709912 0.368392
000040 39 9a 8b 3e ab 95 91 be e9 9b b4 be 03 22 78 3f
       0.272661 -0.284345 -0.352752 0.969269
000050 6b 82 14 40 29 07 fb 3e 50 34 af be 2d ea cb 3e
       2.32046 0.490289 -0.342196 0.398271
000060 38 ff 8a bc 01 c0 a9 3e 19 3a 86 bd 0e 4b eb 3e
       -0.0169674 0.331543 -0.0655405 0.459557
000070 0a bf 94 bf af 05 cd be 36 ca 0e 3f 5b 24 95 be
       -1.16208 -0.400434 0.557773 -0.291293
000080 dd 8e 3a bc 12 dd 07 bf 18 41 63 be 7e 9c 7a bc
       -0.0113866 -0.530717 -0.221928 -0.0152961
000090 3b 56 08 bc a3 78 95 be a9 16 01 bf b0 a9 a3 be
       -0.00832134 -0.291936 -0.504252 -0.319654
0000a0 50 c7 83 3f 9b 3d 40 bf 96 d1 e8 be 5e f1 54 bc
       1.02952 -0.75094 -0.454724 -0.012997
0000b0 27 69 1e 3e dc b8 2d bf 8b 4e 12 bf c9 fb 9d bc
       0.154698 -0.678602 -0.571511 -0.0192851
0000c0 f1 2e d7 be b0 3d 07 bf
       -0.42028 -0.528285

Operation_3_MatMul_W f4 [50, 50]
000000 cd 56 1e bf 59 fa a0 be 8f 6c 53 3c 97 39 95 3e
       -0.618512 -0.31441 0.0129043 0.291455
000010 8e eb b7 be f4 33 55 be b0 c7 f4 3e 78 d4 f8 3e
       -0.359219 -0.208206 0.478086 0.485996
000020 0a 10 bd 3e 03 42 6f bf 71 1f 81 be b6 bf 3b 3f
       0.369263 -0.934601 -0.252193 0.733394
000030 50 c5 3d bf de 90 1e 3f a4 52 7c be 70 28 a4 3e
       -0.741292 0.619398 -0.246409 0.320621
000040 5a 11 d5 3e 60 21 f3 3e d7 67 0a 3f 01 86 41 bf
       0.416148 0.474864 0.540647 -0.755951
000050 3a 4e ab bd c4 7a b3 3e 9c b8 96 3d f4 dc aa be
       -0.0836453 0.350546 0.0735943 -0.333717
000060 15 ad 0c 3f 51 4e 88 c0 f9 68 65 3f 90 f7 d6 bf
       0.549516 -4.25956 0.896133 -1.67943
000070 76 c6 37 3e ea 96 ed 3e a8 54 11 3f bf f0 ba be
       0.179468 0.464042 0.567698 -0.365118
000080 f6 23 19 bf 93 27 bf 3d c8 5d cc 3e 22 a6 9c 3f
       -0.598205 0.0933372 0.399153 1.22382
000090 3e 24 f4 3e 22 39 19 3d 94 1b a0 bc 31 ca 58 3d
       0.476839 0.037408 -0.0195444 0.0529272
0000a0 66 fa f5 3e dc 2d e9 bd cb 15 b9 3c d4 9b 51 be
       0.480426 -0.113857 0.0225934 -0.204696
0000b0 57 eb b4 3e 99 7e 71 bf f2 cd aa bf 87 df 65 bf
       0.353358 -0.943338 -1.33441 -0.897942
0000c0 01 a5 c1 3e ef ae 93 3d 59 c2 9a 3d 9a 42 cf 3f
       0.378212 0.072111 0.075566 1.61922
0000d0 5a bb 0d 3e b7 08 dc be 58 71 2a 3e 4d 7e c0 3d
       0.13841 -0.429754 0.166448 0.0939909
0000e0 2c 49 ae 3e 66 aa 56 bd 1d ae 55 be be d9 46 be
       0.340402 -0.0524086 -0.208672 -0.19419
0000f0 49 14 fa 3d 65 0a 2c bd 77 15 c6 bf 04 57 f1 3e
       0.122109 -0.0420021 -1.54753 0.471367
000100 18 5e 99 be 0b b5 ea 3f bf e2 df 3c 37 fb 13 bf
       -0.299546 1.83365 0.0273298 -0.578052
000110 53 08 54 be b7 26 dd bd e7 71 20 3f c7 29 da 3f
       -0.207063 -0.107984 0.626738 1.7044
000120 73 b8 ce be 53 06 3a 3f 20 2f bf 3d 80 58 80 bd
       -0.403751 0.726659 0.0933516 -0.0626688
000130 ef 91 4d 3e ef 8c 06 3e ec 4c f1 bf 89 29 81 3d
       0.200752 0.131397 -1.88516 0.0630675
000140 94 74 03 3d d8 e3 b4 bc 21 ea 86 3e 88 2a dc be
       0.0320936 -0.0220813 0.263505 -0.430012
000150 0e 10 8c 3e 90 88 63 40 8b e0 3d c0 c3 10 b9 3e
       0.27356 3.55521 -2.96683 0.361456
000160 8a af ce be 1e 50 9e bf 58 8d 15 bf 87 6d 17 bf
       -0.403683 -1.23682 -0.584188 -0.591515
000170 02 b7 83 bd b8 ca 5b 3f df a6 87 be 28 63 14 3f
       -0.0643139 0.858562 -0.264945 0.579638
000180 4b b1 b3 be f2 cd 50 c0 36 5b 69 3e d1 20 05 3f
       -0.350962 -3.26257 0.227887 0.520032
000190 25 f7 85 bb 77 27 44 3c 06 0d 3d 3d 13 6f 53 bc
       -0.0040883 0.0119723 0.046155 -0.0129049
0001a0 d5 6a 3e bd ed ab a1 3c 8b 9f ce bb 8b 6f 48 bd
       -0.0464886 0.0197353 -0.00630564 -0.0489345
0001b0 89 86 bb bc 42 7c bb bc 37 3a 42 bd 99 73 ba 3b
       -0.0228913 -0.0228864 -0.0474188 0.00569005
0001c0 59 7d bf bc b5 98 69 bc 61 0b 2b 3d 1a 6a e4 b9
       -0.0233752 -0.0142576 0.0417589 -0.000435666
0001d0 52 0d bb 3c ab 8c d0 bc 59 11 1a 3d fc 14 2c bd
       0.0228335 -0.0254577 0.0376142 -0.0420122
0001e0 77 b4 3b 3c 9f 25 a3 bc 81 c3 35 3d 1d c8 7a bc
       0.0114566 -0.0199154 0.0443759 -0.0153065
0001f0 37 3a d5 b9 52 ab 1a bc 91 25 d8 3c b3 01 7d 3c
       -0.000406699 -0.00944026 0.0263851 0.0154423
000200 93 b2 20 bb 53 07 19 3d 70 52 62 3c a0 66 4d 3d
       -0.00245205 0.0373605 0.0138136 0.0501467
000210 67 4e 12 bd 84 19 49 bd 08 a1 0d 3d 4f c1 0b bd
       -0.0357193 -0.0490966 0.0345774 -0.0341199
000220 f9 1c 8e bb bf c3 43 3d 66 38 19 3d 25 87 99 3c
       -0.00433695 0.0477941 0.0374073 0.0187412
000230 86 34 0f bc 8a 94 26 bd d8 3f 14 3d 2e b0 22 bd
       -0.00874055 -0.040669 0.0361937 -0.0397188
000240 1f 14 6f 3b 2e f1 f4 ba 79 07 33 bd bb 62 c6 3c
       0.00364805 -0.00186876 -0.0437083 0.024217
000250 bf 1b 01 3d 86 83 ce bb 8e ad 07 3e 1d ad fa 3e
       0.0315206 -0.0063023 0.132498 0.489602
000260 18 08 8a be ff 78 a3 3f 87 b3 0d bc 70 94 00 40
       -0.269593 1.27713 -0.00864876 2.00906
000270 f8 88 06 40 a8 b3 09 bd 7f 88 3d 3f 1d 38 8b bf
       2.10211 -0.0336186 0.740364 -1.08765
000280 0e c0 72 3f 23 87 2c 3f 09 18 5d bf fd 6b 19 3e
       0.948243 0.673937 -0.863648 0.149826
000290 4c a6 c6 bf 28 b8 8c bf 5d bf 88 3f 8c 83 db be
       -1.55195 -1.09937 1.06834 -0.428738
0002a0 37 54 b0 3f f6 40 0b c0 f1 a1 38 3f 6e 50 4f 3f
       1.37757 -2.17584 0.721221 0.809821
0002b0 a8 49 8a 3d db dc e8 3f 17 d4 1f bf 5c 02 40 3e
       0.0675233 1.81924 -0.62433 0.187509
0002c0 6c 43 31 40 3e 93 0d 3f 33 1b 40 3f 11 00 8c 3e
       2.76974 0.553028 0.750415 0.273438
0002d0 e1 29 04 bf c9 e6 66 bf d1 e6 f0 be 47 c8 20 3d
       -0.516264 -0.901959 -0.470511 0.0392535
0002e0 b8 e4 d4 3f e7 52 2c 40 cb b9 86 c0 7c 81 b9 be
       1.66323 2.69256 -4.21018 -0.362316
0002f0 8b 34 31 3f 17 5e ae 3c 4a 0c 8e bf de 05 7a be
       0.692208 0.0212851 -1.10975 -0.244163
000300 70 98 0c bf d7 86 2a 3f 84 f3 05 bf 93 5e 9a 3d
       -0.549201 0.66612 -0.523247 0.0753757
000310 04 e2 80 c0 16 4d e3 3f 27 f6 30 be 2c 7d 90 bf
       -4.02759 1.77579 -0.172814 -1.12882
000320 02 47 62 be 7f 13 be 3f b0 c7 2c 3f 6c 86 ca bd
       -0.220974 1.48497 0.674922 -0.0988892
000330 00 53 02 3f 43 20 87 be 48 a8 29 3f 4d bb 98 be
       0.509079 -0.263918 0.662724 -0.298304
000340 a6 7c e8 3e 50 fc f0 3e 90 a0 c8 3f 9b e2 31 bf
       0.454076 0.470675 1.5674 -0.694864
000350 da 6a b0 bd a4 fb 61 3f 54 c3 12 bf 33 c4 b9 3f
       -0.0861413 0.882746 -0.573293 1.4513
000360 ab 09 06 3f 9d 9d 20 bf de da 53 bd 35 98 0e c0
       0.523585 -0.627405 -0.0517224 -2.22804
000370 f9 a0 a7 3e b0 91 24 3f 69 a9 10 3f 3d b7 40 3f
       0.3274 0.642848 0.565085 0.752796
000380 a5 6b e6 bf 40 be bc be 2b 33 45 be dc 07 aa bc
       -1.80016 -0.368639 -0.192578 -0.0207557
000390 4e 63 03 3f 3f c6 fc 3e f8 c2 e4 bf b7 42 80 3e
       0.513234 0.4937 -1.7872 0.250509
0003a0 9f 76 90 be 9a 23 7b be 6d 73 bf 3f 91 f2 59 40
       -0.282155 -0.245253 1.49571 3.40543
0003b0 68 97 1f 3f f7 80 bf 3d 82 e7 8a bf 26 fb 03 bf
       0.623404 0.0935077 -1.08519 -0.515551
0003c0 0b 7a 37 3f 66 f7 9c bf 88 11 92 bf cd 95 51 3f
       0.716706 -1.2263 -1.14116 0.818692
0003d0 c8 5c c1 3e ec 89 66 3f 54 c6 9f c0 64 3a 24 3f
       0.377661 0.900542 -4.99296 0.641516
0003e0 53 cc 09 3f 7e 74 82 3f 4d b4 90 bc 27 ed 17 3d
       0.538274 1.01918 -0.0176641 0.0370914
0003f0 53 b3 37 3f 79 af d2 3e e4 f6 1b 3f ba 46 80 3d
       0.71758 0.411495 0.609236 0.0626349

Operation_3_Add_B f4 [50]
000000 6a a3 3a be fd 33 1f 3f 67 0a 9d 3f 00 53 c6 3e
       -0.182264 0.621887 1.22688 0.387352
000010 c2 51 0c c0 80 9e ae be 1a a8 08 c0 4c fe 27 bf
       -2.19249 -0.341053 -2.13526 -0.656224
000020 fa f2 9a bf 57 09 96 3e f8 36 91 bf 13 d5 09 c0
       -1.21054 0.29304 -1.13449 -2.15363
000030 f4 1a bb be 77 68 78 bf 79 93 8f 3e c0 26 13 bf
       -0.36544 -0.970344 0.280422 -0.57481
000040 2f dc 21 bf 74 29 66 3f 81 ec 0d c0 ed 64 9c 3f
       -0.632266 0.89907 -2.21756 1.22183
000050 cf 66 bd bf bc 59 f3 be 5f 28 64 bf 29 5c 6f c0
       -1.4797 -0.475294 -0.891241 -3.74
000060 47 03 d4 bf e5 7b ae 3e aa 7d 00 40 b6 69 97 bd
       -1.65635 0.340789 2.00767 -0.0739321
000070 4a 07 3d c0 54 e1 f7 be 50 c8 5e 3e b5 51 8d be
       -2.95357 -0.484141 0.217561 -0.276014
000080 35 98 28 c0 4a 95 48 bf f1 ba 52 c0 62 d6 87 3f
       -2.63429 -0.783528 -3.29266 1.06123
000090 1c ef 02 3f 67 43 4a 3f af 7c 66 3f 96 21 7e bf
       0.511461 0.790091 0.90034 -0.9927
0000a0 8d b4 98 bf ca c2 27 3f 1b f6 8b 3e dc f4 9b bf
       -1.19301 0.655316 0.273362 -1.21841
0000b0 fd 4d 84 3f bc 40 29 3e 74 b4 aa 3e 98 f1 a0 3d
       1.03363 0.165286 0.333408 0.0785858
0000c0 f0 4d f3 bd d0 ec ea 3e
       -0.118801 0.458838

Operation_4_MatMul_W f4 [50, 50]
000000 b9 fc 03 c0 78 b4 e9 3f 58 ad 74 bf 7e 8c 0b c0
       -2.0623 1.82582 -0.95577 -2.18045
000010 c6 f9 7f 3f 12 88 33 c0 78 62 00 40 3d 0c 09 bf
       0.999905 -2.80518 2.00601 -0.535343
000020 36 94 92 be 31 0c a8 be b1 4f 10 bf 6f 12 b7 3f
       -0.286287 -0.328218 -0.563716 1.43025
000030 fe 64 6c 3f 74 ef fd 3f 64 58 f1 bf e7 7d d2 bc
       0.923416 1.98387 -1.88551 -0.0256948
000040 5d 89 60 3e b6 d6 f7 3f a5 d7 2e 3f 24 0b 5a 40
       0.219274 1.93624 0.682978 3.40693
000050 05 dc f3 bd 62 82 52 bf a4 fc e0 3f b9 6c 8c 3e
       -0.119072 -0.822302 1.75771 0.274267
000060 0d c3 1f 3f 69 75 6d 3d d7 52 9b bd af d2 dd be
       0.62407 0.0579733 -0.0758416 -0.433248
000070 64 b0 06 3f cb 67 b5 3f af 08 b6 bf 64 ae fc 3e
       0.526129 1.41723 -1.42214 0.493518
000080 70 ee 1f 3f 29 5c ab 3f 75 22 1d 3f ed f0 8b bf
       0.624732 1.33875 0.613807 -1.09329
000090 c4 08 dd 3f 8b 37 0a 40 0f 28 3f c0 59 86 94 3f
       1.72683 2.15964 -2.98682 1.16035
0000a0 cf da 6d 40 91 b6 21 bf ef 1b ef 3f c8 0c 22 c0
       3.71648 -0.631692 1.86804 -2.53203
0000b0 88 f4 eb bf 07 b1 5b 3f 67 ba 17 be 51 12 32 3f
       -1.8434 0.85817 -0.148172 0.695592
0000c0 fb 22 25 3f 67 0a cd 3f 40 f9 6b 3f 1f 2e e1 3f
       0.645065 1.60188 0.921772 1.75922
0000d0 6f d4 9a be ca 34 1a bf ad 66 c2 bc 4d 32 9e bf
       -0.302402 -0.602368 -0.0237306 -1.23591
0000e0 2b de a4 3f 50 6e 6b be 04 e3 64 bf f2 d2 81 3f
       1.28803 -0.229913 -0.894089 1.01425
0000f0 3d 44 63 3e bf 0f 3b 3f 29 20 a5 3e ba f4 47 3f
       0.22194 0.730709 0.322511 0.781078
000100 9c 30 55 bf b0 7d b7 bc 01 13 68 be 3b 72 14 3e
       -0.832773 -0.0223988 -0.226635 0.144967
000110 67 0f 9c bf 79 cb 25 3e 9c 60 89 bc 48 a9 64 bf
       -1.21922 0.161909 -0.0167697 -0.893208
000120 c3 ba 01 3e 87 fb 38 3e 6e 51 ae be d8 0d 87 3f
       0.126689 0.180647 -0.340465 1.05511
000130 7e 52 0d bf e0 bd 43 3e 6b 0d dd be 92 75 c0 be
       -0.55204 0.191154 -0.431743 -0.375897
000140 fa 7a 0a bf 69 d0 86 ba 04 2e 99 bd 85 24 ab 3e
       -0.540939 -0.00102855 -0.0747948 0.334263
000150 6f d3 9f bf e8 16 2e 3f a5 14 84 3f e5 7e 9f 3f
       -1.24864 0.680037 1.03188 1.24606
000160 9c a7 aa be e3 36 82 3f c3 64 c6 3f 23 f6 69 3f
       -0.33331 1.0173 1.54995 0.913912
000170 ed d3 25 3f 7e e4 b6 be d0 f2 44 bf 0b 46 35 3f
       0.647765 -0.357212 -0.76933 0.7081
000180 fa 9b 60 3e 0c 56 a4 be 77 f6 65 3e 28 d8 7a 3d
       0.219345 -0.320969 0.224573 0.0612413
000190 f8 1b 7d be c5 01 24 bf 41 83 bd bd b3 ea d3 3f
       -0.247177 -0.640652 -0.0925355 1.6556
0001a0 59 33 9a 3e df fd 1d c0 22 4f 72 3e 48 18 56 3f
       0.301173 -2.46862 0.23663 0.836308
0001b0 f0 6a 21 3f 52 63 56 3f 85 07 5d be 1b 80 dd 3e
       0.630538 0.837453 -0.215849 0.432618
0001c0 6a c2 51 bc 6b 29 30 3e 98 32 f0 bd 17 fb 05 bc
       -0.0128027 0.172033 -0.117284 -0.00817754
0001d0 91 80 a9 be 87 e5 aa 3c 24 0b a4 3f 74 98 0b 40
       -0.331059 0.0208614 1.28159 2.18118
0001e0 31 91 a7 bd 7b 67 34 be 6e 50 13 3f ba 66 7e bf
       -0.0818199 -0.176176 0.575446 -0.993755
0001f0 8a 73 d4 3d 38 32 e3 bf 1a 17 ee be 22 54 c5 bf
       0.103736 -1.77497 -0.46502 -1.54163
000200 21 8f 80 3e 31 b1 e5 3f cc 60 0c 3e 47 92 08 3f
       0.251092 1.79447 0.137088 0.533482
000210 9c 88 4e 3f 7d 75 21 bf 19 e7 af 3e 4c e2 2c bf
       0.806772 -0.630699 0.34356 -0.675328
000220 23 a1 b5 3f a7 40 0a bf b6 80 74 bf d9 cf 7a 3f
       1.41898 -0.540049 -0.955089 0.979734
000230 53 d3 89 bd c1 6e 84 bf 3e 78 41 bf 3e 5e f8 3e
       -0.0672976 -1.03463 -0.755741 0.485094
000240 4d a1 13 3e 23 84 87 3e 4f cc 02 bf 55 f6 9d bf
       0.14417 0.26468 -0.51093 -1.23408
000250 49 13 2f bf 62 ba 00 3f 26 ac d5 be 1e 1b f9 3f
       -0.683888 0.502844 -0.417329 1.94614
000260 f2 07 f7 bf 87 6d d7 3f 43 03 61 3e fb 3f df bf
       -1.92993 1.68303 0.219739 -1.74414
000270 ac e2 c5 bf 80 ef 86 3e fe f1 fa 3f 54 3a 88 40
       -1.54598 0.263546 1.96051 4.25712
000280 16 c0 40 bf 08 55 ea bf 24 f1 0a 3f 42 76 7e 3e
       -0.752931 -1.83072 0.542742 0.248498
000290 65 71 a7 3e 13 43 15 bc 8a 5a 7a 3e 9c c4 40 3e
       0.327037 -0.00911023 0.244486 0.18825
0002a0 75 c8 03 40 16 de b5 3f 2b 82 b4 bd 3f 1e ea 3e
       2.05911 1.42084 -0.0881389 0.457262
0002b0 6a 89 55 3f 9b 03 c4 3f 5a 64 db 3d 05 86 46 40
       0.834128 1.53136 0.107125 3.10193
0002c0 d8 b4 b7 bd 18 3e a2 bf b3 cd 91 bf 7d cb d0 3f
       -0.0897004 -1.26752 -1.13909 1.63121
0002d0 fa 26 85 3e ef 3b 76 3e 4e 62 02 40 ab 59 8c bc
       0.260063 0.240463 2.03725 -0.0171326
0002e0 d1 ae 3e 3f 61 8e d2 bf b2 11 c0 3f 76 fc 97 be
       0.744855 -1.64497 1.50054 -0.296848
0002f0 d1 c1 84 bd c7 4b 9f 3f 9f b0 18 40 7d ec 2e 3e
       -0.0648228 1.2445 2.38578 0.170824
000300 23 15 14 40 d3 31 87 3e d4 b7 b4 bf aa ab cc 3d
       2.31379 0.264052 -1.41186 0.0999368
000310 31 28 1f bf 22 72 0a 3e c3 b6 95 3f ba da aa 3f
       -0.621707 0.135201 1.16964 1.3348
000320 a4 df 16 c0 b2 80 07 40 a3 58 e2 3f 1a 30 38 3e
       -2.3574 2.11723 1.76833 0.179871
000330 47 c6 8a 3e b1 e1 1f 40 e9 0e 82 3f 35 0c ef 3f
       0.271044 2.49815 1.01608 1.86756
000340 5d e1 e9 3f d9 25 f2 3f c2 6a 78 3f 0b f0 29 bf
       1.82719 1.89178 0.970379 -0.663819
000350 4f 40 83 3f cc 62 a2 3f d3 a5 9f 3e b9 36 94 3c
       1.0254 1.26864 0.311812 0.0180925
000360 f4 c4 a3 3e 5b d1 6e bf 69 51 ff bd 4c 6b 8b be
       0.319862 -0.932882 -0.124667 -0.272303
000370 c1 58 5f be 9e ea 3c 3f 8e 92 a7 3f c6 8a e2 3f
       -0.218112 0.737955 1.30916 1.76986
000380 9c a5 58 3f ba 66 72 bf d4 43 a8 3f 64 3a f4 be
       0.846277 -0.94688 1.31457 -0.477008
000390 35 0b bc 3e d4 0b 3e 3f ff 09 3a bf 64 af 7f bf
       0.367273 0.742368 -0.726715 -0.99877
0003a0 dc 0b 51 3d 0a 2d 33 3f 8d f0 12 bf 54 60 c7 bd
       0.0510367 0.699906 -0.573983 -0.0973517
0003b0 5d bf 94 3f aa 52 a9 3c 71 c9 f1 be 86 f0 5e 3d
       1.16209 0.0206693 -0.47224 0.0544286
0003c0 37 c3 95 bf 60 cc 0e 3f 54 00 cc be 32 20 d3 3e
       -1.17002 0.557806 -0.39844 0.412355
0003d0 7d b3 a9 bf 0d 71 a4 bf 48 50 fc bf 40 a4 8b 3f
       -1.32579 -1.2847 -1.9712 1.09095
0003e0 c4 7c b9 3f 86 93 18 3f 1a c0 1b c0 28 d5 92 bf
       1.44912 0.596001 -2.4336 -1.14713
0003f0 0e 10 dc 3e 85 7c ac 3f b4 ef 85 bd c3 0d 4c 3f
       0.42981 1.34755 -0.0653986 0.797085

Operation_4_Add_B f4 [50]
000000 3f c6 64 bf e5 ec 3d 3e 1f ba e8 bf f9 66 35 40
       -0.89365 0.185474 -1.81818 2.83441
000010 4d a1 87 bf bc 3f bc c0 1f 68 13 c0 b8 03 49 bf
       -1.05961 -5.88278 -2.30323 -0.785213
000020 94 bc 06 c0 a5 83 2d c0 18 43 fd 3f 06 81 81 bf
       -2.10526 -2.71116 1.97861 -1.01175
000030 84 0d 33 40 f1 f6 50 3e 7c ba c2 be 4f 16 c6 bb
       2.7977 0.204067 -0.380329 -0.00604514
000040 10 b0 76 3d c9 8e 72 bd 34 85 a5 40 cf bd c7 3f
       0.0602265 -0.0592182 5.17251 1.56048
000050 64 3b bb 3f 68 5c 28 c0 66 4e d3 3f 12 4e 17 c0
       1.46275 -2.63064 1.65083 -2.36414
000060 d4 49 16 3e 76 a6 cc bf 1e 43 86 bd 5d 16 27 c0
       0.146766 -1.59883 -0.0655577 -2.61074
000070 f8 fc 04 40 93 6f a2 bf 78 63 31 be 99 f0 65 40
       2.07794 -1.26903 -0.173231 3.59281
000080 41 0e 3c c0 10 06 be bf 96 26 89 3f 07 b6 a6 c0
       -2.93837 -1.48456 1.07149 -5.20972
000090 a6 d0 e1 3f 20 7b 01 c0 9c c1 0b bf 00 ae 94 bf
       1.76418 -2.02314 -0.545923 -1.16156
0000a0 2a c8 af be cf af 9c bd 46 99 37 c0 80 d4 0a c0
       -0.343324 -0.0765072 -2.86873 -2.16922
0000b0 ec 4d 0c 3d 2d 60 ad c0 e2 06 32 c0 d7 86 2c c0
       0.034254 -5.41799 -2.78167 -2.69573
0000c0 de ab d2 bf b7 bf 29 bd
       -1.64587 -0.0414426

Operation_5_MatMul_W f4 [50, 50]
000000 0b 1d 85 3c 1c d3 fb 3f cf 84 4a 3f 23 f9 7a be
       0.0162492 1.96738 0.791089 -0.245091
000010 ed d8 04 c0 6c b4 b4 3e b2 ba cd 3f a5 bd 49 c0
       -2.07574 0.352939 1.60726 -3.1522
000020 f5 9c f9 c0 a0 a7 45 3f 95 b5 cd 3d 9a 97 cb be
       -7.80041 0.772089 0.100444 -0.397641
000030 43 03 21 be 6a df 04 bf db a3 17 3e 69 00 07 c0
       -0.157239 -0.519034 0.148086 -2.1094
000040 4a b5 69 c0 22 38 6e 3f c7 4b 9f bf 6c b2 9e bf
       -3.65169 0.930544 -1.2445 -1.23982
000050 78 53 8b 3d 43 e4 a4 3e 0e 68 61 bf 5e 0e 57 bf
       0.0680303 0.322054 -0.880494 -0.840063
000060 38 bf 31 3e 60 21 db be fb cd 10 3f c3 10 5d bf
       0.173581 -0.427989 0.565643 -0.863537
000070 87 e1 8f 3f 1d 72 cb bf e4 4e 19 be df dd 1a 3e
       1.12407 -1.58942 -0.149715 0.151237
000080 7a ff ff 3d ab 5b 5d c0 63 ec 44 3f 48 8c 7a bf
       0.124999 -3.45872 0.769232 -0.978703
000090 89 ef b4 be ab e7 a4 3e 67 0a d1 bf ef 54 18 3f
       -0.35339 0.32208 -1.63313 0.595046
0000a0 bc 91 bd bf 47 c9 b3 bf c8 24 19 c0 19 37 e5 3e
       -1.48101 -1.40458 -2.39287 0.447686
0000b0 4f 3e c5 be f0 bf 0b 40 7b 31 f0 3f 56 e5 0c 3d
       -0.385241 2.18359 1.87651 0.0343984
0000c0 09 a7 15 40 fb 3a a0 bf 02 5b ef bc 03 78 01 40
       2.33832 -1.2518 -0.0292182 2.02295
0000d0 1f 31 ba 3e 2f dd 82 c0 88 48 11 3f 3c a5 97 3f
       0.363656 -4.0895 0.567513 1.18473
0000e0 8b 37 aa 3f fa 0b 2d be 19 00 da be 78 ee a1 3f
       1.32982 -0.168991 -0.425782 1.26509
0000f0 86 38 32 40 18 22 1b 3f 64 3e 20 3f e5 98 6c 3e
       2.7847 0.605989 0.625952 0.231052
000100 c3 62 54 3e d4 60 ca 3f 72 88 38 bf 01 85 fa 3e
       0.207408 1.58108 -0.720832 0.489296
000110 dd 41 42 40 c5 8d 1b 3d 3a 3b 39 3e 24 45 b1 c0
       3.03527 0.037977 0.18089 -5.53969
000120 8a cd 15 40 31 95 2e 3e c7 4b e7 be db 89 ea 3e
       2.34067 0.170491 -0.45175 0.458083
000130 8a 93 db bd 99 2a 43 c1 4e b6 1d 3f 10 5b 7a 3f
       -0.107215 -12.1979 0.616063 0.977952
000140 82 90 2c 3f 97 ff c4 bf 71 56 74 be 9d 66 7d bf
       0.67408 -1.53905 -0.238611 -0.989847
000150 21 ea ba 3f 4d a3 05 bf 72 a7 08 3f e2 09 77 3b
       1.46027 -0.522023 0.533805 0.00376951
000160 dc 2a 40 bf 12 31 9d be f6 5e dc 3d 92 79 c8 bf
       -0.750654 -0.307015 0.107603 -1.56621
000170 fa d0 0d c0 03 ef 34 3f 8a cd 33 3f bd c6 70 40
       -2.21588 0.706772 0.702355 3.76213
000180 1c 5f 93 bf c5 37 39 bd 5c 5a dd 3f 93 c3 97 be
       -1.15134 -0.0452192 1.72932 -0.296414
000190 f2 57 6d 3c ac ad 88 3f 26 ab ba 3e 61 3b f3 bc
       0.0144863 1.0678 0.364587 -0.0296914
0001a0 46 b6 67 3f a3 5a 8c 3e dd 5e da 3f 91 61 c5 3e
       0.905125 0.274129 1.70602 0.38551
0001b0 e7 6f c2 3e 51 31 96 bf e3 18 f1 be ff e8 83 be
       0.37976 -1.17338 -0.470893 -0.257637
0001c0 a1 81 38 bd 15 90 0a bf 02 14 be 3c db dc 74 3f
       -0.0450455 -0.541261 0.0232029 0.956495
0001d0 0f 46 60 bf a9 d8 5c 3f 7b 6b 10 3e 18 08 72 be
       -0.876069 0.862681 0.141035 -0.236359
0001e0 1d 91 97 be 64 57 3a be 2c 9d 33 3f 28 2a 07 3f
       -0.296029 -0.181974 0.701617 0.527987
0001f0 e5 2b 21 be 35 60 b8 3e df 34 5d bf c4 5f 8a c0
       -0.157394 0.360109 -0.864088 -4.32419
000200 2e 71 f4 be e2 57 f4 be 48 f9 c5 bf e2 00 fa be
       -0.477426 -0.477233 -1.54667 -0.488288
000210 fa 9c cb be 30 f5 a3 be 25 41 a0 be f3 93 da bf
       -0.397682 -0.32023 -0.312997 -1.70764
000220 a2 2a 96 be a2 0d 20 3e 6e fa bb be a0 fd a4 3f
       -0.293294 0.156302 -0.367145 1.28899
000230 f0 ca c4 bd a0 6e b0 be 09 8a 75 c0 d4 d4 52 3e
       -0.0960902 -0.344594 -3.83655 0.20589
000240 69 ab 62 3e e3 04 c1 3d 08 00 ae 3e e6 ae 88 3a
       0.221357 0.0942476 0.339844 0.00104281
000250 9a ce 26 40 9c a8 e5 3e 6b 1c fb bc ed f0 05 40
       2.60636 0.448552 -0.0306532 2.09283
000260 57 e8 37 bf ba f7 f4 c0 79 5d c7 bf 6d e3 b7 3e
       -0.718389 -7.65524 -1.55754 0.359157
000270 76 34 e6 3e ac e3 7c bf ce 19 b9 bf 54 e3 45 40
       0.449619 -0.987849 -1.4461 3.092
000280 c3 2a a0 c0 93 36 21 bf 29 42 32 bf 7f c1 32 3f
       -5.00522 -0.629739 -0.696322 0.698265
000290 8e 01 e9 be 5f 7b ce 3f 27 4e a2 bf 04 73 a0 3f
       -0.45509 1.61314 -1.26801 1.25351
0002a0 5e 11 8c 3f dc b9 28 3f eb ab 0b 3f 64 af 99 c0
       1.09428 0.659086 0.545592 -4.80266
0002b0 14 77 68 3f 97 00 c4 be 9d 63 00 3e 1d 04 ad 3e
       0.908067 -0.382817 0.12538 0.337922
0002c0 b1 db 07 3f 65 aa e3 c0 98 f6 c5 3e a9 9f 15 40
       0.530696 -7.11455 0.386647 2.33787
0002d0 24 b9 78 3f 8e e9 b5 bf 9e 0b 23 3f 7b 14 ae 3f
       0.971575 -1.42119 0.636896 1.36
0002e0 21 e4 a1 3d f6 ec 39 3f 6e 87 f6 3e a1 64 12 be
       0.0790484 0.726272 0.481502 -0.142962
0002f0 44 17 14 c0 b3 ee 7f 3f 93 c6 1c 40 52 7e 85 c0
       -2.31392 0.999736 2.44962 -4.17167
000300 b6 2d ce c0 66 bf be 3e 71 20 80 bf 35 28 82 3e
       -6.44308 0.372554 -1.00099 0.254213
000310 fd 30 4c c0 cb b1 06 3d 24 42 77 3f 68 5d 13 be
       -3.19049 0.0328844 0.965853 -0.143911
000320 56 e3 db bc e4 9e 32 bf 7d 5c ef bf be 87 eb bf
       -0.0268418 -0.697737 -1.87001 -1.84008
000330 83 89 9f 3e 2d f6 4d 3d a7 cb 4e 40 62 83 59 3f
       0.311596 0.0502836 3.23118 0.849661
000340 85 42 8c bf 8c 4b 55 3d 9f 76 0a 40 63 27 7c 3e
       -1.09578 0.052074 2.16349 0.246244
000350 5a 4b 75 3f 3a e7 b7 3e 26 80 6c 3d e4 f7 16 40
       0.958181 0.359186 0.0577394 2.35888
000360 23 10 ff bf 21 e6 12 3f 35 25 89 3e e7 33 c5 3d
       -1.99268 0.573824 0.267862 0.0962904
000370 16 fc 46 be c1 c5 12 c0 68 ca 1a 3f 3e b3 78 c0
       -0.194321 -2.29332 0.604651 -3.88594
000380 c2 dd 39 bf 00 e1 03 be dc 47 6a bf 5e 2c a4 3e
       -0.72604 -0.128788 -0.915159 0.320651
000390 db f8 23 3f 26 00 a7 3e 9e 27 22 3f 7e 53 68 be
       0.640516 0.326173 0.633417 -0.226881
0003a0 1f f8 04 bf 14 96 1c bf ea 65 2a 3d 1c d3 0b 40
       -0.519411 -0.611665 0.0416011 2.18476
0003b0 c2 2f 05 c0 38 a3 3a 3f a3 76 77 bf 67 7b 08 3f
       -2.08104 0.729053 -0.966654 0.533133
0003c0 a9 de 9a 3f 25 3b 02 c0 bc 74 06 c1 a5 31 ca 3f
       1.20992 -2.03486 -8.4035 1.57964
0003d0 e1 09 71 3f 3c 88 27 40 43 ac 22 3f 6e 45 4c bd
       0.941557 2.61769 0.635441 -0.0498709
0003e0 9e d2 81 40 3c f7 42 3f 9f d3 a2 bc 0a 68 7a c0
       4.05696 0.761585 -0.0198763 -3.9126
0003f0 57 ea b9 3d a7 ae 1c 40 aa 2d d0 bc 86 c9 98 bf
       0.090779 2.44816 -0.0254124 -1.19365

Operation_5_Add_B f4 [50]
000000 8f 83 9c bc c9 8e ad 3f 2e ad 36 bf be 93 05 c1
       -0.0191057 1.35592 -0.71358 -8.34857
000010 78 97 c7 bf 69 3a 17 40 e5 43 04 3f 26 c5 ef 3e
       -1.55931 2.36294 0.516661 0.468301
000020 6d e5 85 be 10 58 6d 40 c0 eb 63 bf d1 ef d6 bc
       -0.261516 3.7085 -0.890316 -0.0262374
000030 be 31 44 3e b3 ef ae 3f a9 d9 19 40 8c f3 0b 40
       0.191596 1.36669 2.40391 2.18674
000040 dc bd 44 bf 29 75 a1 3e b9 70 60 bf 53 d0 c9 bf
       -0.768522 0.315347 -0.87672 -1.57667
000050 f9 10 30 3f b9 70 a2 c0 55 15 7a 3f 96 cc 79 bf
       0.687759 -5.07626 0.976888 -0.975778
000060 1a 6e e4 3f 7e 52 86 40 da 03 dd bf 03 78 f7 bf
       1.78461 4.19757 -1.72668 -1.93335
000070 54 e3 b9 bf ac 8f 97 be 29 96 71 c0 ff 20 42 be
       -1.45225 -0.296018 -3.77479 -0.189579
000080 26 fc 86 3f 46 08 ef bd 64 e9 19 40 5e d7 90 40
       1.05457 -0.116715 2.40487 4.52629
000090 09 fe 25 40 a2 ee 57 40 ab 95 f9 3f a0 89 1e c0
       2.59363 3.37394 1.94988 -2.47715
0000a0 ba 6b b7 c0 09 a7 91 3f 81 cf 1f c0 41 bc 3e 40
       -5.7319 1.13791 -2.49704 2.98024
0000b0 7b 30 29 bf 97 39 63 40 72 fe 46 c0 27 a3 8a be
       -0.660896 3.55039 -3.10928 -0.270776
0000c0 78 7a 11 40 8d 45 bf bf
       2.2731 -1.49431

Operation_6_MatMul_W f4 [50, 50]
000000 37 8e b3 3c 50 8a 96 3c ce e0 ef bc 2f 1f 44 bd
       0.0219184 0.0183765 -0.029282 -0.0478813
000010 57 4d c6 3c 7e 0a d7 3b c2 df ca 3c f3 54 c7 bc
       0.0242068 0.00656253 0.0247649 -0.0243325
000020 c8 d4 18 bd 9f 00 af 3c 25 fb b1 bc c9 2c 11 bd
       -0.0373123 0.0213626 -0.0217262 -0.0354431
000030 9f 0a d3 bc 24 0a 8c bb 55 ba 20 3d d3 a5 7f 3c
       -0.0257619 -0.00427367 0.0392402 0.0156035
000040 6e 7a 26 bd 15 d7 02 3d 27 1c 10 bd a7 40 06 3d
       -0.0406441 0.0319434 -0.0351831 0.0327765
000050 61 fa 03 3d 7a 4e 9f bc 39 19 2b bd 3d e7 38 3d
       0.0322212 -0.0194466 -0.0417721 0.0451424
000060 1e fb 19 3d ea 50 38 3b 36 22 d6 3a 0a b1 04 bd
       0.037593 0.00281244 0.00163371 -0.0323954
000070 25 0e f4 3c e5 a2 f5 3c 15 34 d2 3c 84 9f b8 bc
       0.0297919 0.0299849 0.0256596 -0.022537
000080 f7 45 38 bd 5f 82 2e bd d9 a2 fd 3b 1a 54 36 3d
       -0.0449886 -0.0426048 0.00774036 0.0445138
000090 7f 9f 56 bd 8c 31 cb 3c c2 53 63 bd 59 27 ba ba
       -0.0523982 0.0248039 -0.0554998 -0.00142024
0000a0 8f b6 00 bd b6 af 30 bb 68 2e 06 3d 86 98 80 ba
       -0.0314241 -0.00269602 0.0327591 -0.000981108
0000b0 46 9a 58 3d 0a 8c eb bc 17 72 9b bc 31 bd 92 3b
       0.0528815 -0.0287533 -0.0189753 0.00447812
0000c0 39 42 46 bd 94 33 d2 3b 82 42 e4 39 d4 91 0d bd
       -0.048403 0.00641484 0.000435371 -0.0345629
0000d0 f4 a3 21 3d c5 38 9b 3f ca 32 40 bf c1 14 0f bd
       0.039463 1.21267 -0.750775 -0.0349319
0000e0 7f 03 09 bd 38 30 81 3e f2 24 9d 3f f2 d2 bd bf
       -0.0334506 0.252321 1.22769 -1.483
0000f0 af eb 93 3f 74 d0 b5 3d 37 e0 51 c0 f5 ba 45 3e
       1.15563 0.0887765 -3.27931 0.193096
000100 7d 09 25 3f 75 e5 df bf ac ff 63 be 2a 8c f9 3f
       0.644676 -1.74919 -0.222655 1.94959
000110 c0 3f 51 3f c1 56 c5 3f b1 a3 5d bf 46 b5 f8 3e
       0.817379 1.54171 -0.865779 0.485758
000120 98 74 9a bd 07 7e 00 3f f2 96 4b bf d6 df 37 3b
       -0.0754177 0.501923 -0.795272 0.0028057
000130 a3 31 83 bb 8d 97 34 c0 db 51 5c 3e 78 5e 06 3f
       -0.00400372 -2.82175 0.215156 0.524879
000140 5a d9 2e bf ec 8a 59 3f db 16 95 bf 37 e0 ff bf
       -0.683004 0.849776 -1.16476 -1.99903
000150 d2 a6 7e bf 54 1d de bf 93 fe de 3c 4c 89 60 bf
       -0.994733 -1.73527 0.027221 -0.877095
000160 12 88 05 c0 8e 21 e0 be c9 ac de 3d 19 73 3b 3f
       -2.08643 -0.437756 0.108728 0.732225
000170 72 a7 c4 bf 1a 41 b4 3d 00 74 e4 3f f7 30 85 3c
       -1.53636 0.0880148 1.78479 0.0162587
000180 bb 48 11 3e 24 7f 88 bf 08 22 eb 3e c7 68 b9 3f
       0.141879 -1.06638 0.459244 1.44851
000190 bb e9 a8 39 c4 42 2d 3f 9d da 81 be 29 ed 21 40
       0.000322176 0.6768 -0.253621 2.5301
0001a0 7d 92 63 3f c6 36 89 be 4f af 9c bf 37 a6 59 c0
       0.888954 -0.267996 -1.2241 -3.40077
0001b0 de 20 12 3f e9 27 00 bf 44 6e 0a 3f c7 d7 7c c0
       0.570814 -0.500609 0.540745 -3.95067
0001c0 67 d3 7d 3f 16 51 4e bd 24 7f dc 3f 07 42 be bf
       0.991507 -0.0503703 1.72263 -1.48639
0001d0 4c fd 12 40 96 95 34 40 ee 5a 0c 40 3e 79 56 40
       2.29671 2.82163 2.19305 3.35115
0001e0 f6 ef 06 bf f2 b5 f3 bf b4 93 e1 3d 59 8b f3 3f
       -0.527099 -1.90399 0.110145 1.90269
0001f0 23 10 83 bf 79 99 3c bb 7f 6a 0c 3f 06 2a c7 3f
       -1.02393 -0.0028778 0.5485 1.55597
000200 0b 46 11 40 46 b6 92 40 63 41 f9 be 17 9a 15 c0
       2.2699 4.58475 -0.486827 -2.33753
000210 ad 4c 3c bf 1e fe 5c c0 d2 35 1d c0 aa b7 8e bf
       -0.735545 -3.45301 -2.45641 -1.11498
000220 2f ab cb bc 58 8c 6a 3f 00 1d 9a bf 80 10 39 3f
       -0.0248619 0.916204 -1.20401 0.722908
000230 b1 14 0e bd ac 90 b7 c0 2e 59 dd 3e 83 a5 46 bf
       -0.0346877 -5.73641 0.432321 -0.775963
000240 88 f4 ef 3f 4c 34 2b 3b 3f e2 2b 3f bb 97 5b be
       1.87465 0.00261237 0.671421 -0.214446
000250 a3 92 fa bf c3 0d 7c 40 a8 56 df be e1 40 9c bf
       -1.9576 3.93834 -0.436208 -1.22073
000260 91 ba bd bd f8 fc c0 bf 19 58 27 3d b0 8c dd be
       -0.092641 -1.50772 0.0408555 -0.432714
000270 25 06 ed bf a6 30 4a 3c cd 58 60 bf a5 66 07 c0
       -1.85175 0.0123407 -0.876355 -2.11564
000280 e4 bf 34 bf 9b 3d 98 bf 63 7f 09 c0 6c 21 c0 bf
       -0.706053 -1.18938 -2.1484 -1.50102
000290 43 20 2f bf 8b 54 84 c0 f3 3c b4 bf 90 6b 8f bf
       -0.684086 -4.13532 -1.40811 -1.12047
0002a0 84 f3 91 be 29 77 4b bf 48 c1 fb 3e fa 2a 65 bf
       -0.285061 -0.794787 0.491709 -0.895187
0002b0 26 36 97 c0 97 ff d0 bf 73 65 90 be ac 50 c9 bc
       -4.72536 -1.6328 -0.282024 -0.0245746
0002c0 0b 2f 9c 3d c5 55 ad bf 17 48 18 c0 38 32 af bf
       0.0762616 -1.35418 -2.3794 -1.36872
0002d0 d6 8b 61 be b2 9f 95 3e 4c 8e 51 c0 5b 42 4c c0
       -0.22026 0.292234 -3.27431 -3.19155
0002e0 df 1a e4 bf ad dd 1e bf f2 78 da bd 05 fd 55 3e
       -1.78207 -0.62057 -0.106676 0.208973
0002f0 9a 7c 87 bf a9 6c 28 bf 05 87 97 be 92 5c 6e be
       -1.05849 -0.657908 -0.295952 -0.232775
000300 c3 f1 50 bf 85 ce ef bf 19 e4 52 bf 2c 2f 37 bb
       -0.816189 -1.87349 -0.823793 -0.00279517
000310 2b 4d 7a 3e 11 aa a4 bf 5c 77 eb 3e db fc bf be
       0.244435 -1.28644 0.459895 -0.374976
000320 f5 b5 d3 3b 26 1b ff 3e 34 d5 9b 3e dc d7 d9 3f
       0.0064609 0.498254 0.304361 1.7019
000330 ac fd 3d 3e 2c 88 5c bc 91 d0 28 c0 3a 79 41 bf
       0.185538 -0.0134602 -2.63773 -0.755756
000340 38 86 34 bf 38 bf d1 be d5 78 0f c0 c0 26 96 c0
       -0.705173 -0.409662 -2.24175 -4.69223
000350 9b 55 22 c1 be 8b a2 bd 6c 09 29 40 de 76 0d c0
       -10.1459 -0.0793681 2.6412 -2.21038
000360 0b 5e 84 bf ff b1 18 3f 81 21 53 c0 33 15 c7 3c
       -1.03412 0.596466 -3.29892 0.0243021
000370 2c d6 54 3f 3b 53 e0 be 1b 81 08 3e bd 00 eb 3f
       0.831393 -0.438135 0.133305 1.83596
000380 16 30 85 bf 93 ca 6f 3c 23 bf 3a 3f 7a 8d 99 3f
       -1.04053 0.0146357 0.729479 1.19963
000390 3f 8c 90 bf f5 65 59 be 0c 76 01 c0 8b 6c ab 3f
       -1.12928 -0.212303 -2.02283 1.33925
0003a0 29 22 bb bf 23 73 12 c1 68 22 a8 bf f4 15 46 c0
       -1.46198 -9.15311 -1.31355 -3.09509
0003b0 1f 91 85 bd 87 db 3d 3f 07 7c 9a bf 94 87 05 3d
       -0.0652182 0.741631 -1.20691 0.0326
0003c0 ef 79 59 bc f7 1f 79 be 8f 51 60 bb 62 a1 ea bf
       -0.0132737 -0.243286 -0.00342283 -1.83305
0003d0 08 c8 ef be d0 5c cc bc 97 39 1b c0 7a a9 e0 be
       -0.468323 -0.0249466 -2.42539 -0.438793
0003e0 5d 17 1e bf 3d 48 4f bf 03 e4 70 3b 5a 81 c5 bf
       -0.617544 -0.809696 0.0036757 -1.54301
0003f0 ec d9 c3 3e ee 25 31 c0 64 92 0d c0 2a a9 37 bf
       0.382522 -2.76794 -2.21206 -0.717425

Operation_6_Add_B f4 [50]
000000 fa 61 5e 40 e4 bc 43 bf 81 ec 35 c0 fa 44 b5 c0
       3.47473 -0.764601 -2.84256 -5.66467
000010 af 5a f9 3d fa 2b 64 be c9 59 d8 3f a7 96 39 c0
       0.121755 -0.222824 1.69024 -2.89982
000020 98 4c 13 40 03 b2 63 3f e0 db 3c 40 42 09 49 40
       2.30155 0.889435 2.95092 3.14119
000030 f4 c3 7a 40 21 1f b1 40 bf 2b 9d c0 ff 95 7b 40
       3.91821 5.53505 -4.91159 3.93103
000040 c8 d2 39 c0 fe d4 a4 bf 14 d0 1c c0 14 b3 0a c0
       -2.90349 -1.28775 -2.4502 -2.16718
000050 26 1e c3 c0 12 14 f3 c0 c2 69 25 c0 f0 31 68 be
       -6.09743 -7.5962 -2.58458 -0.226753
000060 b0 8f da bf 9c a4 29 3f 3c da 6a 40 ba 66 2a c0
       -1.70751 0.662668 3.66957 -2.66252
000070 c9 93 d4 3f 83 dd 2c c0 54 1d 96 40 80 f1 24 c0
       1.66076 -2.70102 4.69108 -2.57724
000080 d7 2f 06 40 de 54 c0 40 51 f7 33 40 23 be b3 3e
       2.09667 6.01036 2.81197 0.35106
000090 d9 ce cf 3f d0 b8 22 c0 c3 37 c3 3c d6 e0 fd 3d
       1.6235 -2.54253 0.0238303 0.123964
0000a0 95 82 1c 40 89 98 99 c0 64 cc 1f c0 86 e6 be 3f
       2.44547 -4.79987 -2.49685 1.49141
0000b0 00 52 98 c0 0f 29 2a 3f 51 66 57 c0 84 bb 33 3f
       -4.76001 0.664689 -3.36562 0.70208
0000c0 3a cc 21 c0 47 77 54 c0
       -2.52809 -3.31978
