networks/onnx/ACASXU_run2a_2_5_batch_2000.onnx (onnx, 55914 bytes, 15 tensors)

input_AvgImg f4 [1, 1, 5]
00000000: 0000 0000 0000 0000 0000 0000 0000 0000
00000010: 0000 0000
0.0 0.0 0.0 0.0 0.0

Operation_1_MatMul_W f4 [5, 50]
00000000: 23ee 393b e870 c83c cdc5 a5bb 5ad7 18bf
00000010: 9ddd 55bd 6620 0039 0ad9 69be 44be 2bbe
00000020: 469a 53bc ad1b 0a3d 573a a3bb 45c9 d83b
00000030: c32e 923e 069d 14bc bff9 43bc 3fb3 5abc
00000040: 8556 afbb b83b dbbf c529 b93d 8e0d 13bd
00000050: 9408 813b 9e09 cdbc 1591 213e caff bf3c
00000060: 9793 2bbd 3e55 0b3c 33df 05bf 064f 7cbc
00000070: 82dd 553c f5f4 c93e e45c 33bb b476 8bbe
00000080: 3385 733c 1239 d83c 669f ac3c ee41 10bf
00000090: d769 18bf f224 493d dffc 7abf a38f b93d
000000a0: f305 493f 6aa5 f0bd 5c93 493c 139f 763d
000000b0: 17d9 d2bf 95a0 8abd 96c0 17bd e6b5 4dbd
000000c0: e2d6 1839 265d e9bc 1ced 683e 2271 673f
000000d0: 0481 5fbc 7e41 01bd 94c2 0c3e 5268 143d
000000e0: 6c26 fc3b f27b 5bbf 4d49 163e 11df 453f
000000f0: 8e3e 1a3f e63f 88bf a846 de3c 61fd 7fbe
00000100: 7bbd 01c0 dbde eebd b7b4 ae3f 4370 dcbc
00000110: 4243 bfbe 3a9c 143d 5c5d ca3a ddb6 17bf
00000120: d36a 8a3b b4d8 5cbd 247d babe edd3 a1bf
00000130: f7aa b6bb 1aa4 80bd 8ccf cfbb f124 0e3c
00000140: 3b3d ca3c 46be 913d c4af 00bf 29b3 893f
00000150: e0be 3e3e 5332 ca3d 5136 003d 69fd 29bf
00000160: a7ad a9be f33c dc3f e66c 4b3c fbca 333f
00000170: d8d8 d5bf e292 ef3f 38f5 20bc bdfb 0b3f
00000180: 0003 593f 840f 35bf 89e5 603d cfa1 94be
00000190: 65e0 60be 519f 08bf 20fe 2b3c 28e2 a3bc
000001a0: 3db6 55be 324c 17bd d308 2a3b 3928 a5bf
000001b0: c365 bdbe ac1b 5bbf e65a 14bf f6e5 36bd
000001c0: c23b 0e3b 10eb 9d3e 5cc9 de3f 31ea da3d
000001d0: da8f 02c0 9f77 be3c 32cb f63e da20 333e
000001e0: 4c38 74bb 92cb 2fbf 7c7b 033f 9f73 473e
000001f0: cf2f c2be 0e69 a4be 36bb 223c 048d 193e
00000200: effe 0ec0 c293 8cbc dc80 933f 5ef1 04be
00000210: 0d6c 013f f0a2 df3e 9415 63be 9695 263c
00000220: 49cf d93c d24d 093c 1d48 cdbc 5ef2 6f3e
00000230: e0d9 9e3c d7fa 863f 0f7d 57bf ee0a 5dbe
00000240: 3b46 053c 763d 2cbc 3b54 1bbf 677e 8dbf
00000250: a52a b2bd db8b 983e 4df3 4abf 8577 95bf
00000260: 34c3 b1bd 295b 94be c614 2cbf 1a6c c23e
00000270: 90b6 d6bc 1092 ed3e 73f5 73be 4ae3 a13d
00000280: e752 5c3e d8fa 783d d28d 50be b134 983e
00000290: 3507 883e 8dd3 18bf 2c57 e83b 2c73 063c
000002a0: d5cb 8fbe ca19 fabe c139 133e 3928 253f
000002b0: 1c27 053e 256c c9bc 2d5c a6be a648 323f
000002c0: e736 113e a774 f83f 3c4d a63d bccc c03e
000002d0: 030e 3c3d ee43 c63e ad6d 3abe 62db 5a3f
000002e0: ea3c 0abf 3a92 cbbb b4e3 e6bd 4dc9 a8bd
000002f0: ff51 953d eb02 063f 4b73 b33e ac39 c83e
00000300: 3ae6 4c3f 4be9 813e 12f2 a8bb 9605 93bd
00000310: 8db7 1dbf 5c00 4a3e 0a30 203f 3524 9ebf
00000320: 0b9b 41be 91ed 5c3e 6b29 d8be 10ae 983e
00000330: a6ba 70be 7a19 85be c10f 58bd ae1b a5bd
00000340: d1eb d73e ee1c efbb 19ad abbf cc5d 1bbe
00000350: aca6 b0bd da01 0bbf b75e 13be 2d43 64bf
00000360: cd89 623c cd34 0abc cb65 b33e 7ae1 bebe
00000370: 5e80 e5be 6500 00bf cc09 cabe 6abc e4bf
00000380: 5391 ea3d a3cb 0bbf 37fb 03be 2428 dabf
00000390: c4ee 96bd 8ecc 8bbf 2767 78ba 6616 05bf
000003a0: 4980 9ebf 2237 87bf f4c3 10bf dca0 363e
000003b0: fc08 52bd 79b0 253e e631 c4bd 1497 a3be
000003c0: f46a e0be ea77 89be b0e5 4dbf 2db7 bfbd
000003d0: 2883 1dbc 4f58 623e acff a3bf c05f 1cbe
000003e0: 5f79 503f e22c 3fba
0.00283707 0.0244679 -0.00505898 -0.597036 -0.0522133 0.000122191 -0.228367 -0.167718
-0.0129152 0.0337178 -0.00498132 0.00661579 0.285513 -0.00907064 -0.0119614 -0.0133484
-0.00535089 -1.71276 0.0904117 -0.0359016 0.00393779 -0.025029 0.15778 0.0234374
-0.0418888 0.00850421 -0.522937 -0.0153997 0.0130533 0.394447 -0.00273686 -0.27239
0.0148633 0.0263944 0.0210721 -0.563506 -0.595365 0.0491075 -0.980421 0.090606
0.785247 -0.117503 0.0123032 0.0602103 -1.64725 -0.0676891 -0.0370489 -0.0502223
0.000145759 -0.0284868 0.227467 0.90407 -0.0136416 -0.0315566 0.137461 0.0362323
0.00769501 -0.85736 0.146764 0.772935 0.602517 -1.06445 0.0271333 -0.24999
-2.02719 -0.116636 1.36489 -0.026909 -0.37356 0.0362818 0.00154392 -0.592634
0.00422416 -0.0539176 -0.364236 -1.26428 -0.00557458 -0.062813 -0.00634188 0.0086758
0.0246874 0.0711637 -0.502682 1.07578 0.186275 0.0987288 0.0313018 -0.664023
-0.331403 1.72061 0.0124161 0.702316 -1.67068 1.87167 -0.00982409 0.54681
0.847702 -0.707268 0.0549064 -0.290297 -0.219606 -0.533681 0.0104976 -0.0200053
-0.208703 -0.0369379 0.00259452 -1.29029 -0.369917 -0.855891 -0.579512 -0.0446529
0.00217031 0.308434 1.74052 0.106892 -2.04003 0.0232504 0.482019 0.17493
-0.0037265 -0.6867 0.513603 0.194777 -0.379271 -0.321114 0.00993233 0.149952
-2.23431 -0.0171603 1.15237 -0.129827 0.505555 0.43679 -0.221762 0.0101675
0.0265881 0.00838037 -0.0250588 0.234323 0.019391 1.05453 -0.841752 -0.215862
0.00813442 -0.0105127 -0.606754 -1.10542 -0.0869954 0.297942 -0.792775 -1.16771
-0.0867981 -0.289758 -0.672192 0.379731 -0.0262101 0.464005 -0.238241 0.0790468
0.21516 0.0607861 -0.203666 0.297277 0.26568 -0.596978 0.00709047 0.00820617
-0.280852 -0.488478 0.143775 0.645145 0.130032 -0.0245877 -0.324922 0.696421
0.141811 1.94106 0.081202 0.376562 0.0459118 0.387237 -0.182059 0.85491
-0.539992 -0.0062125 -0.112739 -0.0824152 0.0729103 0.523482 0.350489 0.391065
0.800388 0.253733 -0.00515581 -0.071788 -0.616082 0.197267 0.625733 -1.23548
-0.189068 0.21575 -0.422191 0.298203 -0.235087 -0.25996 -0.0527494 -0.0806192
0.421721 -0.00729715 -1.34122 -0.151725 -0.0862554 -0.542997 -0.143916 -0.89165
0.0138268 -0.00843544 0.350386 -0.372814 -0.448245 -0.500006 -0.394606 -1.787
0.114535 -0.546076 -0.128888 -1.70435 -0.0736976 -1.09218 -0.000947582 -0.519873
-1.23829 -1.05637 -0.56549 0.178348 -0.0512781 0.161806 -0.0957983 -0.319512
-0.438316 -0.268493 -0.804286 -0.0936111 -0.00961379 0.22104 -1.28124 -0.152709
0.814352 -0.000729276

Operation_1_Add_B f4 [50]
00000000: 7c59 bfbd 7442 30bf e2e5 393e fa9b 30be
00000010: 0ccb 1fbe 967a f63d 10dc 823d ca98 b1bd
00000020: 6f2c 683e 2314 8bbe c45d 0d3e 0a4d edbc
00000030: 62c7 55bd eacb d23c 8d5d 97bd 3e77 82be
00000040: 782a 98be 1fd8 c1be 86ff 8c3e 00c8 993d
00000050: 62d8 613e bca7 b73d ec50 ed3d 1d76 2fbf
00000060: 3a30 eb3b b323 f53d 1f4a b43c c636 f93e
00000070: 9fa2 a43d 4d38 09bc b167 543d 9116 fc3b
00000080: 5b24 1dbe 0bd4 12be d7cd 9bbd d1ea 64bd
00000090: c21c 9db9 1b2f 0d3e 8c87 82bd 83ac c23d
000000a0: f2cd 763e c8b2 20be e84a 84be 8fde 003f
000000b0: 79ce 8ebe 23bc bd3c 8a74 0bbf 91ac bd3d
000000c0: 5247 373e 6a6d e2be
-0.0934324 -0.688514 0.181541 -0.17247 -0.156048 0.120351 0.0638963 -0.0867172
0.226732 -0.271638 0.138053 -0.0289674 -0.0521921 0.025732 -0.0739089 -0.254816
-0.297199 -0.378602 0.275387 0.0750885 0.220552 0.0896754 0.115877 -0.685396
0.00717738 0.119697 0.022008 0.486746 0.0803883 -0.00837524 0.0518567 0.00769312
-0.153459 -0.143387 -0.0760762 -0.055888 -0.000299668 0.137875 -0.0637351 0.0950556
0.24102 -0.156932 -0.258384 0.503396 -0.278919 0.023161 -0.544747 0.0926143
0.178983 -0.442241

Operation_2_MatMul_W f4 [50, 50]
00000000: 9296 fa3e f8fb 553e 6e4c 933f 0b63 fbbe
00000010: 8c9e fbbd 1c97 a9be 0dab 78be da73 193e
00000020: 3846 873d 9ed2 e1bd 35c2 91bc 1902 00bd
00000030: 27a5 903f 5872 65bf 63b3 5b3f e65c 1e3f
00000040: 498b bebd 6fb7 543e a52c 433d af25 80bf
00000050: d882 9e3e 1bbc 2fbd 7f4f fcbe ee22 04bf
00000060: 37cd 11bd 5f96 523f 15ad 3c3e cc87 b63d
00000070: 93f5 a53c d579 8cbe a714 853c b3ef 7e3f
00000080: 6db7 933c d498 7cbf 575e 123f 8f39 6f3f
00000090: 9cf9 55be 992c 2e3e 67ef 54bf 3ca9 8abc
000000a0: 04e2 8dbf 221c 633e 07eb 273f 516b 0a3e
000000b0: 7a51 773f 8df1 513e ecf6 e13e 670a 89bf
000000c0: 1c98 cc3e d3f7 b2be c9b2 9b3d 9cf9 813f
000000d0: 2766 0d3f f609 90be 4017 bdbe a089 06c0
000000e0: 08e6 4cbf 6f47 443f e4a0 8c3e 4640 053f
000000f0: 95f8 173d f40f 873c dd78 1bbf f9f7 d9bd
00000100: 1617 5b3f e8dc 8dbe 1981 473d 5b08 babe
00000110: 93ac d3be a0c1 963e 6f9c c4be f805 aa3c
00000120: 79af b63f ace0 97be dd8b b93c 3e41 52be
00000130: 76fa 993e 3f1e 1abf e7c2 adbc 79e9 8e3f
00000140: bb65 22bd 8f50 38bd 9144 9f3f 8a02 993f
00000150: 1364 843e d89a f5be 3a75 2d3f 726d 983f
00000160: 3c31 8f3f 9eb5 c73f 73f7 f9bd 295e 45be
00000170: e929 623e 9146 a23b bf2c f5be 0ef9 37be
00000180: 263a 46bd dc62 663f e622 8e3f 72fd 93be
00000190: 9337 903e dec7 b1be d925 bebf 2cd3 0b3f
000001a0: 10cb 623f f33e 3e3e 0f81 db3e ffea 113e
000001b0: 5283 b43d 0933 853f ddb3 2e3f faf2 023d
000001c0: 72dd 1c3f 94d9 acbf bb9d 8d3e 7749 e4be
000001d0: a1f2 63bf 9128 9cbe 683e 27be 6c5b 143e
000001e0: c37e d73e 5da3 253d cfbc 18bf 3b38 28be
000001f0: 50f2 b4bc 535d f8be cdea 2dbf 90a0 bc3f
00000200: 1b4f 213c c30c 41bf 2d5d 41bc 8813 083e
00000210: 82e2 bfbf 9b39 583f 3352 a73e 3271 10bd
00000220: 05de 51bf 4415 de3e b326 16be 3eb0 03bf
00000230: a86f 99be 6ea3 99bf 2db2 b13f 6571 6fbe
00000240: 103b 53be 543a 98bf 200c b43e bd39 bcbe
00000250: 2861 8ebe f016 18be 74b7 0fbf ace2 c5bf
00000260: f031 f0be d82d dabe 923e 3dbe 603d 163f
00000270: 15a8 753f 6955 f3be 6900 973f d177 273e
00000280: f359 cebe e977 c63c be68 2f3d bf68 aabc
00000290: f567 ffbf 97e6 06bf 2f51 7740 0c75 603f
000002a0: 06d5 46bf e197 02c0 a01b 163f c841 09bd
000002b0: 9755 543f 9085 d03e 0a75 a2bc bd8b 17be
000002c0: 68ce babe f637 c2bd 684d 02bd cc79 e63d
000002d0: 0993 183d 7c69 253d 1840 183e de61 89bc
000002e0: 309e 793f 0fd6 2f40 65de e2be 8ca1 bc3f
000002f0: 0c90 203f 3b8e 2fbe 4755 09c0 7b38 873d
00000300: 44c0 8d3f d3d9 61bf c0ec 8abf 9291 c73f
00000310: 60bf 813d 3a94 71be e162 f53e 9bcb e5be
00000320: fb24 afbe 41b9 ad3e 87a8 423e 03d2 993d
00000330: 44f8 c73e 8540 eebd 9678 23bb 01f8 0b3f
00000340: ce33 26be fd4e c33e 6806 013e 118b d8bc
00000350: e9f1 cbbf fb04 003f 772c ee3e ad32 47bf
00000360: f99f 0cbe 9068 3abf 185a 5dbe 7b6b 98be
00000370: 5184 94be 0ee4 113c 2e38 433e 4433 0f3e
00000380: 5461 02bd 2f4d c1be b6d8 fdbe 64af 37be
00000390: a3f0 6fbd 9eb5 3b3f 4262 96bc 043d 8cbe
000003a0: f0fc 023e b323 d53e baf3 2cbf 2415 1cbd
000003b0: 2861 8e3e 5ab7 e13e b1c2 edbd f65e 943e
000003c0: 2c7f 72bf 8a22 84be 302d eabd a633 96bd
000003d0: 2f33 3cbe 4087 7dbf 5b26 233e 4469 9b3f
000003e0: 9ad1 5f3e 0dfc 14bf 4514 aebc e599 a7be
000003f0: 417d 9fbf 6189 373e b14d d2be 1c9a 7ebf
0.48943 0.208969 1.15077 -0.49099 -0.122861 -0.331231 -0.24284 0.149856
0.0660519 -0.110265 -0.0177928 -0.031252 1.13004 -0.896276 0.858206 0.618605
-0.0930391 0.207731 0.04765 -1.00115 0.309592 -0.042904 -0.492794 -0.516158
-0.0355961 0.822607 0.184254 0.0891262 0.0202587 -0.274367 0.0162452 0.995845
0.0180318 -0.986707 0.571752 0.934472 -0.20896 0.170092 -0.831778 -0.0169264
-1.10846 0.221787 0.65593 0.135175 0.966087 0.205023 0.441337 -1.07063
0.399598 -0.349547 0.0760246 1.01543 0.55234 -0.281326 -0.369318 -2.10215
-0.800385 0.766715 0.274665 0.520512 0.0371023 0.0164871 -0.607313 -0.10643
0.855821 -0.277076 0.0487071 -0.363345 -0.413426 0.294446 -0.384006 0.0207548
1.42723 -0.296636 0.0226497 -0.205327 0.300739 -0.602024 -0.0212111 1.1165
-0.0396478 -0.0449987 1.24428 1.19539 0.258576 -0.479697 0.67757 1.19084
1.11869 1.56023 -0.122054 -0.192742 0.220863 0.00495226 -0.478857 -0.179661
-0.0483953 0.899946 1.11044 -0.289043 0.281674 -0.347228 -1.48553 0.546191
0.885911 0.185787 0.428719 0.142498 0.0881411 1.04062 0.682432 0.03197
0.612754 -1.35039 0.276594 -0.445873 -0.890421 -0.304997 -0.163324 0.14488
0.420889 0.040439 -0.596631 -0.164277 -0.0220882 -0.485087 -0.679364 1.47365
0.00984552 -0.754101 -0.011802 0.132887 -1.4991 0.844629 0.326799 -0.0352642
-0.819794 0.433756 -0.146632 -0.514408 -0.29968 -1.2003 1.38825 -0.233831
-0.20628 -1.18928 0.351655 -0.367628 -0.278085 -0.148525 -0.561393 -1.54598
-0.469131 -0.426131 -0.184809 0.586874 0.959596 -0.475261 1.1797 0.163543
-0.40303 0.0242271 0.0428245 -0.0208019 -1.99536 -0.526956 3.86433 0.876786
-0.776688 -2.04052 0.586359 -0.03351 0.829431 0.407269 -0.0198312 -0.147994
-0.364856 -0.0948333 -0.0318121 0.112537 0.0372496 0.0403838 0.148682 -0.0167703
0.97507 2.74744 -0.443103 1.47368 0.627198 -0.171441 -2.14583 0.0660257
1.10743 -0.88223 -1.08535 1.55913 0.0633533 -0.235917 0.47927 -0.448819
-0.342079 0.339304 0.190096 0.0751076 0.390566 -0.116334 -0.00249437 0.546753
-0.162307 0.381462 0.126001 -0.0264335 -1.59332 0.500076 0.465183 -0.778117
-0.137329 -0.728158 -0.216164 -0.297695 -0.290072 0.00890447 0.190644 0.139844
-0.0318311 -0.377542 -0.495794 -0.17938 -0.0585791 0.73324 -0.0183574 -0.273903
0.127918 0.416288 -0.675594 -0.0381061 0.278085 0.440852 -0.116094 0.289787
-0.947253 -0.258076 -0.114344 -0.0733407 -0.183789 -0.990345 0.159326 1.21415
0.218573 -0.581971 -0.0212499 -0.327346 -1.24601 0.179235 -0.410749 -0.994539

Operation_2_Add_B f4 [50]
00000000: 7862 463f 0f97 84bf 4679 2abf a758 cdbe
00000010: d5b1 b2be 68dd 80bd 94c1 8f3b 77f6 21bf
00000020: d8f4 503f 67f3 80be 19ff 86bf 10b9 13bc
00000030: 6b61 96be 2585 68bd 9c35 88be ee42 f3bd
00000040: 5019 c7be 9aed 6abd 12f7 c0be f59c 34be
00000050: 4757 a1be 27c2 61bc 17ef e73d 8908 073f
00000060: 7aec dbbb 64e6 c23d ad88 ba3e ec17 8c3f
00000070: 8239 7abc eba7 33bf 6198 82bc 66da 22bf
00000080: 4c52 d9be 1959 4e3f 7a8d 89bf 3291 02bf
00000090: 14b3 563f ad2f 9ebf ce88 8abf 8525 86bf
000000a0: d331 67be ff75 12bf bd18 0abf ff3c 713f
000000b0: 1a33 b1be fed7 21bf a302 77be 3c4f 4c3f
000000c0: 4bcb 903e b953 3abd
0.77494 -1.03586 -0.665913 -0.401067 -0.349013 -0.0629223 0.00438709 -0.632667
0.816236 -0.251857 -1.05466 -0.00901629 -0.293712 -0.0567676 -0.266034 -0.11878
-0.388865 -0.0573555 -0.376885 -0.17638 -0.315119 -0.0137792 0.113249 0.527474
-0.00671154 0.095166 0.364324 1.09448 -0.0152725 -0.701781 -0.0159418 -0.636145
-0.424456 0.806047 -1.07463 -0.510028 0.83867 -1.23583 -1.0823 -1.04802
-0.225776 -0.572113 -0.53944 0.942337 -0.346093 -0.632202 -0.241221 0.798084
0.282801 -0.04549

Operation_3_MatMul_W f4 [50, 50]
00000000: df34 3d3e 0af7 babd 7897 abbe 958d c8bd
00000010: c43e 91be 4694 d6bf cde6 81be dc30 25bd
00000020: d1af cdbe 3b72 14bf 909f 9dbe 0308 1f3e
00000030: d925 c2be ea21 5abe b491 2b3e fe7d 0abf
00000040: 58ad 183f 2a58 8b3e 8ca2 073f 7191 8b3e
00000050: e598 2c3e b29f c5be e6ad 5a3d 56d2 4a3e
00000060: 5435 c1be e405 c23d 0188 fb3d 60b0 873f
00000070: c6aa dc3c 7171 a93d 419a b1bf 09fb 223f
00000080: dd06 7a3d dee5 eabe f1a5 6b3d 8de6 a23d
00000090: ad89 0dbf f2d2 2bc0 658e 953e f1b8 48be
000000a0: fc8d 163e e76e 333f bd6f 143f fbaf c3be
000000b0: 594d 43bf b9c5 ecbe 7f99 b9bc 618b 11bf
000000c0: d1a7 7a3c b91a fa3b b745 d9bf 6ea3 d5bf
000000d0: 4161 2cbf a566 9fbe 8a1c 023e 1b81 803f
000000e0: 3c16 9bbe f489 003f 622c 1fbf 7f89 643f
000000f0: 76fa 413f 82c9 0d3e f04f 5d3f 80b6 8abd
00000100: dc29 65bf eba8 16c0 2c11 10bf 3525 f93e
00000110: 2098 87bf 33de c6be 5dfe 83bf 9413 d93f
00000120: 861e 013e 88bd 903e 6a34 913e e603 72bf
00000130: ec8f 9b3d f12e 933f 78cf 513f d49d f7be
00000140: cec2 28c0 7ac2 a6bf 1b4b 003f 0517 0340
00000150: 8ecd 8e3e ce18 463e 9e29 e4bf 98db 41bf
00000160: 0e4a f8bd 999e 043f 31eb bdbf 021e 62bd
00000170: d998 3fbf 5df9 74c0 f129 a0bf cbbe ebbf
00000180: d8d2 e5bb bb27 b73f 5ed3 083d 35d2 a63f
00000190: c003 473f 79cd fb3e 8923 2fbf d09b 8e3f
000001a0: aff4 c53d 8a93 233f 0a0f 0abe 2576 2dbe
000001b0: ea25 b13d 85b6 c83f eae7 e9bf 6fd8 debe
000001c0: abed 523f 016a f23e 8ca0 113e 0d53 4bbe
000001d0: 1fbc 06be 7583 b73d b474 053f aa60 443f
000001e0: be4b 1d3f 0394 d63e ddf2 acbc bd2d 62bd
000001f0: 6ec2 45bf d094 02bd fa27 20bf 1496 a03e
00000200: 3469 173f 4222 c53e 6de6 a83e ef1a 14be
00000210: 8a56 b6be 2dec 693e e29a 713d 0aba 1d3e
00000220: b22e c63f a08c 213e eaa2 a73d af5e fd3e
00000230: 3fc6 84be 37ff 973e 5b26 abbe 47e4 d3be
00000240: a6b7 07bf 3e3c dbbe 5be9 a5be 5187 9dbe
00000250: 3d9f 9c3c bd8c babf 5114 e83e 37dd 72be
00000260: 0118 efbf 6ac1 d3bf d2c4 4b3e 7b4f e53d
00000270: 8195 133f 9c50 ecbf ed7f 40be f129 f43f
00000280: e561 853f 5ad5 02be b77c 30bf f7c9 c9be
00000290: 2079 973e 94de c33f f357 c83e 7688 1f3e
000002a0: bfd4 a73f 90f9 18bf 1095 763f 5d37 653e
000002b0: 49f6 c83e fb57 f2bf cde5 7ebf 8060 86bf
000002c0: 1cb1 ab3d 1407 10be e2af f93f 107a 1ac0
000002d0: 1b4c bfbf 12dc 203f 1972 a4be 59fa f0bd
000002e0: 3bc4 03bf 3507 2cc0 b5dc 8ebd ba30 02be
000002f0: 0b5f 033f fe60 0040 7407 d53f 83e0 51be
00000300: 9912 d5bf 8bff 233f 62f4 8c3e 6611 1abf
00000310: bf4e 95bd 761a 89bf 363d 09bc a2ee 87bf
00000320: 48c2 eebe 6722 713d a3ac 87be ab15 15c1
00000330: f6b4 9bbf f512 b3be 0beb f63e 00e3 913f
00000340: 7990 32bf 5646 33bf d4f3 323f 38bb 553e
00000350: aef1 d13e 2246 99bc 51bf b3be d595 0f40
00000360: ed28 de3e 54e1 0bbf 4148 20c0 b477 163f
00000370: f581 f4be bf61 ba3e ae9f 0e3f 205d 1c3f
00000380: 056e 95bf 66eb 4abd 6d20 2d3e 6c93 abbb
00000390: 253b 8a3f 0b8b 9bbc 535c 61c0 10b3 17bf
000003a0: 0dfa d23d 8256 ccbf 1f2f 9c3e 7369 503f
000003b0: efe7 30bf fca9 e53f a9b1 533d 268a 203f
000003c0: 72fb 25bf 6de4 4a3e 1ea7 78bf 0c75 343f
000003d0: 4d32 663f 2996 f3bf 014d c43f 6132 d13f
000003e0: ce86 01bd 2041 01c0 6de3 63bf c021 cc3e
000003f0: 9640 463f 8126 76c0 9be8 2bbf 3a84 603d
0.184772 -0.0912915 -0.33514 -0.0979263 -0.283682 -1.6764 -0.253714 -0.0403298
-0.401732 -0.579868 -0.307858 0.155304 -0.379195 -0.21302 0.167548 -0.540985
0.596395 0.272157 0.529824 0.272594 0.168552 -0.385984 0.0533885 0.198068
-0.37736 0.0947378 0.122818 1.06007 0.0269369 0.0827359 -1.38752 0.636643
0.0610417 -0.458785 0.0575313 0.0795413 -0.552882 -2.68475 0.292102 -0.196018
0.147026 0.700911 0.57983 -0.382202 -0.762899 -0.462446 -0.0226562 -0.568533
0.0152988 0.00763258 -1.69744 -1.66905 -0.673359 -0.31133 0.127062 1.00394
-0.302904 0.502105 -0.621771 0.892723 0.757728 0.138464 0.864501 -0.0677309
-0.89517 -2.35406 -0.562762 0.486612 -1.05933 -0.388414 -1.0312 1.69591
0.126093 0.282696 0.283603 -0.945372 0.0759581 1.14987 0.819572 -0.483626
-2.63689 -1.30281 0.501146 2.04828 0.278912 0.193454 -1.78252 -0.757257
-0.121235 0.518045 -1.48374 -0.0552044 -0.748426 -3.82772 -1.25128 -1.84176
-0.00701366 1.4309 0.0334047 1.30329 0.777401 0.491802 -0.684136 1.11413
0.0966581 0.63897 -0.134823 -0.169396 0.0864981 1.56807 -1.82739 -0.435245
0.823939 0.473465 0.142214 -0.198559 -0.131577 0.0896062 0.521312 0.7671
0.614437 0.419098 -0.0211119 -0.0552194 -0.772498 -0.0318802 -0.62561 0.313645
0.591449 0.385027 0.329883 -0.144634 -0.356129 0.22844 0.0589856 0.15403
1.5483 0.157763 0.0818537 0.494863 -0.259325 0.296869 -0.334277 -0.413851
-0.530146 -0.428194 -0.324046 -0.307673 0.0191189 -1.45742 0.45328 -0.237172
-1.86792 -1.65434 0.198993 0.111968 0.5765 -1.84621 -0.187988 1.90753
1.04205 -0.127767 -0.689403 -0.394119 0.295846 1.53023 0.391296 0.155794
1.31118 -0.597558 0.963212 0.223844 0.392504 -1.89331 -0.995694 -1.04982
0.0838339 -0.140652 1.95068 -2.4137 -1.49451 0.628358 -0.321183 -0.117665
-0.514713 -2.68794 -0.0697569 -0.127139 0.513169 2.00592 1.66429 -0.204958
-1.66463 0.640618 0.275302 -0.601828 -0.0729041 -1.07112 -0.00837641 -1.06197
-0.466326 0.0588707 -0.264989 -9.31779 -1.21646 -0.349754 0.482262 1.13974
-0.697517 -0.700292 0.699033 0.208722 0.410047 -0.0187102 -0.351069 2.24352
0.433906 -0.546407 -2.50441 0.587764 -0.477554 0.364027 0.557124 0.610796
-1.16742 -0.0495409 0.169069 -0.00523608 1.07993 -0.0189872 -3.52126 -0.592576
0.103016 -1.59639 0.305047 0.814109 -0.691039 1.79425 0.0516831 0.627108
-0.648368 0.198137 -0.9713 0.704911 0.899205 -1.90302 1.5336 1.63435
-0.0316227 -2.0196 -0.890189 0.398695 0.774423 -3.8461 -0.671518 0.0548136

Operation_3_Add_B f4 [50]
00000000: 1fe1 8f3c 0112 12bd d9b2 2cbf 12d9 373f
00000010: 2829 a83e 90dc 1abf 1362 063f e4d8 2ebf
00000020: 228e 91bf bc57 1bc0 dafe adbf a67f 913e
00000030: 145d 8fbe ca15 debf 11a9 393e 9912 2b40
00000040: 3f56 e0be c503 9a3e b344 f73e 925c 9ebe
00000050: 2a71 69bf f19d c4bf 7785 ae3e c32a a23f
00000060: 3579 823e 2b31 3f3e c3fb 803d 3f3a 31bf
00000070: d509 08c0 7c65 4abf 9817 d03f 7218 783f
00000080: 9c36 27bf a779 97bf 49a2 a7bf e430 28bf
00000090: 6951 773f b01f 8a3e 317a eebe 8dd1 aebf
000000a0: a245 f6bf 68eb 70bf 9e62 013f 7441 c9bf
000000b0: 4e60 eabe 74d2 b3bf 5dfc a5be 3bc5 2ebf
000000c0: 5320 b3bc 2dcf 9f3f
0.0175634 -0.0356617 -0.674604 0.718156 0.328439 -0.604928 0.524934 -0.682997
-1.13715 -2.42723 -1.35934 0.284177 -0.280007 -1.73504 0.181309 2.67301
-0.438158 0.30081 0.482946 -0.3093 -0.911883 -1.53607 0.340862 1.26693
0.254831 0.186711 0.0629802 -0.692295 -2.1256 -0.790611 1.62572 0.969123
-0.653177 -1.1834 -1.30964 -0.656996 0.966086 0.269773 -0.465776 -1.36577
-1.924 -0.941092 0.505411 -1.57231 -0.457766 -1.40486 -0.324191 -0.682697
-0.021866 1.24851

Operation_4_MatMul_W f4 [50, 50]
00000000: ad6b 243e 5f07 1ebe 9862 c33d 41d7 3e3e
00000010: 05c1 7bbf f6ad 7bbc 0ff1 4fbe 5a9d 1cbd
00000020: 2994 8d3e 1bd9 29bf 77e4 9e3d c11c fd3d
00000030: ba4c 7d3e 2f30 eb3c 1f67 3a3f c737 8a3d
00000040: b309 a83e 72a6 19be c6fa 96be ae73 9dbd
00000050: 959f 843f 0244 b6bd 5cca b13e e17f dbbe
00000060: 302f e8be 67b6 db3e d577 c63e 0855 a23e
00000070: 0a9d 57bc 5292 9abd d5fa ac3d 04a9 c9bd
00000080: 7d77 033f 788a 8bbc 5513 f4be ef83 bdbc
00000090: 5778 27be 4dbf 68bf 1ac0 dfbf 1937 e53e
000000a0: 363f 7ebe 3621 6dbe a472 83be bcca 4a3e
000000b0: 0039 51bf 6c24 193e fd3e d2ba cb13 e8bd
000000c0: ef70 933e 8ae5 46be ad34 b9bf e80d 3c3d
000000d0: 0b46 2540 03b3 fabe 1cb1 b63f c7ba 18be
000000e0: 2237 c33f f488 e93e 35b5 90bf 221a 05c0
000000f0: d7a6 d1bd 425d ec3e 97ac ba3e b537 3e40
00000100: ba31 853f 0d70 2dbf edba c73e 0840 17bd
00000110: 1e6d 3840 0fee be3f c173 f33f acad fc3f
00000120: eaca 933f 8bfd 85bf 1b9d c3be 1901 253e
00000130: de93 d7bf 0875 253f 3447 723f a0a4 38bf
00000140: 55d9 873f dd1e 29bc da38 f6bf 014c 39bd
00000150: da8f 93c0 5fb3 3c3e 12f5 323e 1f80 b83f
00000160: 5249 95c0 9ecf 04bf 9084 01bf 32fc 0cbd
00000170: d82c 7fbf a701 98bd 4182 cabf abb4 213f
00000180: 419c e73d b692 c63b c93c aa3e a7c5 05bd
00000190: 7a6c 47bf 2ffd 0bbd 143f 9abf 0932 52be
000001a0: 1d74 49be 6de5 353e 8f53 0a40 d811 ffbe
000001b0: f25e 8dbf 22fd 263f 1daf 903e 14ae f33f
000001c0: 7827 5f3f e2c8 2b3f db36 c4be 6de2 64be
000001d0: 5e0f 463f 885d 80bc c11c dd3e 5e13 8a3e
000001e0: 55f6 2d3f 84bb ff3f e97d bb3e a6f2 6240
000001f0: ba4b 22be 1ccf d7be f432 3640 32ae 88be
00000200: 04c8 20be d23a babf 9a7b 08be 2a8c 3dbe
00000210: 9f3c 3c3e cc97 d7bc 1d72 433e bfaa 093d
00000220: c45a dcbe 8885 d63f fc1d 6a40 07ee 48bf
00000230: 74ef 413f a798 debb c39e 663e 6f45 32be
00000240: d4b5 f6bd e76f a2be 130a 13c0 d317 fa3e
00000250: 9247 8b3d de9f dc3c d784 843e be8e 2ebd
00000260: 38bb 613f b6da 1f3f 7938 063d d80e 46be
00000270: 946f 713d e7ab ff3c 5341 253e 9700 5cbf
00000280: 9488 a83e 93aa 8d3d 05fd a53e 5d31 8b3e
00000290: 2bf9 2c3f 1478 07be d718 8c3e fc28 59bc
000002a0: 4a44 a03e 8aae 3b3f 9609 8f3f ef02 25bf
000002b0: d0ec 0a3f d32e 023f ab7b 343e 0fa3 163d
000002c0: 378e 9c3f 6493 7cbc dc68 40be 3c67 b3be
000002d0: 7060 b23e c780 dc3e bf44 2c3e 56fa 3fbc
000002e0: fcc7 52be a628 3fbf 7a98 0cbd 9be2 713f
000002f0: ab3f 323f d80d 47bf 8253 e73e b689 2e3d
00000300: 8676 8cbb a2b2 c63c 3290 57be 488a 3cbf
00000310: 51da 1bc0 1c43 e0bd acac fd3e 1d91 af3c
00000320: 87fa 293f aa6a 3dbd c633 4040 a5a1 2abf
00000330: 2ec8 563e be22 4ebd e86a 2b3e 2ca0 103e
00000340: 2a57 643f 94f8 2cbe b821 e6bd 119e da3c
00000350: 80b6 e53e e292 333f bb26 443f 371a 883f
00000360: 3412 893e cc4f a23a 94c1 c9bf 13d5 9bbf
00000370: 1492 bc3e d7c0 82bf 9fe5 f9bf 9469 743f
00000380: 5de1 8d3f f9da bbbe 04ca 2cc0 b534 d73e
00000390: 3622 1cbf 4793 d33e c74b ef3f 567d 9abf
000003a0: 4963 c4be 2ab8 293d b0cb 083f a96a a2bf
000003b0: 098b 7a3f 8e3b cd3f fe60 483f 2ded d43d
000003c0: 6189 a73f c054 98bc 4112 71bd 0ff4 8bbd
000003d0: f6eb ce3d cff6 c8be 42bb 193d d511 f63c
000003e0: a587 29bf 4b20 e5bc 39ed 45bf a0f3 043d
000003f0: 9b20 02c0 732e 0340 6b0d 15be 8222 b13d
0.160567 -0.154325 0.0954029 0.186368 -0.983414 -0.0153613 -0.203068 -0.038236
0.276521 -0.663469 0.0775842 0.12359 0.247363 0.0287095 0.728136 0.0674892
0.328199 -0.150049 -0.294882 -0.0768808 1.03612 -0.0889969 0.347247 -0.42871
-0.453485 0.429126 0.387633 0.317055 -0.01316 -0.0754744 0.0844628 -0.0984669
0.513542 -0.0170338 -0.47671 -0.0231342 -0.163545 -0.909169 -1.74805 0.447686
-0.248288 -0.231572 -0.256734 0.198039 -0.817276 0.149553 -0.00160405 -0.113319
0.287971 -0.194235 -1.44692 0.0459117 2.5824 -0.489647 1.42728 -0.14915
1.52512 0.456123 -1.13053 -2.07972 -0.102369 0.461649 0.364598 2.97215
1.04058 -0.677491 0.390098 -0.0369263 2.88166 1.49164 1.90197 1.97405
1.15463 -1.0468 -0.382058 0.161137 -1.6842 0.646317 0.946399 -0.721262
1.06132 -0.0103223 -1.92361 -0.0452385 -4.61131 0.184278 0.174763 1.44141
-4.6652 -0.518793 -0.505929 -0.0344202 -0.996778 -0.0742219 -1.5821 0.631663
0.113091 0.00605997 0.332495 -0.0326592 -0.778999 -0.034177 -1.20505 -0.205269
-0.196732 0.177633 2.16135 -0.498183 -1.10446 0.6523 0.282586 1.90375
0.871696 0.671034 -0.383231 -0.22352 0.773672 -0.0156696 0.43186 0.269679
0.67954 1.99791 0.366195 3.54606 -0.158492 -0.421502 2.84686 -0.266954
-0.157013 -1.45492 -0.133284 -0.185105 0.183825 -0.0263175 0.190865 0.0336101
-0.43038 1.67595 3.65808 -0.784882 0.75756 -0.0067931 0.225215 -0.174093
-0.120464 -0.31726 -2.29749 0.488463 0.0680076 0.0269317 0.258826 -0.0426166
0.881763 0.624431 0.0327687 -0.193416 0.0589443 0.0312099 0.161382 -0.859384
0.329167 0.069173 0.324196 0.271861 0.675677 -0.132294 0.273627 -0.0132544
0.313021 0.733132 1.11748 -0.644576 0.542676 0.508527 0.176253 0.0367766
1.22309 -0.015416 -0.1879 -0.350397 0.348392 0.43067 0.168231 -0.0117174
-0.205841 -0.746714 -0.0343251 0.944864 0.696284 -0.777555 0.451809 0.0426118
-0.00428659 0.0242551 -0.210511 -0.736485 -2.4352 -0.109503 0.495458 0.0214315
0.663979 -0.0462443 3.00316 -0.666529 0.209748 -0.0503261 0.1674 0.141236
0.891955 -0.168917 -0.112369 0.0266867 0.448658 0.70146 0.766216 1.0633
0.267717 0.00123834 -1.57622 -1.21744 0.368302 -1.02151 -1.95232 0.954736
1.10844 -0.366905 -2.69983 0.420324 -0.609897 0.413233 1.8695 -1.20695
-0.38357 0.0414354 0.534358 -1.26888 0.978684 1.60338 0.78273 0.103968
1.30888 -0.0185951 -0.0588553 -0.0683366 0.101036 -0.392508 0.0375321 0.0300378
-0.662226 -0.0279695 -0.773151 0.0324589 -2.03324 2.04971 -0.145559 0.0864916

Operation_4_Add_B f4 [50]
00000000: 3125 c63f b90c c9bd d864 d5bf 2252 f33d
00000010: 2576 b5be 4623 dfbe 75b0 b6bf 9a7a 1d3d
00000020: 795b e13e 6404 6c3f 38bb 59bf 9ca8 353e
00000030: 963f 0fbe 0855 08c0 04e2 41c0 2eab e03e
00000040: eba8 86bf 9e18 a8bd 4fe6 1fbf dc63 c9bf
00000050: 44fc 6bbf 0326 88bf 0ff1 afbe fc1c c7be
00000060: ff58 98be be9f 8ebf a4c7 ebbf f662 54bf
00000070: 963e 843f a225 97be c8b5 f5bf a20a c73e
00000080: 9e95 3cbf 76fb 2cbc a378 adbe c976 d23f
00000090: 0af5 10bf 7008 c5bf 1688 de3d d68f 0d3e
000000a0: d6fc 00bf 4f73 a7bd 8ba2 bcbd 12a0 963f
000000b0: 52d2 53be ab5b bd3f 2099 5ebf 5629 fd3e
000000c0: 1614 663f 3401 b5bd
1.54801 -0.0981688 -1.66714 0.118809 -0.354417 -0.435816 -1.42726 0.038447
0.440151 0.921942 -0.850513 0.177401 -0.139891 -2.13019 -3.02942 0.438806
-1.05203 -0.0820782 -0.624608 -1.57336 -0.921818 -1.06366 -0.343636 -0.388893
-0.297554 -1.11425 -1.84203 -0.829635 1.03316 -0.295209 -1.91961 0.388753
-0.736658 -0.010558 -0.338811 1.64425 -0.566239 -1.53932 0.108658 0.138244
-0.503858 -0.0817629 -0.0921069 1.17676 -0.206857 1.47936 -0.869524 0.494456
0.898744 -0.0883812

Operation_5_MatMul_W f4 [50, 50]
00000000: 058b 9bbf b1f9 34bf 79b1 f0bc d193 9abe
00000010: fe91 b3bb c5ed 863d e3c7 a8be ac55 fb3d
00000020: c41c c9bd 8e02 04be 95f1 cbbf 58a8 d5bd
00000030: c380 bdbe cc62 623e 7227 62bd 361f 073e
00000040: ab3f 22be df15 113e 33fd 32bd d7a1 3a3f
00000050: a5bb 2f3f 2730 bdbd be2d 58be 753b fb3d
00000060: e814 a43e 8e00 b0bb afee 283e cbd7 01bf
00000070: d8f4 103e f163 ec3e 1007 793e 8327 3ebd
00000080: 89cf 853e 01f2 ca3c 8d26 373e 7f87 4e3f
00000090: e658 0e3e 84d4 6d3b d72f f83d cdcd 173d
000000a0: 266d d23e ec31 41be df52 163f 8d43 3dbe
000000b0: 2906 303f 3815 493e f08b 2b3e 1ec6 e43d
000000c0: c5f2 5d3d 9cc5 273f cca7 1d3d d7ce 013d
000000d0: 499f 763d 5f99 073e 31d3 51bc 0091 8e3d
000000e0: d62a cb3c d40e df3d 1232 f03d ede4 bd3d
000000f0: 0ac2 30bd 2288 c33d 6e3a 1d3d 21e9 b23b
00000100: a6a3 523c 1840 d7bb 3f1c 143e 55fb d3bb
00000110: 2100 9dbc 8847 023d fc70 003e 0f9d 1a3c
00000120: 780c ef3d dff3 e83c 19cb b43d e832 f53d
00000130: 5e30 f83c cfc4 cf3c 7da2 bcbc 6529 033d
00000140: 20f9 393d ad35 af3c b73a 0a3d fb25 5dbd
00000150: 8886 a03d e049 cbbc 24d7 28bc fb79 d33d
00000160: b161 b73d cba0 fa3d 8844 08bb 2b06 5ebd
00000170: ff24 fe3d 1b0f b63c 1337 3dbd 07b7 503d
00000180: af74 a33c 44fd 2ebc 69e0 073d 091f b53d
00000190: 8b87 7fbf 2c82 2fbe f111 a13d f536 ecbc
000001a0: 9dbe b9bc c9ca afbe 6406 dabf cb30 2e3e
000001b0: 05c5 8fbe de92 dcbd 0cb0 0f3f 00a7 9cbc
000001c0: d064 afbe acc6 d2be 7677 153b fa41 4dbe
000001d0: c7bc 86be 3ee8 593c cba8 ad3d 71ab 10bf
000001e0: 8bfd b5bf 5a1e b5bc 49d7 acbf 9a79 923e
000001f0: 397c ca3e f070 86bd c210 20bc 3d9a babe
00000200: 4243 4fbf ea25 363e 5874 f3be 9ce9 943c
00000210: 1f33 0bbd 1afd b83e 8425 03bd 6ebb 353d
00000220: e82d c6be d4ba 2dbe dc94 bcbc 989c ff3c
00000230: 5f95 2b3e 89ec b33e 2027 103f 0ef4 f03d
00000240: b890 07bd 1a03 413d 3108 0cbe 5c1e 93be
00000250: a9f8 afbe 79eb bcbe e4d9 7d3f aa7d ca3e
00000260: 209c 6fbe 85e9 fb3e a8fc 10bd 166a 0fc0
00000270: bbb4 a93e 7047 833d e07a b9bc 4207 ddbe
00000280: 5133 403f 925e 543e 8ca0 7d3f f1ba c6bf
00000290: 577a f5be c93b e73d 014d 3c3f 4d30 c4be
000002a0: ef86 59bb 7d05 81bf 6893 773f 048f 4f3e
000002b0: 847e 723f c4e9 64be fcfd 763f d810 3c3d
000002c0: 2252 43be 4ef0 1d3e e7c6 903f 48fa 543e
000002d0: 41f4 ccbe 30fc 58bb 0c95 1fbe 0926 283d
000002e0: d0f1 313d 3cbc 5b3f f86b 1ec0 06f1 e13d
000002f0: 211d 0ebe 1a89 30be b9fe 5d3f 5f97 05bf
00000300: b2d9 21be 47d3 6f3d e04d b73e 478f dfbd
00000310: 7c7c 723e 58b4 8fbd 501a 4abe 13ee 25bf
00000320: 9783 a8ba c4af 40bf 084a 40bd ffca 2c40
00000330: e041 58bc 40de b73f 58ff 8940 4129 923e
00000340: 0470 c33e 5a64 af3f 53d0 c3c0 6f7f 4ebf
00000350: c078 0ec0 6402 863e 1040 f2bf 6211 033e
00000360: 41d5 48bd e86a d3be 9390 283f 4c52 a1be
00000370: cc40 19c0 7756 81bc 65df 2340 6a4d 2740
00000380: fe44 e53d a078 c23b d9b4 b23e 6afb 7b3f
00000390: f88d 833f 9626 b1bf edd8 f4bf 5f05 9dbc
000003a0: 65aa 20bd e561 9dbf b729 7ebd 89d2 06bf
000003b0: fe99 313f e8d9 883f 6b9b e2bd 4703 d83e
000003c0: f915 2bbe 6805 4440 6475 ba40 c7d7 1840
000003d0: 1729 943e eb1e 393f a836 a83e bd8d 113f
000003e0: 4373 8dbe 533d 6dbf fbe8 b8bf 0309 1a3f
000003f0: 1557 89bf aa28 2e3e 7823 183b a930 823f
-1.21518 -0.706935 -0.0293815 -0.301909 -0.00548005 0.0658832 -0.32965 0.122722
-0.0981994 -0.128916 -1.59331 -0.104325 -0.370123 0.22108 -0.0552134 0.131955
-0.158446 0.141685 -0.0436985 0.729032 0.686457 -0.092377 -0.211112 0.122672
0.320472 -0.00537116 0.164973 -0.507199 0.141559 0.4617 0.243191 -0.0464244
0.261349 0.0247736 0.178858 0.806755 0.139011 0.003629 0.121185 0.0370615
0.410989 -0.188667 0.587202 -0.184828 0.687594 0.19637 0.167526 0.111706
0.0541866 0.655359 0.0384901 0.0316914 0.0602105 0.132421 -0.0128067 0.0696125
0.0248007 0.108915 0.117283 0.0927218 -0.0431538 0.0954745 0.0383858 0.00545992
0.0128564 -0.00656892 0.144639 -0.00646917 -0.0191651 0.0318065 0.125431 0.00943686
0.116723 0.0284366 0.088278 0.119726 0.0302965 0.0253624 -0.0230267 0.0320219
0.0454036 0.0213879 0.0337474 -0.0539913 0.0783816 -0.0248155 -0.0103052 0.10326
0.0895418 0.122377 -0.00207928 -0.0542051 0.124094 0.022224 -0.0461951 0.0509558
0.0199531 -0.0106805 0.033173 0.0884381 -0.998162 -0.171395 0.0786475 -0.0288348
-0.0226739 -0.343344 -1.70332 0.170108 -0.2808 -0.107702 0.56128 -0.0191226
-0.342566 -0.411672 0.00228068 -0.200447 -0.263159 0.0133 0.0847946 -0.565116
-1.4218 -0.0221092 -1.35032 0.286084 0.395479 -0.0656451 -0.00976962 -0.364458
-0.80962 0.177879 -0.475497 0.0181778 -0.0339843 0.361306 -0.0320182 0.0443682
-0.387069 -0.169658 -0.0230202 0.0312026 0.167562 0.351414 0.563097 0.117653
-0.033097 0.0471221 -0.13675 -0.287341 -0.343694 -0.368984 0.991606 0.39549
-0.233994 0.492016 -0.0353972 -2.24085 0.331457 0.0641011 -0.0226416 -0.431696
0.750783 0.207392 0.990731 -1.55258 -0.479449 0.112907 0.73555 -0.383181
-0.0033192 -1.00798 0.967093 0.202694 0.947243 -0.223548 0.964813 0.0459145
-0.190743 0.154237 1.13107 0.207986 -0.400301 -0.00331093 -0.155842 0.0410519
0.0434435 0.858341 -2.47534 0.110323 -0.138783 -0.172398 0.867168 -0.521841
-0.158057 0.0585511 0.358016 -0.10916 0.236803 -0.0701682 -0.197366 -0.648164
-0.00128566 -0.752682 -0.0469456 2.69989 -0.0131993 1.43647 4.31242 0.285471
0.381714 1.37025 -6.11918 -0.806632 -2.22612 0.261737 -1.89258 0.127996
-0.0490315 -0.412925 0.658456 -0.315081 -2.39458 -0.0157883 2.56051 2.6141
0.111948 0.00593479 0.349036 0.984305 1.02777 -1.38399 -1.91287 -0.0191676
-0.039225 -1.22955 -0.0620515 -0.52665 0.693756 1.06915 -0.110648 0.4219
-0.167076 3.06283 5.82683 2.38817 0.289376 0.723128 0.328542 0.568569
-0.27627 -0.926717 -1.44461 0.6017 -1.07297 0.170077 0.00232145 1.01711

Operation_5_Add_B f4 [50]
00000000: 9695 8ebf 6ceb 6fbf 9774 2cbf 793b ee3f
00000010: c4aa 8bbc 4bb0 e0be 46b1 ac3e bd1d a1bf
00000020: a722 2dbf a0e1 313f 280f cbbf d387 e63f
00000030: 8cb9 61c0 b0e6 f03f 72fa 663f f6ee bfbf
00000040: 9eea 40c0 d6c5 81bf 8c9d 603f f92c afbf
00000050: 029a b03f d908 d43f 7daf 01bf c861 04bf
00000060: 24d3 65bf 766d cfbd d977 e9bf 3220 8fbf
00000070: 02f1 2a40 683f 16c0 5665 a3bf 6ddd f2bc
00000080: 4771 863e 4624 5a3e cadd 973e 5eba 2bc0
00000090: da73 55bf 959f b43f 444e 633f 2f8b a13f
000000a0: 67b8 41be 766c bc3f 1405 2ac0 6ff0 b53f
000000b0: b4e5 04bf ff41 34be 029a 88be c64f 4bbf
000000c0: 793b 06c0 3d0f 06c0
-1.11394 -0.937186 -0.673654 1.86119 -0.0170492 -0.438845 0.33729 -1.25872
-0.67631 0.694849 -1.5864 1.80102 -3.52695 1.88204 0.902259 -1.49948
-3.01432 -1.01385 0.877404 -1.36856 1.3797 1.65652 -0.506584 -0.517117
-0.897753 -0.101283 -1.82397 -1.11817 2.67096 -2.34762 -1.27653 -0.0296466
0.262583 0.213029 0.296614 -2.68325 -0.833799 1.41112 0.887913 1.26206
-0.18918 1.47206 -2.65656 1.4214 -0.51913 -0.176033 -0.2668 -0.794186
-2.09738 -2.09468

Operation_6_MatMul_W f4 [50, 50]
00000000: 15d3 fdbb 86a6 51bd 28a9 22bd 450c 00bd
00000010: a631 75bd 88bb 7ebf a224 99bd c2de ef38
00000020: 2bdf 13be 66f1 673d 535b eabd 4568 9fbc
00000030: 5b5c 0fbf ee3c 86bd d63c 05bc cd03 983c
00000040: 4049 06bd c94b c8bd 11e7 1cbd 6329 92bb
00000050: 5af4 2ebe 04a4 a23c 9c4b 96bc 8e67 a7bb
00000060: 122c f13b a66d f2bc e6b0 bbbe 6170 0dbe
00000070: 6b0e 60be 6fcd a7bc 9819 16be 6792 8dbd
00000080: dfd4 11bd ebc6 9ebb 8f22 06bd 6abc 59bd
00000090: c87a 093c fd16 ddbc d278 bdbc 933e 88bc
000000a0: ceb0 2cbc a596 97bd ba3b 003c b350 a13c
000000b0: 32bd ccbb de6d 233d b799 6abf 2cc8 603c
000000c0: 488a bcbf b558 653d 10fc 393d 4a29 1040
000000d0: 19e8 183c a708 d0bd 3bbb c6bb 52d5 b83f
000000e0: 0af7 3a3e 6a85 e93d 8cbb 413e d732 a1be
000000f0: 05df 043e e21f 163d b0ed 233d 9aeb 843e
00000100: c88a abbc dbfa a9be 8427 babb 4793 5b3e
00000110: 56f0 2b3e 86c0 96bd a33b 043f cb14 133d
00000120: 93c7 f3bd 9d10 9dba 386b b0bc 9cd5 c7bd
00000130: 861b e43f 5f60 ae3e 04c0 92bd 6f27 963d
00000140: 78b6 b73e 512d 823e a5a2 d13d e153 4a3c
00000150: 02ba bf3d 41b9 fdbe c076 30bc 9a2b 3ebd
00000160: f238 96bc 67d6 52bc 6ca9 e83c 7cb8 d4be
00000170: 6b9d d8bd 63a6 c4ba bca5 06bd 2484 e2bc
00000180: 016b 853e f261 133c b1b9 f4bc 06d0 943c
00000190: 4b7d 74bd 611a aebe 1de4 35bd 69da 8f3c
000001a0: 112c a8bd 27fa 0c3f b9e2 9abe a191 bebb
000001b0: 7d94 113e 02f1 fabe db31 75be ddd0 d43c
000001c0: 107a d6bd 51ca 7a3d e6f6 dcbc 06f4 72be
000001d0: 198d 21bd 884c d93d eb37 e3be ba9e 88be
000001e0: 490e 583e a707 45bd 0519 89be 890b bc3a
000001f0: 57ee bdbe 7da3 673d 666b 953f f965 20be
00000200: 4ca9 dbbe fce4 433d b950 e1be b455 01bf
00000210: 355d cfbc b39a 29bd f4e7 11bd 8e57 e0bd
00000220: a5ad 21bc 3734 15be 520d 2fbf 2a0e 56bd
00000230: 747b e9bd fa27 78be af72 bdbd e525 a43c
00000240: 7605 d1bc f4fb 3abf 96d5 8d3b db91 20bc
00000250: 7774 a23d 450d aebe abb7 913d 7008 4740
00000260: 07a4 123b 227f bc3b 54df be3d f1f4 04c0
00000270: 617c 423d 3ff2 c83d 0682 303e 766c 043d
00000280: eeef 873c ae91 6ebc e926 43c0 7afb 27bf
00000290: 7f3d 55bd 93c9 79be bbd6 f9bc 76e4 023c
000002a0: 347d 3b3d e88d 9ebd 0ddf 22be de16 763c
000002b0: 5bf3 ae3d 7b94 9bbd 4be8 4e3d 7784 133e
000002c0: ce70 d9c0 f470 2ebf 045a da3d 5717 813c
000002d0: 9b74 133f 7286 423e 4cdc 2eb9 11ae 1b3d
000002e0: 2be3 ba3b 1fba 80be 5ad1 4b3d d847 53c0
000002f0: 9695 7ebf 04a9 04be 0798 293e 9e61 aa3e
00000300: 3ebf 393c f3d6 ef3c 7853 fcbb 7aba 843d
00000310: b0e1 4ebd 9d3a 25bd 48f0 503d 1344 fd3d
00000320: 0462 c8bc d1b8 2bbd 2987 a03c fcc3 b73b
00000330: 969f ca3c 4384 493c 9c1e 0f3d e0d0 c03c
00000340: 529d 8ebc fa98 8fbc 5460 373d 77ce 603c
00000350: 8572 473d 30ef 363d 1c76 463b 54ee 54bd
00000360: bff4 11bd 5415 3f3d d075 2bbc fab2 193d
00000370: 66b7 3bbc 1d14 5e3d 767c 4a3d 1a3e 38bd
00000380: d4b5 1b3d daaf 96bc f61e 33bd 23ba a73c
00000390: 7514 123c 2360 193d b2c8 653c 0f24 d4bc
000003a0: 8e84 2c3d 0ab2 0fbd f0e3 03bd 19ab 2d3d
000003b0: f942 d23c d416 b23c 3af4 0c3d eaff c13c
000003c0: 46b5 083d 7e58 2abd b154 323d cbaf 303d
000003d0: c211 c53b e5dd 47bd 068f 633b 719b 1fbd
000003e0: 19e3 223b cdc4 393d b24c 3f3e 9319 8fbe
000003f0: a4fc 243c 392f a93c a914 fb3d 74ce 7f3e
-0.00774611 -0.0511842 -0.0397121 -0.0312617 -0.0598618 -0.995049 -0.0747769 0.000114379
-0.144406 0.0566267 -0.114432 -0.0194589 -0.560003 -0.0655459 -0.00813218 0.0185565
-0.0327847 -0.0978008 -0.0383063 -0.0044605 -0.170854 0.0198536 -0.0183466 -0.00510878
0.00735999 -0.0295933 -0.366584 -0.138124 -0.218805 -0.0204837 -0.146582 -0.0691269
-0.0356034 -0.00484549 -0.0327478 -0.0531582 0.00839109 -0.0269885 -0.0231289 -0.0166314
-0.0105402 -0.0740178 0.00782674 0.0196918 -0.00624814 0.0398997 -0.916408 0.0137196
-1.47297 0.0559928 0.0454064 2.25252 0.00933268 -0.101579 -0.0060648 1.44401
0.182583 0.114024 0.189192 -0.314841 0.129757 0.0366515 0.0400216 0.25961
-0.0209402 -0.331992 -0.00568098 0.214429 0.167909 -0.0736094 0.516535 0.0359085
-0.119033 -0.00119831 -0.0215355 -0.0975754 1.78209 0.340579 -0.0716553 0.0733174
0.358814 0.254252 0.102361 0.0123491 0.0936165 -0.495554 -0.0107705 -0.0464283
-0.0183377 -0.0128685 0.0284011 -0.41547 -0.105769 -0.00150032 -0.0328729 -0.0276509
0.260582 0.00899552 -0.0298737 0.0181656 -0.0596898 -0.340045 -0.044407 0.0175602
-0.0821153 0.550692 -0.302511 -0.0058157 0.142168 -0.49012 -0.239448 0.0259785
-0.104725 0.0612281 -0.0269732 -0.237259 -0.0394412 0.106103 -0.443786 -0.266836
0.210992 -0.048103 -0.267769 0.00143467 -0.370959 0.0565524 1.16734 -0.156639
-0.429026 0.0478258 -0.440069 -0.505214 -0.025313 -0.0414073 -0.0356216 -0.109542
-0.00986806 -0.145707 -0.683797 -0.0522596 -0.114005 -0.24234 -0.0925039 0.0200376
-0.0255153 -0.730407 0.00432844 -0.0098004 0.0793237 -0.339945 0.0711511 3.10989
0.00223756 0.00575246 0.0931994 -2.07745 0.0474819 0.0981183 0.172371 0.03233
0.0165939 -0.0145611 -3.04925 -0.656181 -0.0520606 -0.243933 -0.0304979 0.00798904
0.0457737 -0.0774191 -0.159054 0.0150201 0.0854251 -0.0759668 0.0505145 0.14406
-6.79502 -0.681411 0.106617 0.0157582 0.575998 0.189966 -0.00016676 0.0380078
0.00570335 -0.25142 0.0497602 -3.30126 -0.99447 -0.129551 0.165619 0.332776
0.0113371 0.0292773 -0.00770038 0.0648088 -0.0505082 -0.0403391 0.0510104 0.123665
-0.0244608 -0.0419243 0.0195957 0.00560808 0.0247343 0.0122996 0.0349413 0.0235371
-0.017409 -0.017529 0.0447696 0.0137211 0.0486932 0.0446617 0.00302828 -0.0519851
-0.0356338 0.0466512 -0.0104651 0.0375242 -0.0114573 0.0542184 0.0494351 -0.0449811
0.0380152 -0.0183944 -0.0437307 0.0204745 0.00891601 0.0374452 0.0140249 -0.0258961
0.0421186 -0.0350819 -0.0321998 0.0423995 0.0256667 0.0217394 0.0344126 0.0236816
0.033376 -0.0415883 0.0435378 0.0431364 0.00601408 -0.0487956 0.00347227 -0.0389666
0.00248546 0.0453537 0.186816 -0.279492 0.01007 0.0206524 0.122598 0.249811

Operation_6_Add_B f4 [50]
00000000: c8b1 85be 7ea7 0dbf dc3d 4abd 3f35 debe
00000010: 83e0 e1be 52f0 50bf e2ad 23be fe7f 7cbe
00000020: d66e 333f 8f33 253f bf0c 1e3f 425e 973e
00000030: 4fcd 2d3f a33e 5d3f 22df 353e 6ade a5bf
00000040: 9698 c73e e9b5 d93e 68cf 05bf e2a6 903d
00000050: 8b71 ca3f 5717 213d 6c79 bdbe f29a 373e
00000060: 1c19 35bd cea5 f8be 61fd 9ac0 6763 ed3e
00000070: 7e1d bcbf 9032 0ebf 1e6f 563f 3ca2 f2be
00000080: 5306 163f 84f2 8e3e f4bf c43e bedc 6fbf
00000090: ce56 a93d 2a77 ba3c d0d2 353e bb96 35bc
000000a0: 69c5 37be c5e3 323f bbd2 eabe 20e6 8c3d
000000b0: d9d0 0d3e aca9 78bf 5b9a 77bf 45a1 e53d
000000c0: 9ea7 9bbd feb6 ffbe
-0.261122 -0.553337 -0.0493754 -0.434 -0.441166 -0.816167 -0.159843 -0.246582
0.70091 0.645318 0.617382 0.295641 0.678914 0.864237 0.177609 -1.29585
0.389836 0.425216 -0.522696 0.0706308 1.58159 0.0393289 -0.370067 0.179302
-0.0442134 -0.48564 -4.84343 0.463649 -1.46965 -0.555459 0.837633 -0.473894
0.586034 0.279194 0.384277 -0.936962 0.0826851 0.0227619 0.177562 -0.0110833
-0.179464 0.698788 -0.458639 0.0687983 0.138492 -0.971339 -0.967199 0.112124
-0.0760033 -0.499443

linear_7_MatMul_W f4 [50, 5]
00000000: 28f0 8ebc 9f8c 96ba 7794 94bc 65ba dfbb
00000010: 474f 36bc 6a09 433c 8d97 f2ba 88f7 89b9
00000020: e2bb a4ba a272 1fba 9d82 1c3d bc3d 083d
00000030: 370d 1b3d 8037 b939 82e7 f9bc 576e 333b
00000040: cba8 e83c 3412 02bc 219e 7c3b de4f b6ba
00000050: 30ee e93b dffd 8a38 2ac7 043d 1346 75bb
00000060: bafc 223d e634 553c 589f 0cba 98b7 d0b8
00000070: baba a039 0dad 0339 1549 a6bb 811c 39bc
00000080: 0e3d b5ba 208a 38bc 2d6f f038 74e1 91bc
00000090: a25e 40b8 08d2 e0bc 4629 1d3b e081 21bd
000000a0: 48ae 513d 717c a3ba 6f49 1c3a 26be ecb9
000000b0: 576e b33a c27c e0bb 7b57 14bc 83fd 15bc
000000c0: cfca acba 0202 a9bb 864b 96bb a0aa 00bc
000000d0: 8fde 95bb ad19 f4bb 5d51 a9bb e542 e93b
000000e0: 9844 36ba 1b76 3cba 5935 883c 76a1 413b
000000f0: 92d7 39bc 84ef 013b e3d9 abba 834d 5fbb
00000100: 9a1d 10bb 73a2 383c 4556 0ebb 2ee1 16b9
00000110: 80e8 133a 44dd 403a 0a99 92bb 65f6 013b
00000120: b160 bfb9 5d32 f6b9 0f06 51ba 5c0f 74bb
00000130: b4d8 9cbc 8cd6 763b 29df bdbc 9422 263b
00000140: b3e8 e33b 8352 b0bb 460a 61b9 1ff7 f939
00000150: 1fa3 38bb 0bb6 11be 86ec d53b 0416 ac39
00000160: 1af1 4f3a 53f5 3bb9 bdac 643c 7f40 b13c
00000170: 7253 5e3c fe08 e83c ae9d c9bb 14a3 dd3c
00000180: 03f6 ea3b 0970 7a3c f731 f03c 64d1 4f3c
00000190: 926a 293d 4b19 bcba fc4c 9ab6 55be a9ba
000001a0: 8484 83b9 6b2d 2bba 7156 c43c eb88 a6ba
000001b0: 3dea 543c b466 d8ba e071 233b 9862 d83c
000001c0: 51f0 f93c 67c2 653c 0feb f23c 9b35 7c3b
000001d0: f7e9 2dba 14d1 af3c 5abe 093b 2d71 c93c
000001e0: 2609 783c 7dfe e03c 20fd 803c 6fcf b93b
000001f0: 240d ee3b cd72 593d fcaf 8c3a 1816 923c
00000200: cfc6 403d dfe2 613d 36ce 263c e9e0 62ba
00000210: 41e9 0a39 db4f 043b dc44 15b9 83c8 9abb
00000220: 6f33 70bc 7133 81bb 2851 a33b 3b3d 8cba
00000230: 8c5f dd3c 9457 dd3c 2511 d03c d24c dc3c
00000240: 4f2f e73c d9f5 c13c 4a89 933c 2649 e13c
00000250: 5680 ef3c 6bcb 063c 050e 123d e60a 0cbb
00000260: 17d7 f83a 768a 803a cf9f 2538 c358 f03b
00000270: 6d0c 703b 7f09 053c 24a5 8fbc ff9f bb3b
00000280: 3477 1f3c cef6 8d3c 783c 52bb 5128 30bc
00000290: fec7 f4bb 7414 563c b8ba 6f3b 5094 5f3c
000002a0: 175c 3d3c 18ad 883c 153c 603c 2fda 043c
000002b0: 5b51 943c 06ca 58bb 364a 4d3c eccc 103b
000002c0: eca0 923c 16bc 8d3c 7fcd 033d dc3a 6e3c
000002d0: 01c2 07bb 78a4 303c 9985 933b 3b01 8d3c
000002e0: 0006 9b3b 5caa 143c 6492 113b e19f ca3b
000002f0: e586 57bb 99a4 0d3c c09b 493c f68e d1b9
00000300: 1408 3b3c c05b 013c 2699 0d3c c9b4 11bb
00000310: 6a31 783c 39bb efbb 1cab 193d 7772 3cbc
00000320: 0249 583c 17a2 9e3c d398 5a3c f7d9 b3bb
00000330: 48ca 8e3b 77a4 973a b5b2 33bc f47d 44bb
00000340: 368a b03b 13da 69ba 7d31 843b 4150 893c
00000350: 894e c73a 2132 b43b 3ad4 88bb 9826 363b
00000360: d80f 10bb 82db ff3c 3a91 643b 8d56 ff3c
00000370: 1e6f 0f3c ec99 af3c 584b 8b3c 3087 b83c
00000380: 1725 8d3c 905e 1c3c b091 c53b 3455 c93b
00000390: 3620 82bc 4938 a33c 864a 0d3d 3481 e23c
000003a0: d410 f03c 4008 d23c f4f3 b03c 7118 713c
000003b0: d7f5 303c 56f6 173c 2155 dabb a53e 7b3b
000003c0: 4879 debb f14e 3abb 9dc5 41bc b9da af3c
000003d0: d893 8abc 5ebc 9fbc 05ae 01bd 9ae7 adbc
000003e0: 93d1 963b f1eb 2cbc
-0.0174485 -0.0011486 -0.0181372 -0.00682764 -0.0111273 0.0119041 -0.00185083 -0.000263151
-0.00125682 -0.000608245 0.0382105 0.033262 0.0378544 0.000353273 -0.0305059 0.0027379
0.0284008 -0.00793891 0.00385464 -0.00139093 0.00713899 6.62764e-05 0.0324165 -0.00374258
0.0397918 0.0130131 -0.000536432 -9.95241e-05 0.000306567 0.000125576 -0.00507463 -0.0112983
-0.00138274 -0.0112634 0.000114648 -0.0178077 -4.58645e-05 -0.0274439 0.00239809 -0.0394305
0.0511916 -0.0012473 0.000596187 -0.000451551 0.00136895 -0.00685081 -0.00905406 -0.00915468
-0.0013183 -0.00515771 -0.00458664 -0.00785318 -0.00457365 -0.00744935 -0.00516717 0.00711857
-0.000695297 -0.000718923 0.016627 0.00295457 -0.0113429 0.00198266 -0.00131112 -0.00340733
-0.00219903 0.0112692 -0.00217189 -0.00014389 0.000564225 0.000735719 -0.00447381 0.00198307
-0.000365024 -0.000469583 -0.000797362 -0.00372406 -0.0191463 0.00376645 -0.0231777 0.00253502
0.00695523 -0.00538093 -0.000214615 0.000476771 -0.00281734 -0.142296 0.00652844 0.000328228
0.000793235 -0.000179251 0.0139572 0.0216372 0.0135697 0.0283246 -0.00615283 0.0270553
0.00717044 0.0152855 0.0293207 0.0126842 0.0413614 -0.00143508 -4.59852e-06 -0.00129504
-0.00025085 -0.00065299 0.023967 -0.00127056 0.0129953 -0.00165101 0.00249397 0.0264142
0.0305101 0.0140234 0.0296531 0.00384841 -0.000663429 0.021462 0.0021018 0.0245901
0.0151389 0.0274651 0.0157457 0.00567048 0.00726475 0.053088 0.00107336 0.0178328
0.0470646 0.055148 0.010181 -0.000865473 0.000132476 0.00201892 -0.000142354 -0.00472361
-0.0146607 -0.0039429 0.00498404 -0.00106994 0.0270231 0.0270193 0.0253988 0.0268921
0.0282208 0.0236768 0.0180098 0.0275007 0.029236 0.00822721 0.0356579 -0.00213688
0.0018985 0.000980689 3.94879e-05 0.0073348 0.00366285 0.00811994 -0.0175348 0.00572586
0.00973301 0.0173296 -0.00320795 -0.0107518 -0.00747013 0.0130664 0.00365798 0.0136462
0.0115576 0.0166841 0.0136862 0.00810866 0.0181052 -0.00330794 0.0125299 0.00220948
0.017899 0.0173016 0.0321784 0.0145404 -0.0020715 0.0107814 0.00450201 0.0172125
0.00473094 0.00907382 0.00222125 0.00618361 -0.00328868 0.0086452 0.0123052 -0.000399701
0.0114155 0.00789541 0.00864247 -0.0022233 0.0151485 -0.00731602 0.0375167 -0.0115019
0.013201 0.0193644 0.0133421 -0.00548863 0.00435761 0.00115694 -0.0109679 -0.00299823
0.00538757 -0.000892074 0.00403422 0.0167619 0.00152059 0.00549914 -0.00417569 0.0027794
-0.00219821 0.0312326 0.00348766 0.0311692 0.00875452 0.0214357 0.0170037 0.0225254
0.0172296 0.00954403 0.00602933 0.00614419 -0.0158845 0.0199243 0.0344949 0.0276495
0.0293049 0.0256387 0.0216007 0.0147153 0.0108008 0.00927504 -0.00666298 0.00383369
-0.00678936 -0.00284284 -0.0118269 0.0214666 -0.0169162 -0.019499 -0.0316601 -0.0212286
0.00460262 -0.0105543

linear_7_Add_B f4 [5]
00000000: 9a32 a6bc 705b 9bbc 25c9 983c 0ecc 9bbc
00000010: 443a 973c
-0.0202878 -0.0189645 0.0186506 -0.0190182 0.0184604
