networks/onnx/ACASXU_run2a_2_8_batch_2000.onnx (onnx, 55914 bytes, 15 tensors)

input_AvgImg f4 [1, 1, 5]
0.0 0.0 0.0 0.0 0.0
00000000: 0000 0000 0000 0000 0000 0000 0000 0000
00000010: 0000 0000

Operation_1_MatMul_W f4 [5, 50]
0.070272 0.0165398 -0.0877223 0.0525451 2.1367 -0.0474507 0.185324 0.0381486
-0.0587635 -0.0384673 -0.668643 -0.0142908 0.0158272 -0.0208974 -0.0243588 0.0636961
0.0271437 -0.0351849 0.00302928 -0.140445 -0.11201 0.15898 0.0579642 0.0130458
-0.0331147 0.00804011 -2.04259 0.074089 0.0176176 -0.0261073 -0.0196541 -0.436799
0.307945 0.0152839 0.0669301 -0.00215615 0.0153876 0.00615322 -0.000951355 0.0287879
0.0570251 -0.036714 -0.0556948 0.160517 -0.175353 0.107143 -0.0057451 -0.048997
-0.00036876 0.0336002 -0.0130968 0.00536952 0.00563593 0.531527 -0.00577517 1.13988
0.147752 0.0757688 -0.744535 0.0600588 0.852953 -0.0918651 -0.00196999 -2.9758
-0.537531 0.836332 -0.293845 0.729987 1.57425 -1.53918 -1.21025 -1.05899
3.02424 -0.00495559 -1.02184 0.43326 -0.00444215 -1.81804 0.670493 -0.691692
-1.0841 0.468104 0.287849 2.53215 0.730934 0.0605526 0.747975 -0.382614
0.96484 1.10108 -0.650871 1.32177 -1.1027 1.57452 1.01335 1.21618
-0.00161576 0.174388 -0.0128004 -0.615177 0.0144202 0.00237793 0.0235022 -0.385939
-0.00298958 -1.12018 -0.100792 -0.025282 -0.387067 0.0262445 -0.515551 0.783737
0.0271356 -0.17327 -0.756114 -1.32957 0.971825 1.95104 -1.3249 1.52309
1.61355 1.2147 0.164024 0.000420045 1.27785 0.539277 0.0577815 0.189861
1.90779 0.901961 1.4201 -1.01437 0.0312023 0.0132862 0.126856 0.00670715
1.09653 -0.495695 -1.16894 0.48663 -0.108595 -1.59801 1.71632 -0.529613
-1.13695 -0.920897 -0.00218879 0.333782 -0.0109206 -0.183519 0.254317 0.00058158
-0.659756 0.336527 -0.0083969 0.179053 0.106328 -1.58948 0.235141 -0.0112672
0.185916 0.766803 -0.14616 0.115599 0.238256 0.0492417 0.125243 -0.217721
0.0211074 0.0874706 -0.130154 0.137615 0.228517 0.000770651 0.147997 -0.445033
0.0258514 0.207354 0.143415 0.154339 -0.126522 -0.0742243 -0.00793027 0.0181449
0.219319 0.0276148 0.362149 -0.404955 -0.172709 0.76758 0.419584 -0.0514586
-0.472577 -0.00399214 -0.0833105 0.223485 -0.0103272 0.473624 0.0140255 -0.294943
0.097388 0.00745396 0.65246 -0.52128 0.00103432 -0.276496 0.340885 -0.190426
-0.166011 -1.02022 -0.181002 -0.797346 -0.92121 -0.0881401 -0.137505 -0.165041
-0.103279 0.228327 -0.261524 -0.359991 0.388917 -0.163157 -0.662964 -0.00217222
-0.311974 0.373208 -0.139985 -0.379751 -0.164469 -0.260305 0.3968 0.194948
-0.24985 -0.0256028 -0.388305 -1.68392 -0.232158 -0.0464481 0.241229 -0.959793
-0.550337 0.227516 0.612951 -0.390725 0.347401 -0.107703 -0.00523821 -0.515213
0.000740398 0.4578
00000000: c4ea 8f3d 7a7e 873c c0a7 b3bd 8839 573d
00000010: b1bf 0840 aa5b 42bd 93c5 3d3e b541 1c3d
00000020: ffb1 70bd e38f 1dbd 302c 2bbf f623 6abc
00000030: 0ba8 813c 0631 abbc 1b8c c7bc 1a73 823d
00000040: 775c de3c 0b1e 10bd e386 463b d0d0 0fbe
00000050: 8065 e5bd a7cb 223e de6b 6d3d 0dbe 553c
00000060: 48a3 07bd aaba 033c cbb9 02c0 f9bb 973d
00000070: c952 903c fade d5bc a301 a1bc 1ea4 dfbe
00000080: f8aa 9d3e 5369 7a3c a612 893d 324e 0dbb
00000090: 461c 7c3c f3a0 c93b 5a64 79ba 9ad4 eb3c
000000a0: 2793 693d 6b61 16bd 3b20 64bd 925e 243e
000000b0: bd8f 33be ca6d db3d 6441 bcbb 14b1 48bd
000000c0: 2156 c1b9 5da0 093d f693 56bc ccf2 af3b
000000d0: 9cad b83b 2712 083f a33d bdbb 96e7 913f
000000e0: 4d4c 173e ac2c 9b3d d999 3ebf 3700 763d
000000f0: 215b 5a3f c523 bcbd f31a 01bb 8273 3ec0
00000100: a29b 09bf db19 563f da72 96be 6ee0 3a3f
00000110: 0681 c93f da03 c5bf 79e9 9abf fc8c 87bf
00000120: 268d 4140 8062 a2bb a7cb 82bf 41d4 dd3e
00000130: 748f 91bb 89b5 e8bf 6ea5 2b3f ba12 31bf
00000140: cac3 8abf 54ab ef3e f260 933e bf0e 2240
00000150: 7e1e 3b3f 0106 783d 4a7b 3f3f fbe5 c3be
00000160: c1ff 763f 30f0 8c3f 7b9f 26bf c22f a93f
00000170: 4625 8dbf df89 c93f 74b5 813f c9ab 9b3f
00000180: e9c7 d3ba c592 323e c5b8 51bc 3d7c 1dbf
00000190: b442 6c3c 0cd7 1b3b b087 c03c cc99 c5be
000001a0: d4ec 43bb 0f62 8fbf 096c cebd 321c cfbc
000001b0: a52d c6be b5fe d63c 26fb 03bf fda2 483f
000001c0: 7a4b de3c b16d 31be b090 41bf 5a2f aabf
000001d0: 86c9 783f aebb f93f 5396 a9bf 9df4 c23f
000001e0: ce88 ce3f 4a7b 9b3f e8f5 273e 7c39 dc39
000001f0: 9790 a33f 0f0e 0a3f 4bac 6c3d ec6a 423e
00000200: 7632 f43f ebe6 663f d6c5 b53f e0d6 81bf
00000210: f79b ff3c 5dae 593c 8ae6 013e a7c7 db3b
00000220: 185b 8c3f bccb fdbe d39f 95bf 9127 f93e
00000230: 0e67 debd 978b ccbf 60b0 db3f b894 07bf
00000240: 9487 91bf e8bf 6bbf cd71 0fbb 79e5 aa3e
00000250: 51ec 32bc 68ec 3bbe d635 823e 2c75 183a
00000260: c5e5 28bf 444d ac3e 2793 09bc ab59 373e
00000270: 7fc2 d93d 1574 cbbf cdc8 703e 109a 38bc
00000280: c460 3e3e 344d 443f f8aa 15be 2bbf ec3d
00000290: 62f9 733e aab1 493d b33f 003e 41f2 5ebe
000002a0: 6de9 ac3c c923 b33d 1747 05be f2ea 0c3e
000002b0: 5c00 6a3e 8305 4a3a 878c 173e 5edb e3be
000002c0: 51c6 d33c 9b54 543e 62db 123e 0b0b 1e3e
000002d0: fc8e 01be e902 98bd f7ed 01bc 9da4 943c
000002e0: 2995 603e 6f38 e23c 986b b93e 4356 cfbe
000002f0: a1da 30be 1f80 443f b7d3 d63e 41c6 52bd
00000300: 9df5 f1be 7fd0 82bb b29e aabd 40d9 643e
00000310: 6b33 29bc d87e f23e 36cb 653c c502 97be
00000320: 5c73 c73d 5940 f43b 9e07 273f 9b72 05bf
00000330: 0592 873a e290 8dbe 7b88 ae3e 09ff 42be
00000340: cafe 29be 9296 82bf 9758 39be de1e 4cbf
00000350: 6bd4 6bbf cc82 b4bd 1cce 0cbe 8200 29be
00000360: f183 d3bd 8ece 693e 79e6 85be be50 b8be
00000370: 2120 c73e a112 27be 02b8 29bf ce5b 0ebb
00000380: 0ebb 9fbe 1e15 bf3e 3a58 0fbe b96e c2be
00000390: 906a 28be b246 85be 5f29 cb3e 73a0 473e
000003a0: aed8 7fbe f7bc d1bc eacf c6be b18a d7bf
000003b0: d4ba 6dbe 5d40 3ebd bc04 773e feb4 75bf
000003c0: e3e2 0cbf f4f9 683e 5bea 1c3f 1b0d c8be
000003d0: 8bde b13e 6493 dcbd 4aa5 abbb 00e5 03bf
000003e0: 4517 423a c364 ea3e

Operation_1_Add_B f4 [50]
0.029253 -0.019298 0.0437074 -0.108061 0.692276 -0.00559049 -0.0137473 -0.545751
0.127274 -0.404533 -0.251101 0.253943 -0.430788 0.0254458 -0.093286 -0.319261
-0.0173319 0.0356757 -0.199648 -0.15595 -0.318585 -0.386705 -0.344755 -0.0140164
-0.272656 0.0386731 -0.231376 -0.153327 -0.0336924 0.196676 -0.435016 -0.258405
-0.199926 -0.0253415 -0.166254 -0.343 -0.138017 0.180225 -0.546546 -0.17718
-0.11433 -0.549117 -0.722998 -0.271041 -0.180599 -0.393623 -0.01849 -0.0443609
-0.0236128 0.126688
00000000: fda3 ef3c d716 9ebc 8806 333d 164f ddbd
00000010: 0039 313f 6e30 b7bb 5b3c 61bc 56b6 0bbf
00000020: 1e54 023e f31e cfbe 4f90 80be d104 823e
00000030: 3f90 dcbe b673 d03c bb0c bfbd 2e76 a3be
00000040: a1fb 8dbc af20 123d 8670 4cbe 5bb1 1fbe
00000050: 931d a3be 33fe c5be ba83 b0be 0ba5 65bc
00000060: 9199 8bbe af67 1e3d d5ed 6cbe c101 1dbe
00000070: 0b01 0abd 6f65 493e 6bba debe a94d 84be
00000080: 67b9 4cbe fa98 cfbc 7d3e 2abe b29d afbe
00000090: 5454 0dbe e78c 383e 70ea 0bbf ad6e 35be
000000a0: d925 eabd ef92 0cbf 6616 39bf e3c5 8abe
000000b0: f2ee 38be f488 c9be 5778 97bc c6b3 35bd
000000c0: a16f c1bc 80ba 013e

Operation_2_MatMul_W f4 [50, 50]
-1.06274 1.12824 0.550124 -0.00531736 -0.548715 0.201814 -0.00372569 -0.469616
-0.409064 -0.641461 -0.0589333 -0.935066 0.851282 -1.33339 -0.00783148 -0.0424687
-0.767016 0.52069 1.48066 0.808623 0.115876 0.0161982 -0.418294 -0.211515
-0.805265 -0.632675 0.200779 0.0438115 -0.0371957 -0.90752 0.944716 0.146776
-0.217762 -0.135247 -0.0266801 -0.491367 1.06299 -3.70655e-05 1.48319 -1.49012
0.0499244 -0.782745 1.09628 -1.0662 0.0338312 -0.215659 0.580685 0.0388854
-3.3845 -0.014871 0.055171 -0.0179508 -0.0163823 0.000159368 -0.033346 0.0350172
0.0200179 0.0433246 0.013398 0.0511933 -0.0102023 0.00631932 0.018698 0.0380755
0.0342189 0.0125352 -0.0183337 -0.00681956 -0.0373647 -0.0265801 0.0081361 -0.0484136
-0.0453218 -0.0518558 -0.0295342 -0.0260706 -0.0328293 0.0205673 -0.00167412 0.0167253
-0.0309119 0.0414639 0.0571361 0.0342014 -0.00663522 0.0129455 0.0571573 0.0216174
0.0110937 -0.0215246 -0.0352981 -0.0251147 -0.0447178 -0.0198524 0.00424041 0.0155982
-0.0139725 0.0102249 0.0185246 0.00516792 -0.92734 0.0731351 -0.140578 -0.0280269
-0.866107 -0.681002 0.0288955 -1.68175 -0.164961 0.117916 -0.00675267 1.36313
1.53294 0.738404 -0.00203311 0.00686478 0.409511 -0.453735 -1.32387 0.878675
-0.245158 0.0372786 1.2294 -0.0198695 -0.731727 0.35714 0.512557 -2.12572
0.120908 0.0108859 1.01406 -0.0894817 -0.705206 -0.441802 -0.0468892 -0.234028
0.437523 -0.0403672 -0.0168578 -0.282371 1.66966 0.11791 1.12821 -0.64207
-0.0208116 1.26455 0.693907 0.0193614 0.480105 -0.0300196 0.351018 0.0976446
-0.217633 0.0219609 -0.167665 -0.513745 -0.048864 0.0656813 0.0462375 1.00836
-0.0369744 -4.69529 -0.990787 -1.16874 -0.00651402 -0.00693039 0.600359 -0.408654
-0.146513 -1.50411 -0.971685 -0.0503683 -0.970063 -0.00904075 0.688275 0.351209
0.588103 -1.00547 0.214602 0.344571 -0.98156 0.63035 -0.0749713 1.26892
0.00980609 0.0993921 -1.34295 0.0413974 0.129846 -0.729351 -0.312034 -0.491165
0.101711 0.0166532 -0.0165046 -0.162479 -0.708399 0.00153757 -1.18171 0.0239141
-0.0181685 0.0463608 2.21071 -0.0710017 -4.70519 0.0741542 -0.0385406 0.402477
-0.266089 0.00478599 0.00324322 0.089459 0.0372675 -7.78166 -0.047879 0.00272322
0.262398 -1.35268 0.282034 -0.00664693 0.0887375 3.48397e-05 0.0649258 -0.0624157
0.0299646 0.257865 -0.0159591 -0.12198 0.0462652 0.0222073 0.0882977 -0.0293322
-0.11244 0.135906 -0.0282524 -0.0624441 0.0012731 -0.058978 0.234502 0.0050012
-0.00383222 -0.168584 0.192027 0.0114047 -0.0298886 0.144434 0.185862 -0.0497201
0.178342 -0.0490801 0.237354 -0.97135 0.189974 0.00695699 -0.336189 0.172331
00000000: dd07 88bf 2b6a 903f edd4 0c3f 403d aebb
00000010: 9678 0cbf 54a8 4e3e b52a 74bb 8271 f0be
00000020: d670 d1be ca36 24bf 0b64 71bd 7c60 6fbf
00000030: 9eed 593f 86ac aabf 9c4f 00bc a9f3 2dbd
00000040: 295b 44bf f14b 053f 4486 bd3f eb01 4f3f
00000050: 6550 ed3d 16b2 843c a22a d6be 6397 58be
00000060: d925 4ebf fdf6 21bf 0399 4d3e b073 333d
00000070: 855a 18bd 3b53 68bf e8d8 713f 734c 163e
00000080: 00fd 5ebe 317e 0abe 3a90 dabc 7594 fbbe
00000090: 0e10 883f c776 1bb8 2bd9 bd3f 41bc bebf
000000a0: 877d 4c3d fa61 48bf e752 8c3f 3e79 88bf
000000b0: 9692 0a3d b7d5 5cbe c6a7 143f 4c46 1f3d
000000c0: a69b 58c0 7fa5 73bc fdfa 613d 8e0d 93bc
000000d0: 2c34 86bc 061c 2739 d195 08bd 326e 0f3d
000000e0: 94fc a33c 2375 313d 4983 5b3c 11b0 513d
000000f0: 8c27 27bc 4c12 cf3b 8c2c 993c 0ef5 1b3d
00000100: 1e29 0c3d 7160 4d3c 8e30 96bc 9e76 dfbb
00000110: ba0b 19bd 83be d9bc 474d 053c 574d 46bd
00000120: 5aa3 39bd bf66 54bd b5f1 f1bc 0392 d5bc
00000130: 0478 06bd c17c a83c 256e dbba 7f03 893c
00000140: f43a fdbc 0dd6 293d 8b07 6a3d c416 0c3d
00000150: 426c d9bb 5d19 543c c61d 6a3d f916 b13c
00000160: 5ac2 353c 5c54 b0bc be94 10bd 58bd cdbc
00000170: 032a 37bd 80a1 a2bc 23f3 8a3b 988f 7f3c
00000180: eaec 64bc 5786 273c e7c0 973c a857 a93b
00000190: 2766 6dbf dbc7 953d aef3 0fbe ab98 e5bc
000001a0: 30b9 5dbf 2656 2ebf 41b6 ec3c 9643 d7bf
000001b0: 89eb 28be f27d f13d 8045 ddbb 0b7b ae3f
000001c0: 6137 c43f 0b08 3d3f ed3d 05bb f3f1 e03b
000001d0: 6dab d13e f44f e8be 9274 a9bf d8f0 603f
000001e0: b30a 7bbe 72b1 183d fb5c 9d3f 5dc5 a2bc
000001f0: 7652 3bbf 0edb b63e f036 033f cc0b 08c0
00000200: 9d9e f73d c65a 323c b8cc 813f 2e42 b7bd
00000210: 6188 34bf df33 e2be e40e 40bd 09a5 6fbe
00000220: 0403 e03e 1458 25bd 5e19 8abc ef92 90be
00000230: 6bb7 d53f cc7a f13d 2f69 903f b35e 24bf
00000240: 177d aabc c6dc a13f e4a3 313f cc9b 9e3c
00000250: 53d0 f53e aaeb f5bc a2b8 b33e e4f9 c73d
00000260: 2fdb 5ebe 58e7 b33c 60b0 2bbe cb84 03bf
00000270: 9e25 48bd eb83 863d 8863 3d3d f111 813f
00000280: 7872 17bd d13f 96c0 38a4 7dbf 4699 95bf
00000290: 8f73 d5bb 5318 e3bb 21b1 193f 193b d1be
000002a0: 8107 16be ad86 c0bf 59c0 78bf fe4e 4ebd
000002b0: 0c56 78bf a71f 14bc ca32 303f abd1 b33e
000002c0: eb8d 163f 3eb3 80bf a0c0 5b3e 9c6b b03e
000002d0: 8447 7bbf 9e5e 213f 8e8a 99bd f86b a23f
000002e0: b9a9 203c 168e cb3d c9e5 abbf 5290 293d
000002f0: 5af6 043e bfb6 3abf ecc2 9fbe fb79 fbbe
00000300: db4d d03d 4b6c 883c a834 87bc e560 26be
00000310: a359 35bf 4a88 c93a 4642 97bf 81e7 c33c
00000320: 1bd6 94bc d2e4 3d3d 467c 0d40 5769 91bd
00000330: eb90 96c0 28de 973d c0dc 1dbd 7711 ce3e
00000340: d13c 88be cbd3 9c3b 348c 543b 4836 b73d
00000350: cea5 183d 5c03 f9c0 c51c 44bd 0d78 323b
00000360: 0859 863e 9e24 adbf c366 903e 7dce d9bb
00000370: 02bc b53d d820 1238 d1f7 843d 9ba7 7fbd
00000380: 5278 f53c e206 843e a9bc 82bc a6d0 f9bd
00000390: 9480 3d3d 15ec b53c 6dd5 b43d 154a f0bc
000003a0: f146 e6bd f12a 0b3e 9471 e7bc 62c5 7fbd
000003b0: 26de a63a ea92 71bd 4b21 703e 1be1 a33b
000003c0: fc25 7bbb 49a1 2cbe baa2 443e c7da 3a3c
000003d0: f0d8 f4bc 82e6 133e 9c52 3e3e 4ea7 4bbd
000003e0: 499f 363e 3708 49bd ed0c 733e 65aa 78bf
000003f0: 8b88 423e 76f7 e33b f720 acbe 8a77 303e

Operation_2_Add_B f4 [50]
-0.366151 0.416529 0.774598 -0.0122302 -0.403969 -0.215281 -0.0114307 -0.448421
0.740713 -0.338034 -0.0179464 1.76539 -1.21493 0.911121 -0.0101702 -0.0120106
1.39183 0.016371 0.527306 0.446288 -0.391254 -0.0160214 -1.07111 -0.101152
-0.568803 1.0062 -0.127674 0.617638 -0.149999 -0.204829 0.71547 -0.110801
0.213084 0.369892 -0.00481198 -0.158703 -0.467549 -0.0220813 0.703756 0.484548
0.899891 -0.504841 -1.22276 -0.169821 -0.0117033 0.178488 -0.484413 -0.00656782
-0.337097 -0.0077727
00000000: 2578 bbbe 4a43 d53e 0e4c 463f 2d61 48bc
00000010: 06d5 cebe 9f72 5cbe d547 3bbc 7097 e5be
00000020: 5e9f 3d3f cb12 adbe 5404 93bc 4df8 e13f
00000030: d482 9bbf 3a3f 693f e9a0 26bc 1cc8 44bc
00000040: 7c27 b23f 7a1c 863c 87fd 063f dc7f e43e
00000050: 7252 c8be 503f 83bc 221a 89bf c828 cfbd
00000060: 139d 11bf 29cb 803f f9bc 02be 861d 1e3f
00000070: 5699 19be b2be 51be 0b29 373f a2eb e2bd
00000080: b132 5a3e 7c62 bd3e d0ad 9dbb 0a83 22be
00000090: 9562 efbe d8e3 b4bc 5a29 343f ad16 f83e
000000a0: 425f 663f 433d 01bf 6683 9cbf 8ee5 2dbe
000000b0: 33bf 3fbc 8fc5 363e fb04 f8be de36 d7bb
000000c0: fa97 acbe 22b2 febb

Operation_3_MatMul_W f4 [50, 50]
-3.21277 -0.663488 -0.395059 1.55666 1.81667 -0.26456 0.0363729 0.0120112
0.74411 0.78591 -1.27682 1.38487 1.73143 -0.517515 -0.01372 0.236758
1.69449 -0.931672 1.76786 0.576486 0.278321 -2.72072 -0.566531 0.154957
0.612727 -0.425634 0.112415 0.273211 -4.21272 -0.0362659 -0.296823 -0.817981
2.26911 1.04912 1.37651 -1.29739 0.259984 0.690565 -3.83697 2.45956
0.59076 1.15077 -0.660987 -0.463184 0.315636 -0.0853768 0.69394 -2.3778
-0.149873 1.41667 0.850045 0.431534 -0.311456 0.235331 -0.440631 0.352486
0.0206582 -0.0280366 -0.0820437 2.39559 0.689961 0.0452968 0.183513 0.372667
-0.0228401 0.824991 -0.324703 -0.872395 -0.526384 0.0801876 0.40074 -0.153436
1.27139 0.220338 -1.03641 -0.320565 -0.279017 0.0165747 0.275032 0.00318887
-0.319288 -0.391854 -0.231916 0.0395498 -0.517339 0.0084415 -0.334325 0.0753839
-0.744958 0.592349 0.530212 0.106505 -0.339818 0.461551 -0.0615922 0.414207
-0.695399 0.091817 0.347824 -0.0739774 0.250217 -0.085694 0.000835553 0.693877
0.379463 0.182361 -0.0296722 -0.0191011 -12.6406 0.981216 -0.212442 0.376592
0.304651 0.215759 -0.0105855 -0.713444 0.173597 -0.566542 0.34075 0.0624878
0.139822 -0.0827261 -0.104267 0.15785 -0.284819 -0.383833 -3.46007 -0.729529
-4.0013 -0.00786849 -0.0236255 -0.948167 0.0802964 -0.588074 0.206242 0.404279
-0.0852748 0.306314 -0.685536 0.106754 -0.05406 0.00890756 -0.0411982 0.288291
-0.188728 -2.94093 0.118071 -0.261723 -1.61895 -0.0859772 -0.0921031 -0.00382511
-0.0452948 0.0512433 0.00341481 0.0356748 0.0352275 0.00945214 -0.0178549 0.0442181
0.0406563 -0.0029272 0.0104956 -0.025264 -0.0427759 0.0355817 -0.00322801 -0.022882
-0.0380989 -0.0449471 0.00645614 -0.043649 0.0429332 0.0375139 -0.027292 -0.0231469
-0.012744 0.0337156 -0.0809245 0.0119676 -0.0317953 0.0365078 -0.0186323 -0.0596241
0.0157184 -0.0804462 0.0522368 -0.037053 0.00348496 0.0146397 0.0491583 -0.0747072
0.0711832 0.069546 0.0534285 -0.0255637 0.00707883 -0.0215195 -0.0479376 0.0115597
-0.0254238 0.491538 -0.548081 0.714229 1.00437 -1.06715 0.0268412 0.0289544
0.555401 1.33546 0.808626 0.164067 0.880832 -0.306141 0.0394343 0.43154
0.404839 -0.787493 -3.62156 0.483138 1.35377 1.68359 1.10499 -4.60972
0.670282 0.422383 0.166291 -0.345343 -0.116569 -0.0403336 0.000562416 -3.80418
-0.636213 0.394582 0.731817 -0.172502 0.626968 -1.07827 -0.379697 0.0773556
-0.713367 0.905853 0.831952 -0.69873 0.341412 0.783672 1.23929 1.00397
0.934728 -1.41884 -0.638899 0.633321 -1.67562 -0.583385 -0.0678495 -1.8595
00000000: 069e 4dc0 59da 29bf 2c45 cabe a340 c73f
00000010: a488 e83f 6974 87be c0fb 143d a0ca 443c
00000020: fe7d 3e3f 6631 493f d66e a3bf 6c43 b13f
00000030: 809f dd3f dd7b 04bf dac9 60bc b070 723e
00000040: 0ce5 d83f 0e82 6ebf 3d49 e23f 9694 133f
00000050: 1780 8e3e 4720 2ec0 2d08 11bf 0cad 1e3e
00000060: addb 1c3f b3ec d9be d639 e63d 50e2 8b3e
00000070: 9ace 86c0 8d8b 14bd 2ff9 97be 3467 51bf
00000080: 1939 1140 9049 863f 7b31 b03f e010 a6bf
00000090: 9f1c 853e dec8 303f eb90 75c0 6e69 1d40
000000a0: 0c3c 173f 6e4c 933f 7236 29bf 7426 edbe
000000b0: 0b9b a13e 08da aebd 0da6 313f e02d 18c0
000000c0: 4f78 19be 7155 b53f 8d9c 593f 06f2 dc3e
000000d0: 2977 9fbe 9cfa 703e 639a e1be 0c79 b43e
000000e0: 633b a93c 03ad e5bc 8706 a8bd 5951 1940
000000f0: 49a1 303f 2389 393d d5ea 3b3e 36ce be3e
00000100: 291b bbbc 9c32 533f 793f a6be 4755 5fbf
00000110: 1ac1 06bf 6539 a43d cb2d cd3e 541e 1dbe
00000120: e8bc a23f 49a0 613e 15a9 84bf 1821 a4be
00000130: 51db 8ebe aac7 873c ffd0 8c3e 5cfc 503b
00000140: b779 a3be 16a1 c8be 637b 6dbe f9fe 213d
00000150: 5470 04bf 384e 0a3c a52c abbe e062 9a3d
00000160: 91b5 3ebf 2fa4 173f f9bb 073f 4b1f da3d
00000170: a0fc adbe 6a50 ec3e 1a48 7cbd f112 d43e
00000180: ab05 32bf 8d0a bc3d fd15 b23e 7781 97bd
00000190: 711c 803e 5680 afbd 0309 5b3a eca1 313f
000001a0: f948 c23e d8bc 3a3e 1d13 f3bc e979 9cbc
000001b0: e63f 4ac1 f930 7b3f 658a 59be abd0 c03e
000001c0: 37fb 9b3e edef 5c3e ce6e 2dbc 44a4 36bf
000001d0: 69c3 313e e608 11bf c976 ae3e 35f3 7f3d
000001e0: 802d 0f3e 4d6c a9bd f089 d5bd 6ea3 213e
000001f0: ccd3 91be c285 c4be c971 5dc0 6ac2 3abf
00000200: a60a 80c0 d7ea 00bc 448a c1bc 13bb 72bf
00000210: 7072 a43d 058c 16bf 1a31 533e a8fd ce3e
00000220: 8ea4 aebd 30d5 9c3e 4a7f 2fbf d7a1 da3d
00000230: 056e 5dbd 04f1 113c 72bf 28bd e19a 933e
00000240: ea41 41be 3238 3cc0 35cf f13d 8f00 86be
00000250: c139 cfbf d014 b0bd 8da0 bcbd b2ae 7abb
00000260: 0a87 39bd 7fe4 513d 01cb 5f3b bd1f 123d
00000270: b64a 103d 26dd 1a3c 7044 92bc 0a1e 353d
00000280: 3887 263d 44d6 3fbb bdf5 2b3c 73f6 cebc
00000290: c835 2fbd 1ebe 113d 058d 53bb 0873 bbbc
000002a0: 980d 1cbd 731a 38bd 078e d33b 4bc9 32bd
000002b0: b9da 2f3d 2da8 193d 7993 dfbc 919e bdbc
000002c0: 36cc 50bc 5e19 0a3d bfbb a5bd c113 443c
000002d0: ca3b 02bd 3489 153d c4a2 98bc 6638 74bd
000002e0: e0c3 803c fac0 a4bd 41f6 553d e3c4 17bd
000002f0: ed63 643b 5adb 6f3c 375a 493d 1700 99bd
00000300: 7fc8 913d 226e 8e3d d8d7 5a3d f76a d1bc
00000310: 88f5 e73b aa49 b0bc 385a 44bd e564 3d3c
00000320: 9345 d0bc deaa fb3e 094f 0cbf b6d7 363f
00000330: 328f 803f 5f98 88bf 14e2 db3c c731 ed3c
00000340: c32e 0e3f 5af0 aa3f 1d02 4f3f 2e01 283e
00000350: 357e 613f 83be 9cbe dc85 213d d0f2 dc3e
00000360: 0f47 cf3e 2499 49bf a4c7 67c0 dd5d f73e
00000370: 5648 ad3f e17f d73f 5070 8d3f d482 93c0
00000380: 9a97 2b3f 9642 d83e 3048 2a3e ccd0 b0be
00000390: babb eebd d834 25bd 196f 133a af77 73c0
000003a0: dbde 22bf a706 ca3e 5c58 3b3f 5da4 30be
000003b0: fa80 203f c004 8abf a567 c2be 9d6c 9e3d
000003c0: 389f 36bf fbe5 673f cefa 543f f8df 32bf
000003d0: 8ecd ae3e ba9e 483f 0ea1 9e3f 1782 803f
000003e0: 564a 6f3f 8d9c b5bf e38e 23bf 5321 223f
000003f0: b77a d6bf b858 15bf aef4 8abd 1904 eebf

Operation_3_Add_B f4 [50]
0.311347 -0.0477944 1.54417 -3.60245 -2.86983 0.920292 -0.00937044 -0.0374871
-1.99504 1.15364 -0.270112 -2.36856 -1.17567 -0.84422 -0.0465288 -1.764
0.263352 -0.640129 -0.363793 -0.317437 -0.728145 2.15933 0.597296 -1.11455
-0.198009 -3.28728 1.16219 1.41587 0.232861 -0.0254645 0.509529 1.52129
-2.62867 0.653804 -1.53467 -0.41623 -1.42654 -1.97553 0.791012 -2.35195
0.481032 -1.6288 -1.25115 -0.313303 0.767737 -0.82173 -2.05732 0.140769
-0.858358 0.999211
00000000: e068 9f3e 10c4 43bd 5da7 c53f 8a8e 66c0
00000010: 4bab 37c0 4298 6b3f 7986 19bc 138c 19bd
00000020: 795d ffbf 7aaa 933f 1f4c 8abe 7d96 17c0
00000030: 5b7c 96bf cd1e 58bf fc94 3ebd c1ca e1bf
00000040: 13d6 863e 7fdf 23bf 1343 babe 1a87 a2be
00000050: b667 3abf 7632 0a40 64e8 183f 93a9 8ebf
00000060: dfc2 4abe cc62 52c0 a4c2 943f 3a3b b53f
00000070: 1d73 6e3e ed9a d0bc 7e70 023f a1b9 c23f
00000080: 213c 28c0 b35f 273f 1170 c4bf 191c d5be
00000090: dd98 b6bf 2bde fcbf c37f 4a3f 5986 16c0
000000a0: d449 f63e 857c d0bf af25 a0bf 4069 a0be
000000b0: 698a 443f e65c 52bf 22ab 03c0 c025 103e
000000c0: 5abd 5bbf 4bcc 7f3f

Operation_4_MatMul_W f4 [50, 50]
0.623108 0.267751 0.599051 0.000740928 0.385762 -0.398225 1.86111 -0.737145
-0.653103 0.339471 0.484296 -0.31949 1.10482 0.726529 -2.08182 0.328692
-0.257381 -0.02198 0.490986 0.0822805 -0.422324 0.198934 0.0172424 0.79703
-3.05331 -0.132679 1.13469 2.01136 2.21233 -0.683018 0.325987 -0.129462
0.218992 0.0997335 -0.844225 0.0986434 -0.0447109 0.599895 -0.72271 0.618005
0.272339 -0.10485 -1.20878 -0.822598 1.24943 1.07627 0.13866 -0.345356
1.1219 -0.398497 1.39253 3.4121 1.80066 -0.0041249 0.627666 -0.170625
3.31817 0.193965 0.175796 0.383838 -1.22643 -0.52134 2.69428 0.937835
1.07408 0.481158 -1.40228 3.34708 0.814679 0.695856 3.35756 3.97225
0.0183125 3.73399 1.83581 -1.11814 -3.42679 -1.4689 6.31985 0.0404361
0.869249 0.251748 1.11844 0.0208919 1.49736 0.0934829 0.0379518 -1.11569
1.78205 0.26389 -1.32419 -0.872972 1.43224 -0.69542 -1.16874 2.30813
1.845 1.05616 0.763237 0.975363 2.13417 0.0801016 0.0204499 -0.0403665
0.934642 0.26463 2.63957 -0.519664 0.404169 0.27641 -5.99622 0.132181
2.76799 -0.13431 -0.338934 0.374984 -0.867014 0.330451 1.71226 -0.176056
0.941371 2.16991 -0.0467169 3.04028 1.04732 -0.450439 -1.1767 0.377856
3.72129 0.124919 0.634145 -0.514922 0.473715 1.31135 0.653742 0.0816301
0.0138857 -4.00942 2.02767 0.158346 -1.07476 3.91472 0.0383315 -0.749935
1.98711 2.49721 1.45866 0.358926 1.53953 -0.584768 2.40365 2.27659
-0.136564 -0.0123498 0.479226 1.05605 2.22551 0.821876 -0.603522 -0.52732
-1.04101 0.921914 3.0892 -1.69636 0.0442647 -1.11728 0.965804 -0.315852
1.09407 -0.261658 0.878502 2.19558 0.000803694 -0.253639 -0.201144 -0.630075
1.5373 0.563153 0.485474 1.29104 0.679044 0.696958 2.55324 -0.507663
1.25785 0.405251 -0.0460233 -1.12789 0.491336 -0.0755778 1.36967 0.341099
1.42869 0.863702 0.761039 -0.0717715 -0.0575776 0.0479842 -0.416717 0.130165
-0.0933266 2.19471 0.281197 -0.0149289 -0.385581 0.90525 0.44183 -0.480516
-0.0476932 1.05239 -0.745198 0.736619 2.34103 0.628722 0.643843 0.862405
0.445215 -0.047041 0.616462 0.0571261 -2.2788 -0.549912 -0.0243154 1.58405
0.529588 -0.140075 0.2693 -0.643887 -3.63085 1.03353 0.129788 0.0427702
-0.853234 1.26941 0.754015 0.87068 -0.0343397 -0.0991966 0.721352 -0.901313
0.0815228 0.71919 1.45281 -0.111656 1.28838 -1.80836 2.46267 0.696301
-2.57807 1.11369 -0.521163 0.449139 -0.718318 0.0136445 -1.87377 -0.00782775
00000000: 0284 1f3f a916 893e 685b 193f d63a 423a
00000010: 9982 c53e 26e4 cbbe da38 ee3f 89b5 3cbf
00000020: c231 27bf 25cf ad3e a5f5 f73e 3194 a3be
00000030: be6a 8d3f cefd 393f 8a3c 05c0 514a a83e
00000040: 71c7 83be 670f b4bc 8462 fb3e ae82 a83d
00000050: da3a d8be 5bb5 4b3e ef3f 8d3c 280a 4c3f
00000060: 6e69 43c0 01dd 07be 863d 913f 1fba 0040
00000070: d196 0d40 45da 2ebf c5e7 a63e b091 04be
00000080: 703f 603e 1441 cc3d 211f 58bf 8d05 ca3d
00000090: c722 37bd b892 193f 8603 39bf 9335 1e3f
000000a0: 0470 8b3e 99bb d6bd 4eb9 9abf c895 52bf
000000b0: 52ed 9f3f 37c3 893f e3fc 0d3e 80d2 b0be
000000c0: 6b9a 8f3f cc07 ccbe 6c3e b23f d95f 5a40
000000d0: 077c e63f 2b2a 87bb b8ae 203f 52b8 2ebe
000000e0: e65c 5440 c39e 463e de03 343e 6a86 c43e
000000f0: a9fb 9cbf 8a76 05bf 156f 2c40 f415 703f
00000100: 747b 893f 575a f63e e97d b3bf 8f36 5640
00000110: ce8e 503f 9e23 323f 43e2 5640 5839 7e40
00000120: 1904 963c b1f9 6e40 d2fb ea3f 361f 8fbf
00000130: 8750 5bc0 ea04 bcbf 363c ca40 53a0 253d
00000140: 1a87 5e3f 1de5 803e 0b29 8f3f 7d25 ab3c
00000150: 7ea9 bf3f f673 bf3d 5973 1b3d eece 8ebf
00000160: 371a e43f 971c 873e 0f7f a9bf 187b 5fbf
00000170: a453 b73f 0c07 32bf 4699 95bf 67b8 1340
00000180: f628 ec3f 4030 873f 8063 433f 64b1 793f
00000190: 3e96 0840 4f0c a43d 8c86 a73c 5857 25bd
000001a0: b344 6f3f 957d 873e b7ee 2840 b308 05bf
000001b0: 3def ce3e 9d85 8d3e 09e1 bfc0 755a 073e
000001c0: c026 3140 9088 09be c288 adbe e7fd bf3e
000001d0: a1f4 5dbf e030 a93e 562b db3f 0648 34be
000001e0: b1fd 703f cedf 0a40 385a 3fbd f393 4240
000001f0: 950e 863f f19f e6be 1b9e 96bf 5776 c13e
00000200: 9e29 6e40 88d5 ff3d 5457 223f eed1 03bf
00000210: c68a f23e 51da a73f a35b 273f af2d a73d
00000220: d980 633c 2b4d 80c0 58c5 0140 7425 223e
00000230: bc91 89bf c68a 7a40 7e01 1d3d bdfb 3fbf
00000240: 9f59 fe3f 4ad2 1f40 5fb5 ba3f 26c5 b73e
00000250: 520f c53f 5bb3 15bf 67d5 1940 a7b3 1140
00000260: 6fd7 0bbe d156 4abc 1c5d f53e a52c 873f
00000270: c16e 0e40 7766 523f 6b80 1abf 72fe 06bf
00000280: d13f 85bf 8e02 6c3f 74b5 4540 5322 d9bf
00000290: e74e 353d 0803 8fbf ee3e 773f 5ab7 a1be
000002a0: 7c0a 8c3f 0af8 85be 82e5 603f 6284 0c40
000002b0: feae 523a f9dc 81be b1f8 4dbe 984c 21bf
000002c0: 3fc6 c43f cc2a 103f 0c90 f83e cc40 a53f
000002d0: d4d5 2d3f d76b 323f 4968 2340 34f6 01bf
000002e0: 3b01 a13f 0f7d cf3e ee82 3cbd b35e 90bf
000002f0: 6490 fb3e 89c8 9abd 5951 af3f 87a4 ae3e
00000300: 50df b63f 931b 5d3f 74d3 423f f0fc 92bd
00000310: 7dd6 6bbd 158b 443d ee5b d5be f949 053e
00000320: 0422 bfbd 2176 0c40 0ef9 8f3e 5898 74bc
00000330: df6a c5be 77be 673f 8b37 e23e 3106 f6be
00000340: f259 43bd b7b4 863f 4cc5 3ebf 1093 3c3f
00000350: 6fd3 1540 edf3 203f e5d2 243f 93c6 5c3f
00000360: 38f3 e33e 10ae 40bd 74d0 1d3f 0ffd 693d
00000370: dcd7 11c0 08c7 0cbf 1731 c7bc 27c2 ca3f
00000380: 1493 073f d26f 0fbe b1e1 893e c7d5 24bf
00000390: d95f 68c0 b64a 843f 25e7 043e ce2f 2f3d
000003a0: 8b6d 5abf 077c a23f 2107 413f e2e4 5e3f
000003b0: c9a7 0cbd 9627 cbbd 86aa 383f 73bc 66bf
000003c0: 6df5 a63d d61c 383f aef5 b93f e7ab e4bd
000003d0: a3e9 a43f 5778 e7bf 639c 1d40 c840 323f
000003e0: 19ff 24c0 658d 8e3f f06a 05bf 8cf5 e53e
000003f0: b0e3 37bf 2e8d 5f3c b2d7 efbf f73f 00bc

Operation_4_Add_B f4 [50]
-1.02123 1.02827 0.813671 -0.0381783 3.24416 0.822704 0.869785 2.53794
-1.76778 -1.01688 -2.73197 2.65324 0.173578 -1.03077 -1.83199 -1.18403
1.52932 1.04806 2.69081 0.809435 -2.43714 1.5665 -0.00769762 -5.39245
-0.653505 2.67469 -0.218357 -4.08193 2.04062 1.0369 -0.593242 2.0051
-0.556333 -0.672007 0.751765 0.990899 -0.0199257 -0.429881 0.971813 -3.76826
-1.12461 -0.702157 3.22406 -2.01796 -0.924935 1.25763 -0.916868 2.38743
0.232696 -0.38878
00000000: aab7 82bf 5a9e 833f be4c 503f d960 1cbd
00000010: 51a0 4f40 bb9c 523f 3baa 5e3f 9c6d 2240
00000020: 9d46 e2bf 2029 82bf 99d8 2ec0 afce 2940
00000030: 6ebe 313e 45f0 83bf a67e eabf 4c8e 97bf
00000040: c2c0 c33f d526 863f 3b36 2c40 2237 4f3f
00000050: 1afa 1bc0 1283 c83f 513c fcbb f38e acc0
00000060: 1b4c 27bf 1f2e 2b40 fa98 5fbe 2c9f 82c0
00000070: 8599 0240 24b9 843f b5de 17bf 8f53 0040
00000080: d76b 0ebf a708 2cbf ac73 403f 8fab 7d3f
00000090: 393b a3bc 5d19 dcbe bdc8 783f 2c2b 71c0
000000a0: 38f3 8fbf 90c0 33bf 0057 4e40 4226 01c0
000000b0: 8ac8 6cbf 05fa a03f dcb7 6abf a7cb 1840
000000c0: dc47 6e3e 2c0e c7be

Operation_5_MatMul_W f4 [50, 50]
0.34103 -0.964773 0.66712 0.302432 -2.57332 0.389443 1.15196 1.7093
-3.54919 0.897267 -1.21974 -4.21484 -1.1969 0.562801 -1.12483 -0.354202
-2.51643 -3.73029 -0.373078 -0.634819 1.01609 -1.41992 -1.5666 0.710934
0.459327 -0.99617 -0.121206 1.48418 1.68975 -4.9803 2.28908 0.244373
0.957481 -1.19222 1.54805 -1.13653 -3.32789 -0.945189 -0.331136 3.07547
0.177005 -1.06421 -1.78122 1.48557 -1.03011 0.819685 0.179339 -4.25712
0.918864 -0.250604 -0.260335 -0.0737212 -3.08889 -0.239606 -1.13791 0.705035
-0.231521 0.712688 -0.598994 -0.00209524 -0.678542 0.768821 -4.78831 0.468536
-0.353709 -0.875468 -1.53922 0.156437 -0.0945523 -3.52061 0.265068 0.73009
0.298606 0.146683 0.764085 -0.189289 0.00866651 -0.146261 -0.151456 -0.299777
-0.411518 -0.58091 -0.256442 -0.416205 -0.798828 -2.60902 -0.665395 0.292545
0.0644818 -0.273787 -0.477826 -1.09958 0.146043 -0.088245 0.20533 -2.56537
0.449622 -0.794704 -0.173465 -5.04169 -0.196876 -0.818676 1.84615 -0.392934
-3.61703 -1.49531 1.23152 -0.768284 0.918119 2.12083 0.889378 0.998512
2.4526 0.431153 0.479954 0.290198 -3.11843 0.142497 -0.599984 -3.8217
1.76623 1.55911 1.13303 -0.1243 0.946079 -1.85627 1.9867 1.27765
0.692523 0.78266 -1.08097 0.744391 0.480808 0.258116 -0.224704 -1.40184
-2.97217 -0.279307 -1.01181 0.366931 0.166818 2.78094 1.76802 1.52163
-0.326728 -1.10323 -1.7286 2.01283 5.40315 -1.37748 -0.00696299 0.0205192
-0.00127857 0.0217334 0.00844221 0.00639074 -0.0437072 0.0383484 0.0164358 -0.0267052
-0.036158 0.0187319 -0.0164255 0.0422169 -0.00677914 -0.0412403 0.0182312 0.0532845
0.0239486 0.00338585 0.000198057 0.0185171 -0.0058258 0.025358 -0.0353304 -0.0367916
-0.0136411 0.0118921 -0.0215679 -0.0463718 -0.0629804 0.0310061 -0.0455028 0.0179018
0.0035797 0.0172031 -0.0098073 -0.00598704 -0.0170009 -0.00749573 -0.000543042 -0.0354193
0.00263427 -0.00234927 -0.0011106 -0.000117146 0.0616345 0.0160887 -0.0303883 0.050577
0.0546625 -1.58316 0.282579 0.349388 -4.12368 1.09863 3.30114 -4.68864
2.70758 -1.24651 -2.22552 3.61006 0.939271 2.30019 -0.0657199 -0.893764
-0.314417 -2.93263 -0.150912 -0.979509 -1.14622 0.65537 0.243255 0.097536
-0.43286 -0.0710323 -2.47719 -0.0702815 -0.0344742 -1.32732 -2.52225 -0.319495
1.23731 1.86144 -3.40642 -3.34016 -2.9065 0.34051 -1.50398 -1.01057
-0.631472 -2.2188 2.22891 0.259049 0.617054 1.77975 -5.83483 0.110427
-0.116198 -5.65211 -0.0938109 1.35655 -1.60499 0.530771 1.0594 -0.611534
00000000: 7c9b ae3e 5dfb 76bf 60c8 2a3f 5ed8 9a3e
00000010: 46b1 24c0 1365 c73e 6d73 933f 58ca da3f
00000020: ee25 63c0 4ab3 653f 7120 9cbf f8df 86c0
00000030: 0534 99bf ba13 103f 6efa 8fbf f759 b5be
00000040: 300d 21c0 12bd 6ec0 1404 bfbe 7f83 22bf
00000050: 3d0f 823f f0bf b5bf 5986 c8bf c5ff 353f
00000060: e92c eb3e ff04 7fbf da3a f8bd 9cf9 bd3f
00000070: ba49 d83f 9e5e 9fc0 4980 1240 ea3c 7a3e
00000080: 7a1d 753f aa9a 98bf 8126 c63f d179 91bf
00000090: 26fc 54c0 e8f7 71bf a88a a9be 80d4 4440
000000a0: cc40 353e 0938 88bf 04ff e3bf 2827 be3f
000000b0: a5da 83bf e0d6 513f a5a4 373e 543a 88c0
000000c0: ac3a 6b3f 2b4f 80be a14a 85be 24fb 96bd
000000d0: 60b0 45c0 465b 75be 09a7 91bf 2c7d 343f
000000e0: d713 6dbe b972 363f ac57 19bf 4b50 09bb
000000f0: eeb4 2dbf 74d1 443f d639 99c0 f3e3 ef3e
00000100: 5919 b5be ac1e 60bf 2905 c5bf 0531 203e
00000110: a3a4 c1bd ad51 61c0 feb6 873e 2ee7 3a3f
00000120: e3e2 983e 1134 163e 139b 433f fad4 41be
00000130: fafd 0d3c 72c5 15be 4817 1bbe 5f7c 99be
00000140: 7db2 d2be 85b6 14bf 5e4c 83be d218 d5be
00000150: fe7f 4cbf 2ffa 26c0 5457 2abf 75c8 953e
00000160: 090f 843d cf2d 8cbe 9ca5 f4be 0abf 8cbf
00000170: 4c8c 153e cbb9 b4bd 0742 523e 062f 24c0
00000180: db34 e63e b971 4bbf cfa0 31be 8655 a1c0
00000190: dd99 49be c094 51bf a54e ec3f a52e c9be
000001a0: 6b7d 67c0 5166 bfbf 73a2 9d3f 43ae 44bf
000001b0: d909 6b3f aebb 0740 47ae 633f 7c9e 7f3f
000001c0: 66f7 1c40 16c0 dc3e 88bc f53e d594 943e
000001d0: 5b94 47c0 bcea 113e 8d98 19bf bc96 74c0
000001e0: d313 e23f eb90 c73f 2107 913f 0091 febd
000001f0: 3c32 723f 419a edbf 304c fe3f 098a a33f
00000200: 3049 313f 685c 483f 3a5d 8abf 6990 3e3f
00000210: 772c f63e c827 843e ce18 66be 7e6f b3bf
00000220: 0938 3ec0 5401 8fbe fd82 81bf 61de bb3e
00000230: 56d2 2a3e ecfa 3140 7b4e e23f c6c4 c23f
00000240: e448 a7be a436 8dbf c442 ddbf 35d2 0040
00000250: 9be6 ac40 4451 b0bf cb29 e4bb e217 a83c
00000260: b195 a7ba 3e0a b23c 3251 0a3c 6a69 d13b
00000270: 5206 33bd 3613 1d3d 5fa4 863c ddc4 dabc
00000280: 691a 14bd a473 993c c58e 86bc a1eb 2c3d
00000290: 8c23 debb 97eb 28bd 9959 953c d940 5a3d
000002a0: db2f c43c 23e5 5d3b 85ad 4f39 2cb1 973c
000002b0: 5ae6 bebb 95bb cf3c 9cb6 10bd cab2 16bd
000002c0: ec7e 5fbc 15d7 423c 2aaf b0bc 5bf0 3dbd
000002d0: defb 80bd 8100 fe3c 2561 3abd cca6 923c
000002e0: 6699 6a3b 84ed 8c3c ccae 20bc ee2e c4bb
000002f0: 7945 8bbc be9e f5bb ef5a 0eba d413 11bd
00000300: b7a3 2c3b 36f6 19bb 8d91 91ba 48ac f5b8
00000310: 7574 7c3d 73cc 833c e2f0 f8bc d429 4f3d
00000320: c9e5 5f3d fda4 cabf 32ae 903e fce2 b23e
00000330: 30f5 83c0 e89f 8c3f e145 5340 5709 96c0
00000340: fe48 2d40 a48d 9fbf eb6e 0ec0 390b 6740
00000350: 1074 703f 5036 1340 2898 86bd b8cd 64bf
00000360: 44fb a0be 36b0 3bc0 ad88 1abe 1ac1 7abf
00000370: 56b7 92bf 54c6 273f d717 793e f4c0 c73d
00000380: d39f ddbe 6279 91bd 488a 1ec0 bfef 8fbd
00000390: d234 0dbd 9fe5 a9bf 8b6c 21c0 d994 a3be
000003a0: 2d60 9e3f aa43 ee3f c902 5ac0 2ec5 55c0
000003b0: 1904 3ac0 5457 ae3e 6b82 c0bf 5c5a 81bf
000003c0: 26a8 21bf d200 0ec0 76a6 0e40 12a2 843e
000003d0: 40f7 1d3f d9ce e33f edb6 bac0 8d27 e23d
000003e0: 38f9 edbd 16de b4c0 ee1f c0bd 6ea3 ad3f
000003f0: 5070 cdbf 9ce0 073f 6b9a 873f 7e8d 1cbf

Operation_5_Add_B f4 [50]
0.43953 -3.04599 1.64288 2.13407 -0.853716 -2.12564 -2.93187 -0.163595
-2.07292 -0.150653 -1.23368 0.679558 -0.175477 -2.69808 1.18002 -3.83903
-0.644658 3.36204 3.52216 -2.5229 1.03486 -0.104648 -1.1666 2.54544
1.64509 -3.86302 -1.69202 0.947957 -0.440968 -2.50403 1.57429 -2.08934
1.80221 -2.32916 -1.86262 -1.06338 1.44182 1.15527 -0.0286314 -3.33421
-3.35701 -0.643809 -3.81611 1.20768 0.468356 1.15935 0.29247 0.105941
4.27959 -0.551916
00000000: 130a e13e 80f1 42c0 e449 d23f 9a94 0840
00000010: 228d 5abf 7c0a 08c0 c2a3 3bc0 7385 27be
00000020: b9aa 04c0 c844 1abe 3ae9 9dbf 83f7 2d3f
00000030: 3eb0 33be 58ad 2cc0 e50a 973f abb2 75c0
00000040: 4f08 25bf aa2b 5740 126b 6140 3277 21c0
00000050: 4b76 843f b151 d6bd 2653 95bf 7de8 2240
00000060: 4f92 d23f b83b 77c0 1d94 d8bf 4fad 723f
00000070: 8fc6 e1be 0742 20c0 5682 c93f bfb7 05c0
00000080: d1ae e63f f510 15c0 556a eebf d61c 88bf
00000090: 8f8d b83f e3df 933f 668c eabc b263 55c0
000000a0: 40d9 56c0 abd0 24bf 253b 74c0 4295 9a3f
000000b0: 5ccc ef3e 9565 943f a1be 953e 98f7 d83d
000000c0: 67f2 8840 5e4a 0dbf

Operation_6_MatMul_W f4 [50, 50]
3.03175 -1.75436 2.16927 -0.750645 0.599333 0.776183 0.0278747 -0.0867547
-1.91642 0.200956 -1.75596 -2.67783 -0.140312 0.00123919 0.112464 -0.101538
1.71829 -0.700102 0.427255 0.544825 -2.37435 -1.39813 -1.1851 -2.75534
-0.514477 0.263672 0.0627621 0.578698 -0.454142 -0.44329 -0.0549584 -3.86834
-0.117512 0.0471895 -4.1521 -2.975 1.57231 1.82493 0.226689 1.28893
0.4505 -0.592725 1.43128 -2.10994 -1.0839 0.208396 -0.000467146 -2.83688
0.037601 -0.685594 3.34194 -2.05052 2.27054 -2.22729 2.45141 0.401421
2.88148 0.546833 -3.12124 0.362586 -1.22678 -5.76899 -0.361836 -0.998213
0.166378 -0.00722515 0.880527 -0.432461 3.42826 -3.56173 1.9787 0.295966
2.83434 -3.3195 -0.531922 -0.40305 0.0171567 3.34756 -1.16532 -0.130769
0.257333 -1.99715 -0.128554 0.0896453 -1.04151 0.000230631 -3.18061 0.603276
0.341562 2.05539 0.438263 -0.0218896 -0.848648 0.672288 -0.131193 0.472573
-0.0174795 -2.53863 -0.156102 3.67371 0.690206 -0.409521 -0.145456 -2.14105
0.87335 -1.15647 -0.625972 -0.100545 -0.148417 -0.0941871 -0.0315983 -2.4414
-0.592855 0.0444291 -0.0389438 -0.000849745 1.25211 -1.13167 0.67973 0.249886
-1.57821 0.0916699 2.27558 0.138535 -0.167778 0.609235 -0.0420903 0.651406
0.118403 0.436852 -0.233264 -1.69446 -0.0667809 -0.0024133 -1.58153 -1.27071
0.795595 -0.697963 -0.0688686 0.0478684 0.154683 -0.0239279 -3.77691 -0.299377
-0.0181664 -0.665786 -0.0329699 -3.26767 -0.0805893 0.42315 0.126419 0.031062
-0.846924 -2.85737 -0.733454 -1.368 -0.860365 -3.64419 0.639014 -0.408398
0.0400865 -4.42777 -1.23086 -0.206106 0.092117 0.0213118 0.896344 -0.448901
-0.182467 0.555808 -2.37756 0.449952 1.02894 -3.43077 0.00695806 -0.208343
0.0515177 -1.211 -0.00521107 -0.201863 -0.409714 -0.724137 -0.103793 0.0129646
0.276025 0.332414 0.441282 -1.66556 -0.225228 -0.917176 -2.44109 0.0860262
0.876179 -4.26565 -1.65306 -1.70546 -0.00779141 -3.30318 0.0143551 -2.12172
1.06656 -0.183413 -0.809253 -0.989099 -1.19842 -0.163537 0.393128 -0.507014
0.281516 -0.219382 0.133155 -0.364957 0.368177 -0.0541778 -0.253976 -8.20105e-05
-2.10319 -1.6813 0.0639178 -0.768048 0.109711 0.103743 0.306263 -0.6218
-0.24855 -1.24784 -0.197864 -0.952588 -0.510884 -0.35805 -0.0017247 -1.13216
-0.044848 -0.0375325 0.273348 0.464153 -0.116155 1.44302 -0.144074 -0.639109
-0.401314 -0.0118336 1.29166 -0.782215 -0.0700926 0.387208 -0.0546515 -1.49308
-0.218123 -0.923127 3.44874 0.709862 -1.76342 0.93291 -0.0983472 2.11475
00000000: 3108 4240 de8e e0bf 52d5 0a40 452a 40bf
00000010: e36d 193f eeb3 463f 7c59 e43c 73ac b1bd
00000020: 404d f5bf 69c7 4d3e 4cc3 e0bf 9161 2bc0
00000030: f3ad 0fbe 516c a23a 8753 e63d 28f3 cfbd
00000040: edf0 db3f e239 33bf 2bc1 da3e a779 0b3f
00000050: 5af5 17c0 edf5 b2bf 5bb1 97bf 7e57 30c0
00000060: c4b4 03bf 0400 873e 6a89 803d 8d25 143f
00000070: 4d85 e8be e8f6 e2be 0f1c 61bd e292 77c0
00000080: 22aa f0bd c749 413d 01de 84c0 6666 3ec0
00000090: 7441 c93f 4e97 e93f 2921 683e a9fb a43f
000000a0: f0a7 e63e d3bc 17bf 2f34 b73f 4209 07c0
000000b0: 3cbd 8abf c365 553e 46eb f4b9 718f 35c0
000000c0: 8203 1a3d 1783 2fbf 58e2 5540 b83b 03c0
000000d0: 8750 1140 eb8b 0ec0 e7e3 1c40 0e87 cd3e
000000e0: 2b6a 3840 3ffd 0b3f 65c2 47c0 dfa4 b93e
000000f0: 2107 9dbf 919b b8c0 9142 b9be e38a 7fbf
00000100: ff5e 2a3e f3c0 ecbb 386a 613f 876b ddbe
00000110: 9d68 5b40 62f3 63c0 0b46 fd3f db88 973e
00000120: d465 3540 b072 54c0 0a2c 08bf 925c cebe
00000130: 358c 8c3c 6c3e 5640 3529 95bf 4fe8 05be
00000140: 27c1 833e 9ca2 ffbf a9a3 03be f497 b73d
00000150: 3350 85bf 8ad5 7139 1d8f 4bc0 4c70 1a3f
00000160: 37e1 ae3e 828b 0340 0264 e03e d251 b3bc
00000170: ff40 59bf 111b 2c3f 7557 06be 17f5 f13e
00000180: 2b31 8fbc ea78 22c0 34d9 1fbe 111e 6b40
00000190: 57b1 303f bdac d1be 6bf2 14be f706 09c0
000001a0: de93 5f3f 3507 94bf b33f 20bf 89ea cdbd
000001b0: a0fa 17be 2be5 c0bd 386d 01bd e63f 1cc0
000001c0: 58c5 17bf 4afb 353d 8983 1fbd 6cc1 5eba
000001d0: 2445 a03f 90da 90bf c902 2e3f 1ee2 7f3e
000001e0: c902 cabf 6ebd bb3d 1aa3 1140 1edc 0d3e
000001f0: ffcd 2bbe d3f6 1b3f e166 2cbd 8bc2 263f
00000200: 467d f23d 11ab df3e c2dc 6ebe 11e4 d8bf
00000210: 6dc4 88bd 7528 1ebb 936f cabf a0a6 a2bf
00000220: 1dac 4b3f b4ad 32bf fb0a 8dbd a811 443d
00000230: 3865 1e3e 7104 c4bc e5b8 71c0 f147 99be
00000240: b4d1 94bc f470 2abf 720b 07bd 8121 51c0
00000250: 010c a5bd 1ea7 d83e fb73 013e bc75 fe3c
00000260: 03d0 58bf 26df 36c0 a4c3 3bbf a01a afbf
00000270: e140 5cbf 693a 69c0 6c96 233f 8b19 d1be
00000280: be31 243d 4bb0 8dc0 d28c 9dbf 740d 53be
00000290: d6a7 bc3d 1696 ae3c cd76 653f 5ad6 e5be
000002a0: a1d8 3abe 6f49 0e3f f129 18c0 1c60 e63e
000002b0: 4eb4 833f bc91 5bc0 7000 e43b de57 55be
000002c0: 3904 533d 0c02 9bbf a0c1 aabb 2db5 4ebe
000002d0: 09c6 d1be 0b61 39bf 6d91 d4bd 7969 543c
000002e0: 2653 8d3e 2b32 aa3e b7ef e13e 1231 d5bf
000002f0: 2ba2 66be 0ccc 6abf d23a 1cc0 812e b03d
00000300: 444d 603f 3480 88c0 7897 d3bf 834c dabf
00000310: 164f ffbb 4d67 53c0 a731 6b3c 43ca 07c0
00000320: 0a85 883f 9ed0 3bbe 342b 4fbf 9835 7dbf
00000330: d465 99bf 3e76 27be 1348 c93e abcb 01bf
00000340: dd22 903e ada5 60be c959 083e a5db babe
00000350: b281 bc3e 8ae9 5dbd 2409 82be 0dfd abb8
00000360: aa9a 06c0 d734 d7bf 56e7 823d cb9e 44bf
00000370: 29b0 e03d 3677 d43d 81ce 9c3e 492e 1fbf
00000380: e483 7ebe 39b9 9fbf dc9c 4abe cfdc 73bf
00000390: 4bc9 02bf 5452 b7be 540f e2ba 9eea 90bf
000003a0: 89b2 37bd aebb 19bd 45f4 8b3e 76a5 ed3e
000003b0: ace2 edbd e1b4 b83f 2288 13be a69c 23bf
000003c0: 0779 cdbe b7e1 41bc 1d55 a53f 3e3f 48bf
000003d0: b68c 8fbd 2140 c63e 40da 5fbd 3f1d bfbf
000003e0: a35b 5fbe 0d52 6cbf 28b8 5c40 84b9 353f
000003f0: bfb7 e1bf 31d3 6e3f 426a c9bd 1058 0740

Operation_6_Add_B f4 [50]
-2.0275 4.50965 -3.79393 -0.153546 -3.55302 1.9348 1.22138 1.69978
-0.520997 1.63006 -3.22435 1.34258 0.0228413 -1.13895 1.7714 0.421678
-2.54303 0.335124 1.71389 -0.451877 -0.962826 -0.00781589 -1.29873 0.00818222
2.09196 -1.12681 3.95655 -0.65872 -0.661062 -0.0386193 0.327845 -1.00967
0.817631 1.87378 -3.40765 1.12384 0.460316 1.60805 0.48299 1.62501
1.02573 -0.521106 -1.64628 -0.484258 1.17998 1.63489 -0.0215218 -0.187088
1.33491 -2.32051
00000000: 8fc2 01c0 0e4f 9040 c0cf 72c0 2a3b 1dbe
00000010: ae64 63c0 87a7 f73f 2e56 9c3f 6492 d93f
00000020: 0f60 05bf cea5 d03f c05b 4ec0 a9d9 ab3f
00000030: ae1d bb3c 1dc9 91bf 3cbd e23f 2ee6 d73e
00000040: 01c1 22c0 5f95 ab3e bf60 db3f 6c5c e7be
00000050: c47b 76bf 380e 00bc c93c a6bf b80e 063c
00000060: ace2 0540 4f3b 90bf 1d38 7d40 e0a1 28bf
00000070: 5c3b 29bf 452f 1ebd 4ddb a73e de3c 81bf
00000080: 4450 513f 06d8 ef3f f016 5ac0 fdd9 8f3f
00000090: 8aae eb3e 95d4 cd3f 774a f73e 5400 d03f
000000a0: 1f4b 833f 3467 05bf 4eb9 d2bf aaf0 f7be
000000b0: 9609 973f 1344 d13f 7c4e b0bc ff93 3fbe
000000c0: 55de aa3f 3c83 14c0

linear_7_MatMul_W f4 [50, 5]
0.00337447 -0.000125516 -0.000150788 8.14066e-05 -1.99738e-05 0.00480894 -0.000385033 0.000392798
-0.000118929 0.00088669 -0.0168129 0.000752864 -0.00291839 -0.00252311 0.00112049 -0.00521051
0.000619912 5.79432e-06 -0.000178514 -0.000426205 0.0011947 -9.70155e-05 0.000507866 0.000290153
9.40662e-05 0.00229631 3.67015e-05 0.000483319 0.000334549 -1.34858e-05 0.00279089 -0.000557226
-0.000222516 0.000119809 -0.000201453 0.00213759 -0.000220481 0.00018043 0.000698814 0.000205975
0.00432976 -0.000362395 0.00205272 -3.62758e-05 0.00172152 0.00613241 -0.000303412 0.000157956
3.84391e-05 0.00106998 0.00781802 0.00477813 -0.00127216 0.000719356 -0.0016962 -0.00512227
0.00116118 0.000796872 0.000191601 0.000395224 0.00335299 -0.000103504 0.000494534 0.000323713
-1.35905e-05 -0.00418631 0.00165056 -0.00162379 0.00788366 -0.00153845 -0.00741422 4.19845e-05
1.92441e-05 -0.000159743 -0.00021727 0.00200971 0.00212167 0.00464606 0.00618671 0.00526719
0.00328709 -0.00023632 0.000327321 0.000841947 0.00104939 -0.0609348 -0.00188659 -0.031356
-0.0447437 -0.036952 0.00254265 -0.00038216 0.000246706 0.000541144 0.000226699 0.00351369
-0.000871126 3.15848e-05 0.000339174 2.38909e-05 0.00365947 -4.59762e-05 0.000579735 0.000189066
4.42244e-05 -0.00682197 -0.00077629 0.0007027 -0.000150119 0.000832318 0.0069486 -0.000978532
0.00123262 0.00024944 0.0010425 -0.00312907 -7.45015e-05 0.00142025 -0.000293657 -7.71613e-05
-0.0137715 0.000429655 0.000158627 -0.000506959 0.000536424 -0.00890021 0.00021376 -0.00126845
0.000165955 0.00044846 0.0137351 -0.000467101 0.000189882 0.000539861 0.000551478 0.00281689
-9.12626e-05 0.00030223 0.000487494 1.93663e-05 -0.0026721 -0.000354382 -0.000293577 8.54028e-05
-0.000240207 0.00283691 -0.000202288 0.00378174 -0.00142765 0.00323767 -0.00864842 0.00104628
0.000167567 -1.37319e-05 -0.00170279 -0.0069934 0.000806629 0.000707277 0.000711299 0.000382604
-0.023478 0.00147364 -0.00095653 -0.000444277 -0.00146458 0.00503719 -0.000482319 0.000398161
-0.000497538 4.25812e-05 0.00312553 -0.00017798 -0.000219473 0.000614682 -0.000253344 0.00134686
-0.000113476 0.0012242 5.30408e-05 0.00115043 0.0153951 -0.00215735 0.00115084 0.00166947
-9.2379e-05 0.00408808 -0.000184594 0.000968376 0.000774585 0.000675006 -0.0215324 -0.000252824
-0.000209991 9.77405e-05 4.32861e-05 0.00210474 -0.000130476 0.000351371 -9.67071e-05 0.000242418
-0.0135478 0.00131915 0.000202097 0.00035669 0.000625259 0.00134846 9.23501e-05 0.00600113
0.00566104 0.00542147 0.00240376 -2.3669e-06 0.000183316 0.000103551 3.28251e-05 -0.00562674
0.00019503 -4.14857e-05 0.00104833 0.000459848 -0.00842794 0.000233492 0.00035717 0.00192785
0.000862687 0.00372061 7.32603e-05 0.000161473 -0.000124296 0.000642202 -0.00486033 0.0349319
0.0515367 -0.00680952 0.0269298 -0.00458951 -0.00122749 0.000337212 -0.000237505 0.000436364
-0.00302075 6.69403e-05 0.000107771 -0.000631313 0.000355364 0.00438666 0.000357824 0.000671342
3.92236e-05 0.000544636
00000000: 3626 5d3b f29c 03b9 d81c 1eb9 d6b8 aa38
00000010: 698d a7b7 5094 9d3b 41de c9b9 75f0 cd39
00000020: 8569 f9b8 c270 683a 35bb 89bc d95b 453a
00000030: 7642 3fbb c35a 25bb 68dd 923a edbc aabb
00000040: 9781 223a d46c c236 7d2f 3bb9 4474 dfb9
00000050: 7b97 9c3a cd74 cbb8 4f22 053a ad1f 9839
00000060: 6845 c538 b07d 163b f0ef 1938 fa65 fd39
00000070: 6866 af39 1241 62b7 5de7 363b ce12 12ba
00000080: 2f53 69b9 f841 fb38 213d 53b9 cf16 0c3b
00000090: eb30 67b9 cf31 3d39 9d30 373a fefa 5739
000000a0: a9e0 8d3b d5ff bdb9 ed86 063b d826 18b8
000000b0: a0a4 e13a 62f2 c83b 4513 9fb9 fea0 2539
000000c0: ab39 2138 923e 8c3a 2717 003c dc91 9c3b
000000d0: 9bbe a6ba 2a93 3c3a 0753 deba b7d8 a7bb
000000e0: bc32 983a 2de5 503a 80e8 4839 1136 cf39
000000f0: d6bd 5b3b 4910 d9b8 9da3 013a 06b8 a939
00000100: c102 64b7 502d 89bb 9a57 d83a 5ad5 d4ba
00000110: 772a 013c d1a5 c9ba fcf2 f2bb 8318 3038
00000120: 646e a137 af80 27b9 f9d2 63b9 57b5 033b
00000130: b70b 0b3b fa3d 983b e3b9 ca3b 6498 ac3b
00000140: 386c 573b abcc 77b9 489c ab39 1bb6 5c3a
00000150: af8b 893a c596 79bd 7547 f7ba 266f 00bd
00000160: 2c45 37bd fb5a 17bd 97a2 263b a65c c8b9
00000170: 5258 8139 8fdb 0d3a 0db6 6d39 f045 663b
00000180: 475c 64ba ec79 0438 2ad3 b139 5169 c837
00000190: b8d3 6f3b 92d6 40b8 5bf9 173a 0540 4639
000001a0: 977d 3938 d58a dfbb f17f 4bba 6635 383a
000001b0: 4369 1db9 ea2f 5a3a 15b1 e33b 1642 80ba
000001c0: dd8f a13a 45c7 8239 7fa4 883a 1511 4dbb
000001d0: b03d 9cb8 af27 ba3a faf5 99b9 a8d1 a1b8
000001e0: dca1 61bc 5143 e139 1c55 2639 71e5 04ba
000001f0: ce9e 0c3a 30d2 11bc c324 6039 1f42 a6ba
00000200: 3504 2e39 481f eb39 2f09 613c 3ce5 f4b9
00000210: 101b 4739 7585 0d3a 1091 103a 929b 383b
00000220: 3c64 bfb8 a074 9e39 5696 ff39 d074 a237
00000230: 661e 2fbb 59cc b9b9 3deb 99b9 471a b338
00000240: 13e0 7bb9 74eb 393b 461d 54b9 12d7 773b
00000250: fc1f bbba 172f 543b 1ab2 0dbc 5523 893a
00000260: edb4 2f39 1062 66b7 2730 dfba e428 e5bb
00000270: f573 533a 8e68 393a 7876 3a3a 3d98 c839
00000280: ef54 c0bc 2727 c13a a4bf 7aba d9ed e8b9
00000290: 26f7 bfba 030f a53b c3df fcb9 44c0 d039
000002a0: 366d 02ba 3799 3238 b1d5 4c3b 24a0 3ab9
000002b0: 5622 66b9 9c22 213a 42d3 84b9 1f89 b03a
000002c0: f7f9 edb8 5675 a03a 2078 5e38 06ca 963a
000002d0: bb3b 7c3c 5462 0dbb c8d7 963a 1ed2 da3a
000002e0: 99bb c1b8 4df5 853b 938f 41b9 9dda 7d3a
000002f0: 850d 4b3a e3f2 303a b764 b0bc 768d 84b9
00000300: 0831 5cb9 08fa cc38 198e 3538 adef 093b
00000310: 62d0 08b9 3838 b839 3bcf cab8 9631 7e39
00000320: 97f7 5dbc 54e7 ac3a 00ea 5339 1f02 bb39
00000330: 6ce8 233a cfbe b03a 15ac c138 21a5 c43b
00000340: 3f80 b93b 96a6 b13b 6788 1d3b 08d7 1eb6
00000350: 8438 4039 8529 d938 afad 0938 8460 b8bb
00000360: f880 4c39 ee00 2eb8 1e68 893a c117 f139
00000370: 5815 0abc 88d5 7439 8c42 bb39 e9af fc3a
00000380: f225 623a 7ad5 733b 53a3 9938 1451 2939
00000390: 7455 02b9 7259 283a 6743 9fbb c114 0f3d
000003a0: 2618 533d 6522 dfbb e29b dc3c 9a63 96bb
000003b0: bbe3 a0ba d4cb b039 c30a 79b9 c9c7 e439
000003c0: c6f7 45bb 4d62 8c38 1d03 e238 b37e 25ba
000003d0: 2650 ba39 f9bd 8f3b 539a bb39 00fd 2f3a
000003e0: 0584 2438 e7c5 0e3a

linear_7_Add_B f4 [5]
-0.0215689 -0.0199932 0.0181227 -0.0186758 0.0182482
00000000: 43b1 b0bc c8c8 a3bc 0e76 943c fefd 98bc
00000010: 407d 953c
