networks/onnx/ACASXU_run2a_5_4_batch_2000.onnx (onnx, 55914 bytes, 15 tensors)

input_AvgImg f4 [1, 1, 5]
00000000: 0000 0000 0000 0000 0000 0000 0000 0000
00000010: 0000 0000
0.0 0.0 0.0 0.0 0.0

Operation_1_MatMul_W f4 [5, 50]
00000000: 6300 723c f0b4 06bd e752 f8bf a2a2 653d
00000010: 3d27 3d3b 91b8 af3f 064e f03a 7e79 ac3d
00000020: c8b8 41bb f9c9 873c 6808 273d 5055 b9be
00000030: bb62 a63d f669 0bbd 1976 d8bc 71a6 9ebd
00000040: 732a 193d 6f95 8cbc 7ac2 86bf 8588 0abd
00000050: d8a3 ec3a 82b6 cd3b 397d a5be 4a42 82be
00000060: 92e5 293d d370 85bd 7052 42bd 1ef6 a7bc
00000070: 7f3c 2abd a9de 92bf c39e b6be dc36 c2bc
00000080: e528 54bf a5c4 693d 5bfc 77bd ac90 fabf
00000090: f4e1 41bf f375 41bf a921 a03c 0810 74bc
000000a0: 09fd 64bf 2a87 5cbb f25e 193f 0119 0a3e
000000b0: d5bb be3d e437 3bbc df01 39bd 1a9b 27bd
000000c0: 2937 5bbd 25ae 1fbf 734b c83b 1cb7 203f
000000d0: 4af9 de3b 3eea 873e 0326 f8be 203f 61bb
000000e0: 97ea 9d3c aa7d 52bf f28f 6739 9c0f 84bd
000000f0: 9626 893f 5dc4 8b3f 36c8 ac3f 5fef fe3d
00000100: 70b6 0940 ff5b 1740 6926 0e3d f7cb 27bc
00000110: 501a 823e 55f6 e5be d2a8 00bf 84a3 82b8
00000120: ee7c 3a3d 21ae 84be f4c2 fdbd 8f8e 5f3f
00000130: aa4d 57bd 1590 063e ccbb 953d 6fc8 80bd
00000140: 5089 2b3e ae12 8c3f bc58 68be 8542 50bf
00000150: 7594 e3be b72c 1dbc e1ca 5ebd 2028 bfbe
00000160: a2b7 683e 029f 2b3f e0cd 243d 1472 8abc
00000170: d34b 44bf a262 d4be d0ed 21c0 c54b 91bd
00000180: 8e03 2f3e a032 08c0 a38f a1be 2d0a ab3e
00000190: cab2 f53a 2f15 b3be afdf c03b 0ff1 c7be
000001a0: cfbe 46bf 59a6 7cbb aeb8 38bc 18ce 5dbf
000001b0: 5528 fbbb 47c7 553e 1c42 9d3f 124e d3bf
000001c0: 0d1a aebf 2f4e 2cbe 8d71 af3d 9eef 93bf
000001d0: ea16 abbd aff9 c4bb 03b4 cdbe effe f83e
000001e0: 52d3 123f 8c17 a839 59fa 903e 6076 6f3e
000001f0: 944b 633c 8386 9ebf 8716 993d d2c8 37be
00000200: 0036 45bd 0d72 533f f94b 0bbe 533e 6c3f
00000210: b08c 013f 62bb 133f 4930 b53e 9fba 283c
00000220: c39b 41bf 2a4c 043d 9641 d5bd b682 6e3f
00000230: 6d37 c53b c90f 473b e75c b0bd ae46 f6bb
00000240: 8063 ef3d 6501 bf3f 1475 46be 884b 0a40
00000250: df6d 0a3f 776a 4e3e bb7e 413c b3b5 9abf
00000260: 5864 c73b ddf6 f3ba 96d0 d5be c9ad 09bd
00000270: 05a8 adbf 5a46 0a3e a75b 663f 5c41 2ebc
00000280: 450d 8ebe 8446 00be b434 1cbd 2c9f 8d3e
00000290: f0a5 083f b039 e63b 7cd5 b6bf 2f23 0abc
000002a0: d667 38bd 758e a1bf ffff a4bb 4726 373b
000002b0: e2e9 b5be d4b5 e63e f1ba a6bf 51d0 373c
000002c0: d2c6 9dbf 3081 4b3f c4b2 c1be 9dbd 233e
000002d0: 3a95 dcbe 55fb 743e 5d8b 76be 2976 14bf
000002e0: f23f d9bd 2600 7fbc 7024 103e 7f4d d63d
000002f0: 9fe5 81bf 1a51 163f 4dbf c4be c8f1 203c
00000300: 0e2a 16bc 2bdb 1fbf f739 3e3e 3c66 00bd
00000310: aad6 66bf 25c9 f33d 4a7e d43e b249 3e3e
00000320: 8c89 28bc 315f 323f b4ca 8abb de00 6b3f
00000330: 43ac 863e 8b87 1cbd f14b a5bf a731 ebbc
00000340: f836 2dbe 3c31 b3bf eb71 ff3d e3c7 d83e
00000350: d559 853e c5ae 88bd 3410 e3be ad6c 9fbe
00000360: fdf6 b9bf a173 0c3c c218 99be db52 07bf
00000370: 65a5 95bf bc46 26bc d457 00bc cbbe cfbf
00000380: 751d 7abf 815a f4be 423f a33e 65de 5ebf
00000390: 65c7 8ebf 9b8e 60be 0d09 be3d 1d56 18bf
000003a0: 72df 923e db8b e83d 4c52 293f bebd ad3a
000003b0: 0866 fbbc a2ee 23be 840d 433f b20d 8cbe
000003c0: d4d5 2d3e 86c6 38bc ec51 94bf 82e5 903e
000003d0: 9b0a ccbd 4363 8c3d 397c 82be 4f78 e9bd
000003e0: aa9d 21bf a43b 23bd
0.0147706 -0.0328874 -1.94003 0.0560633 0.00288625 1.37282 0.00183338 0.0842161
-0.00295596 0.0165758 0.0407795 -0.361979 0.081243 -0.0340366 -0.0264235 -0.0774659
0.037394 -0.0171611 -1.05281 -0.0338216 0.00180542 0.00627786 -0.323221 -0.254412
0.0414787 -0.0651566 -0.0474419 -0.0205031 -0.0415616 -1.14742 -0.35668 -0.0237078
-0.828749 0.0570723 -0.0605434 -1.95754 -0.757354 -0.755706 0.0195473 -0.0148964
-0.894486 -0.00336499 0.599105 0.134861 0.0931317 -0.0114269 -0.0451678 -0.0409194
-0.0535194 -0.623751 0.00611251 0.627794 0.00680462 0.265459 -0.484665 -0.00343699
0.0192769 -0.82223 0.000220835 -0.0644829 1.07149 1.09193 1.34986 0.12448
2.15176 2.36499 0.0347046 -0.0102415 0.254107 -0.449145 -0.502576 -6.22934e-05
0.0455293 -0.259141 -0.123907 0.873269 -0.0525643 0.131409 0.0731121 -0.0628823
0.167516 1.09432 -0.226901 -0.813515 -0.444492 -0.00959318 -0.0543927 -0.373353
0.227263 0.670395 0.0402354 -0.0169001 -0.766782 -0.414815 -2.53014 -0.0709453
0.170912 -2.12809 -0.315549 0.334062 0.00187453 -0.349771 0.00588604 -0.390511
-0.776349 -0.00385513 -0.0112745 -0.866426 -0.00766472 0.208768 1.22858 -1.65082
-1.36017 -0.168267 0.0856658 -1.15575 -0.0835398 -0.00601121 -0.401764 0.48632
0.573537 0.00032061 0.28316 0.23385 0.013873 -1.23848 0.07475 -0.179477
-0.0481472 0.825959 -0.136032 0.922826 0.506053 0.577078 0.353884 0.0102984
-0.756283 0.0322992 -0.104129 0.931682 0.00601857 0.00303744 -0.0861147 -0.00751575
0.116889 1.49223 -0.193806 2.16086 0.540739 0.201578 0.01181 -1.20867
0.00608496 -0.0018613 -0.417607 -0.033613 -1.35669 0.135034 0.899836 -0.0106357
-0.277445 -0.125269 -0.0381362 0.276605 0.533782 0.00702592 -1.42839 -0.00843124
-0.0450209 -1.26216 -0.0050354 0.00279464 -0.3553 0.450606 -1.30258 0.0112191
-1.23263 0.79494 -0.378317 0.159903 -0.430826 0.23924 -0.240766 -0.579928
-0.106079 -0.015564 0.140764 0.10464 -1.01482 0.587175 -0.384272 0.00982327
-0.0091653 -0.624438 0.185768 -0.0313475 -0.901713 0.119036 0.415026 0.185828
-0.0102867 0.696765 -0.00423559 0.917982 0.263033 -0.0382152 -1.29138 -0.0287102
-0.169155 -1.39994 0.124729 0.4234 0.260451 -0.0667396 -0.443483 -0.311376
-1.45285 0.00857249 -0.299017 -0.528608 -1.16911 -0.0101487 -0.00783344 -1.62301
-0.977012 -0.477253 0.318842 -0.870581 -1.11546 -0.219294 0.0927907 -0.595064
0.286861 0.113548 0.661412 0.00132554 -0.0306883 -0.16009 0.761925 -0.273542
0.169761 -0.0112778 -1.15875 0.283001 -0.0996296 0.0685487 -0.254854 -0.113999
-0.631312 -0.0398518

Operation_1_Add_B f4 [50]
00000000: 057e debc efe4 ebbe 2e39 e6be fc39 853e
00000010: 5d52 35bb 5bb3 cd3e e59b 2dbe 7b27 703d
00000020: 448b c43e 9771 13bf 68ce fa3d 3a74 9abe
00000030: 6f84 fdbe 1fc7 b53d 53b0 963e c11f 86be
00000040: 0bf0 b5be 53ec e8bc 6b46 9ebe f94a d0be
00000050: 4c8a 7fbe afbc 9abc afeb 763b 9a98 bebe
00000060: 0a0f eabe 8541 913e a872 f2be fbac 423e
00000070: f7ea 17bf a1b9 86be 1f33 2bbd 13d5 abbe
00000080: 834f 93be 7d9a 2e3d a6fc 3abd 93a6 a9be
00000090: d025 2cbe bd62 9cbd af58 893b ac56 363e
000000a0: ee97 a7be 8511 b1bc 9a44 e5be 6264 ee3c
000000b0: ed7f 203e ec61 193d 5874 eb3d 8f06 9bbd
000000c0: bc96 103e d5af 34bd
-0.0271597 -0.460731 -0.449655 0.260208 -0.00276675 0.401759 -0.16954 0.0586314
0.383875 -0.575952 0.122464 -0.301668 -0.495151 0.0887587 0.294314 -0.261961
-0.355347 -0.028433 -0.309131 -0.406822 -0.249551 -0.0188888 0.00376771 -0.372258
-0.457146 0.283703 -0.473531 0.190113 -0.593429 -0.263135 -0.0417968 -0.33561
-0.287716 0.0426278 -0.0456511 -0.331349 -0.168113 -0.0763602 0.00419148 0.178065
-0.327331 -0.0216148 -0.447789 0.0291006 0.156738 0.0374469 0.114968 -0.0756961
0.1412 -0.044113

Operation_2_MatMul_W f4 [50, 50]
00000000: cae4 2fbd 715f fd3c e697 dcbc b896 a4bc
00000010: dd50 473d e23d 073d a8ce 1e3d 3f53 0fbd
00000020: ca36 303d fac4 ec3b c206 7abc 010d 00bd
00000030: 6015 393b bea9 00bc 2d8d 24bd 4801 7dbc
00000040: 8485 0ebd bf63 383d 9562 47bc cc28 96bc
00000050: 9835 10bc 75ff bd3c 60f8 52bd 6f9e cfb7
00000060: 4828 803a f7e6 373c e09e 673c 4bce 243d
00000070: 7d50 e1bc 5312 28bd 7566 8cbc 76f9 3bbd
00000080: b06d f6bc 2191 36bc 5a3d 71bc 1172 5ebc
00000090: bcfb 2dbc 731b 033d 5b45 de3b 4c25 13bc
000000a0: 9d2c f5bc 6e35 6b3c e7df 13bd 252b 753c
000000b0: 05d6 d6bc 45f5 56bc 864e 193d e39c 013c
000000c0: 6fcc 1c3d 1397 293b 634d 9bbd ee5a 8ec0
000000d0: 931a dabd 8373 913d 4c36 de3d c268 46be
000000e0: 7496 89be 0dd3 0dbd f640 4fbf 41d6 d3be
000000f0: 9e60 e7be 8fe7 6ebd 492b 233d daae 50be
00000100: 84d3 de3f 57ec 873e 48b9 45bc 3622 50bf
00000110: edd7 a5be 8060 82bf 3ae8 523e 1c5e 98be
00000120: dd60 58be 58e2 b13f 0d42 ef3c 0228 ee3e
00000130: 97c5 343e d26f 633f e1ab 67bd e15d 8abf
00000140: 48cc b23d d2c6 b93f a81c 0f3f 4ed5 4d3e
00000150: 6d3c f03e 3179 6f3f 439b 523d 7bf3 c0bc
00000160: 9e30 373d 57bf 48bd 2060 adbe 7885 34bd
00000170: d61e ee3e aad6 3e3f 87c4 b13f 224f a63f
00000180: 9815 8abc e605 4cbf d8bc 823e a35b efbc
00000190: f38e db3e bd72 8dbe 7813 d7bc a73d 653e
000001a0: 53ea 12bd bbf2 a93f 7c60 17be 6230 273f
000001b0: d09d e03d b894 a3be 5d31 e3be ba3a f63c
000001c0: c9b0 44c0 5f28 203f fc71 833e 0c77 eebd
000001d0: 6b4d 0ebd 9ca2 b33e b952 973e 83fa 5040
000001e0: a3f5 c6bd 8f35 5fbf da72 1abf 842e 15bf
000001f0: 9ea7 4fba f20c b23e ac1d 493f f530 ec3e
00000200: 1bbd 5a3f c897 183f dba4 0ebf 9f05 913e
00000210: b98b 88be 0b14 07bd 76e1 3bbf bf47 41bf
00000220: 90bb 34bf af3d 58bd dd0c 47be 3bfa 84bc
00000230: 2769 323f c39a 0abe 952d 4abf f835 023e
00000240: e34f 243f 966a b0bd b675 06bd 76fd 0c40
00000250: b307 d6bf d0a8 4fbd 02b8 353f 8db8 483f
00000260: 2d25 3f3f a6ba 20bf 4ed5 7dbf 395f 6cbe
00000270: 1cb5 e2be 7299 643d a5c0 62bf 8811 0abf
00000280: 33dd 1b3e 6e61 07bd a130 a83c cfdc 0f3f
00000290: 5ce6 bcbe 5cf8 eaba 49e0 ea3c afb1 dbbf
000002a0: 2a72 c83e 7a50 043f 2a38 bcbc 79ae 97be
000002b0: 9f94 c5bb 917c 35bf 5db8 bdbc 8dd5 52bf
000002c0: bb46 cb3e 887f 183e 69c4 1cbe 3b38 30bf
000002d0: 8846 efbe f41a 8bbf 13b5 483f 1990 49bf
000002e0: 098a 6fbe c808 0cbf ffcf a9bf d97b 71bc
000002f0: 9643 833f e2b7 7c3c 0b0c d1be 508d 90c0
00000300: 452f bbbf 60ef 99bd 5bad b83c f697 edbe
00000310: 7a72 283b f3e8 263e 1f2f 443e f5ec 233d
00000320: ace6 51bf 55db 0dbe d360 bfbd 4b76 a83f
00000330: 86ca df3d b5c0 ee3e 0398 5e3f 8658 51bf
00000340: 8fe4 223e cbdb ad3f fb78 d03e 157f 6abd
00000350: b41f 09bd 1d3b 60bf 64e5 f73e 95f2 ea3e
00000360: b29e 1a3d 959c 07bf e18a 15bd fa7d 573f
00000370: 1441 dcbd 8f6e 8cbe c0ae 423f 3d0e ebbe
00000380: 4a92 efbb 82ac 0bbf 8d28 113f 54aa 083f
00000390: 1747 55bf e948 ae3e 6000 d1be 71c6 d03d
000003a0: a4fa 06bf 0630 75be 315f 0e3f 2462 aa3e
000003b0: ee25 dd3f c46f 34bd 8a57 593e 835d 03bd
000003c0: a3ae d5bd 56d5 ab3e ace5 2ebf df70 3b3f
000003d0: 508b e1bd 13ee 053f a8d8 623c b1f8 ad3e
000003e0: 016b b5be d03d 90bc fd87 9cbe d49b 893e
000003f0: 5872 553e 9df1 5d3e f46d 213f ab04 1dc0
-0.0429428 0.0309293 -0.0269279 -0.0200914 0.0486611 0.033018 0.0387713 -0.0349915
0.043021 0.00722563 -0.0152604 -0.0312624 0.00282415 -0.00785297 -0.0401737 -0.0154422
-0.0347953 0.045017 -0.0121695 -0.01833 -0.00880184 0.0231931 -0.0515064 -2.47501e-05
0.000977763 0.0112245 0.014137 0.0402358 -0.0275042 -0.0410331 -0.0171387 -0.0458922
-0.0300816 -0.011143 -0.0147241 -0.013577 -0.0106191 0.0320086 0.00678317 -0.00898106
-0.0299285 0.014356 -0.0361022 0.0149639 -0.0262251 -0.01312 0.0374284 0.00791094
0.0382809 0.00258774 -0.0758312 -4.4486 -0.106496 0.0710211 0.108502 -0.193759
-0.268726 -0.0346251 -0.809585 -0.413744 -0.451909 -0.0583263 0.0398362 -0.203792
1.74083 0.265475 -0.0120681 -0.813022 -0.323913 -1.01857 0.205964 -0.297593
-0.211307 1.38972 0.0292063 0.465149 0.176535 0.888425 -0.0565604 -1.08099
0.0873037 1.45138 0.559031 0.201009 0.469211 0.935443 0.0514176 -0.0235536
0.0447241 -0.0490106 -0.338624 -0.0440726 0.465079 0.745463 1.38881 1.29929
-0.016856 -0.796965 0.255347 -0.0292185 0.428825 -0.276266 -0.0262544 0.223868
-0.035868 1.32772 -0.147829 0.653082 0.109676 -0.319494 -0.443736 0.0300573
-3.07329 0.625616 0.256729 -0.116438 -0.0347418 0.35085 0.295553 3.26529
-0.0971482 -0.871911 -0.603315 -0.582741 -0.00079214 0.347755 0.785609 0.461311
0.854448 0.596066 -0.557203 0.283246 -0.266691 -0.0329781 -0.733909 -0.755001
-0.705987 -0.0527932 -0.194385 -0.0162326 0.696917 -0.135356 -0.789758 0.127159
0.641844 -0.0861408 -0.0328271 2.20297 -1.67211 -0.0506981 0.709839 0.784066
0.746661 -0.627848 -0.991536 -0.230832 -0.442788 0.0558104 -0.885752 -0.53933
0.152211 -0.0330519 0.020531 0.561963 -0.368945 -0.00179268 0.0286714 -1.71636
0.391496 0.516853 -0.022976 -0.296253 -0.00602968 -0.708932 -0.0231592 -0.823571
0.397024 0.148924 -0.153093 -0.688358 -0.467335 -1.08676 0.784013 -0.787355
-0.233925 -0.547009 -1.32666 -0.014739 1.0255 0.0154247 -0.408295 -4.51725
-1.46238 -0.0751636 0.0225436 -0.46405 0.0025703 0.162998 0.191586 0.0400209
-0.819926 -0.138532 -0.0934464 1.31611 0.109273 0.466314 0.869507 -0.817757
0.159075 1.35827 0.407173 -0.0572501 -0.0334775 -0.875902 0.484172 0.458882
0.037749 -0.529733 -0.0365094 0.841766 -0.107546 -0.274281 0.760479 -0.459093
-0.00731114 -0.545601 0.567025 0.533849 -0.833116 0.3404 -0.408206 0.101941
-0.527262 -0.239441 0.55614 0.33278 1.72772 -0.0440519 0.212248 -0.0320716
-0.104337 0.335612 -0.683192 0.732191 -0.110129 0.523164 0.0138456 0.339788
-0.354332 -0.0176076 -0.305725 0.268767 0.208444 0.216742 0.630584 -2.45341

Operation_2_Add_B f4 [50]
00000000: 7cd5 eebf 5114 88bf d4d1 d9be d4bb 78bf
00000010: d40e 5fbe 4f3e 49bf 757d 553c 50a7 18bf
00000020: 45d9 7bbd 679b 9b3f 6957 85bf ab12 9bbc
00000030: fb20 7f3f 01f7 f43e 2097 00bf 5587 b03f
00000040: ee88 16bc 6919 213f 4fad 96be 8104 45bf
00000050: 984f 9ebe f9d9 a0be 5b22 2f3f 1aa6 debe
00000060: 9044 54bc 0ce6 233f e0f3 87bf 7214 2c3f
00000070: 47c8 74bf f706 373f f296 ab3e 04cb 21be
00000080: 3faa 0d3f f0e0 37bf f3c8 d7bf 5648 b5bf
00000090: e6ac 54bd 2d89 7dbc 289b d2bd a26d 6bbc
000000a0: 0519 a1be 1bf1 64bd 5724 aebe 6cb4 6cbe
000000b0: 3a5d 2abf e949 a1be 7e37 9dbc 0396 04bf
000000c0: d3f6 67bf 92a0 f0bb
-1.86589 -1.06312 -0.425429 -0.971616 -0.21783 -0.786107 0.0130304 -0.596303
-0.0614865 1.21568 -1.04173 -0.0189298 0.996597 0.478447 -0.502306 1.37913
-0.00918792 0.629294 -0.294291 -0.7696 -0.309201 -0.314163 0.684118 -0.434861
-0.0129558 0.640229 -1.06213 0.672187 -0.956181 0.71495 0.335136 -0.158001
0.553379 -0.718276 -1.68582 -1.41627 -0.0519227 -0.0154746 -0.102835 -0.0143694
-0.314644 -0.055894 -0.340121 -0.231157 -0.665485 -0.315017 -0.0191915 -0.517914
-0.90611 -0.00734336

Operation_3_MatMul_W f4 [50, 50]
00000000: c333 17bd ff05 12bf 1bf2 9fbe 0379 a6be
00000010: cc9b 07bf b0ff da3d 5514 73bf 1b0f 3abf
00000020: 8a94 b13d 1092 85bf f0da 4abd d3ec 89bb
00000030: 5c71 81be febc 633b 3dbb 0cbe 637f 813f
00000040: 1748 60be 6e15 ecbe 8cbe 22c0 b30a 2f3f
00000050: f184 ee3e abb2 1dc0 295a a9be 9b8f df3f
00000060: b7ee d23f 567d 9ebe 67d3 65bf c39e 9ebf
00000070: 08c6 96bd 9338 5b3f e8a0 0b3e 5f7f 3a3f
00000080: 9790 8f3c 2b78 c03c 2ee2 1140 878c 073e
00000090: f86d 183f 25b1 103f 43e5 3bbf fe0e a93f
000000a0: ae9f 9ebe a2d1 fd3e 6537 6fbf e316 e33e
000000b0: 8598 ab3e 11a9 69bf 3e3e 213e e2cd 3abd
000000c0: ad4f 81be fbea 2a3e b520 2fbd 0b41 cebd
000000d0: 7348 6abe 645a 6b3e 4699 b5be 6e8a 67be
000000e0: 44c0 993f 33f9 8a3f f7be a2bd 6e34 60be
000000f0: 4f5a 24bf 185f b4bc 27d8 7f3e 61a6 c5bf
00000100: a512 8e3e 58fb a03d f870 91bf c115 c5bd
00000110: 0b27 013f a435 563f 8c10 5ebe 5da8 d4be
00000120: 3d0b c23e 7766 4e3f b114 313f 43ab 6bbf
00000130: 54e3 adbf 6b82 b03e b134 e03e c8cd 40be
00000140: ef03 d03d 4b3e 9e3e 6ef9 48bd 91f3 5e3e
00000150: be9f 6abe 05c3 c13e 0f0d 3bbe 1ea6 3d3e
00000160: 2498 aa3e 25af 56c0 9bae 673f 4755 8b3f
00000170: dfa8 953e d176 3cbf 5248 06bf 6189 dfbe
00000180: c18d c43e 79ee dabb 4430 263f 965e d3be
00000190: aaf7 2fbc cb2d 9d3f 658f 30be 0dfd 17bf
000001a0: cf66 b5bf 4129 8a3e a513 25bf ea94 2bbf
000001b0: 4628 86be eecd 1bbf 8e02 1cbf 6239 18bd
000001c0: c839 763d 38f8 ba3f 34a0 c6be 9a08 61c0
000001d0: 17f3 7f3f df17 b7be cdcc a43f 959f 303f
000001e0: 72fe 86c0 e831 06bf 9b70 1bbf ae2d 4c3e
000001f0: d6a9 6abf 58c6 4ebf 4dbb 90be 745f 22bf
00000200: 2849 dfbf cea5 903f d34f 803e b1de b83e
00000210: 35ab 28bd 42b2 f2c0 c380 193f 4df8 15bf
00000220: 9c6a 453f 1021 4e3f c329 bbbe 0adc e63f
00000230: 28f0 c6be 789d e83c 8b1a c4bf a3e9 e0bf
00000240: 46d3 49c0 4ad3 1c3f f530 dcbe bd51 abbc
00000250: 2b12 073f 8924 c23e c4c1 943c ebac 563d
00000260: 45f2 d5bd 8ddd 54bd 76c1 98be 52d1 903e
00000270: 7077 1abf 3882 743d a263 c73c d1e6 1c3f
00000280: a86f f9be eaa6 3ebd 2192 e1bd abec 773f
00000290: 2041 013e 764f debe a758 753e 8941 c0bf
000002a0: 2bdc 4a3f 2c0e 2f3f a88e 153e 7a50 403f
000002b0: e84d 293f c157 50bf 1075 dfbf c361 09bf
000002c0: 95d2 e33e 2f6a d7bd 2860 fb3d b75f 6e3e
000002d0: 8698 a13d 16a6 2bbf 7a6c 0bbd 728c 643e
000002e0: 4eb3 2cbf 6728 cebd 9224 b8be 45b7 5e3e
000002f0: e82e a1be aab3 ff3c b77f c1bf a969 873d
00000300: 4180 78bf f165 a23e ffe9 b63d 8465 5c3f
00000310: 4287 4f3d a0b6 97bc a296 b63e 0dfd a0c0
00000320: 63ec 29bc 4696 7c3e 5859 eb3e d7dc f1bd
00000330: 8178 a1bf 4d58 ee3b 9d4b 8d3f 3480 ef3f
00000340: 4069 703f fcfc 3f3f b1fb 96be 487b eebb
00000350: 5df9 883f da55 68be dbdf 093f ca4f ea3f
00000360: f5bd 66be bdaa cb3e 66f0 7c3d 91f1 c83e
00000370: 93ab 203f 8659 e03e 1f9f 10be e125 58be
00000380: c6dc 9d3f 76c0 153e 88a0 923e 63d3 6e3f
00000390: 2a1b 9e3e c8e0 72bd 9ab2 473f 8272 3bbe
000003a0: e14c 223d c6fd 7f3f e449 0cc0 4547 16bf
000003b0: be31 683f 6287 693f 1d84 0abd 1bbb 0640
000003c0: 15c9 efbe 382d 583f 1902 e0bd c80c a4be
000003d0: 8ad0 a33c 5abd a33e d273 cbbd 8f87 a3bc
000003e0: c00b 963d 5dc4 ab3f bf95 91bc 55c1 343f
000003f0: d847 d73e 03b4 853e 12d8 103f 8c2f dabd
-0.0369146 -0.570404 -0.312394 -0.325142 -0.529721 0.106933 -0.949529 -0.726793
0.0867091 -1.04352 -0.0495252 -0.00420914 -0.252818 0.00347501 -0.137433 1.0117
-0.219025 -0.461101 -2.54288 0.683757 0.465858 -2.46403 -0.330766 1.74657
1.64791 -0.30955 -0.897757 -1.23922 -0.0736199 0.856332 0.136356 0.728506
0.017525 0.0234948 2.27943 0.132372 0.595428 0.565203 -0.733967 1.32077
-0.309812 0.49574 -0.934439 0.443534 0.335148 -0.912736 0.157464 -0.0456065
-0.252561 0.166912 -0.0427558 -0.10071 -0.228792 0.229837 -0.354685 -0.226114
1.20118 1.08573 -0.0794658 -0.21895 -0.642003 -0.022018 0.249848 -1.54414
0.277486 0.0786044 -1.13626 -0.0962329 0.504502 0.836756 -0.21686 -0.415347
0.378992 0.806251 0.691722 -0.920582 -1.3585 0.344745 0.437902 -0.188285
0.10157 0.309069 -0.049066 0.217726 -0.229125 0.378441 -0.182667 0.185204
0.333192 -3.35444 0.905008 1.08854 0.292304 -0.736188 -0.524541 -0.436595
0.383894 -0.00668126 0.649174 -0.412831 -0.0107402 1.22796 -0.172422 -0.593705
-1.4172 0.269846 -0.644831 -0.670241 -0.262026 -0.608611 -0.609414 -0.0371641
0.0601137 1.4607 -0.387941 -3.51615 0.999803 -0.357604 1.2875 0.689935
-4.21856 -0.524199 -0.607187 0.199393 -0.916654 -0.807714 -0.282679 -0.634269
-1.74442 1.13006 0.250609 0.361074 -0.0411789 -7.58426 0.599621 -0.58582
0.771158 0.805192 -0.365553 1.80359 -0.388551 0.0283954 -1.53206 -1.75713
-3.15352 0.612599 -0.430061 -0.020913 0.527621 0.379185 0.0181588 0.052411
-0.104466 -0.0519691 -0.298351 0.282847 -0.603385 0.0596945 0.0243395 0.612897
-0.48718 -0.0465459 -0.110142 0.968455 0.126225 -0.4342 0.239596 -1.502
0.792422 0.68381 0.146052 0.751228 0.661345 -0.813839 -1.74576 -0.536648
0.444966 -0.105183 0.122742 0.232787 0.0789042 -0.670503 -0.034039 0.223192
-0.674611 -0.100663 -0.359654 0.217496 -0.314811 0.0312136 -1.51171 0.0661195
-0.970707 0.317184 0.0893135 0.860924 0.0506661 -0.0185197 0.356618 -5.03089
-0.0103713 0.246667 0.459666 -0.118097 -1.26149 0.00727371 1.10387 1.8711
0.939106 0.749954 -0.294889 -0.00727788 1.07011 -0.22689 0.538572 1.83056
-0.225334 0.397787 0.0617527 0.392468 0.627618 0.438183 -0.141232 -0.211082
1.2333 0.146242 0.286381 0.932913 0.308801 -0.0592964 0.780069 -0.183054
0.0396241 0.999966 -2.19201 -0.587025 0.907009 0.912222 -0.0338174 2.10517
-0.468331 0.84444 -0.109379 -0.32041 0.0199969 0.319804 -0.099342 -0.0199621
0.0732646 1.34193 -0.0177716 0.706075 0.42047 0.261139 0.565797 -0.106536

Operation_3_Add_B f4 [50]
00000000: ba60 d5bc 2b33 75bf ae77 893d 66ec 553d
00000010: dd23 4fbf f536 513d 68cf e5be 1900 92be
00000020: 90d7 473f e00a bd3d d864 d53e ee6b d3bc
00000030: bb0f a8be 3ffe 123f 9dd8 9bbe e89f 983e
00000040: a5a2 41be e292 9fbf 21b0 b2bf f20c 4cc0
00000050: eee9 8abe 5ccb 54be a4e4 59bf f25e 15bf
00000060: 9d85 1fc0 841d 85bd b5ff 253f 9f0a 93bd
00000070: 4207 01bf 1571 52bf be0e 01bd ef38 a93f
00000080: a0f0 a3bc 4a24 913f 3f1c 64be 1d71 c8be
00000090: ee77 343f 34bd ccbe 2aa9 f33f b74c a1bd
000000a0: 8f33 723d b56d 7cbf a41b 05bf 936f 0a3f
000000b0: d9ce bbbf 213b 8fbe 3142 c8be 896c 56bc
000000c0: 4cc6 c1be caa4 36bf
-0.0260471 -0.957812 0.0671228 0.0522274 -0.809141 0.0510778 -0.448848 -0.285157
0.780633 0.0923059 0.416785 -0.0258083 -0.328245 0.574192 -0.304387 0.298095
-0.189097 -1.24667 -1.396 -3.18829 -0.271316 -0.207807 -0.851145 -0.58348
-2.49253 -0.0649977 0.648433 -0.0717976 -0.504017 -0.822038 -0.0315082 1.32205
-0.0200122 1.13392 -0.222764 -0.391488 0.704955 -0.399881 1.9036 -0.0787596
0.0591312 -0.986049 -0.519953 0.540765 -1.46725 -0.279748 -0.39113 -0.0130874
-0.378466 -0.713452

Operation_4_MatMul_W f4 [50, 50]
00000000: cc87 d6bc f0e0 823b d0fb 55bd d091 c13c
00000010: a3f6 113d dff8 9a3c 1bac 49bc 970d e13c
00000020: 5079 eabc 2980 bdbc 782b a6bc 5fd6 9fbc
00000030: b7eb 4a3c 6580 15bd 476a 8c3b 70d8 acbc
00000040: 6c44 6bbd a930 b6bc aa3c 4bbc f926 37bd
00000050: f018 7d3b 1861 e5bb 4205 c7bc 9fcd aabc
00000060: edbc a83c d4ac bd3c 1381 aa3c 2959 733c
00000070: ad54 eb3c c4f2 42bc 5500 07bd 6993 9ebc
00000080: 2137 283d a475 4fbd 5f46 31bc 9c61 763a
00000090: fabf 193d d5e5 f9bc 4f39 4b3c 9776 053d
000000a0: c4fb 1bbd 3156 c0bc 98ce 183d def5 a33c
000000b0: eb18 baba d9f8 623d f267 13bd c0bf 773b
000000c0: 8a4f 8b3c 3c7f bf3c 46b3 0abf 2619 05c0
000000d0: 2a6f 773e 7b6b b83e a8ac 3ebf f00d cfba
000000e0: ed0b 803e 4dbe a1c0 0caf 44be a437 50bf
000000f0: 21b0 febf 124e d33f b533 a4be 6b48 bcbe
00000100: a6d1 683f 280f f73f e63f 48bf bec1 27be
00000110: aa2d d03c 5abb 5d3e 9fcc 733f 3541 143e
00000120: 2d94 243f cb4c b9be cafd c63f 836d 283f
00000130: 68d5 02bd e961 343f 3127 283f 077c 30c0
00000140: 111d 723f 6974 13bf 216e 73bd 44de 82be
00000150: 2045 d5be dd24 a23f cde4 e33e 8313 a1be
00000160: 8960 1cbf d6ad cebe c973 19bf 84d3 923f
00000170: 4018 d83f ca54 2fc0 5d8c 21bf 82ca 803f
00000180: e757 4e3c e085 3d3e eab2 46c0 8aab 82bf
00000190: c7b8 82be ce6d 0a3f 0ef3 193f fe2b f73f
000001a0: 9417 79be a3dd f2bc 70ff 8b3d 8107 b63e
000001b0: a647 1fbf ab26 88bf 1539 58bf ff42 973e
000001c0: bf81 153f 67b4 09bf 9e95 bcbe 9ed2 55c0
000001d0: 5f5c 8a3e 90be e13e a2de c23c 8f17 7e3f
000001e0: a9fb 28c0 d847 2fbf a0e2 08be 5de1 91bf
000001f0: db69 37bf edfa fb3c f73b f7bb e5ed 843f
00000200: 2a8c 113f a393 313f ea75 633f df34 adbe
00000210: f549 ee3d ec4f ba3e 7db2 6ebf b058 c33c
00000220: fc55 90be adfb df3e 9b9f 2c3c 6abf 85be
00000230: 4608 ebbf a081 7dbd 5111 6bbf 0421 d9be
00000240: 7bdd 72be 9fcd cabf b0c3 bd3c 2bdf 333e
00000250: 7bdc f7be bd8c 8ebf 6dfd dc3e b35e a0bf
00000260: cec9 663c f33e f63e 0a67 27be 3ce5 47bd
00000270: 89a4 bcbd 2a73 f3bb 71ac 5b3e eb0c c2bc
00000280: f46a 203e f79e c0bd 2c80 053f e915 aa3d
00000290: ace2 cdbd dd41 d4bf 4b34 823d 8725 8f3d
000002a0: 5df4 1a3d 0709 b1be 4a28 29bf 2ee4 0dbf
000002b0: 91d0 3e3f 28b5 6fbf b16b bbbe 67d4 4c3e
000002c0: 2c0a 60bd 0d18 843e fb3f bfbf b43c f73e
000002d0: 7993 0fbe 2289 febd 7bf0 1fbd 53b1 553f
000002e0: 5621 8f3d 12dc 483e 5514 5f3e 3ac9 f6bd
000002f0: beda c9be 0dfd 9fbf a983 fc3d 4f9f 73bd
00000300: 7901 763e 3143 23be d2c0 b43c 3125 9a3f
00000310: bb7d 96bc ae10 febe b8e6 0ebe 1b13 123f
00000320: 71ae f1be 47ac a2c0 9695 7ec0 ed2a 803f
00000330: 7fde 8cbe 81cb 48bd 90dc 5a3e 452f efbf
00000340: cbf8 f73e eca4 febe 4aed 653e 85b6 6c3e
00000350: 7095 e73d f3aa 4ebe 255d 033e 923e 0dbf
00000360: fc72 96bd b29e dabe a176 09bd fd4d 783e
00000370: 6a16 483f 5ddf 573f 2a6f 5f3f f0dc 0fc0
00000380: 3e79 343f f9a2 09bf a53a 33bd a69b d03f
00000390: aebb f5bf 9a94 36bf 41a2 443d 8708 8e3d
000003a0: e621 e33e 78b3 3e3f 29ae 0abe a9db 91be
000003b0: b6a0 c73e 9a79 023e 0c20 7c3e dcf4 8fbf
000003c0: ff85 94bc ebc4 fd3e 992b 93be 785f 5dbf
000003d0: b681 0bbe 25ae eb3e 325e ce3c 4c51 5e3e
000003e0: 8b71 e63f e562 403f 9129 6f3e 13b5 343f
000003f0: 556c 84be 4694 16bf 2d0a 7f3f c63a b03c
-0.0261878 0.0039941 -0.0522421 0.0236291 0.0356356 0.0189175 -0.0123091 0.0274723
-0.0286223 -0.0231324 -0.0202844 -0.0195114 0.0123853 -0.0364994 0.00428513 -0.0210993
-0.0574383 -0.02224 -0.0124046 -0.0447149 0.00386196 -0.0070001 -0.0242945 -0.02085
0.0205979 0.0231537 0.0208135 0.0148528 0.0287269 -0.0118987 -0.0329593 -0.0193574
0.0410682 -0.0506493 -0.01082 0.00093987 0.0375366 -0.0305051 0.0124038 0.0325838
-0.0380819 -0.0234786 0.0373064 0.0200147 -0.00141981 0.0554131 -0.0359878 0.00378035
0.0170057 0.0233761 -0.541798 -2.07966 0.241635 0.360195 -0.744822 -0.0015797
0.250091 -5.05448 -0.192074 -0.813349 -1.98975 1.65082 -0.320707 -0.36774
0.909449 1.93015 -0.782225 -0.163825 0.0254124 0.216535 0.952341 0.14478
0.642886 -0.361914 1.55462 0.657921 -0.0319418 0.704619 0.656848 -2.75757
0.945756 -0.575995 -0.0594312 -0.255602 -0.416543 1.26675 0.445105 -0.314602
-0.610848 -0.40367 -0.599423 1.14708 1.68824 -2.73955 -0.631048 1.00618
0.0125942 0.185081 -3.10467 -1.02086 -0.255316 0.540738 0.601365 1.93103
-0.243254 -0.0296467 0.0683583 0.355526 -0.622187 -1.06368 -0.844621 0.295433
0.584011 -0.537909 -0.368329 -3.34098 0.270236 0.440907 0.0237878 0.992547
-2.64036 -0.68469 -0.133677 -1.13969 -0.716459 0.0307593 -0.00754499 1.03851
0.568545 0.693659 0.888518 -0.338294 0.116352 0.363891 -0.932411 0.023846
-0.281906 0.437467 0.0105361 -0.261226 -1.83619 -0.0618912 -0.918233 -0.42408
-0.237173 -1.5844 0.0231646 0.175656 -0.484104 -1.11367 0.431621 -1.25289
0.0140862 0.480949 -0.163479 -0.0488026 -0.0921107 -0.0074295 0.214525 -0.0236878
0.156658 -0.0940532 0.521487 0.0830496 -0.10053 -1.65826 0.0635763 0.0698958
0.0378307 -0.345772 -0.660771 -0.554263 0.74537 -0.936358 -0.366056 0.200029
-0.0546972 0.257996 -1.49414 0.482885 -0.140211 -0.124285 -0.0390477 0.834737
0.0698878 0.196152 0.217851 -0.120501 -0.394247 -1.24991 0.123298 -0.0594781
0.24024 -0.159436 0.0220646 1.20426 -0.0183705 -0.496221 -0.139552 0.570604
-0.472034 -5.08353 -3.97788 1.00131 -0.275135 -0.0490222 0.213732 -1.86863
0.48432 -0.497352 0.224538 0.231165 0.113078 -0.201824 0.128285 -0.551736
-0.0734615 -0.426992 -0.0335604 0.242485 0.781592 0.843252 0.87279 -2.24786
0.704975 -0.537643 -0.0437571 1.62975 -1.91979 -0.713205 0.0480063 0.0693522
0.443618 0.744926 -0.13543 -0.284879 0.389898 0.127417 0.246216 -1.12466
-0.0181303 0.495643 -0.287442 -0.864738 -0.136237 0.460313 0.0251914 0.217107
1.80034 0.751509 0.233557 0.705888 -0.258639 -0.5882 0.996249 0.0215124

Operation_4_Add_B f4 [50]
00000000: 2bda 6c3f 6f62 f83e 78b3 4ebf 9b20 0ac0
00000010: 9087 8e3e cecc 27bc 5873 cc3f b29d 973f
00000020: c5ae 953e 713d 823e e414 6dbf 9e0c 8ebf
00000030: 52b8 aebf e622 c63f 7311 93bf e696 2cc0
00000040: 5af5 893e 198f 02bf 402d 2bbd dcba 77c0
00000050: 2160 68bd e1b8 943e 4414 333f 7367 26be
00000060: a1db dbbf 0f97 b0bf eb27 82bd 8ba6 9bbf
00000070: 66d8 4d3d adfc babe 4b93 f6bf 42cf 8ebf
00000080: 07d0 7fbe 4911 55c0 070c 46bf fe20 873d
00000090: 6d39 bbbf b0c7 9c3e 5f2f a33d 5d50 59c0
000000a0: 200d 2fbf 45f0 01c0 59fa 0cc0 afe9 793f
000000b0: 8ca3 da3e 774a bfbe 1107 1fbd 5457 4040
000000c0: e3a5 03bf ed2a 2cc0
0.925204 0.485126 -0.807426 -2.15824 0.278378 -0.0102417 1.59727 1.1845
0.292349 0.254375 -0.9261 -1.10976 -1.365 1.54794 -1.14897 -2.69671
0.26945 -0.509996 -0.0417912 -3.87078 -0.0567323 0.290473 0.699528 -0.162504
-1.71764 -1.37961 -0.0635527 -1.21602 0.0502552 -0.365209 -1.92637 -1.1157
-0.249817 -3.32918 -0.773621 0.0659809 -1.46269 0.306211 0.0796802 -3.39553
-0.683794 -2.03029 -2.20278 0.976222 0.427029 -0.373615 -0.0388251 3.00533
-0.51425 -2.69012

Operation_5_MatMul_W f4 [50, 50]
00000000: 05a5 24bf fed4 883f d828 ebbc e3a5 92c0
00000010: 47e6 953f ea24 8b3e 7415 413c ca37 a3bf
00000020: 55d4 893b 6364 a93d d9b5 dd3e 0adb 2fbe
00000030: 28ef 273f ad46 5b3d c3ff 2cbd 49db 483e
00000040: 8598 1bbe 4be9 e1be ce00 133f 46d2 be3e
00000050: e275 893f 07d0 5f3e 890c aac0 b2bd 22bf
00000060: 2a9f 8f3d d8d2 e33d b24b 843f f776 cb3e
00000070: 3ba9 cf3d 3a9c bfbd d333 fdbe c0cb ec3d
00000080: bea1 483f 9ad2 92be 7e00 963f 139a 34bf
00000090: cd21 793e 13c2 9bba 1e36 713e 94a0 5f3e
000000a0: f775 e0bd 1e6d 84bf 9580 e8be df6d 6e3e
000000b0: 4606 a93d 09a6 1a3e a1db 8b3e 8a73 943e
000000c0: 8aac f53c b14e ad3e 5931 94be 857c c8be
000000d0: ea63 19bd fd84 b33e 8e06 9c3f 6617 673d
000000e0: c26a 0fbc bf2c f5be b0ac c43e 03aa 893c
000000f0: 91d5 2d3e 609e a4bd 4499 b73d 5619 9cbd
00000100: 2e77 c13c 2deb 4ebe 7462 97be 9676 f23e
00000110: a724 f3be eb8e 55be da55 e83f 6896 ccbf
00000120: f38e 833e d6e5 08bf a2b2 0d3f 1895 44be
00000130: 2844 38c0 efc5 07be 46bb 95bd c72f a4be
00000140: b37b 123e aa43 eebd 2f4f 07be 13b8 89bf
00000150: 12e6 9cbd d201 493f cac5 003f 037a 513e
00000160: 55c2 833e 67d5 93bf cb4a 1fbf fc52 33c0
00000170: 3b19 bc3f 6f9e 5a3e fe14 e2bc b324 0ac0
00000180: 321e 41bf 56f4 a73e 0742 f2bd 5e4b e03e
00000190: 857d 1bbe 22e3 593f 9116 3dbd 4f20 acbc
000001a0: 2429 b13e 6684 d73d 0dc3 c7bc 8109 5cbe
000001b0: 59fc cebe ac53 75be e38d ec3d 06d4 3b3d
000001c0: ab5c 803e 20b6 44be ea6c 923c 7d64 be3d
000001d0: dffa 08bf f38e 9bbf 88be 2b3e af95 d0bc
000001e0: e3a7 e93e 9e78 6ebe 1e36 f13d d918 853c
000001f0: 6c5b b43e 952a 213e 9f03 b33e 492c 193e
00000200: 93f3 8f3d 9e9a d33e 3db8 833e a436 21be
00000210: a801 2b3f 37a2 00bd 9ca8 053e e50b fa3e
00000220: df89 913e a985 d23d 46de 08bd 7e8d b4be
00000230: 7f6a 2cbe 7147 ee3c caa6 c8bf 43e1 133e
00000240: 0abd 9e3d 9f6b b93d 931a c23e a615 d5bc
00000250: 2827 823e 9350 5f3d e9e0 8f3c 022c c23e
00000260: 45d5 cf3d b4b0 3fc0 e831 1a3e 87a5 22bb
00000270: aa43 d1bb cf4d 8b3d 957c 2cbf 9388 85bd
00000280: e2cb 383f 4041 f3bc 39b3 1dbe a8fc 1b3e
00000290: 6118 d1ba cc5d a33e 3d28 f8be d95a 83bf
000002a0: 4cdd b53e 460a 55be ccd4 703f 2d93 353f
000002b0: 8bff cb3e af42 863f 122f 973e cc9b e3bd
000002c0: c0cc 0bbf e737 c43e f486 2b3e 26fb e73d
000002d0: b67f 8abd f5e6 463d 2382 b13e 93ac 23be
000002e0: a390 54be 7b5d d03b 00c2 ac3c 9b07 abbd
000002f0: 560b 84be 0c90 04bf fdbb 46bf 1e87 e9be
00000300: 20f0 34bf 8560 35be f78d c4bd 651a b0ba
00000310: b936 f43d beb6 233d 6342 74bf 9dff 6d3d
00000320: 8e02 00bf ce26 363d 37e0 f33d e90e ae3f
00000330: ea3f 4bbf b0ff b23e 5479 16bd 1a6c 0a3e
00000340: bd81 b33d a99f a73d 3a2f 44bd 647a 9d3d
00000350: cd6d 273d c474 46bc 41aa 17bd 7bbb 9d3e
00000360: 5b98 253e 0b46 853e d6c6 a83e fb3b 0bbe
00000370: d1b1 53be a167 8fbf 0d1a 1a3f 6a16 583e
00000380: 6133 80bc d0da c8bc b22f 99be 0742 06bf
00000390: 1d9b c33d dafb f93c d124 01be 0eee 983d
000003a0: 2a39 c73e 08e9 89be 4cc0 543c 9ba9 50be
000003b0: 390d 613e 5533 dbbe be4a 0a3f 93c9 31bf
000003c0: 64ab b03c 1136 343f c4af 003f 81b3 143e
000003d0: 8385 63be 0c3a 99be 0b25 bb3e c8d3 923d
000003e0: 9f02 c8be 2fdc a13e 1437 333d 26ab 02bd
000003f0: 4e3a 1bbd 0980 3bbd bbce 2b3c 5b31 123d
-0.643143 1.069 -0.028706 -4.58275 1.17109 0.271766 0.0117849 -1.27514
0.00420622 0.082711 0.433028 -0.171734 0.655993 0.0535342 -0.0422361 0.196149
-0.151949 -0.441233 0.574231 0.372698 1.07391 0.218567 -5.31403 -0.635707
0.0701278 0.111242 1.03356 0.397392 0.101397 -0.0935597 -0.494536 0.115623
0.783718 -0.286763 1.17189 -0.705476 0.243293 -0.00118834 0.235558 0.218386
-0.1096 -1.03458 -0.454106 0.232841 0.0825315 0.151024 0.27316 0.289944
0.0299895 0.338491 -0.289439 -0.391575 -0.0374488 0.350624 1.21895 0.0564188
-0.00875348 -0.478857 0.38413 0.0168047 0.16976 -0.0803802 0.0896478 -0.0762202
0.0236164 -0.202069 -0.295673 0.473561 -0.474889 -0.208553 1.81512 -1.59834
0.25695 -0.534757 0.553507 -0.191975 -2.87916 -0.132591 -0.0731111 -0.320677
0.14305 -0.11634 -0.132138 -1.07593 -0.0766107 0.785184 0.503018 0.204567
0.257342 -1.15495 -0.622235 -2.80194 1.46952 0.213495 -0.0275979 -2.15849
-0.754367 0.328036 -0.11829 0.438075 -0.151846 0.851122 -0.0461641 -0.0210115
0.346017 0.105233 -0.024385 -0.21488 -0.404269 -0.239577 0.115505 0.0458565
0.250707 -0.192101 0.0178742 0.0929651 -0.535078 -1.2153 0.167719 -0.025462
0.456359 -0.232882 0.117779 0.0162472 0.35226 0.157389 0.349637 0.149583
0.0702888 0.413289 0.257265 -0.157435 0.667994 -0.0314047 0.130526 0.488372
0.284255 0.102794 -0.0334151 -0.352642 -0.168375 0.0290868 -1.56759 0.144414
0.077509 0.0905373 0.379109 -0.0260113 0.254205 0.0545202 0.0175633 0.379242
0.101481 -2.99516 0.150581 -0.00248179 -0.00638624 0.0680195 -0.673776 -0.0652019
0.721861 -0.0296942 -0.154004 0.152331 -0.00159527 0.319075 -0.484682 -1.02621
0.355204 -0.208047 0.940747 0.709277 0.398434 1.04891 0.295281 -0.111137
-0.546093 0.383239 0.167507 0.113272 -0.0676264 0.0485601 0.346696 -0.159838
-0.207583 0.0063588 0.0210886 -0.0835106 -0.257899 -0.517823 -0.776306 -0.456109
-0.706789 -0.177126 -0.0959739 -0.00134356 0.119245 0.0399692 -0.954138 0.0581051
-0.500039 0.0444706 0.11908 1.35983 -0.793944 0.349607 -0.0367368 0.135178
0.0876498 0.0818475 -0.0478966 0.0768936 0.0408762 -0.0121128 -0.0370276 0.308071
0.161714 0.2603 0.329642 -0.135971 -0.206733 -1.12035 0.60196 0.211023
-0.0156495 -0.0245184 -0.299192 -0.524445 0.0955107 0.0305156 -0.126117 0.0746728
0.389108 -0.269356 0.0129853 -0.203772 0.219777 -0.428126 0.540203 -0.694482
0.0215661 0.70395 0.502682 0.145216 -0.222189 -0.299271 0.365517 0.071693
-0.390645 0.316133 0.0437537 -0.0319015 -0.0378974 -0.0457764 0.0104863 0.0356916

Operation_5_Add_B f4 [50]
00000000: e109 793f 5c77 1fc0 eca4 4e3e 3563 85bf
00000010: 38db 803f d3a4 6cbf 2151 cdbc 9e7d ed3e
00000020: c93e 403f f679 5c3e 1cb1 e2bf 05c0 843f
00000030: b892 05c0 2d43 e43f 5422 64bc 0188 9b3e
00000040: d07b 1bbf d0f2 d03f d5ec 413f d34c 97be
00000050: 26e5 46bf 0fee ae3f 10ae 6c3f 9fcd 4cc0
00000060: 0150 ed3e e02b 66bf 0dfd 9f3f d107 833e
00000070: 6ef9 403f 384a a23f e78b ad3e 13b5 2c3f
00000080: aa7d b6bf 280f c3bf 8fa5 7f3e d95a fbbf
00000090: e8dc cd3d 944d c93f baa3 df3d dbfc 3f3e
000000a0: b329 8fbf a514 10bf fc8c 11c0 26fc fabf
000000b0: d196 cbbe 81cd e93e b878 283e 8aaf 763f
000000c0: 3f1a 96be ee5f 0dc0
0.972807 -2.49166 0.201801 -1.04209 1.00669 -0.92439 -0.0250631 0.463849
0.750958 0.215309 -1.77103 1.03711 -2.08708 1.7833 -0.0139242 0.303772
-0.607358 1.63241 0.75752 -0.295508 -0.776934 1.36664 0.924531 -3.20005
0.463501 -0.899107 1.24991 0.255919 0.753806 1.26789 0.338958 0.674638
-1.42571 -1.5239 0.249655 -1.96371 0.100519 1.57268 0.109199 0.187488
-1.11846 -0.562815 -2.27423 -1.96082 -0.397635 0.456646 0.164523 0.963616
-0.293169 -2.20898

Operation_6_MatMul_W f4 [50, 50]
00000000: f0dc 2b3e 793b 86bf 5f8c 72bd 615c a0bd
00000010: 026d 263d 67dc 0fbd 7407 31bc 067c 833d
00000020: ee16 37bd d7a0 33bb 8404 b63d d520 5cbe
00000030: 9966 3a3c e443 a5bd 545d f6bc 53ba aabd
00000040: 4301 77bf 707b 1abf ab3f 7abf 3dd5 21be
00000050: c719 19bd 26c8 683d e86b 14bc 137d 0ebe
00000060: 70d0 1ebe a393 55be 5e4a 4dbe 8ef0 acbc
00000070: d315 6cbd bda9 88bf 95ba 24be 0f9d f63e
00000080: 85e3 9ebd 27fa 103f 0d66 9dbc c142 bcbd
00000090: 41c2 2b3d e2b0 383f 59d7 8d3c 7094 88bf
000000a0: ddd3 10bd a7a7 89bd dcf6 ddbe 65af 92bc
000000b0: 8848 0dbe 2fa8 7bbf ef09 0c3c bc91 a9be
000000c0: d33d e13c 200a 763e fd02 80bd 78ee a1c0
000000d0: 13b7 0e3f 5aac 57bd 5eda 10be 8a63 b33d
000000e0: 44c4 4d3e f65d f13d aa2b 8fbf eafc 853d
000000f0: 8f89 643e 51c1 45bf 03ac 5a3d 57b5 a4be
00000100: 5aa1 683e 2272 95bd e5f2 d33f e90a 063e
00000110: d49d 273e ba4e 23bf d0e2 d63a 32e8 e43d
00000120: 44e9 413c 0289 a1bd 42d1 2cbe 8ba9 443e
00000130: f569 21bf 620e 27bd e99e 553e 23a1 91c0
00000140: 34a2 32c0 8599 b63f 62a4 723c 66bd 743f
00000150: b5c6 203e 3414 8fbe e4f3 b23e c9ad 65bf
00000160: 2b30 b4bf 3f08 8c3d 7ba0 ad3e 83c9 c8bd
00000170: 747b 393e d927 603e a819 4e3f fce0 3c3e
00000180: 224f 523e 895e c6be b7ed db3d b2d2 293d
00000190: e250 a43d 3aec 993c 33e4 b3bc c5c8 02be
000001a0: 71e8 5dbe 79ba e73b e370 e63d 07ea 543e
000001b0: 548e c13e 1f10 58be f046 cb3d e275 a13f
000001c0: c2ad 71bc 7b85 2dbf ec24 cc3d 2239 84bd
000001d0: 672c a63f f4a6 96bf 967b 213d 9946 b33d
000001e0: d9ce 373e 3960 f73d 6dee debc fe63 b13d
000001f0: 36ef 933c f9ed a03d 9544 26be 8b8f 2a3c
00000200: 8e01 293e 170e 0040 2bf6 433f e0be 1e3f
00000210: f27d f9be f9da af3f 26d2 0cbd 9f8c 963c
00000220: d464 663e 9351 513f c6c0 f23e 77b1 7a3d
00000230: f48d 43bd 05fc 0a3e 1ea3 9cbe d9bd 8b3d
00000240: a1f4 25be 80bb 3c3e c5e7 4e3e 5169 843c
00000250: 9ab3 d63e 03cc e4be 064e 0f3c 69ab 92bd
00000260: bb0e 55be 31d3 a6bf bb8e 92bd 3a51 79bb
00000270: 5969 973d 403a 50bd 596e b5bf 6189 07be
00000280: 73f4 8cbf 1ac0 db3e 724e aebb 8411 0fbf
00000290: b7ae fd3c e50b 7abd c6f7 61bf e4ce 36bd
000002a0: e52d 52bd d7f3 8a3d 19df 3cbc ec4e 07be
000002b0: 8c84 f63c 8e06 f03c 14b7 013a 2052 82bc
000002c0: 7d08 4ebf c245 d5ba b6a0 b7bd d908 38c0
000002d0: c87a 2ebf 965d 103e 631e 23bd 2498 1a3e
000002e0: 53d3 49bd 6ecb 19bb ba68 80be 57d1 dfbe
000002f0: 8c9e 83be 5df2 693d 1899 e0bd 2118 11bd
00000300: 77da 82be b6e1 8bbc fce0 5cbe 185b 483e
00000310: 4b1c debc de1a 5dbd eacb f2bd 3f5f 0cbc
00000320: 12e9 6dbc bf9d e43d 4bc8 133f fc9e 203c
00000330: c1fc 8a3d 38cc 043c fa33 723c 0b53 853d
00000340: fe0b 443e 361e 2cbe f870 19be 28f2 04be
00000350: 6b5b 9ebd 34bf 3abf 1e5b c53d b2d3 143d
00000360: a33b 18c1 842e 013e c815 cdbc 5742 07be
00000370: 1ea7 b0be 86ae 643d c54a d6bc 96fe 2f3d
00000380: 1863 8bbd 616f 223e 216c 62bd 4d2e 08bc
00000390: 7330 d33e 3108 d0bf 944d 0d3f 22a3 683d
000003a0: 934f 343d 9a08 9bbf d756 823d 8121 90bc
000003b0: 446c 80be 5a81 f1bf 93a9 12be b6ec 753d
000003c0: c479 083e 7759 3d3d 5fd8 b53c b342 d1bd
000003d0: bb25 5d3f 1c95 a33e 448a e1bd 41ba 783d
000003e0: 0f5e 3b3e 4d31 773e 5f2c caba 3579 8abe
000003f0: 9774 08bf 7b8f 093d 0b6a 0dbb be66 b9bc
0.167835 -1.04869 -0.0592159 -0.0783012 0.0406313 -0.0351223 -0.010805 0.0642014
-0.0446996 -0.00274091 0.0888758 -0.214969 0.011377 -0.0806959 -0.0300738 -0.0833632
-0.964863 -0.603446 -0.977534 -0.15804 -0.0373781 0.0568315 -0.00905893 -0.139149
-0.155092 -0.208571 -0.200479 -0.0211108 -0.057638 -1.06768 -0.160868 0.481667
-0.0775824 0.566317 -0.0192137 -0.0919242 0.0419333 0.721449 0.0173146 -1.06703
-0.0353583 -0.0672143 -0.433524 -0.0179059 -0.137972 -0.983035 0.00854729 -0.33119
0.0274953 0.240273 -0.0625057 -5.06036 0.557481 -0.0526546 -0.141458 0.0875922
0.200944 0.117855 -1.11852 0.0654238 0.223181 -0.772481 0.0533867 -0.321696
0.227178 -0.0729716 1.65585 0.130901 0.163688 -0.63792 0.00163945 0.111771
0.0118354 -0.0788746 -0.168767 0.192053 -0.630523 -0.0407852 0.208614 -4.55092
-2.79115 1.42656 0.0148097 0.956015 0.157008 -0.279451 0.349517 -0.897183
-1.40772 0.0683751 0.339115 -0.0980406 0.181135 0.218902 0.805079 0.184452
0.20538 -0.38744 0.107387 0.0414607 0.0802324 0.0187894 -0.0219594 -0.127719
-0.216707 0.00707179 0.11252 0.207924 0.378039 -0.210999 0.0992564 1.26141
-0.0147509 -0.677818 0.0996798 -0.0645621 1.29823 -1.17697 0.0394245 0.087537
0.1795 0.120789 -0.0272133 0.0866165 0.0180584 0.0785789 -0.162371 0.0104102
0.165045 2.00086 0.765475 0.6201 -0.487289 1.37387 -0.0343801 0.0183776
0.224994 0.817651 0.474127 0.0612044 -0.0477428 0.135727 -0.305932 0.0682332
-0.162066 0.184309 0.202056 0.0161635 0.419339 -0.446869 0.00874663 -0.071616
-0.208064 -1.30332 -0.0715613 -0.00380428 0.0739314 -0.0508368 -1.41743 -0.13236
-1.10121 0.4292 -0.00531941 -0.558861 0.0309671 -0.0610465 -0.882687 -0.0446309
-0.0513133 0.0678479 -0.0115278 -0.132137 0.0300925 0.0293 0.000494824 -0.0159083
-0.804817 -0.00162714 -0.089662 -2.87554 -0.681561 0.140982 -0.0398239 0.150971
-0.0492738 -0.00234672 -0.250799 -0.437144 -0.257069 0.0571159 -0.109667 -0.0354234
-0.255573 -0.0170754 -0.215702 0.19566 -0.0271131 -0.0539807 -0.118553 -0.00856763
-0.0145209 0.111629 0.577275 0.00980353 0.0678649 0.00810533 0.0147829 0.0650998
0.191452 -0.168084 -0.149845 -0.12983 -0.0773228 -0.72948 0.0963652 0.0363347
-9.51456 0.126154 -0.0250348 -0.132089 -0.345025 0.0558305 -0.0261587 0.0429674
-0.0680601 0.158628 -0.0552789 -0.00831182 0.412479 -1.62525 0.551965 0.0567962
0.0440212 -1.2112 0.0636422 -0.0175941 -0.250826 -1.88676 -0.143225 0.0600402
0.133277 0.0462279 0.0221979 -0.102178 0.863857 0.319497 -0.110127 0.0607245
0.182976 0.241399 -0.00154246 -0.270456 -0.533029 0.0335841 -0.00215781 -0.022632

Operation_6_Add_B f4 [50]
00000000: 28d1 12bd 8049 ca3e 8a74 4f3f 552e 1cbf
00000010: d4d7 9b3e 5a63 983e 5376 a2be f52c 183f
00000020: bd00 f3be 699e 2dbd 51d9 10be f46a 14bf
00000030: 1edd d83e e50a 0740 c629 943d f6c3 be3b
00000040: 82ca 0ec0 9819 16be bd8f e33d d639 7a3f
00000050: e608 093e 164b a1bd 0388 31bd d648 5c3c
00000060: cd5b d5bd 245a d73c c990 233f c7a1 a63e
00000070: 9c6c 4bbf 3277 1b40 1075 8fbf 7ec6 a9bf
00000080: b6f3 75bf a3e9 c83f b028 9b3d 8621 ba3e
00000090: 1843 81bf 1a53 2cbf 8e2f 103d 2b4e ddbe
000000a0: 569e 103f 32e6 ce3d f41a e7bf 124d 80be
000000b0: 70d2 643f e9b8 a2be 2217 fc3d 5cac 803e
000000c0: 36c9 a7be 7e52 e5bf
-0.035844 0.395092 0.810372 -0.610082 0.304381 0.297633 -0.317309 0.594436
-0.474615 -0.0423874 -0.141454 -0.579757 0.423562 2.11004 0.0723453 0.0058217
-2.23111 -0.146582 0.111114 0.977445 0.133823 -0.0787565 -0.0433426 0.0134451
-0.104179 0.0262881 0.638928 0.325453 -0.794626 2.42915 -1.12076 -1.32637
-0.96075 1.56963 0.0757612 0.363537 -1.00986 -0.673143 0.0352016 -0.432237
0.564916 0.101025 -1.80551 -0.250588 0.893836 -0.317817 0.123091 0.251315
-0.327707 -1.79158

linear_7_MatMul_W f4 [50, 5]
00000000: 76f2 af3a e4c5 dbbb 84e3 683c 9d22 13bc
00000010: 3689 663d 88bd af3b 86fc 1a3c 7e85 b13c
00000020: 2b3f fc3a 105d 4cbb d34c 97bd 41aa 15bc
00000030: c203 5a3a 5d78 f3bb b73a e73a 7bbf 113d
00000040: 85b4 263d a2c7 193d 63ef 253d 6321 df3c
00000050: 1597 be3c a29c a63b 612c 19bb d210 fe3b
00000060: 3e06 8e3b 42db 123a 3f16 473c 482c ce3c
00000070: 0577 563c a058 023d de2c 94bc e743 86bc
00000080: c05b a0bc 3d22 aabb ac7d 8339 907d b53c
00000090: 49e2 9bbb e8e3 b5bb 83c9 47bb 5a93 8d39
000000a0: e824 053d da8c 783c c3ed 753c dc49 c43c
000000b0: efa8 563c 6e22 693d 63c5 5a3d cb96 563d
000000c0: a388 963d 6756 203d a89d 2b3b a40f e5bb
000000d0: a0b3 1b3d 8827 01ba 0ec0 013d a150 8a3d
000000e0: 34cf db3c 3868 0f3d e105 363b ed9a 103d
000000f0: 4bf3 7d3c 6ec4 6e3c c1e4 863c 499a 033c
00000100: 5c71 54ba 6a45 80bc 053e d8bb 73e5 20bc
00000110: 6fbb d0ba 60fe 0cbc 374a 283d d8c0 113d
00000120: 3dc6 463d 1e8d 833c 2f97 3e3d eaf1 16bd
00000130: dac7 8abc ea8e c9bb 311b 2ebc ff7b 2ebb
00000140: d537 953c ab04 9fb8 0dbb f2b9 064e 1a3a
00000150: c0b7 e13a ac63 26bc d339 b5bc 7422 e23b
00000160: 3c37 08bd 3eb8 963c 4262 753b 49df bdbb
00000170: e4f4 b5bc 8182 453b 96dc 153c 8d14 80bc
00000180: 9bf8 b43a 2809 aa3b 1190 abba 5238 113d
00000190: 1036 213d 9953 f83c 7b78 e03c eba7 03bb
000001a0: 77c0 103d 52ff aabc f2ce 003c df75 913b
000001b0: a7ca b93b 3ae2 013a f459 b93c e782 443c
000001c0: 1bef 133d f5f6 e7bc aa25 823c 4588 863c
000001d0: 7e22 2abc 974e 103d db11 73bc b08d 78bc
000001e0: 6363 b93c 23d9 e33c 411c 1a3c 3430 4d3d
000001f0: 67ab 3b3b c429 2dbb 3816 4f3d 7d8a 8cbb
00000200: e27e 763d 1f99 123b 8a90 9d3b 91b6 d4bb
00000210: 1c8b b7bc 3a1b d93a 688a 4a3c 56a8 e23b
00000220: ee04 bb3c 7b87 5b3c 4921 da3c 8c87 523c
00000230: b13c a3bc 417a 2fbd bf82 7c39 5093 74bd
00000240: 958e 243a 81ec 75bc d01e b7bb ff06 803a
00000250: d40f 8bbb 1d02 893a 4a73 90bc d7c5 01b9
00000260: 39a1 8cba 046e 793a a82b a73a 4622 593c
00000270: b8be ddba 3a87 1dbc e4f4 963b cccf cd3c
00000280: bcaa 183d a3c7 d43c 1780 263d 4dc5 a13d
00000290: debe d83c 6d90 49bc 5e93 62bb 62fd fab9
000002a0: 7c84 33bb 3c8f c43a ddb1 38be 3ddb fe3b
000002b0: 9272 9c3c f5a9 9d3b 560e 903a 7429 893c
000002c0: 0036 e03c 08a4 0e3d fbc1 8a3c 826b d33c
000002d0: 0f6d 15bc e5a8 12bb f399 c7bc abf3 623b
000002e0: 1a6d 55bd f7e7 e23c 3419 a73a cf06 2ab9
000002f0: cc6c 08bb c19c eaba ef44 bf3c c11f 7e3c
00000300: 49d1 ef3c a16b 1d3c 02fc 0b3c f5e0 c9bc
00000310: 5b1f dabb ecbd f8bc 6a94 81bb 1a36 8a3c
00000320: a1f3 ba3d 1430 ec3a 844e 04bb 4f6b 433a
00000330: 6aba 77ba 8e1a 383c a238 113d 119c 86bb
00000340: c276 063d fecd 30bc f4cd 6cbc da97 87bc
00000350: b260 87bc 5072 87bc bac8 73bc a1d9 b3bb
00000360: 5082 e9bb a4f7 32bc 99e5 fcbb 96bb 053b
00000370: c432 4c3d 9fd2 b93b 2cbe 35ba eb8f 4d3b
00000380: bd4e 0539 2a63 f23c 9d93 083d 1025 9a3c
00000390: d077 1c3d 2e1c 883c 2aae c53c 602f 5e3c
000003a0: cbec 5a3b 6719 983c 2630 82bc efde 763c
000003b0: 55ba 7d3b 0e77 81bb b6bf 8e3b afa2 d43a
000003c0: dc89 8abb 4f68 233b ba47 5bbc 7b1d 073d
000003d0: c577 bdbc c08c b33c 99f4 773c e26e f73b
000003e0: ce50 5c3c 677d 0a3d
0.00134237 -0.00670694 0.0142144 -0.00898042 0.0562832 0.00536317 0.00945962 0.0216701
0.00192449 -0.00311834 -0.073877 -0.00913483 0.00083166 -0.00743012 0.00176414 0.035583
0.0406995 0.0375439 0.0405115 0.0272376 0.0232654 0.00508459 -0.00233724 0.00775347
0.00433424 0.000560213 0.0121513 0.0251676 0.0130899 0.0318228 -0.0180878 -0.0163898
-0.019575 -0.00519207 0.000250799 0.0221546 -0.0047572 -0.00555085 -0.00304851 0.000270034
0.0325059 0.0151703 0.0150103 0.023961 0.0131018 0.0569176 0.0534109 0.0523899
0.0735028 0.0391449 0.00261865 -0.00699039 0.0380131 -0.000492685 0.0316773 0.0675366
0.0268322 0.0350115 0.00277745 0.035304 0.0154999 0.0145732 0.0164665 0.00803239
-0.000810405 -0.0156581 -0.00659919 -0.00982033 -0.0015925 -0.00860557 0.0410864 0.0355843
0.0485289 0.0160585 0.0465309 -0.0368518 -0.016941 -0.00615107 -0.0106266 -0.00266242
0.0182151 -7.58258e-05 -0.000462972 0.000588626 0.00172209 -0.0101556 -0.0221223 0.00690108
-0.0332558 0.0183984 0.00374426 -0.00579444 -0.0222115 0.00301376 0.00914683 -0.0156348
0.0013807 0.00518908 -0.00130892 0.0354541 0.0393582 0.0303133 0.0274012 -0.00200891
0.0353398 -0.0208737 0.00786184 0.0044391 0.00566991 0.000495467 0.0226259 0.0119941
0.0361167 -0.028316 0.0158871 0.0164224 -0.0103842 0.0352312 -0.0148358 -0.0151705
0.0226304 0.0278135 0.00940615 0.0500948 0.00286361 -0.00264226 0.0505583 -0.00428897
0.0601796 0.00223691 0.00480849 -0.00649149 -0.0224052 0.00165639 0.0123621 0.00691704
0.0228295 0.013399 0.0266272 0.0128497 -0.0199264 -0.0428412 0.000240813 -0.0597108
0.000627735 -0.01501 -0.00558839 0.000976771 -0.00424383 0.00104529 -0.0176331 -0.000123761
-0.00107292 0.000951499 0.00127541 0.0132528 -0.00169178 -0.00961476 0.00460683 0.0251235
0.0372722 0.0259741 0.0406495 0.0789896 0.0264582 -0.0123025 -0.00345727 -0.000478725
-0.00273922 0.00149963 -0.180366 0.0077776 0.0190976 0.00481152 0.00109906 0.0167434
0.0273695 0.0348244 0.0169382 0.0258081 -0.00912024 -0.00223785 -0.0243654 0.00346301
-0.052106 0.0276985 0.00127486 -0.00016215 -0.00208168 -0.00178995 0.0233483 0.0155105
0.0292746 0.00960818 0.00854397 -0.0246434 -0.00665657 -0.030364 -0.00395446 0.0168715
0.091285 0.00180197 -0.00201884 0.000745465 -0.000945008 0.0112368 0.0354544 -0.00410796
0.0328281 -0.0107913 -0.0144534 -0.0165519 -0.0165256 -0.016534 -0.0148794 -0.00548859
-0.00712613 -0.0109233 -0.0077178 0.0020406 0.0498531 0.00567086 -0.000693294 0.00313663
0.000127132 0.0295883 0.0333439 0.0188165 0.0382002 0.016615 0.0241309 0.0135611
0.00334053 0.0185668 -0.0158921 0.0150678 0.00387158 -0.00395096 0.00435635 0.00162228
-0.00422786 0.0024934 -0.0133838 0.0329871 -0.0231284 0.0219177 0.015134 0.00755106
0.013447 0.033811

linear_7_Add_B f4 [5]
00000000: 84a1 a9bc d933 953c bfee 99bc 8d9b 9a3c
00000010: d1dc 94bc
-0.0207069 0.0182132 -0.0187906 0.018873 -0.0181717
